exec ${PAGER:-/usr/bin/less} "$0" || exit 1
Executing tests from //mlir/disc/tests/tensorflow_ops:max.cpp.test
-----------------------------------------------------------------------------
[==========] Running 1 test from 1 test suite.
[----------] Global test environment set-up.
[----------] 1 test from TFMaxOpTest
[ RUN      ] TFMaxOpTest.ColReduceFullyDynamicShape3DF32_1
2023-07-03 08:37:02.195512: I ./mlir/disc/tests/mlir_feature_test.h:29] Apply env setting:
2023-07-03 08:37:02.195524: I ./mlir/disc/tests/mlir_feature_test.h:31] 	DISC_MEM_INTENSIVE_OPT_EXPERIMENTAL = true
2023-07-03 08:37:02.195527: I ./mlir/disc/tests/mlir_feature_test.h:31] 	DISC_ENABLE_STITCH = true
2023-07-03 08:37:02.195530: I mlir/disc/tests/mlir_feature_test.cc:271] Testing for CUDA backend
2023-07-03 08:37:02.195596: I mlir/disc/tests/mlir_feature_test.cc:145] Original TF code: func.func @main(%arg0: tensor<?x?x?xf32>) -> tensor<?x?xf32> attributes {tf.entry_function = {inputs = "{{INPUTS}}", outputs = "{{OUTPUTS}}", input_placements="{{INPUT_PLACEMENTS}}", output_placements="{{OUTPUT_PLACEMENTS}}"}} {
  %graph = tf_executor.graph {
    %1:2 = tf_executor.island wraps "tf.Const"() {value = dense<[0]> : tensor<1xi32>} : () -> tensor<1xi32>
    %2:2 = tf_executor.island wraps "tf.Abs"(%arg0) : (tensor<?x?x?xf32>) -> tensor<?x?x?xf32>
    %3:2 = tf_executor.island wraps "tf.Max"(%2, %1) : (tensor<?x?x?xf32>, tensor<1xi32>) -> tensor<?x?xf32>
    tf_executor.fetch %3 : tensor<?x?xf32>
  }
  return %graph : tensor<?x?xf32>
}
2023-07-03 08:37:02.195611: I mlir/disc/tests/mlir_feature_test.cc:149] New TF code: func.func @main(%arg0: tensor<?x?x?xf32>) -> tensor<?x?xf32> attributes {tf.entry_function = {inputs = "input0", outputs = "output0", input_placements="gpu", output_placements="gpu"}} {
  %graph = tf_executor.graph {
    %1:2 = tf_executor.island wraps "tf.Const"() {value = dense<[0]> : tensor<1xi32>} : () -> tensor<1xi32>
    %2:2 = tf_executor.island wraps "tf.Abs"(%arg0) : (tensor<?x?x?xf32>) -> tensor<?x?x?xf32>
    %3:2 = tf_executor.island wraps "tf.Max"(%2, %1) : (tensor<?x?x?xf32>, tensor<1xi32>) -> tensor<?x?xf32>
    tf_executor.fetch %3 : tensor<?x?xf32>
  }
  return %graph : tensor<?x?xf32>
}
2023-07-03 08:37:02.195718: I mlir/disc/tests/mlir_test.cc:233] tf_opt_pat: external/org_tensorflow/tensorflow/compiler/mlir/tf-opt
2023-07-03 08:37:02.195723: I mlir/disc/tests/mlir_test.cc:234] mlir_file_path: /root/.cache/bazel/_bazel_root/54ece412abe75fa85ab728a2c061e33c/execroot/org_disc_compiler/_tmp/b247c1654ecfc81b23b002417f617bea/tempfile-adf59ec6ac82-b79f4076-1052541-5ff91121403af
2023-07-03 08:37:02.195726: I mlir/disc/tests/mlir_test.cc:235] tmp_dir: /root/.cache/bazel/_bazel_root/54ece412abe75fa85ab728a2c061e33c/execroot/org_disc_compiler/_tmp/b247c1654ecfc81b23b002417f617bea
2023-07-03 08:37:02.195728: I mlir/disc/tests/mlir_test.cc:236] test_name: ColReduceFullyDynamicShape3DF32_1_0
2023-07-03 08:37:02.195734: I mlir/disc/tests/mlir_test.cc:284] tf_opt_path: external/org_tensorflow/tensorflow/compiler/mlir/tf-opt

2023-07-03 08:37:02.195740: I mlir/disc/tests/mlir_test.cc:257] program_path: external/org_tensorflow/tensorflow/compiler/mlir/tf-opt

2023-07-03 08:37:02.292527: I mlir/disc/tests/mlir_test.cc:269] Executed: external/org_tensorflow/tensorflow/compiler/mlir/tf-opt --tf-standard-pipeline /root/.cache/bazel/_bazel_root/54ece412abe75fa85ab728a2c061e33c/execroot/org_disc_compiler/_tmp/b247c1654ecfc81b23b002417f617bea/tempfile-adf59ec6ac82-b79f4076-1052541-5ff91121403af -o /root/.cache/bazel/_bazel_root/54ece412abe75fa85ab728a2c061e33c/execroot/org_disc_compiler/_tmp/b247c1654ecfc81b23b002417f617beaColReduceFullyDynamicShape3DF32_1_0_tf_dialect.mlir 
2023-07-03 08:37:02.292544: I mlir/disc/tests/mlir_test.cc:270] external/org_tensorflow/tensorflow/compiler/mlir/tf-opt: 0
2023-07-03 08:37:02.292547: I mlir/disc/tests/mlir_test.cc:271] -- stdout:

============ END ============

2023-07-03 08:37:02.292549: I mlir/disc/tests/mlir_test.cc:273] -- stderr:
2023-07-03 08:37:02.279494: I external/org_tensorflow/tensorflow/core/platform/cpu_feature_guard.cc:182] This TensorFlow binary is optimized to use available CPU instructions in performance-critical operations.
To enable the following instructions: SSE3 SSE4.1 SSE4.2 AVX AVX2 AVX512F AVX512_VNNI FMA, in other operations, rebuild TensorFlow with the appropriate compiler flags.

============ END ============

2023-07-03 08:37:02.292552: I mlir/disc/tests/mlir_test.cc:275] ret: 0

2023-07-03 08:37:02.292567: I mlir/disc/tests/mlir_test.cc:257] program_path: mlir/disc/disc_compiler_main

2023-07-03 08:37:04.233350: I mlir/disc/tests/mlir_test.cc:269] Executed: mlir/disc/disc_compiler_main --mlir-print-elementsattrs-with-hex-if-larger -1 --mlir-elide-elementsattrs-if-larger 8 /root/.cache/bazel/_bazel_root/54ece412abe75fa85ab728a2c061e33c/execroot/org_disc_compiler/_tmp/b247c1654ecfc81b23b002417f617beaColReduceFullyDynamicShape3DF32_1_0_tf_dialect.mlir /root/.cache/bazel/_bazel_root/54ece412abe75fa85ab728a2c061e33c/execroot/org_disc_compiler/_tmp/b247c1654ecfc81b23b002417f617beaColReduceFullyDynamicShape3DF32_1_0.so 
2023-07-03 08:37:04.233373: I mlir/disc/tests/mlir_test.cc:270] mlir/disc/disc_compiler_main: 0
2023-07-03 08:37:04.233375: I mlir/disc/tests/mlir_test.cc:271] -- stdout:

============ END ============

2023-07-03 08:37:04.234604: I mlir/disc/tests/mlir_test.cc:273] -- stderr:
======== BEGIN Original Module =========
module {
  func.func @main(%arg0: tensor<?x?x?xf32>) -> tensor<?x?xf32> attributes {tf.entry_function = {input_placements = "gpu", inputs = "input0", output_placements = "gpu", outputs = "output0"}} {
    %cst = "tf.Const"() {value = dense<0> : tensor<1xi32>} : () -> tensor<1xi32>
    %0 = "tf.Abs"(%arg0) : (tensor<?x?x?xf32>) -> tensor<?x?x?xf32>
    %1 = "tf.Max"(%0, %cst) : (tensor<?x?x?xf32>, tensor<1xi32>) -> tensor<?x?xf32>
    return %1 : tensor<?x?xf32>
  }
}

======= END Original Module ==========
[DISC] Load Input IR takes: 2.055000e-03 s.
[[ INFO ]] Running TF2XLA
2023-07-03 08:37:02.381636: I external/org_tensorflow/tensorflow/core/platform/cpu_feature_guard.cc:182] This TensorFlow binary is optimized to use available CPU instructions in performance-critical operations.
To enable the following instructions: SSE3 SSE4.1 SSE4.2 AVX AVX2 AVX512F AVX512_VNNI FMA, in other operations, rebuild TensorFlow with the appropriate compiler flags.
// -----// IR Dump After SCCP (sccp) //----- //
module {
  func.func @main(%arg0: tensor<?x?x?xf32>) -> tensor<?x?xf32> attributes {tf.entry_function = {input_placements = "gpu", inputs = "input0", output_placements = "gpu", outputs = "output0"}} {
    %cst = "tf.Const"() {value = dense<0> : tensor<1xi32>} : () -> tensor<1xi32>
    %0 = "tf.Abs"(%arg0) : (tensor<?x?x?xf32>) -> tensor<?x?x?xf32>
    %1 = "tf.Max"(%0, %cst) : (tensor<?x?x?xf32>, tensor<1xi32>) -> tensor<?x?xf32>
    return %1 : tensor<?x?xf32>
  }
}


// -----// IR Dump After SCCP (sccp) //----- //
module {
  func.func @main(%arg0: tensor<?x?x?xf32>) -> tensor<?x?xf32> attributes {tf.entry_function = {input_placements = "gpu", inputs = "input0", output_placements = "gpu", outputs = "output0"}} {
    %cst = "tf.Const"() {value = dense<0> : tensor<1xi32>} : () -> tensor<1xi32>
    %0 = "tf.Abs"(%arg0) : (tensor<?x?x?xf32>) -> tensor<?x?x?xf32>
    %1 = "tf.Max"(%0, %cst) : (tensor<?x?x?xf32>, tensor<1xi32>) -> tensor<?x?xf32>
    return %1 : tensor<?x?xf32>
  }
}


// -----// IR Dump After LegalizeTF (xla-legalize-tf) //----- //
func.func @main(%arg0: tensor<?x?x?xf32>) -> tensor<?x?xf32> attributes {tf.entry_function = {input_placements = "gpu", inputs = "input0", output_placements = "gpu", outputs = "output0"}} {
  %0 = mhlo.constant dense<0> : tensor<1xi32>
  %1 = mhlo.abs %arg0 : tensor<?x?x?xf32>
  %2 = mhlo.convert %1 : tensor<?x?x?xf32>
  %3 = mhlo.constant dense<0xFF800000> : tensor<f32>
  %4 = mhlo.reduce(%2 init: %3) applies mhlo.maximum across dimensions = [0] : (tensor<?x?x?xf32>, tensor<f32>) -> tensor<?x?xf32>
  %5 = mhlo.convert %4 : tensor<?x?xf32>
  return %5 : tensor<?x?xf32>
}

// -----// IR Dump After DiscLowerTfPass (disc-lower-tf) //----- //
func.func @main(%arg0: tensor<?x?x?xf32>) -> tensor<?x?xf32> attributes {tf.entry_function = {input_placements = "gpu", inputs = "input0", output_placements = "gpu", outputs = "output0"}} {
  %0 = mhlo.constant dense<0xFF800000> : tensor<f32>
  %1 = mhlo.abs %arg0 : tensor<?x?x?xf32>
  %2 = mhlo.reduce(%1 init: %0) applies mhlo.maximum across dimensions = [0] : (tensor<?x?x?xf32>, tensor<f32>) -> tensor<?x?xf32>
  return %2 : tensor<?x?xf32>
}

===-------------------------------------------------------------------------===
                         ... Execution time report ...
===-------------------------------------------------------------------------===
  Total Execution Time: 0.0097 seconds

  ----Wall Time----  ----Name----
    0.0000 (  0.4%)  ReviseArgumentsForStaticRankPass
    0.0000 (  0.1%)  FunctionalControlFlowToRegionsPass
    0.0054 ( 55.3%)  Inliner
    0.0000 (  0.2%)    (A) CallGraph
    0.0052 ( 53.0%)  'func.func' Pipeline
    0.0051 ( 53.0%)    Canonicalizer
    0.0001 (  1.2%)  'func.func' Pipeline
    0.0000 (  0.1%)    DropWhileShapeInvariantPass
    0.0000 (  0.1%)    ReplicateTensorListInitOpsPass
    0.0001 (  1.0%)    Canonicalizer
    0.0003 (  3.1%)  SCCP
    0.0000 (  0.2%)  GuaranteeAllFuncsOneUsePass
    0.0000 (  0.0%)    (A) CallGraph
    0.0000 (  0.1%)  TensorFlowShapeInferencePass
    0.0003 (  3.1%)  SCCP
    0.0000 (  0.2%)  TensorListOpsDecompositionPass
    0.0000 (  0.1%)  StackOpsDecompositionPass
    0.0000 (  0.1%)  TensorArrayOpsDecompositionPass
    0.0001 (  0.6%)  'func.func' Pipeline
    0.0001 (  0.6%)    DecomposeResourceOpsPass
    0.0000 (  0.2%)  PromoteResourcesToArgsPass
    0.0000 (  0.1%)  SymbolDCE
    0.0000 (  0.1%)  'func.func' Pipeline
    0.0000 (  0.1%)    SinkConstantsToControlFlowPass
    0.0000 (  0.1%)  TensorFlowShapeInferencePass
    0.0002 (  2.6%)  StablehloLegalizeToHloPass
    0.0000 (  0.5%)  'func.func' Pipeline
    0.0000 (  0.3%)    DiscLowerTfPass
    0.0000 (  0.2%)    LowerQuantizedPass
    0.0000 (  0.1%)  LegalizeTfTypesPass
    0.0010 ( 10.2%)  'func.func' Pipeline
    0.0008 (  8.1%)    LegalizeTF
    0.0002 (  2.0%)    DiscLowerTfPass
    0.0000 (  0.1%)    mlir::mhlo::{anonymous}::AdjustLayout
    0.0000 (  0.2%)  LegalizeTFCollective
    0.0001 (  0.8%)  'func.func' Pipeline
    0.0001 (  0.8%)    Canonicalizer
    0.0000 (  0.1%)  TensorFlowShapeInferencePass
    0.0003 (  3.5%)  'func.func' Pipeline
    0.0003 (  3.4%)    LegalizeTF
    0.0000 (  0.1%)  LegalizeTFCommunicationPass
    0.0000 (  0.4%)  'func.func' Pipeline
    0.0000 (  0.3%)    DiscDynamicSliceConverterPass
    0.0000 (  0.1%)    SinkConstantsToControlFlowPass
   -0.0036 (-36.8%)  Rest
    0.0097 (100.0%)  Total
======== BEGIN After TF2HLO =========
module {
  func.func @main(%arg0: tensor<?x?x?xf32>) -> tensor<?x?xf32> attributes {tf.entry_function = {input_placements = "gpu", inputs = "input0", output_placements = "gpu", outputs = "output0"}} {
    %0 = mhlo.constant dense<0xFF800000> : tensor<f32>
    %1 = mhlo.abs %arg0 : tensor<?x?x?xf32>
    %2 = mhlo.reduce(%1 init: %0) applies mhlo.maximum across dimensions = [0] : (tensor<?x?x?xf32>, tensor<f32>) -> tensor<?x?xf32>
    return %2 : tensor<?x?xf32>
  }
}

======= END After TF2HLO ==========
[DISC] tf2hlo takes: 1.006200e-02 s.
SymbolicDimMgr::save walkRankedTensorValue takes: 4 us
SymbolicDimMgr::save update attributes takes: 1 us
SymbolicDimMgr::updateProductEqualityMap simplifySymbolicDimProductPair takes: 0 us
productSet.size() = 0
SymbolicDimMgr::updateProductEqualityMap propagate graph takes: 1 us
SymbolicDimMgr::updateProductEqualityMap remove multiply takes: 0 us
SymbolicDimMgr::updateProductEqualityMap build toRemove  takes: 0 us
SymbolicDimMgr::updateProductEqualityMap apply toRemove  takes: 0 us
SymbolicDimMgr::save updateProductEqualityMap takes: 14 us
SymbolicDimMgr::save updateFunctionType takes: 1 us
SymbolicDimMgr::save collect symbolicDim ops takes: 4 us
SymbolicDimMgr::save remove symbolicDim ops takes: 1 us
SymbolicDimMgr::save remove unused production takes: 0 us
SymbolicDimMgr::save remove unused production #2 takes: 0 us
SymbolicDimMgr::save canonicalize the name takes: 4 us
SymbolicDimMgr::save replace the name takes: 3 us
SymbolicDimMgr::save updateFunctionType takes: 0 us
// -----// IR Dump After DiscShapeOptimizationPass (disc-shape-optimization) //----- //
module {
  func.func @main(%arg0: tensor<?x?x?xf32, [@S0, @S1, @S2]>) -> tensor<?x?xf32, [@S1, @S2]> attributes {tf.entry_function = {input_placements = "gpu", inputs = "input0", output_placements = "gpu", outputs = "output0"}} {
    %0 = mhlo.constant dense<0xFF800000> : tensor<f32>
    %1 = mhlo.abs %arg0 : tensor<?x?x?xf32, [@S0, @S1, @S2]>
    %2 = mhlo.reduce(%1 init: %0) applies mhlo.maximum across dimensions = [0] : (tensor<?x?x?xf32, [@S0, @S1, @S2]>, tensor<f32>) -> tensor<?x?xf32, [@S1, @S2]>
    return %2 : tensor<?x?xf32, [@S1, @S2]>
  }
  "disc_shape.SymbolicDim"() {knownNegativeOne = false, knownNonNegative = true, knownNonSizeOne = false, knownNonSizeZero = false, sym_name = "S0", value = -9223372036854775808 : i64} : () -> ()
  "disc_shape.SymbolicDim"() {knownNegativeOne = false, knownNonNegative = true, knownNonSizeOne = false, knownNonSizeZero = false, sym_name = "S1", value = -9223372036854775808 : i64} : () -> ()
  "disc_shape.SymbolicDim"() {knownNegativeOne = false, knownNonNegative = true, knownNonSizeOne = false, knownNonSizeZero = false, sym_name = "S2", value = -9223372036854775808 : i64} : () -> ()
  func.func @shape_constraint_graph() {
    return
  }
}


SymbolicDimMgr::save walkRankedTensorValue takes: 3 us
SymbolicDimMgr::save update attributes takes: 0 us
SymbolicDimMgr::updateProductEqualityMap simplifySymbolicDimProductPair takes: 0 us
productSet.size() = 0
SymbolicDimMgr::updateProductEqualityMap propagate graph takes: 4 us
SymbolicDimMgr::updateProductEqualityMap remove multiply takes: 0 us
SymbolicDimMgr::updateProductEqualityMap build toRemove  takes: 0 us
SymbolicDimMgr::updateProductEqualityMap apply toRemove  takes: 0 us
SymbolicDimMgr::save updateProductEqualityMap takes: 16 us
SymbolicDimMgr::save updateFunctionType takes: 1 us
SymbolicDimMgr::save collect symbolicDim ops takes: 3 us
SymbolicDimMgr::save remove symbolicDim ops takes: 0 us
SymbolicDimMgr::save remove unused production takes: 0 us
SymbolicDimMgr::save remove unused production #2 takes: 0 us
SymbolicDimMgr::save canonicalize the name takes: 2 us
SymbolicDimMgr::save replace the name takes: 3 us
SymbolicDimMgr::save updateFunctionType takes: 0 us
// -----// IR Dump After DiscShapeOptimizationPass (disc-shape-optimization) //----- //
module {
  func.func @main(%arg0: tensor<?x?x?xf32, [@S0, @S1, @S2]>) -> tensor<?x?xf32, [@S1, @S2]> attributes {tf.entry_function = {input_placements = "gpu", inputs = "input0", output_placements = "gpu", outputs = "output0"}} {
    %0 = mhlo.constant dense<0xFF800000> : tensor<f32>
    %1 = mhlo.abs %arg0 : tensor<?x?x?xf32, [@S0, @S1, @S2]>
    %2 = mhlo.reduce(%1 init: %0) applies mhlo.maximum across dimensions = [0] : (tensor<?x?x?xf32, [@S0, @S1, @S2]>, tensor<f32>) -> tensor<?x?xf32, [@S1, @S2]>
    return %2 : tensor<?x?xf32, [@S1, @S2]>
  }
  "disc_shape.SymbolicDim"() {knownNegativeOne = false, knownNonNegative = true, knownNonSizeOne = false, knownNonSizeZero = false, sym_name = "S0", value = -9223372036854775808 : i64} : () -> ()
  "disc_shape.SymbolicDim"() {knownNegativeOne = false, knownNonNegative = true, knownNonSizeOne = false, knownNonSizeZero = false, sym_name = "S1", value = -9223372036854775808 : i64} : () -> ()
  "disc_shape.SymbolicDim"() {knownNegativeOne = false, knownNonNegative = true, knownNonSizeOne = false, knownNonSizeZero = false, sym_name = "S2", value = -9223372036854775808 : i64} : () -> ()
  func.func @shape_constraint_graph() {
    return
  }
}


SymbolicDimMgr::save walkRankedTensorValue takes: 3 us
SymbolicDimMgr::save update attributes takes: 1 us
SymbolicDimMgr::updateProductEqualityMap simplifySymbolicDimProductPair takes: 0 us
productSet.size() = 0
SymbolicDimMgr::updateProductEqualityMap propagate graph takes: 2 us
SymbolicDimMgr::updateProductEqualityMap remove multiply takes: 0 us
SymbolicDimMgr::updateProductEqualityMap build toRemove  takes: 0 us
SymbolicDimMgr::updateProductEqualityMap apply toRemove  takes: 0 us
SymbolicDimMgr::save updateProductEqualityMap takes: 19 us
SymbolicDimMgr::save updateFunctionType takes: 1 us
SymbolicDimMgr::save collect symbolicDim ops takes: 3 us
SymbolicDimMgr::save remove symbolicDim ops takes: 0 us
SymbolicDimMgr::save remove unused production takes: 0 us
SymbolicDimMgr::save remove unused production #2 takes: 0 us
SymbolicDimMgr::save canonicalize the name takes: 3 us
SymbolicDimMgr::save replace the name takes: 3 us
SymbolicDimMgr::save updateFunctionType takes: 0 us
// -----// IR Dump After DiscShapeOptimizationPass (disc-shape-optimization) //----- //
module {
  func.func @main(%arg0: tensor<?x?x?xf32, [@S0, @S1, @S2]>) -> tensor<?x?xf32, [@S1, @S2]> attributes {tf.entry_function = {input_placements = "gpu", inputs = "input0", output_placements = "gpu", outputs = "output0"}} {
    %0 = mhlo.constant dense<0xFF800000> : tensor<f32>
    %1 = mhlo.abs %arg0 : tensor<?x?x?xf32, [@S0, @S1, @S2]>
    %2 = mhlo.reduce(%1 init: %0) applies mhlo.maximum across dimensions = [0] : (tensor<?x?x?xf32, [@S0, @S1, @S2]>, tensor<f32>) -> tensor<?x?xf32, [@S1, @S2]>
    return %2 : tensor<?x?xf32, [@S1, @S2]>
  }
  "disc_shape.SymbolicDim"() {knownNegativeOne = false, knownNonNegative = true, knownNonSizeOne = false, knownNonSizeZero = false, sym_name = "S0", value = -9223372036854775808 : i64} : () -> ()
  "disc_shape.SymbolicDim"() {knownNegativeOne = false, knownNonNegative = true, knownNonSizeOne = false, knownNonSizeZero = false, sym_name = "S1", value = -9223372036854775808 : i64} : () -> ()
  "disc_shape.SymbolicDim"() {knownNegativeOne = false, knownNonNegative = true, knownNonSizeOne = false, knownNonSizeZero = false, sym_name = "S2", value = -9223372036854775808 : i64} : () -> ()
  func.func @shape_constraint_graph() {
    return
  }
}


// -----// IR Dump After HloCanonicalizeReductionPass (hlo-canonicalize-reduction) //----- //
func.func @main(%arg0: tensor<?x?x?xf32, [@S0, @S1, @S2]>) -> tensor<?x?xf32, [@S1, @S2]> attributes {tf.entry_function = {input_placements = "gpu", inputs = "input0", output_placements = "gpu", outputs = "output0"}} {
  %0 = mhlo.constant dense<0xFF800000> : tensor<f32>
  %1 = mhlo.abs %arg0 : tensor<?x?x?xf32, [@S0, @S1, @S2]>
  %c1_i32 = arith.constant 1 : i32
  %c0 = arith.constant 0 : index
  %dim = tensor.dim %1, %c0 : tensor<?x?x?xf32, [@S0, @S1, @S2]>
  %2 = arith.index_cast %dim : index to i32
  %3 = arith.muli %c1_i32, %2 : i32
  %c1 = arith.constant 1 : index
  %dim_0 = tensor.dim %1, %c1 : tensor<?x?x?xf32, [@S0, @S1, @S2]>
  %4 = arith.index_cast %dim_0 : index to i32
  %5 = arith.muli %c1_i32, %4 : i32
  %c2 = arith.constant 2 : index
  %dim_1 = tensor.dim %1, %c2 : tensor<?x?x?xf32, [@S0, @S1, @S2]>
  %6 = arith.index_cast %dim_1 : index to i32
  %7 = arith.muli %5, %6 : i32
  %from_elements = tensor.from_elements %3, %7 : tensor<2xi32>
  %8 = mhlo.dynamic_reshape %1, %from_elements : (tensor<?x?x?xf32, [@S0, @S1, @S2]>, tensor<2xi32>) -> tensor<?x?xf32>
  %9 = mhlo.reduce(%8 init: %0) applies mhlo.maximum across dimensions = [0] : (tensor<?x?xf32>, tensor<f32>) -> tensor<?xf32>
  %c1_2 = arith.constant 1 : index
  %dim_3 = tensor.dim %1, %c1_2 : tensor<?x?x?xf32, [@S0, @S1, @S2]>
  %10 = arith.index_cast %dim_3 : index to i32
  %c2_4 = arith.constant 2 : index
  %dim_5 = tensor.dim %1, %c2_4 : tensor<?x?x?xf32, [@S0, @S1, @S2]>
  %11 = arith.index_cast %dim_5 : index to i32
  %from_elements_6 = tensor.from_elements %10, %11 : tensor<2xi32>
  %12 = mhlo.dynamic_reshape %9, %from_elements_6 : (tensor<?xf32>, tensor<2xi32>) -> tensor<?x?xf32, [@S1, @S2]>
  return %12 : tensor<?x?xf32, [@S1, @S2]>
}

// -----// IR Dump After CSE (cse) //----- //
module {
  func.func @main(%arg0: tensor<?x?x?xf32, [@S0, @S1, @S2]>) -> tensor<?x?xf32, [@S1, @S2]> attributes {tf.entry_function = {input_placements = "gpu", inputs = "input0", output_placements = "gpu", outputs = "output0"}} {
    %c0 = arith.constant 0 : index
    %c1 = arith.constant 1 : index
    %c2 = arith.constant 2 : index
    %0 = mhlo.constant dense<0xFF800000> : tensor<f32>
    %dim = tensor.dim %arg0, %c0 : tensor<?x?x?xf32, [@S0, @S1, @S2]>
    %dim_0 = tensor.dim %arg0, %c1 : tensor<?x?x?xf32, [@S0, @S1, @S2]>
    %dim_1 = tensor.dim %arg0, %c2 : tensor<?x?x?xf32, [@S0, @S1, @S2]>
    %1 = "disc_shape.tie_shape"(%arg0, %dim, %dim_0, %dim_1) : (tensor<?x?x?xf32, [@S0, @S1, @S2]>, index, index, index) -> tensor<?x?x?xf32, [@S0, @S1, @S2]>
    %2 = mhlo.abs %1 : tensor<?x?x?xf32, [@S0, @S1, @S2]>
    %3 = "disc_shape.tie_shape"(%2, %dim, %dim_0, %dim_1) : (tensor<?x?x?xf32, [@S0, @S1, @S2]>, index, index, index) -> tensor<?x?x?xf32, [@S0, @S1, @S2]>
    %4 = arith.index_cast %dim : index to i32
    %5 = arith.index_cast %dim_0 : index to i32
    %6 = arith.index_cast %dim_1 : index to i32
    %7 = arith.muli %5, %6 : i32
    %from_elements = tensor.from_elements %4, %7 : tensor<2xi32>
    %8 = "disc_shape.tie_shape"(%from_elements, %c2) : (tensor<2xi32>, index) -> tensor<2xi32>
    %9 = mhlo.dynamic_reshape %3, %8 : (tensor<?x?x?xf32, [@S0, @S1, @S2]>, tensor<2xi32>) -> tensor<?x?xf32>
    %10 = arith.index_cast %7 : i32 to index
    %11 = "disc_shape.tie_shape"(%9, %dim, %10) : (tensor<?x?xf32>, index, index) -> tensor<?x?xf32>
    %12 = mhlo.reduce(%11 init: %0) applies mhlo.maximum across dimensions = [0] : (tensor<?x?xf32>, tensor<f32>) -> tensor<?xf32>
    %13 = "disc_shape.tie_shape"(%12, %10) : (tensor<?xf32>, index) -> tensor<?xf32>
    %from_elements_2 = tensor.from_elements %5, %6 : tensor<2xi32>
    %14 = "disc_shape.tie_shape"(%from_elements_2, %c2) : (tensor<2xi32>, index) -> tensor<2xi32>
    %15 = mhlo.dynamic_reshape %13, %14 : (tensor<?xf32>, tensor<2xi32>) -> tensor<?x?xf32, [@S1, @S2]>
    %16 = "disc_shape.tie_shape"(%15, %dim_0, %dim_1) : (tensor<?x?xf32, [@S1, @S2]>, index, index) -> tensor<?x?xf32, [@S1, @S2]>
    return %16 : tensor<?x?xf32, [@S1, @S2]>
  }
  "disc_shape.SymbolicDim"() {knownNegativeOne = false, knownNonNegative = true, knownNonSizeOne = false, knownNonSizeZero = false, sym_name = "S0", value = -9223372036854775808 : i64} : () -> ()
  "disc_shape.SymbolicDim"() {knownNegativeOne = false, knownNonNegative = true, knownNonSizeOne = false, knownNonSizeZero = false, sym_name = "S1", value = -9223372036854775808 : i64} : () -> ()
  "disc_shape.SymbolicDim"() {knownNegativeOne = false, knownNonNegative = true, knownNonSizeOne = false, knownNonSizeZero = false, sym_name = "S2", value = -9223372036854775808 : i64} : () -> ()
  func.func @shape_constraint_graph() {
    return
  }
}


SymbolicDimMgr::save walkRankedTensorValue takes: 6 us
SymbolicDimMgr::save update attributes takes: 1 us
SymbolicDimMgr::updateProductEqualityMap simplifySymbolicDimProductPair takes: 14 us
productSet.size() = 4
SymbolicDimMgr::updateProductEqualityMap propagate graph takes: 13 us
SymbolicDimMgr::updateProductEqualityMap remove multiply takes: 37 us
SymbolicDimMgr::updateProductEqualityMap build toRemove  takes: 3 us
SymbolicDimMgr::updateProductEqualityMap apply toRemove  takes: 2 us
SymbolicDimMgr::save updateProductEqualityMap takes: 91 us
SymbolicDimMgr::save updateFunctionType takes: 1 us
SymbolicDimMgr::save collect symbolicDim ops takes: 5 us
SymbolicDimMgr::save remove symbolicDim ops takes: 1 us
SymbolicDimMgr::save remove unused production takes: 0 us
SymbolicDimMgr::save remove unused production #2 takes: 1 us
SymbolicDimMgr::save canonicalize the name takes: 4 us
SymbolicDimMgr::save replace the name takes: 7 us
SymbolicDimMgr::save updateFunctionType takes: 0 us
// -----// IR Dump After DiscShapeOptimizationPass (disc-shape-optimization) //----- //
module {
  func.func @main(%arg0: tensor<?x?x?xf32, [@S0, @S1, @S2]>) -> tensor<?x?xf32, [@S1, @S2]> attributes {tf.entry_function = {input_placements = "gpu", inputs = "input0", output_placements = "gpu", outputs = "output0"}} {
    %c0 = arith.constant 0 : index
    %c1 = arith.constant 1 : index
    %c2 = arith.constant 2 : index
    %0 = mhlo.constant dense<0xFF800000> : tensor<f32>
    %dim = tensor.dim %arg0, %c0 : tensor<?x?x?xf32, [@S0, @S1, @S2]>
    %dim_0 = tensor.dim %arg0, %c1 : tensor<?x?x?xf32, [@S0, @S1, @S2]>
    %dim_1 = tensor.dim %arg0, %c2 : tensor<?x?x?xf32, [@S0, @S1, @S2]>
    %1 = mhlo.abs %arg0 : tensor<?x?x?xf32, [@S0, @S1, @S2]>
    %2 = arith.index_cast %dim : index to i32
    %3 = arith.index_cast %dim_0 : index to i32
    %4 = arith.index_cast %dim_1 : index to i32
    %5 = arith.muli %3, %4 : i32
    %from_elements = tensor.from_elements %2, %5 : tensor<2xi32>
    %6 = mhlo.dynamic_reshape %1, %from_elements : (tensor<?x?x?xf32, [@S0, @S1, @S2]>, tensor<2xi32>) -> tensor<?x?xf32, [@S0, @S3]>
    %7 = mhlo.reduce(%6 init: %0) applies mhlo.maximum across dimensions = [0] : (tensor<?x?xf32, [@S0, @S3]>, tensor<f32>) -> tensor<?xf32, [@S3]>
    %from_elements_2 = tensor.from_elements %3, %4 : tensor<2xi32>
    %8 = mhlo.dynamic_reshape %7, %from_elements_2 : (tensor<?xf32, [@S3]>, tensor<2xi32>) -> tensor<?x?xf32, [@S1, @S2]>
    return %8 : tensor<?x?xf32, [@S1, @S2]>
  }
  "disc_shape.SymbolicDim"() {knownNegativeOne = false, knownNonNegative = true, knownNonSizeOne = false, knownNonSizeZero = false, sym_name = "S0", value = -9223372036854775808 : i64} : () -> ()
  "disc_shape.SymbolicDim"() {knownNegativeOne = false, knownNonNegative = true, knownNonSizeOne = false, knownNonSizeZero = false, sym_name = "S1", value = -9223372036854775808 : i64} : () -> ()
  "disc_shape.SymbolicDim"() {knownNegativeOne = false, knownNonNegative = true, knownNonSizeOne = false, knownNonSizeZero = false, sym_name = "S2", value = -9223372036854775808 : i64} : () -> ()
  "disc_shape.SymbolicDim"() {knownNegativeOne = false, knownNonNegative = true, knownNonSizeOne = false, knownNonSizeZero = false, sym_name = "S3", value = -9223372036854775808 : i64} : () -> ()
  func.func @shape_constraint_graph() {
    %0 = "disc_shape.dim"() {name = @S3} : () -> index
    %1 = "disc_shape.dim"() {name = @S1} : () -> index
    %2 = "disc_shape.dim"() {name = @S2} : () -> index
    "disc_shape.tie_product_equal"(%0, %1, %2) {operand_segment_sizes = array<i32: 1, 2>} : (index, index, index) -> ()
    return
  }
}


// -----// IR Dump After DiscMarkShapeCalculationPass (disc-mhlo-mark-shape-calc) //----- //
module {
  func.func @main(%arg0: tensor<?x?x?xf32, [@S0, @S1, @S2]>) -> tensor<?x?xf32, [@S1, @S2]> attributes {tf.entry_function = {input_placements = "gpu", inputs = "input0", output_placements = "gpu", outputs = "output0"}} {
    %c0 = arith.constant 0 : index
    %c1 = arith.constant 1 : index
    %c2 = arith.constant 2 : index
    %0 = mhlo.constant dense<0xFF800000> : tensor<f32>
    %dim = tensor.dim %arg0, %c0 : tensor<?x?x?xf32, [@S0, @S1, @S2]>
    %dim_0 = tensor.dim %arg0, %c1 : tensor<?x?x?xf32, [@S0, @S1, @S2]>
    %dim_1 = tensor.dim %arg0, %c2 : tensor<?x?x?xf32, [@S0, @S1, @S2]>
    %1 = mhlo.abs %arg0 : tensor<?x?x?xf32, [@S0, @S1, @S2]>
    %2 = arith.index_cast %dim : index to i32
    %3 = arith.index_cast %dim_0 : index to i32
    %4 = arith.index_cast %dim_1 : index to i32
    %5 = arith.muli %3, %4 : i32
    %from_elements = tensor.from_elements %2, %5 {disc.shape_op = true} : tensor<2xi32>
    %6 = mhlo.dynamic_reshape %1, %from_elements : (tensor<?x?x?xf32, [@S0, @S1, @S2]>, tensor<2xi32>) -> tensor<?x?xf32, [@S0, @S3]>
    %7 = mhlo.reduce(%6 init: %0) applies mhlo.maximum across dimensions = [0] : (tensor<?x?xf32, [@S0, @S3]>, tensor<f32>) -> tensor<?xf32, [@S3]>
    %from_elements_2 = tensor.from_elements %3, %4 {disc.shape_op = true} : tensor<2xi32>
    %8 = mhlo.dynamic_reshape %7, %from_elements_2 : (tensor<?xf32, [@S3]>, tensor<2xi32>) -> tensor<?x?xf32, [@S1, @S2]>
    return %8 : tensor<?x?xf32, [@S1, @S2]>
  }
  "disc_shape.SymbolicDim"() {knownNegativeOne = false, knownNonNegative = true, knownNonSizeOne = false, knownNonSizeZero = false, sym_name = "S0", value = -9223372036854775808 : i64} : () -> ()
  "disc_shape.SymbolicDim"() {knownNegativeOne = false, knownNonNegative = true, knownNonSizeOne = false, knownNonSizeZero = false, sym_name = "S1", value = -9223372036854775808 : i64} : () -> ()
  "disc_shape.SymbolicDim"() {knownNegativeOne = false, knownNonNegative = true, knownNonSizeOne = false, knownNonSizeZero = false, sym_name = "S2", value = -9223372036854775808 : i64} : () -> ()
  "disc_shape.SymbolicDim"() {knownNegativeOne = false, knownNonNegative = true, knownNonSizeOne = false, knownNonSizeZero = false, sym_name = "S3", value = -9223372036854775808 : i64} : () -> ()
  func.func @shape_constraint_graph() {
    %0 = "disc_shape.dim"() {name = @S3} : () -> index
    %1 = "disc_shape.dim"() {name = @S1} : () -> index
    %2 = "disc_shape.dim"() {name = @S2} : () -> index
    "disc_shape.tie_product_equal"(%0, %1, %2) {operand_segment_sizes = array<i32: 1, 2>} : (index, index, index) -> ()
    return
  }
}


// -----// IR Dump After PlaceOpsPass (mhlo-place-ops) //----- //
module {
  func.func @main(%arg0: tensor<?x?x?xf32, [@S0, @S1, @S2]>) -> tensor<?x?xf32, [@S1, @S2]> attributes {tf.entry_function = {input_placements = "gpu", inputs = "input0", output_placements = "gpu", outputs = "output0"}} {
    %c0 = arith.constant 0 : index
    %c1 = arith.constant 1 : index
    %c2 = arith.constant 2 : index
    %0 = mhlo.constant {disc.device = "gpu"} dense<0xFF800000> : tensor<f32>
    %dim = tensor.dim %arg0, %c0 : tensor<?x?x?xf32, [@S0, @S1, @S2]>
    %dim_0 = tensor.dim %arg0, %c1 : tensor<?x?x?xf32, [@S0, @S1, @S2]>
    %dim_1 = tensor.dim %arg0, %c2 : tensor<?x?x?xf32, [@S0, @S1, @S2]>
    %1 = mhlo.abs %arg0 {disc.device = "gpu"} : tensor<?x?x?xf32, [@S0, @S1, @S2]>
    %2 = arith.index_cast %dim : index to i32
    %3 = arith.index_cast %dim_0 : index to i32
    %4 = arith.index_cast %dim_1 : index to i32
    %5 = arith.muli %3, %4 : i32
    %from_elements = tensor.from_elements %2, %5 {disc.shape_op = true} : tensor<2xi32>
    %6 = mhlo.dynamic_reshape %1, %from_elements {disc.device = "gpu"} : (tensor<?x?x?xf32, [@S0, @S1, @S2]>, tensor<2xi32>) -> tensor<?x?xf32, [@S0, @S3]>
    %7 = mhlo.reduce(%6 init: %0) applies mhlo.maximum across dimensions = [0] : (tensor<?x?xf32, [@S0, @S3]>, tensor<f32>) -> tensor<?xf32, [@S3]>
    %from_elements_2 = tensor.from_elements %3, %4 {disc.shape_op = true} : tensor<2xi32>
    %8 = mhlo.dynamic_reshape %7, %from_elements_2 {disc.device = "gpu"} : (tensor<?xf32, [@S3]>, tensor<2xi32>) -> tensor<?x?xf32, [@S1, @S2]>
    return %8 : tensor<?x?xf32, [@S1, @S2]>
  }
  "disc_shape.SymbolicDim"() {knownNegativeOne = false, knownNonNegative = true, knownNonSizeOne = false, knownNonSizeZero = false, sym_name = "S0", value = -9223372036854775808 : i64} : () -> ()
  "disc_shape.SymbolicDim"() {knownNegativeOne = false, knownNonNegative = true, knownNonSizeOne = false, knownNonSizeZero = false, sym_name = "S1", value = -9223372036854775808 : i64} : () -> ()
  "disc_shape.SymbolicDim"() {knownNegativeOne = false, knownNonNegative = true, knownNonSizeOne = false, knownNonSizeZero = false, sym_name = "S2", value = -9223372036854775808 : i64} : () -> ()
  "disc_shape.SymbolicDim"() {knownNegativeOne = false, knownNonNegative = true, knownNonSizeOne = false, knownNonSizeZero = false, sym_name = "S3", value = -9223372036854775808 : i64} : () -> ()
  func.func @shape_constraint_graph() {
    %0 = "disc_shape.dim"() {name = @S3} : () -> index
    %1 = "disc_shape.dim"() {name = @S1} : () -> index
    %2 = "disc_shape.dim"() {name = @S2} : () -> index
    "disc_shape.tie_product_equal"(%0, %1, %2) {operand_segment_sizes = array<i32: 1, 2>} : (index, index, index) -> ()
    return
  }
}


SymbolicDimMgr::save walkRankedTensorValue takes: 6 us
SymbolicDimMgr::save update attributes takes: 1 us
SymbolicDimMgr::updateProductEqualityMap simplifySymbolicDimProductPair takes: 12 us
productSet.size() = 4
SymbolicDimMgr::updateProductEqualityMap propagate graph takes: 5 us
SymbolicDimMgr::updateProductEqualityMap remove multiply takes: 34 us
SymbolicDimMgr::updateProductEqualityMap build toRemove  takes: 3 us
SymbolicDimMgr::updateProductEqualityMap apply toRemove  takes: 2 us
SymbolicDimMgr::save updateProductEqualityMap takes: 79 us
SymbolicDimMgr::save updateFunctionType takes: 1 us
SymbolicDimMgr::save collect symbolicDim ops takes: 5 us
SymbolicDimMgr::save remove symbolicDim ops takes: 1 us
SymbolicDimMgr::save remove unused production takes: 0 us
SymbolicDimMgr::save remove unused production #2 takes: 1 us
SymbolicDimMgr::save canonicalize the name takes: 3 us
SymbolicDimMgr::save replace the name takes: 5 us
SymbolicDimMgr::save updateFunctionType takes: 0 us
// -----// IR Dump After DiscShapeOptimizationPass (disc-shape-optimization) //----- //
module {
  func.func @main(%arg0: tensor<?x?x?xf32, [@S0, @S1, @S2]>) -> tensor<?x?xf32, [@S1, @S2]> attributes {tf.entry_function = {input_placements = "gpu", inputs = "input0", output_placements = "gpu", outputs = "output0"}} {
    %c0 = arith.constant 0 : index
    %c1 = arith.constant 1 : index
    %c2 = arith.constant 2 : index
    %0 = mhlo.constant {disc.device = "gpu"} dense<0xFF800000> : tensor<f32>
    %dim = tensor.dim %arg0, %c0 : tensor<?x?x?xf32, [@S0, @S1, @S2]>
    %dim_0 = tensor.dim %arg0, %c1 : tensor<?x?x?xf32, [@S0, @S1, @S2]>
    %dim_1 = tensor.dim %arg0, %c2 : tensor<?x?x?xf32, [@S0, @S1, @S2]>
    %1 = mhlo.abs %arg0 {disc.device = "gpu"} : tensor<?x?x?xf32, [@S0, @S1, @S2]>
    %2 = arith.index_cast %dim : index to i32
    %3 = arith.index_cast %dim_0 : index to i32
    %4 = arith.index_cast %dim_1 : index to i32
    %5 = arith.muli %3, %4 : i32
    %from_elements = tensor.from_elements %2, %5 {disc.shape_op = true} : tensor<2xi32>
    %6 = mhlo.dynamic_reshape %1, %from_elements {disc.device = "gpu"} : (tensor<?x?x?xf32, [@S0, @S1, @S2]>, tensor<2xi32>) -> tensor<?x?xf32, [@S0, @S3]>
    %7 = mhlo.reduce(%6 init: %0) applies mhlo.maximum across dimensions = [0] : (tensor<?x?xf32, [@S0, @S3]>, tensor<f32>) -> tensor<?xf32, [@S3]>
    %from_elements_2 = tensor.from_elements %3, %4 {disc.shape_op = true} : tensor<2xi32>
    %8 = mhlo.dynamic_reshape %7, %from_elements_2 {disc.device = "gpu"} : (tensor<?xf32, [@S3]>, tensor<2xi32>) -> tensor<?x?xf32, [@S1, @S2]>
    return %8 : tensor<?x?xf32, [@S1, @S2]>
  }
  "disc_shape.SymbolicDim"() {knownNegativeOne = false, knownNonNegative = true, knownNonSizeOne = false, knownNonSizeZero = false, sym_name = "S0", value = -9223372036854775808 : i64} : () -> ()
  "disc_shape.SymbolicDim"() {knownNegativeOne = false, knownNonNegative = true, knownNonSizeOne = false, knownNonSizeZero = false, sym_name = "S1", value = -9223372036854775808 : i64} : () -> ()
  "disc_shape.SymbolicDim"() {knownNegativeOne = false, knownNonNegative = true, knownNonSizeOne = false, knownNonSizeZero = false, sym_name = "S2", value = -9223372036854775808 : i64} : () -> ()
  "disc_shape.SymbolicDim"() {knownNegativeOne = false, knownNonNegative = true, knownNonSizeOne = false, knownNonSizeZero = false, sym_name = "S3", value = -9223372036854775808 : i64} : () -> ()
  func.func @shape_constraint_graph() {
    %0 = "disc_shape.dim"() {name = @S3} : () -> index
    %1 = "disc_shape.dim"() {name = @S1} : () -> index
    %2 = "disc_shape.dim"() {name = @S2} : () -> index
    "disc_shape.tie_product_equal"(%0, %1, %2) {operand_segment_sizes = array<i32: 1, 2>} : (index, index, index) -> ()
    return
  }
}


SymbolicDimMgr::save walkRankedTensorValue takes: 5 us
SymbolicDimMgr::save update attributes takes: 1 us
SymbolicDimMgr::updateProductEqualityMap simplifySymbolicDimProductPair takes: 12 us
productSet.size() = 4
SymbolicDimMgr::updateProductEqualityMap propagate graph takes: 5 us
SymbolicDimMgr::updateProductEqualityMap remove multiply takes: 36 us
SymbolicDimMgr::updateProductEqualityMap build toRemove  takes: 2 us
SymbolicDimMgr::updateProductEqualityMap apply toRemove  takes: 1 us
SymbolicDimMgr::save updateProductEqualityMap takes: 80 us
SymbolicDimMgr::save updateFunctionType takes: 1 us
SymbolicDimMgr::save collect symbolicDim ops takes: 5 us
SymbolicDimMgr::save remove symbolicDim ops takes: 1 us
SymbolicDimMgr::save remove unused production takes: 0 us
SymbolicDimMgr::save remove unused production #2 takes: 1 us
SymbolicDimMgr::save canonicalize the name takes: 3 us
SymbolicDimMgr::save replace the name takes: 5 us
SymbolicDimMgr::save updateFunctionType takes: 0 us
// -----// IR Dump After DiscShapeOptimizationPass (disc-shape-optimization) //----- //
module {
  func.func @main(%arg0: tensor<?x?x?xf32, [@S0, @S1, @S2]>) -> tensor<?x?xf32, [@S1, @S2]> attributes {tf.entry_function = {input_placements = "gpu", inputs = "input0", output_placements = "gpu", outputs = "output0"}} {
    %c0 = arith.constant 0 : index
    %c1 = arith.constant 1 : index
    %c2 = arith.constant 2 : index
    %0 = mhlo.constant {disc.device = "gpu"} dense<0xFF800000> : tensor<f32>
    %dim = tensor.dim %arg0, %c0 : tensor<?x?x?xf32, [@S0, @S1, @S2]>
    %dim_0 = tensor.dim %arg0, %c1 : tensor<?x?x?xf32, [@S0, @S1, @S2]>
    %dim_1 = tensor.dim %arg0, %c2 : tensor<?x?x?xf32, [@S0, @S1, @S2]>
    %1 = mhlo.abs %arg0 {disc.device = "gpu"} : tensor<?x?x?xf32, [@S0, @S1, @S2]>
    %2 = arith.index_cast %dim : index to i32
    %3 = arith.index_cast %dim_0 : index to i32
    %4 = arith.index_cast %dim_1 : index to i32
    %5 = arith.muli %3, %4 : i32
    %from_elements = tensor.from_elements %2, %5 {disc.shape_op = true} : tensor<2xi32>
    %6 = mhlo.dynamic_reshape %1, %from_elements {disc.device = "gpu"} : (tensor<?x?x?xf32, [@S0, @S1, @S2]>, tensor<2xi32>) -> tensor<?x?xf32, [@S0, @S3]>
    %7 = mhlo.reduce(%6 init: %0) applies mhlo.maximum across dimensions = [0] : (tensor<?x?xf32, [@S0, @S3]>, tensor<f32>) -> tensor<?xf32, [@S3]>
    %from_elements_2 = tensor.from_elements %3, %4 {disc.shape_op = true} : tensor<2xi32>
    %8 = mhlo.dynamic_reshape %7, %from_elements_2 {disc.device = "gpu"} : (tensor<?xf32, [@S3]>, tensor<2xi32>) -> tensor<?x?xf32, [@S1, @S2]>
    return %8 : tensor<?x?xf32, [@S1, @S2]>
  }
  "disc_shape.SymbolicDim"() {knownNegativeOne = false, knownNonNegative = true, knownNonSizeOne = false, knownNonSizeZero = false, sym_name = "S0", value = -9223372036854775808 : i64} : () -> ()
  "disc_shape.SymbolicDim"() {knownNegativeOne = false, knownNonNegative = true, knownNonSizeOne = false, knownNonSizeZero = false, sym_name = "S1", value = -9223372036854775808 : i64} : () -> ()
  "disc_shape.SymbolicDim"() {knownNegativeOne = false, knownNonNegative = true, knownNonSizeOne = false, knownNonSizeZero = false, sym_name = "S2", value = -9223372036854775808 : i64} : () -> ()
  "disc_shape.SymbolicDim"() {knownNegativeOne = false, knownNonNegative = true, knownNonSizeOne = false, knownNonSizeZero = false, sym_name = "S3", value = -9223372036854775808 : i64} : () -> ()
  func.func @shape_constraint_graph() {
    %0 = "disc_shape.dim"() {name = @S3} : () -> index
    %1 = "disc_shape.dim"() {name = @S1} : () -> index
    %2 = "disc_shape.dim"() {name = @S2} : () -> index
    "disc_shape.tie_product_equal"(%0, %1, %2) {operand_segment_sizes = array<i32: 1, 2>} : (index, index, index) -> ()
    return
  }
}


SymbolicDimMgr::save walkRankedTensorValue takes: 5 us
SymbolicDimMgr::save update attributes takes: 2 us
SymbolicDimMgr::updateProductEqualityMap simplifySymbolicDimProductPair takes: 13 us
productSet.size() = 4
SymbolicDimMgr::updateProductEqualityMap propagate graph takes: 6 us
SymbolicDimMgr::updateProductEqualityMap remove multiply takes: 35 us
SymbolicDimMgr::updateProductEqualityMap build toRemove  takes: 3 us
SymbolicDimMgr::updateProductEqualityMap apply toRemove  takes: 2 us
SymbolicDimMgr::save updateProductEqualityMap takes: 88 us
SymbolicDimMgr::save updateFunctionType takes: 1 us
SymbolicDimMgr::save collect symbolicDim ops takes: 5 us
SymbolicDimMgr::save remove symbolicDim ops takes: 1 us
SymbolicDimMgr::save remove unused production takes: 0 us
SymbolicDimMgr::save remove unused production #2 takes: 1 us
SymbolicDimMgr::save canonicalize the name takes: 3 us
SymbolicDimMgr::save replace the name takes: 5 us
SymbolicDimMgr::save updateFunctionType takes: 0 us
// -----// IR Dump After DiscShapeOptimizationPass (disc-shape-optimization) //----- //
module {
  func.func @main(%arg0: tensor<?x?x?xf32, [@S0, @S1, @S2]>) -> tensor<?x?xf32, [@S1, @S2]> attributes {tf.entry_function = {input_placements = "gpu", inputs = "input0", output_placements = "gpu", outputs = "output0"}} {
    %c0 = arith.constant 0 : index
    %c1 = arith.constant 1 : index
    %c2 = arith.constant 2 : index
    %0 = mhlo.constant {disc.device = "gpu"} dense<0xFF800000> : tensor<f32>
    %dim = tensor.dim %arg0, %c0 : tensor<?x?x?xf32, [@S0, @S1, @S2]>
    %dim_0 = tensor.dim %arg0, %c1 : tensor<?x?x?xf32, [@S0, @S1, @S2]>
    %dim_1 = tensor.dim %arg0, %c2 : tensor<?x?x?xf32, [@S0, @S1, @S2]>
    %1 = mhlo.abs %arg0 {disc.device = "gpu"} : tensor<?x?x?xf32, [@S0, @S1, @S2]>
    %2 = arith.index_cast %dim : index to i32
    %3 = arith.index_cast %dim_0 : index to i32
    %4 = arith.index_cast %dim_1 : index to i32
    %5 = arith.muli %3, %4 : i32
    %from_elements = tensor.from_elements %2, %5 {disc.shape_op = true} : tensor<2xi32>
    %6 = mhlo.dynamic_reshape %1, %from_elements {disc.device = "gpu"} : (tensor<?x?x?xf32, [@S0, @S1, @S2]>, tensor<2xi32>) -> tensor<?x?xf32, [@S0, @S3]>
    %7 = mhlo.reduce(%6 init: %0) applies mhlo.maximum across dimensions = [0] : (tensor<?x?xf32, [@S0, @S3]>, tensor<f32>) -> tensor<?xf32, [@S3]>
    %from_elements_2 = tensor.from_elements %3, %4 {disc.shape_op = true} : tensor<2xi32>
    %8 = mhlo.dynamic_reshape %7, %from_elements_2 {disc.device = "gpu"} : (tensor<?xf32, [@S3]>, tensor<2xi32>) -> tensor<?x?xf32, [@S1, @S2]>
    return %8 : tensor<?x?xf32, [@S1, @S2]>
  }
  "disc_shape.SymbolicDim"() {knownNegativeOne = false, knownNonNegative = true, knownNonSizeOne = false, knownNonSizeZero = false, sym_name = "S0", value = -9223372036854775808 : i64} : () -> ()
  "disc_shape.SymbolicDim"() {knownNegativeOne = false, knownNonNegative = true, knownNonSizeOne = false, knownNonSizeZero = false, sym_name = "S1", value = -9223372036854775808 : i64} : () -> ()
  "disc_shape.SymbolicDim"() {knownNegativeOne = false, knownNonNegative = true, knownNonSizeOne = false, knownNonSizeZero = false, sym_name = "S2", value = -9223372036854775808 : i64} : () -> ()
  "disc_shape.SymbolicDim"() {knownNegativeOne = false, knownNonNegative = true, knownNonSizeOne = false, knownNonSizeZero = false, sym_name = "S3", value = -9223372036854775808 : i64} : () -> ()
  func.func @shape_constraint_graph() {
    %0 = "disc_shape.dim"() {name = @S3} : () -> index
    %1 = "disc_shape.dim"() {name = @S1} : () -> index
    %2 = "disc_shape.dim"() {name = @S2} : () -> index
    "disc_shape.tie_product_equal"(%0, %1, %2) {operand_segment_sizes = array<i32: 1, 2>} : (index, index, index) -> ()
    return
  }
}


SymbolicDimMgr::save walkRankedTensorValue takes: 5 us
SymbolicDimMgr::save update attributes takes: 1 us
SymbolicDimMgr::updateProductEqualityMap simplifySymbolicDimProductPair takes: 12 us
productSet.size() = 4
SymbolicDimMgr::updateProductEqualityMap propagate graph takes: 6 us
SymbolicDimMgr::updateProductEqualityMap remove multiply takes: 35 us
SymbolicDimMgr::updateProductEqualityMap build toRemove  takes: 3 us
SymbolicDimMgr::updateProductEqualityMap apply toRemove  takes: 2 us
SymbolicDimMgr::save updateProductEqualityMap takes: 80 us
SymbolicDimMgr::save updateFunctionType takes: 1 us
SymbolicDimMgr::save collect symbolicDim ops takes: 5 us
SymbolicDimMgr::save remove symbolicDim ops takes: 1 us
SymbolicDimMgr::save remove unused production takes: 0 us
SymbolicDimMgr::save remove unused production #2 takes: 1 us
SymbolicDimMgr::save canonicalize the name takes: 3 us
SymbolicDimMgr::save replace the name takes: 5 us
SymbolicDimMgr::save updateFunctionType takes: 0 us
// -----// IR Dump After DiscShapeOptimizationPass (disc-shape-optimization) //----- //
module {
  func.func @main(%arg0: tensor<?x?x?xf32>) -> tensor<?x?xf32> attributes {tf.entry_function = {input_placements = "gpu", inputs = "input0", output_placements = "gpu", outputs = "output0"}} {
    %c0 = arith.constant 0 : index
    %c1 = arith.constant 1 : index
    %c2 = arith.constant 2 : index
    %0 = mhlo.constant {disc.device = "gpu"} dense<0xFF800000> : tensor<f32>
    %dim = tensor.dim %arg0, %c0 : tensor<?x?x?xf32>
    %dim_0 = tensor.dim %arg0, %c1 : tensor<?x?x?xf32>
    %dim_1 = tensor.dim %arg0, %c2 : tensor<?x?x?xf32>
    %1 = "disc_shape.tie_shape"(%arg0, %dim, %dim_0, %dim_1) {kDiscSymbolicDimAttr = [@S0, @S1, @S2]} : (tensor<?x?x?xf32>, index, index, index) -> tensor<?x?x?xf32>
    %2 = mhlo.abs %1 {disc.device = "gpu"} : tensor<?x?x?xf32>
    %3 = "disc_shape.tie_shape"(%2, %dim, %dim_0, %dim_1) {kDiscSymbolicDimAttr = [@S0, @S1, @S2]} : (tensor<?x?x?xf32>, index, index, index) -> tensor<?x?x?xf32>
    %4 = arith.index_cast %dim : index to i32
    %5 = arith.index_cast %dim_0 : index to i32
    %6 = arith.index_cast %dim_1 : index to i32
    %7 = arith.muli %5, %6 : i32
    %from_elements = tensor.from_elements %4, %7 {disc.shape_op = true} : tensor<2xi32>
    %8 = "disc_shape.tie_shape"(%from_elements, %c2) : (tensor<2xi32>, index) -> tensor<2xi32>
    %9 = arith.index_cast %7 : i32 to index
    %10 = mhlo.dynamic_reshape %3, %8 {disc.device = "gpu"} : (tensor<?x?x?xf32>, tensor<2xi32>) -> tensor<?x?xf32>
    %11 = "disc_shape.tie_shape"(%10, %dim, %9) {kDiscSymbolicDimAttr = [@S0, @S3]} : (tensor<?x?xf32>, index, index) -> tensor<?x?xf32>
    %12 = mhlo.reduce(%11 init: %0) applies mhlo.maximum across dimensions = [0] : (tensor<?x?xf32>, tensor<f32>) -> tensor<?xf32>
    %13 = "disc_shape.tie_shape"(%12, %9) {kDiscSymbolicDimAttr = [@S3]} : (tensor<?xf32>, index) -> tensor<?xf32>
    %from_elements_2 = tensor.from_elements %5, %6 {disc.shape_op = true} : tensor<2xi32>
    %14 = "disc_shape.tie_shape"(%from_elements_2, %c2) : (tensor<2xi32>, index) -> tensor<2xi32>
    %15 = mhlo.dynamic_reshape %13, %14 {disc.device = "gpu"} : (tensor<?xf32>, tensor<2xi32>) -> tensor<?x?xf32>
    %16 = "disc_shape.tie_shape"(%15, %dim_0, %dim_1) {kDiscSymbolicDimAttr = [@S1, @S2]} : (tensor<?x?xf32>, index, index) -> tensor<?x?xf32>
    return %16 : tensor<?x?xf32>
  }
  "disc_shape.SymbolicDim"() {knownNegativeOne = false, knownNonNegative = true, knownNonSizeOne = false, knownNonSizeZero = false, sym_name = "S0", value = -9223372036854775808 : i64} : () -> ()
  "disc_shape.SymbolicDim"() {knownNegativeOne = false, knownNonNegative = true, knownNonSizeOne = false, knownNonSizeZero = false, sym_name = "S1", value = -9223372036854775808 : i64} : () -> ()
  "disc_shape.SymbolicDim"() {knownNegativeOne = false, knownNonNegative = true, knownNonSizeOne = false, knownNonSizeZero = false, sym_name = "S2", value = -9223372036854775808 : i64} : () -> ()
  "disc_shape.SymbolicDim"() {knownNegativeOne = false, knownNonNegative = true, knownNonSizeOne = false, knownNonSizeZero = false, sym_name = "S3", value = -9223372036854775808 : i64} : () -> ()
  func.func @shape_constraint_graph() {
    %0 = "disc_shape.dim"() {name = @S3} : () -> index
    %1 = "disc_shape.dim"() {name = @S1} : () -> index
    %2 = "disc_shape.dim"() {name = @S2} : () -> index
    "disc_shape.tie_product_equal"(%0, %1, %2) {operand_segment_sizes = array<i32: 1, 2>} : (index, index, index) -> ()
    return
  }
}


// -----// IR Dump After Canonicalizer (canonicalize) //----- //
func.func @main(%arg0: tensor<?x?x?xf32>) -> tensor<?x?xf32> attributes {tf.entry_function = {input_placements = "gpu", inputs = "input0", output_placements = "gpu", outputs = "output0"}} {
  %c0 = arith.constant 0 : index
  %c1 = arith.constant 1 : index
  %c2 = arith.constant 2 : index
  %0 = mhlo.constant {disc.device = "gpu"} dense<0xFF800000> : tensor<f32>
  %dim = tensor.dim %arg0, %c0 : tensor<?x?x?xf32>
  %dim_0 = tensor.dim %arg0, %c1 : tensor<?x?x?xf32>
  %dim_1 = tensor.dim %arg0, %c2 : tensor<?x?x?xf32>
  %1 = "disc_shape.tie_shape"(%arg0, %dim, %dim_0, %dim_1) {kDiscSymbolicDimAttr = [@S0, @S1, @S2]} : (tensor<?x?x?xf32>, index, index, index) -> tensor<?x?x?xf32>
  %2 = mhlo.abs %1 {disc.device = "gpu"} : tensor<?x?x?xf32>
  %3 = "disc_shape.tie_shape"(%2, %dim, %dim_0, %dim_1) {kDiscSymbolicDimAttr = [@S0, @S1, @S2]} : (tensor<?x?x?xf32>, index, index, index) -> tensor<?x?x?xf32>
  %4 = arith.index_cast %dim : index to i32
  %5 = arith.index_cast %dim_0 : index to i32
  %6 = arith.index_cast %dim_1 : index to i32
  %7 = arith.muli %5, %6 : i32
  %from_elements = tensor.from_elements %4, %7 {disc.shape_op = true} : tensor<2xi32>
  %8 = arith.index_cast %7 : i32 to index
  %9 = mhlo.dynamic_reshape %3, %from_elements {disc.device = "gpu"} : (tensor<?x?x?xf32>, tensor<2xi32>) -> tensor<?x?xf32>
  %10 = "disc_shape.tie_shape"(%9, %dim, %8) {kDiscSymbolicDimAttr = [@S0, @S3]} : (tensor<?x?xf32>, index, index) -> tensor<?x?xf32>
  %11 = mhlo.reduce(%10 init: %0) applies mhlo.maximum across dimensions = [0] : (tensor<?x?xf32>, tensor<f32>) -> tensor<?xf32>
  %12 = "disc_shape.tie_shape"(%11, %8) {kDiscSymbolicDimAttr = [@S3]} : (tensor<?xf32>, index) -> tensor<?xf32>
  %from_elements_2 = tensor.from_elements %5, %6 {disc.shape_op = true} : tensor<2xi32>
  %13 = mhlo.dynamic_reshape %12, %from_elements_2 {disc.device = "gpu"} : (tensor<?xf32>, tensor<2xi32>) -> tensor<?x?xf32>
  %14 = "disc_shape.tie_shape"(%13, %dim_0, %dim_1) {kDiscSymbolicDimAttr = [@S1, @S2]} : (tensor<?x?xf32>, index, index) -> tensor<?x?xf32>
  return %14 : tensor<?x?xf32>
}

// -----// IR Dump After FuncBufferize (func-bufferize) //----- //
module {
  func.func @main(%arg0: memref<?x?x?xf32>) -> memref<?x?xf32> attributes {tf.entry_function = {input_placements = "gpu", inputs = "input0", output_placements = "gpu", outputs = "output0"}} {
    %0 = bufferization.to_tensor %arg0 : memref<?x?x?xf32>
    %c0 = arith.constant 0 : index
    %c1 = arith.constant 1 : index
    %c2 = arith.constant 2 : index
    %1 = mhlo.constant {disc.device = "gpu"} dense<0xFF800000> : tensor<f32>
    %dim = tensor.dim %0, %c0 : tensor<?x?x?xf32>
    %dim_0 = tensor.dim %0, %c1 : tensor<?x?x?xf32>
    %dim_1 = tensor.dim %0, %c2 : tensor<?x?x?xf32>
    %2 = "disc_shape.tie_shape"(%0, %dim, %dim_0, %dim_1) {kDiscSymbolicDimAttr = [@S0, @S1, @S2]} : (tensor<?x?x?xf32>, index, index, index) -> tensor<?x?x?xf32>
    %3 = mhlo.abs %2 {disc.device = "gpu"} : tensor<?x?x?xf32>
    %4 = "disc_shape.tie_shape"(%3, %dim, %dim_0, %dim_1) {kDiscSymbolicDimAttr = [@S0, @S1, @S2]} : (tensor<?x?x?xf32>, index, index, index) -> tensor<?x?x?xf32>
    %5 = arith.index_cast %dim : index to i32
    %6 = arith.index_cast %dim_0 : index to i32
    %7 = arith.index_cast %dim_1 : index to i32
    %8 = arith.muli %6, %7 : i32
    %from_elements = tensor.from_elements %5, %8 {disc.shape_op = true} : tensor<2xi32>
    %9 = arith.index_cast %8 : i32 to index
    %10 = mhlo.dynamic_reshape %4, %from_elements {disc.device = "gpu"} : (tensor<?x?x?xf32>, tensor<2xi32>) -> tensor<?x?xf32>
    %11 = "disc_shape.tie_shape"(%10, %dim, %9) {kDiscSymbolicDimAttr = [@S0, @S3]} : (tensor<?x?xf32>, index, index) -> tensor<?x?xf32>
    %12 = mhlo.reduce(%11 init: %1) applies mhlo.maximum across dimensions = [0] : (tensor<?x?xf32>, tensor<f32>) -> tensor<?xf32>
    %13 = "disc_shape.tie_shape"(%12, %9) {kDiscSymbolicDimAttr = [@S3]} : (tensor<?xf32>, index) -> tensor<?xf32>
    %from_elements_2 = tensor.from_elements %6, %7 {disc.shape_op = true} : tensor<2xi32>
    %14 = mhlo.dynamic_reshape %13, %from_elements_2 {disc.device = "gpu"} : (tensor<?xf32>, tensor<2xi32>) -> tensor<?x?xf32>
    %15 = "disc_shape.tie_shape"(%14, %dim_0, %dim_1) {kDiscSymbolicDimAttr = [@S1, @S2]} : (tensor<?x?xf32>, index, index) -> tensor<?x?xf32>
    %16 = bufferization.to_memref %15 : memref<?x?xf32>
    return %16 : memref<?x?xf32>
  }
  "disc_shape.SymbolicDim"() {knownNegativeOne = false, knownNonNegative = true, knownNonSizeOne = false, knownNonSizeZero = false, sym_name = "S0", value = -9223372036854775808 : i64} : () -> ()
  "disc_shape.SymbolicDim"() {knownNegativeOne = false, knownNonNegative = true, knownNonSizeOne = false, knownNonSizeZero = false, sym_name = "S1", value = -9223372036854775808 : i64} : () -> ()
  "disc_shape.SymbolicDim"() {knownNegativeOne = false, knownNonNegative = true, knownNonSizeOne = false, knownNonSizeZero = false, sym_name = "S2", value = -9223372036854775808 : i64} : () -> ()
  "disc_shape.SymbolicDim"() {knownNegativeOne = false, knownNonNegative = true, knownNonSizeOne = false, knownNonSizeZero = false, sym_name = "S3", value = -9223372036854775808 : i64} : () -> ()
  func.func @shape_constraint_graph() {
    %0 = "disc_shape.dim"() {name = @S3} : () -> index
    %1 = "disc_shape.dim"() {name = @S1} : () -> index
    %2 = "disc_shape.dim"() {name = @S2} : () -> index
    "disc_shape.tie_product_equal"(%0, %1, %2) {operand_segment_sizes = array<i32: 1, 2>} : (index, index, index) -> ()
    return
  }
}


// -----// IR Dump After DiscHloLegalizeToLhloPass (disc-hlo-legalize-to-lhlo) //----- //
module {
  func.func @main(%arg0: memref<?x?x?xf32>) -> memref<?x?xf32> attributes {tf.entry_function = {input_placements = "gpu", inputs = "input0", output_placements = "gpu", outputs = "output0"}} {
    %0 = bufferization.to_tensor %arg0 : memref<?x?x?xf32>
    %1 = bufferization.to_memref %0 : memref<?x?x?xf32>
    %c0 = arith.constant 0 : index
    %c1 = arith.constant 1 : index
    %c2 = arith.constant 2 : index
    %2 = mhlo.constant {disc.device = "gpu"} dense<0xFF800000> : tensor<f32>
    %dim = tensor.dim %0, %c0 : tensor<?x?x?xf32>
    %dim_0 = tensor.dim %0, %c1 : tensor<?x?x?xf32>
    %dim_1 = tensor.dim %0, %c2 : tensor<?x?x?xf32>
    %c1_2 = arith.constant 1 : index
    %3 = arith.muli %c1_2, %dim_1 : index
    %4 = arith.muli %3, %dim_0 : index
    %5 = arith.muli %4, %dim : index
    %reinterpret_cast = memref.reinterpret_cast %1 to offset: [0], sizes: [%dim, %dim_0, %dim_1], strides: [%4, %3, 1] {kDiscSymbolicDimAttr = [@S0, @S1, @S2]} : memref<?x?x?xf32> to memref<?x?x?xf32>
    %6 = bufferization.to_tensor %reinterpret_cast : memref<?x?x?xf32>
    %7 = mhlo.abs %6 {disc.device = "gpu"} : tensor<?x?x?xf32>
    %8 = bufferization.to_memref %7 : memref<?x?x?xf32>
    %c1_3 = arith.constant 1 : index
    %9 = arith.muli %c1_3, %dim_1 : index
    %10 = arith.muli %9, %dim_0 : index
    %11 = arith.muli %10, %dim : index
    %reinterpret_cast_4 = memref.reinterpret_cast %8 to offset: [0], sizes: [%dim, %dim_0, %dim_1], strides: [%10, %9, 1] {kDiscSymbolicDimAttr = [@S0, @S1, @S2]} : memref<?x?x?xf32> to memref<?x?x?xf32>
    %12 = bufferization.to_tensor %reinterpret_cast_4 : memref<?x?x?xf32>
    %13 = arith.index_cast %dim : index to i32
    %14 = arith.index_cast %dim_0 : index to i32
    %15 = arith.index_cast %dim_1 : index to i32
    %16 = arith.muli %14, %15 : i32
    %from_elements = tensor.from_elements %13, %16 {disc.shape_op = true} : tensor<2xi32>
    %17 = arith.index_cast %16 : i32 to index
    %18 = mhlo.dynamic_reshape %12, %from_elements {disc.device = "gpu"} : (tensor<?x?x?xf32>, tensor<2xi32>) -> tensor<?x?xf32>
    %19 = bufferization.to_memref %18 : memref<?x?xf32>
    %c1_5 = arith.constant 1 : index
    %20 = arith.muli %c1_5, %17 : index
    %21 = arith.muli %20, %dim : index
    %reinterpret_cast_6 = memref.reinterpret_cast %19 to offset: [0], sizes: [%dim, %17], strides: [%20, 1] {kDiscSymbolicDimAttr = [@S0, @S3]} : memref<?x?xf32> to memref<?x?xf32>
    %22 = bufferization.to_tensor %reinterpret_cast_6 : memref<?x?xf32>
    %23 = mhlo.reduce(%22 init: %2) applies mhlo.maximum across dimensions = [0] : (tensor<?x?xf32>, tensor<f32>) -> tensor<?xf32>
    %24 = bufferization.to_memref %23 : memref<?xf32>
    %c1_7 = arith.constant 1 : index
    %25 = arith.muli %c1_7, %17 : index
    %reinterpret_cast_8 = memref.reinterpret_cast %24 to offset: [0], sizes: [%17], strides: [1] {kDiscSymbolicDimAttr = [@S3]} : memref<?xf32> to memref<?xf32>
    %26 = bufferization.to_tensor %reinterpret_cast_8 : memref<?xf32>
    %from_elements_9 = tensor.from_elements %14, %15 {disc.shape_op = true} : tensor<2xi32>
    %27 = mhlo.dynamic_reshape %26, %from_elements_9 {disc.device = "gpu"} : (tensor<?xf32>, tensor<2xi32>) -> tensor<?x?xf32>
    %28 = bufferization.to_memref %27 : memref<?x?xf32>
    %c1_10 = arith.constant 1 : index
    %29 = arith.muli %c1_10, %dim_1 : index
    %30 = arith.muli %29, %dim_0 : index
    %reinterpret_cast_11 = memref.reinterpret_cast %28 to offset: [0], sizes: [%dim_0, %dim_1], strides: [%29, 1] {kDiscSymbolicDimAttr = [@S1, @S2]} : memref<?x?xf32> to memref<?x?xf32>
    %31 = bufferization.to_tensor %reinterpret_cast_11 : memref<?x?xf32>
    %32 = bufferization.to_memref %31 : memref<?x?xf32>
    return %32 : memref<?x?xf32>
  }
  "disc_shape.SymbolicDim"() {knownNegativeOne = false, knownNonNegative = true, knownNonSizeOne = false, knownNonSizeZero = false, sym_name = "S0", value = -9223372036854775808 : i64} : () -> ()
  "disc_shape.SymbolicDim"() {knownNegativeOne = false, knownNonNegative = true, knownNonSizeOne = false, knownNonSizeZero = false, sym_name = "S1", value = -9223372036854775808 : i64} : () -> ()
  "disc_shape.SymbolicDim"() {knownNegativeOne = false, knownNonNegative = true, knownNonSizeOne = false, knownNonSizeZero = false, sym_name = "S2", value = -9223372036854775808 : i64} : () -> ()
  "disc_shape.SymbolicDim"() {knownNegativeOne = false, knownNonNegative = true, knownNonSizeOne = false, knownNonSizeZero = false, sym_name = "S3", value = -9223372036854775808 : i64} : () -> ()
  func.func @shape_constraint_graph() {
    %0 = "disc_shape.dim"() {name = @S3} : () -> index
    %1 = "disc_shape.dim"() {name = @S1} : () -> index
    %2 = "disc_shape.dim"() {name = @S2} : () -> index
    "disc_shape.tie_product_equal"(%0, %1, %2) {operand_segment_sizes = array<i32: 1, 2>} : (index, index, index) -> ()
    return
  }
}


// -----// IR Dump After HloLegalizeToLhloPass (hlo-legalize-to-lhlo) //----- //
module {
  func.func @main(%arg0: memref<?x?x?xf32>) -> memref<?x?xf32> attributes {tf.entry_function = {input_placements = "gpu", inputs = "input0", output_placements = "gpu", outputs = "output0"}} {
    %0 = bufferization.to_tensor %arg0 : memref<?x?x?xf32>
    %c0 = arith.constant 0 : index
    %c1 = arith.constant 1 : index
    %c2 = arith.constant 2 : index
    %alloc = memref.alloc() : memref<f32>
    "lmhlo.constant"(%alloc) {disc.device = "gpu", value = dense<0xFF800000> : tensor<f32>} : (memref<f32>) -> ()
    %dim = tensor.dim %0, %c0 : tensor<?x?x?xf32>
    %dim_0 = tensor.dim %0, %c1 : tensor<?x?x?xf32>
    %dim_1 = tensor.dim %0, %c2 : tensor<?x?x?xf32>
    %c1_2 = arith.constant 1 : index
    %1 = arith.muli %c1_2, %dim_1 : index
    %2 = arith.muli %1, %dim_0 : index
    %3 = arith.muli %2, %dim : index
    %reinterpret_cast = memref.reinterpret_cast %arg0 to offset: [0], sizes: [%dim, %dim_0, %dim_1], strides: [%2, %1, 1] {kDiscSymbolicDimAttr = [@S0, @S1, @S2]} : memref<?x?x?xf32> to memref<?x?x?xf32>
    %4 = bufferization.to_tensor %reinterpret_cast : memref<?x?x?xf32>
    %5 = bufferization.to_memref %4 : memref<?x?x?xf32>
    %6 = bufferization.to_tensor %5 : memref<?x?x?xf32>
    %7 = shape.shape_of %6 : tensor<?x?x?xf32> -> tensor<3xindex>
    %c0_3 = arith.constant 0 : index
    %extracted = tensor.extract %7[%c0_3] : tensor<3xindex>
    %c1_4 = arith.constant 1 : index
    %extracted_5 = tensor.extract %7[%c1_4] : tensor<3xindex>
    %c2_6 = arith.constant 2 : index
    %extracted_7 = tensor.extract %7[%c2_6] : tensor<3xindex>
    %alloc_8 = memref.alloc(%extracted, %extracted_5, %extracted_7) : memref<?x?x?xf32>
    "lmhlo.abs"(%5, %alloc_8) {disc.device = "gpu"} : (memref<?x?x?xf32>, memref<?x?x?xf32>) -> ()
    %8 = bufferization.to_tensor %alloc_8 : memref<?x?x?xf32>
    %9 = bufferization.to_memref %8 : memref<?x?x?xf32>
    %c1_9 = arith.constant 1 : index
    %10 = arith.muli %c1_9, %dim_1 : index
    %11 = arith.muli %10, %dim_0 : index
    %12 = arith.muli %11, %dim : index
    %reinterpret_cast_10 = memref.reinterpret_cast %9 to offset: [0], sizes: [%dim, %dim_0, %dim_1], strides: [%11, %10, 1] {kDiscSymbolicDimAttr = [@S0, @S1, @S2]} : memref<?x?x?xf32> to memref<?x?x?xf32>
    %13 = bufferization.to_tensor %reinterpret_cast_10 : memref<?x?x?xf32>
    %14 = bufferization.to_memref %13 : memref<?x?x?xf32>
    %15 = arith.index_cast %dim : index to i32
    %16 = arith.index_cast %dim_0 : index to i32
    %17 = arith.index_cast %dim_1 : index to i32
    %18 = arith.muli %16, %17 : i32
    %from_elements = tensor.from_elements %15, %18 {disc.shape_op = true} : tensor<2xi32>
    %19 = bufferization.to_memref %from_elements : memref<2xi32>
    %20 = arith.index_cast %18 : i32 to index
    %21 = bufferization.to_tensor %14 : memref<?x?x?xf32>
    %22 = bufferization.to_tensor %19 : memref<2xi32>
    %23 = arith.index_cast %22 : tensor<2xi32> to tensor<2xindex>
    %c0_11 = arith.constant 0 : index
    %extracted_12 = tensor.extract %23[%c0_11] : tensor<2xindex>
    %c1_13 = arith.constant 1 : index
    %extracted_14 = tensor.extract %23[%c1_13] : tensor<2xindex>
    %alloc_15 = memref.alloc(%extracted_12, %extracted_14) : memref<?x?xf32>
    "lmhlo.dynamic_reshape"(%14, %19, %alloc_15) {disc.device = "gpu"} : (memref<?x?x?xf32>, memref<2xi32>, memref<?x?xf32>) -> ()
    %24 = bufferization.to_tensor %alloc_15 : memref<?x?xf32>
    %25 = bufferization.to_memref %24 : memref<?x?xf32>
    %c1_16 = arith.constant 1 : index
    %26 = arith.muli %c1_16, %20 : index
    %27 = arith.muli %26, %dim : index
    %reinterpret_cast_17 = memref.reinterpret_cast %25 to offset: [0], sizes: [%dim, %20], strides: [%26, 1] {kDiscSymbolicDimAttr = [@S0, @S3]} : memref<?x?xf32> to memref<?x?xf32>
    %28 = bufferization.to_tensor %reinterpret_cast_17 : memref<?x?xf32>
    %29 = bufferization.to_memref %28 : memref<?x?xf32>
    %30 = bufferization.to_tensor %29 : memref<?x?xf32>
    %31 = bufferization.to_tensor %alloc : memref<f32>
    %c1_18 = arith.constant 1 : index
    %dim_19 = tensor.dim %30, %c1_18 : tensor<?x?xf32>
    %from_elements_20 = tensor.from_elements %dim_19 : tensor<1xindex>
    %c0_21 = arith.constant 0 : index
    %extracted_22 = tensor.extract %from_elements_20[%c0_21] : tensor<1xindex>
    %alloc_23 = memref.alloc(%extracted_22) : memref<?xf32>
    "lmhlo.reduce"(%29, %alloc, %alloc_23) ({
    ^bb0(%arg1: memref<f32>, %arg2: memref<f32>, %arg3: memref<f32>):
      %alloc_34 = memref.alloc() : memref<f32>
      "lmhlo.maximum"(%arg1, %arg2, %alloc_34) {disc.device = "gpu"} : (memref<f32>, memref<f32>, memref<f32>) -> ()
      "lmhlo.copy"(%alloc_34, %arg3) : (memref<f32>, memref<f32>) -> ()
      "lmhlo.terminator"() : () -> ()
    }) {dimensions = dense<0> : tensor<1xi64>, disc.device = "gpu"} : (memref<?x?xf32>, memref<f32>, memref<?xf32>) -> ()
    %32 = bufferization.to_tensor %alloc_23 : memref<?xf32>
    %33 = bufferization.to_memref %32 : memref<?xf32>
    %c1_24 = arith.constant 1 : index
    %34 = arith.muli %c1_24, %20 : index
    %reinterpret_cast_25 = memref.reinterpret_cast %33 to offset: [0], sizes: [%20], strides: [1] {kDiscSymbolicDimAttr = [@S3]} : memref<?xf32> to memref<?xf32>
    %35 = bufferization.to_tensor %reinterpret_cast_25 : memref<?xf32>
    %36 = bufferization.to_memref %35 : memref<?xf32>
    %from_elements_26 = tensor.from_elements %16, %17 {disc.shape_op = true} : tensor<2xi32>
    %37 = bufferization.to_memref %from_elements_26 : memref<2xi32>
    %38 = bufferization.to_tensor %36 : memref<?xf32>
    %39 = bufferization.to_tensor %37 : memref<2xi32>
    %40 = arith.index_cast %39 : tensor<2xi32> to tensor<2xindex>
    %c0_27 = arith.constant 0 : index
    %extracted_28 = tensor.extract %40[%c0_27] : tensor<2xindex>
    %c1_29 = arith.constant 1 : index
    %extracted_30 = tensor.extract %40[%c1_29] : tensor<2xindex>
    %alloc_31 = memref.alloc(%extracted_28, %extracted_30) : memref<?x?xf32>
    "lmhlo.dynamic_reshape"(%36, %37, %alloc_31) {disc.device = "gpu"} : (memref<?xf32>, memref<2xi32>, memref<?x?xf32>) -> ()
    %41 = bufferization.to_tensor %alloc_31 : memref<?x?xf32>
    %42 = bufferization.to_memref %41 : memref<?x?xf32>
    %c1_32 = arith.constant 1 : index
    %43 = arith.muli %c1_32, %dim_1 : index
    %44 = arith.muli %43, %dim_0 : index
    %reinterpret_cast_33 = memref.reinterpret_cast %42 to offset: [0], sizes: [%dim_0, %dim_1], strides: [%43, 1] {kDiscSymbolicDimAttr = [@S1, @S2]} : memref<?x?xf32> to memref<?x?xf32>
    return %reinterpret_cast_33 : memref<?x?xf32>
  }
  "disc_shape.SymbolicDim"() {knownNegativeOne = false, knownNonNegative = true, knownNonSizeOne = false, knownNonSizeZero = false, sym_name = "S0", value = -9223372036854775808 : i64} : () -> ()
  "disc_shape.SymbolicDim"() {knownNegativeOne = false, knownNonNegative = true, knownNonSizeOne = false, knownNonSizeZero = false, sym_name = "S1", value = -9223372036854775808 : i64} : () -> ()
  "disc_shape.SymbolicDim"() {knownNegativeOne = false, knownNonNegative = true, knownNonSizeOne = false, knownNonSizeZero = false, sym_name = "S2", value = -9223372036854775808 : i64} : () -> ()
  "disc_shape.SymbolicDim"() {knownNegativeOne = false, knownNonNegative = true, knownNonSizeOne = false, knownNonSizeZero = false, sym_name = "S3", value = -9223372036854775808 : i64} : () -> ()
  func.func @shape_constraint_graph() {
    %0 = "disc_shape.dim"() {name = @S3} : () -> index
    %1 = "disc_shape.dim"() {name = @S1} : () -> index
    %2 = "disc_shape.dim"() {name = @S2} : () -> index
    "disc_shape.tie_product_equal"(%0, %1, %2) {operand_segment_sizes = array<i32: 1, 2>} : (index, index, index) -> ()
    return
  }
}


// -----// IR Dump After Canonicalizer (canonicalize) //----- //
func.func @main(%arg0: memref<?x?x?xf32>) -> memref<?x?xf32> attributes {tf.entry_function = {input_placements = "gpu", inputs = "input0", output_placements = "gpu", outputs = "output0"}} {
  %c2 = arith.constant 2 : index
  %c1 = arith.constant 1 : index
  %c0 = arith.constant 0 : index
  %alloc = memref.alloc() : memref<f32>
  "lmhlo.constant"(%alloc) {disc.device = "gpu", value = dense<0xFF800000> : tensor<f32>} : (memref<f32>) -> ()
  %dim = memref.dim %arg0, %c0 : memref<?x?x?xf32>
  %dim_0 = memref.dim %arg0, %c1 : memref<?x?x?xf32>
  %dim_1 = memref.dim %arg0, %c2 : memref<?x?x?xf32>
  %0 = arith.muli %dim_1, %dim_0 : index
  %reinterpret_cast = memref.reinterpret_cast %arg0 to offset: [0], sizes: [%dim, %dim_0, %dim_1], strides: [%0, %dim_1, 1] {kDiscSymbolicDimAttr = [@S0, @S1, @S2]} : memref<?x?x?xf32> to memref<?x?x?xf32>
  %alloc_2 = memref.alloc(%dim, %dim_0, %dim_1) : memref<?x?x?xf32>
  "lmhlo.abs"(%reinterpret_cast, %alloc_2) {disc.device = "gpu"} : (memref<?x?x?xf32>, memref<?x?x?xf32>) -> ()
  %1 = arith.muli %dim_1, %dim_0 : index
  %reinterpret_cast_3 = memref.reinterpret_cast %alloc_2 to offset: [0], sizes: [%dim, %dim_0, %dim_1], strides: [%1, %dim_1, 1] {kDiscSymbolicDimAttr = [@S0, @S1, @S2]} : memref<?x?x?xf32> to memref<?x?x?xf32>
  %2 = arith.index_cast %dim : index to i32
  %3 = arith.index_cast %dim_0 : index to i32
  %4 = arith.index_cast %dim_1 : index to i32
  %5 = arith.muli %3, %4 : i32
  %from_elements = tensor.from_elements %2, %5 {disc.shape_op = true} : tensor<2xi32>
  %6 = bufferization.to_memref %from_elements : memref<2xi32>
  %7 = arith.index_cast %5 : i32 to index
  %8 = bufferization.to_tensor %6 : memref<2xi32>
  %extracted = tensor.extract %8[%c0] : tensor<2xi32>
  %9 = arith.index_cast %extracted : i32 to index
  %extracted_4 = tensor.extract %8[%c1] : tensor<2xi32>
  %10 = arith.index_cast %extracted_4 : i32 to index
  %alloc_5 = memref.alloc(%9, %10) : memref<?x?xf32>
  "lmhlo.dynamic_reshape"(%reinterpret_cast_3, %6, %alloc_5) {disc.device = "gpu"} : (memref<?x?x?xf32>, memref<2xi32>, memref<?x?xf32>) -> ()
  %reinterpret_cast_6 = memref.reinterpret_cast %alloc_5 to offset: [0], sizes: [%dim, %7], strides: [%7, 1] {kDiscSymbolicDimAttr = [@S0, @S3]} : memref<?x?xf32> to memref<?x?xf32>
  %alloc_7 = memref.alloc(%7) : memref<?xf32>
  "lmhlo.reduce"(%reinterpret_cast_6, %alloc, %alloc_7) ({
  ^bb0(%arg1: memref<f32>, %arg2: memref<f32>, %arg3: memref<f32>):
    "lmhlo.maximum"(%arg1, %arg2, %arg3) {disc.device = "gpu"} : (memref<f32>, memref<f32>, memref<f32>) -> ()
    "lmhlo.terminator"() : () -> ()
  }) {dimensions = dense<0> : tensor<1xi64>, disc.device = "gpu"} : (memref<?x?xf32>, memref<f32>, memref<?xf32>) -> ()
  %reinterpret_cast_8 = memref.reinterpret_cast %alloc_7 to offset: [0], sizes: [%7], strides: [1] {kDiscSymbolicDimAttr = [@S3]} : memref<?xf32> to memref<?xf32>
  %from_elements_9 = tensor.from_elements %3, %4 {disc.shape_op = true} : tensor<2xi32>
  %11 = bufferization.to_memref %from_elements_9 : memref<2xi32>
  %alloc_10 = memref.alloc(%dim_0, %dim_1) : memref<?x?xf32>
  "lmhlo.dynamic_reshape"(%reinterpret_cast_8, %11, %alloc_10) {disc.device = "gpu"} : (memref<?xf32>, memref<2xi32>, memref<?x?xf32>) -> ()
  %reinterpret_cast_11 = memref.reinterpret_cast %alloc_10 to offset: [0], sizes: [%dim_0, %dim_1], strides: [%dim_1, 1] {kDiscSymbolicDimAttr = [@S1, @S2]} : memref<?x?xf32> to memref<?x?xf32>
  return %reinterpret_cast_11 : memref<?x?xf32>
}

// -----// IR Dump After CSE (cse) //----- //
func.func @main(%arg0: memref<?x?x?xf32>) -> memref<?x?xf32> attributes {tf.entry_function = {input_placements = "gpu", inputs = "input0", output_placements = "gpu", outputs = "output0"}} {
  %c2 = arith.constant 2 : index
  %c1 = arith.constant 1 : index
  %c0 = arith.constant 0 : index
  %alloc = memref.alloc() : memref<f32>
  "lmhlo.constant"(%alloc) {disc.device = "gpu", value = dense<0xFF800000> : tensor<f32>} : (memref<f32>) -> ()
  %dim = memref.dim %arg0, %c0 : memref<?x?x?xf32>
  %dim_0 = memref.dim %arg0, %c1 : memref<?x?x?xf32>
  %dim_1 = memref.dim %arg0, %c2 : memref<?x?x?xf32>
  %0 = arith.muli %dim_1, %dim_0 : index
  %reinterpret_cast = memref.reinterpret_cast %arg0 to offset: [0], sizes: [%dim, %dim_0, %dim_1], strides: [%0, %dim_1, 1] {kDiscSymbolicDimAttr = [@S0, @S1, @S2]} : memref<?x?x?xf32> to memref<?x?x?xf32>
  %alloc_2 = memref.alloc(%dim, %dim_0, %dim_1) : memref<?x?x?xf32>
  "lmhlo.abs"(%reinterpret_cast, %alloc_2) {disc.device = "gpu"} : (memref<?x?x?xf32>, memref<?x?x?xf32>) -> ()
  %reinterpret_cast_3 = memref.reinterpret_cast %alloc_2 to offset: [0], sizes: [%dim, %dim_0, %dim_1], strides: [%0, %dim_1, 1] {kDiscSymbolicDimAttr = [@S0, @S1, @S2]} : memref<?x?x?xf32> to memref<?x?x?xf32>
  %1 = arith.index_cast %dim : index to i32
  %2 = arith.index_cast %dim_0 : index to i32
  %3 = arith.index_cast %dim_1 : index to i32
  %4 = arith.muli %2, %3 : i32
  %from_elements = tensor.from_elements %1, %4 {disc.shape_op = true} : tensor<2xi32>
  %5 = bufferization.to_memref %from_elements : memref<2xi32>
  %6 = arith.index_cast %4 : i32 to index
  %7 = bufferization.to_tensor %5 : memref<2xi32>
  %extracted = tensor.extract %7[%c0] : tensor<2xi32>
  %8 = arith.index_cast %extracted : i32 to index
  %extracted_4 = tensor.extract %7[%c1] : tensor<2xi32>
  %9 = arith.index_cast %extracted_4 : i32 to index
  %alloc_5 = memref.alloc(%8, %9) : memref<?x?xf32>
  "lmhlo.dynamic_reshape"(%reinterpret_cast_3, %5, %alloc_5) {disc.device = "gpu"} : (memref<?x?x?xf32>, memref<2xi32>, memref<?x?xf32>) -> ()
  %reinterpret_cast_6 = memref.reinterpret_cast %alloc_5 to offset: [0], sizes: [%dim, %6], strides: [%6, 1] {kDiscSymbolicDimAttr = [@S0, @S3]} : memref<?x?xf32> to memref<?x?xf32>
  %alloc_7 = memref.alloc(%6) : memref<?xf32>
  "lmhlo.reduce"(%reinterpret_cast_6, %alloc, %alloc_7) ({
  ^bb0(%arg1: memref<f32>, %arg2: memref<f32>, %arg3: memref<f32>):
    "lmhlo.maximum"(%arg1, %arg2, %arg3) {disc.device = "gpu"} : (memref<f32>, memref<f32>, memref<f32>) -> ()
    "lmhlo.terminator"() : () -> ()
  }) {dimensions = dense<0> : tensor<1xi64>, disc.device = "gpu"} : (memref<?x?xf32>, memref<f32>, memref<?xf32>) -> ()
  %reinterpret_cast_8 = memref.reinterpret_cast %alloc_7 to offset: [0], sizes: [%6], strides: [1] {kDiscSymbolicDimAttr = [@S3]} : memref<?xf32> to memref<?xf32>
  %from_elements_9 = tensor.from_elements %2, %3 {disc.shape_op = true} : tensor<2xi32>
  %10 = bufferization.to_memref %from_elements_9 : memref<2xi32>
  %alloc_10 = memref.alloc(%dim_0, %dim_1) : memref<?x?xf32>
  "lmhlo.dynamic_reshape"(%reinterpret_cast_8, %10, %alloc_10) {disc.device = "gpu"} : (memref<?xf32>, memref<2xi32>, memref<?x?xf32>) -> ()
  %reinterpret_cast_11 = memref.reinterpret_cast %alloc_10 to offset: [0], sizes: [%dim_0, %dim_1], strides: [%dim_1, 1] {kDiscSymbolicDimAttr = [@S1, @S2]} : memref<?x?xf32> to memref<?x?xf32>
  return %reinterpret_cast_11 : memref<?x?xf32>
}

// -----// IR Dump After LegalizeToTensorOpPass (lhlo-legalize-to-tensor-op) //----- //
func.func @main(%arg0: memref<?x?x?xf32>) -> memref<?x?xf32> attributes {tf.entry_function = {input_placements = "gpu", inputs = "input0", output_placements = "gpu", outputs = "output0"}} {
  %c2 = arith.constant 2 : index
  %c1 = arith.constant 1 : index
  %c0 = arith.constant 0 : index
  %alloc = memref.alloc() : memref<f32>
  "lmhlo.constant"(%alloc) {disc.device = "gpu", value = dense<0xFF800000> : tensor<f32>} : (memref<f32>) -> ()
  %dim = memref.dim %arg0, %c0 : memref<?x?x?xf32>
  %dim_0 = memref.dim %arg0, %c1 : memref<?x?x?xf32>
  %dim_1 = memref.dim %arg0, %c2 : memref<?x?x?xf32>
  %0 = arith.muli %dim_1, %dim_0 : index
  %reinterpret_cast = memref.reinterpret_cast %arg0 to offset: [0], sizes: [%dim, %dim_0, %dim_1], strides: [%0, %dim_1, 1] {kDiscSymbolicDimAttr = [@S0, @S1, @S2]} : memref<?x?x?xf32> to memref<?x?x?xf32>
  %alloc_2 = memref.alloc(%dim, %dim_0, %dim_1) : memref<?x?x?xf32>
  "lmhlo.abs"(%reinterpret_cast, %alloc_2) {disc.device = "gpu"} : (memref<?x?x?xf32>, memref<?x?x?xf32>) -> ()
  %reinterpret_cast_3 = memref.reinterpret_cast %alloc_2 to offset: [0], sizes: [%dim, %dim_0, %dim_1], strides: [%0, %dim_1, 1] {kDiscSymbolicDimAttr = [@S0, @S1, @S2]} : memref<?x?x?xf32> to memref<?x?x?xf32>
  %1 = arith.index_cast %dim : index to i32
  %2 = arith.index_cast %dim_0 : index to i32
  %3 = arith.index_cast %dim_1 : index to i32
  %4 = arith.muli %2, %3 : i32
  %from_elements = tensor.from_elements %1, %4 {disc.shape_op = true} : tensor<2xi32>
  %5 = bufferization.to_memref %from_elements : memref<2xi32>
  %6 = arith.index_cast %4 : i32 to index
  %7 = memref.load %5[%c0] : memref<2xi32>
  %8 = arith.index_cast %7 : i32 to index
  %9 = memref.load %5[%c1] : memref<2xi32>
  %10 = arith.index_cast %9 : i32 to index
  %alloc_4 = memref.alloc(%8, %10) : memref<?x?xf32>
  "lmhlo.dynamic_reshape"(%reinterpret_cast_3, %5, %alloc_4) {disc.device = "gpu"} : (memref<?x?x?xf32>, memref<2xi32>, memref<?x?xf32>) -> ()
  %reinterpret_cast_5 = memref.reinterpret_cast %alloc_4 to offset: [0], sizes: [%dim, %6], strides: [%6, 1] {kDiscSymbolicDimAttr = [@S0, @S3]} : memref<?x?xf32> to memref<?x?xf32>
  %alloc_6 = memref.alloc(%6) : memref<?xf32>
  "lmhlo.reduce"(%reinterpret_cast_5, %alloc, %alloc_6) ({
  ^bb0(%arg1: memref<f32>, %arg2: memref<f32>, %arg3: memref<f32>):
    "lmhlo.maximum"(%arg1, %arg2, %arg3) {disc.device = "gpu"} : (memref<f32>, memref<f32>, memref<f32>) -> ()
    "lmhlo.terminator"() : () -> ()
  }) {dimensions = dense<0> : tensor<1xi64>, disc.device = "gpu"} : (memref<?x?xf32>, memref<f32>, memref<?xf32>) -> ()
  %reinterpret_cast_7 = memref.reinterpret_cast %alloc_6 to offset: [0], sizes: [%6], strides: [1] {kDiscSymbolicDimAttr = [@S3]} : memref<?xf32> to memref<?xf32>
  %from_elements_8 = tensor.from_elements %2, %3 {disc.shape_op = true} : tensor<2xi32>
  %11 = bufferization.to_memref %from_elements_8 : memref<2xi32>
  %alloc_9 = memref.alloc(%dim_0, %dim_1) : memref<?x?xf32>
  "lmhlo.dynamic_reshape"(%reinterpret_cast_7, %11, %alloc_9) {disc.device = "gpu"} : (memref<?xf32>, memref<2xi32>, memref<?x?xf32>) -> ()
  %reinterpret_cast_10 = memref.reinterpret_cast %alloc_9 to offset: [0], sizes: [%dim_0, %dim_1], strides: [%dim_1, 1] {kDiscSymbolicDimAttr = [@S1, @S2]} : memref<?x?xf32> to memref<?x?xf32>
  return %reinterpret_cast_10 : memref<?x?xf32>
}

// -----// IR Dump After Canonicalizer (canonicalize) //----- //
func.func @main(%arg0: memref<?x?x?xf32>) -> memref<?x?xf32> attributes {tf.entry_function = {input_placements = "gpu", inputs = "input0", output_placements = "gpu", outputs = "output0"}} {
  %c2 = arith.constant 2 : index
  %c1 = arith.constant 1 : index
  %c0 = arith.constant 0 : index
  %alloc = memref.alloc() : memref<f32>
  "lmhlo.constant"(%alloc) {disc.device = "gpu", value = dense<0xFF800000> : tensor<f32>} : (memref<f32>) -> ()
  %dim = memref.dim %arg0, %c0 : memref<?x?x?xf32>
  %dim_0 = memref.dim %arg0, %c1 : memref<?x?x?xf32>
  %dim_1 = memref.dim %arg0, %c2 : memref<?x?x?xf32>
  %0 = arith.muli %dim_1, %dim_0 : index
  %reinterpret_cast = memref.reinterpret_cast %arg0 to offset: [0], sizes: [%dim, %dim_0, %dim_1], strides: [%0, %dim_1, 1] {kDiscSymbolicDimAttr = [@S0, @S1, @S2]} : memref<?x?x?xf32> to memref<?x?x?xf32>
  %alloc_2 = memref.alloc(%dim, %dim_0, %dim_1) : memref<?x?x?xf32>
  "lmhlo.abs"(%reinterpret_cast, %alloc_2) {disc.device = "gpu"} : (memref<?x?x?xf32>, memref<?x?x?xf32>) -> ()
  %reinterpret_cast_3 = memref.reinterpret_cast %alloc_2 to offset: [0], sizes: [%dim, %dim_0, %dim_1], strides: [%0, %dim_1, 1] {kDiscSymbolicDimAttr = [@S0, @S1, @S2]} : memref<?x?x?xf32> to memref<?x?x?xf32>
  %1 = arith.index_cast %dim : index to i32
  %2 = arith.index_cast %dim_0 : index to i32
  %3 = arith.index_cast %dim_1 : index to i32
  %4 = arith.muli %2, %3 : i32
  %from_elements = tensor.from_elements %1, %4 {disc.shape_op = true} : tensor<2xi32>
  %5 = bufferization.to_memref %from_elements : memref<2xi32>
  %6 = arith.index_cast %4 : i32 to index
  %7 = arith.index_cast %4 : i32 to index
  %alloc_4 = memref.alloc(%dim, %7) : memref<?x?xf32>
  "lmhlo.dynamic_reshape"(%reinterpret_cast_3, %5, %alloc_4) {disc.device = "gpu"} : (memref<?x?x?xf32>, memref<2xi32>, memref<?x?xf32>) -> ()
  %reinterpret_cast_5 = memref.reinterpret_cast %alloc_4 to offset: [0], sizes: [%dim, %6], strides: [%6, 1] {kDiscSymbolicDimAttr = [@S0, @S3]} : memref<?x?xf32> to memref<?x?xf32>
  %alloc_6 = memref.alloc(%6) : memref<?xf32>
  "lmhlo.reduce"(%reinterpret_cast_5, %alloc, %alloc_6) ({
  ^bb0(%arg1: memref<f32>, %arg2: memref<f32>, %arg3: memref<f32>):
    "lmhlo.maximum"(%arg1, %arg2, %arg3) {disc.device = "gpu"} : (memref<f32>, memref<f32>, memref<f32>) -> ()
    "lmhlo.terminator"() : () -> ()
  }) {dimensions = dense<0> : tensor<1xi64>, disc.device = "gpu"} : (memref<?x?xf32>, memref<f32>, memref<?xf32>) -> ()
  %reinterpret_cast_7 = memref.reinterpret_cast %alloc_6 to offset: [0], sizes: [%6], strides: [1] {kDiscSymbolicDimAttr = [@S3]} : memref<?xf32> to memref<?xf32>
  %from_elements_8 = tensor.from_elements %2, %3 {disc.shape_op = true} : tensor<2xi32>
  %8 = bufferization.to_memref %from_elements_8 : memref<2xi32>
  %alloc_9 = memref.alloc(%dim_0, %dim_1) : memref<?x?xf32>
  "lmhlo.dynamic_reshape"(%reinterpret_cast_7, %8, %alloc_9) {disc.device = "gpu"} : (memref<?xf32>, memref<2xi32>, memref<?x?xf32>) -> ()
  %reinterpret_cast_10 = memref.reinterpret_cast %alloc_9 to offset: [0], sizes: [%dim_0, %dim_1], strides: [%dim_1, 1] {kDiscSymbolicDimAttr = [@S1, @S2]} : memref<?x?xf32> to memref<?x?xf32>
  return %reinterpret_cast_10 : memref<?x?xf32>
}

// -----// IR Dump After TensorBufferize (tensor-bufferize) //----- //
func.func @main(%arg0: memref<?x?x?xf32>) -> memref<?x?xf32> attributes {tf.entry_function = {input_placements = "gpu", inputs = "input0", output_placements = "gpu", outputs = "output0"}} {
  %c2 = arith.constant 2 : index
  %c1 = arith.constant 1 : index
  %c0 = arith.constant 0 : index
  %alloc = memref.alloc() : memref<f32>
  "lmhlo.constant"(%alloc) {disc.device = "gpu", value = dense<0xFF800000> : tensor<f32>} : (memref<f32>) -> ()
  %dim = memref.dim %arg0, %c0 : memref<?x?x?xf32>
  %dim_0 = memref.dim %arg0, %c1 : memref<?x?x?xf32>
  %dim_1 = memref.dim %arg0, %c2 : memref<?x?x?xf32>
  %0 = arith.muli %dim_1, %dim_0 : index
  %reinterpret_cast = memref.reinterpret_cast %arg0 to offset: [0], sizes: [%dim, %dim_0, %dim_1], strides: [%0, %dim_1, 1] {kDiscSymbolicDimAttr = [@S0, @S1, @S2]} : memref<?x?x?xf32> to memref<?x?x?xf32>
  %alloc_2 = memref.alloc(%dim, %dim_0, %dim_1) : memref<?x?x?xf32>
  "lmhlo.abs"(%reinterpret_cast, %alloc_2) {disc.device = "gpu"} : (memref<?x?x?xf32>, memref<?x?x?xf32>) -> ()
  %reinterpret_cast_3 = memref.reinterpret_cast %alloc_2 to offset: [0], sizes: [%dim, %dim_0, %dim_1], strides: [%0, %dim_1, 1] {kDiscSymbolicDimAttr = [@S0, @S1, @S2]} : memref<?x?x?xf32> to memref<?x?x?xf32>
  %1 = arith.index_cast %dim : index to i32
  %2 = arith.index_cast %dim_0 : index to i32
  %3 = arith.index_cast %dim_1 : index to i32
  %4 = arith.muli %2, %3 : i32
  %alloc_4 = memref.alloc() {alignment = 64 : i64} : memref<2xi32>
  %c0_5 = arith.constant 0 : index
  %c1_6 = arith.constant 1 : index
  memref.store %1, %alloc_4[%c0_5] : memref<2xi32>
  memref.store %4, %alloc_4[%c1_6] : memref<2xi32>
  %5 = arith.index_cast %4 : i32 to index
  %6 = arith.index_cast %4 : i32 to index
  %alloc_7 = memref.alloc(%dim, %6) : memref<?x?xf32>
  "lmhlo.dynamic_reshape"(%reinterpret_cast_3, %alloc_4, %alloc_7) {disc.device = "gpu"} : (memref<?x?x?xf32>, memref<2xi32>, memref<?x?xf32>) -> ()
  %reinterpret_cast_8 = memref.reinterpret_cast %alloc_7 to offset: [0], sizes: [%dim, %5], strides: [%5, 1] {kDiscSymbolicDimAttr = [@S0, @S3]} : memref<?x?xf32> to memref<?x?xf32>
  %alloc_9 = memref.alloc(%5) : memref<?xf32>
  "lmhlo.reduce"(%reinterpret_cast_8, %alloc, %alloc_9) ({
  ^bb0(%arg1: memref<f32>, %arg2: memref<f32>, %arg3: memref<f32>):
    "lmhlo.maximum"(%arg1, %arg2, %arg3) {disc.device = "gpu"} : (memref<f32>, memref<f32>, memref<f32>) -> ()
    "lmhlo.terminator"() : () -> ()
  }) {dimensions = dense<0> : tensor<1xi64>, disc.device = "gpu"} : (memref<?x?xf32>, memref<f32>, memref<?xf32>) -> ()
  %reinterpret_cast_10 = memref.reinterpret_cast %alloc_9 to offset: [0], sizes: [%5], strides: [1] {kDiscSymbolicDimAttr = [@S3]} : memref<?xf32> to memref<?xf32>
  %alloc_11 = memref.alloc() {alignment = 64 : i64} : memref<2xi32>
  %c0_12 = arith.constant 0 : index
  %c1_13 = arith.constant 1 : index
  memref.store %2, %alloc_11[%c0_12] : memref<2xi32>
  memref.store %3, %alloc_11[%c1_13] : memref<2xi32>
  %alloc_14 = memref.alloc(%dim_0, %dim_1) : memref<?x?xf32>
  "lmhlo.dynamic_reshape"(%reinterpret_cast_10, %alloc_11, %alloc_14) {disc.device = "gpu"} : (memref<?xf32>, memref<2xi32>, memref<?x?xf32>) -> ()
  %reinterpret_cast_15 = memref.reinterpret_cast %alloc_14 to offset: [0], sizes: [%dim_0, %dim_1], strides: [%dim_1, 1] {kDiscSymbolicDimAttr = [@S1, @S2]} : memref<?x?xf32> to memref<?x?xf32>
  return %reinterpret_cast_15 : memref<?x?xf32>
}

// -----// IR Dump After Canonicalizer (canonicalize) //----- //
func.func @main(%arg0: memref<?x?x?xf32>) -> memref<?x?xf32> attributes {tf.entry_function = {input_placements = "gpu", inputs = "input0", output_placements = "gpu", outputs = "output0"}} {
  %c2 = arith.constant 2 : index
  %c1 = arith.constant 1 : index
  %c0 = arith.constant 0 : index
  %alloc = memref.alloc() : memref<f32>
  "lmhlo.constant"(%alloc) {disc.device = "gpu", value = dense<0xFF800000> : tensor<f32>} : (memref<f32>) -> ()
  %dim = memref.dim %arg0, %c0 : memref<?x?x?xf32>
  %dim_0 = memref.dim %arg0, %c1 : memref<?x?x?xf32>
  %dim_1 = memref.dim %arg0, %c2 : memref<?x?x?xf32>
  %0 = arith.muli %dim_1, %dim_0 : index
  %reinterpret_cast = memref.reinterpret_cast %arg0 to offset: [0], sizes: [%dim, %dim_0, %dim_1], strides: [%0, %dim_1, 1] {kDiscSymbolicDimAttr = [@S0, @S1, @S2]} : memref<?x?x?xf32> to memref<?x?x?xf32>
  %alloc_2 = memref.alloc(%dim, %dim_0, %dim_1) : memref<?x?x?xf32>
  "lmhlo.abs"(%reinterpret_cast, %alloc_2) {disc.device = "gpu"} : (memref<?x?x?xf32>, memref<?x?x?xf32>) -> ()
  %reinterpret_cast_3 = memref.reinterpret_cast %alloc_2 to offset: [0], sizes: [%dim, %dim_0, %dim_1], strides: [%0, %dim_1, 1] {kDiscSymbolicDimAttr = [@S0, @S1, @S2]} : memref<?x?x?xf32> to memref<?x?x?xf32>
  %1 = arith.index_cast %dim : index to i32
  %2 = arith.index_cast %dim_0 : index to i32
  %3 = arith.index_cast %dim_1 : index to i32
  %4 = arith.muli %2, %3 : i32
  %alloc_4 = memref.alloc() {alignment = 64 : i64} : memref<2xi32>
  memref.store %1, %alloc_4[%c0] : memref<2xi32>
  memref.store %4, %alloc_4[%c1] : memref<2xi32>
  %5 = arith.index_cast %4 : i32 to index
  %6 = arith.index_cast %4 : i32 to index
  %alloc_5 = memref.alloc(%dim, %6) : memref<?x?xf32>
  "lmhlo.dynamic_reshape"(%reinterpret_cast_3, %alloc_4, %alloc_5) {disc.device = "gpu"} : (memref<?x?x?xf32>, memref<2xi32>, memref<?x?xf32>) -> ()
  %reinterpret_cast_6 = memref.reinterpret_cast %alloc_5 to offset: [0], sizes: [%dim, %5], strides: [%5, 1] {kDiscSymbolicDimAttr = [@S0, @S3]} : memref<?x?xf32> to memref<?x?xf32>
  %alloc_7 = memref.alloc(%5) : memref<?xf32>
  "lmhlo.reduce"(%reinterpret_cast_6, %alloc, %alloc_7) ({
  ^bb0(%arg1: memref<f32>, %arg2: memref<f32>, %arg3: memref<f32>):
    "lmhlo.maximum"(%arg1, %arg2, %arg3) {disc.device = "gpu"} : (memref<f32>, memref<f32>, memref<f32>) -> ()
    "lmhlo.terminator"() : () -> ()
  }) {dimensions = dense<0> : tensor<1xi64>, disc.device = "gpu"} : (memref<?x?xf32>, memref<f32>, memref<?xf32>) -> ()
  %reinterpret_cast_8 = memref.reinterpret_cast %alloc_7 to offset: [0], sizes: [%5], strides: [1] {kDiscSymbolicDimAttr = [@S3]} : memref<?xf32> to memref<?xf32>
  %alloc_9 = memref.alloc() {alignment = 64 : i64} : memref<2xi32>
  memref.store %2, %alloc_9[%c0] : memref<2xi32>
  memref.store %3, %alloc_9[%c1] : memref<2xi32>
  %alloc_10 = memref.alloc(%dim_0, %dim_1) : memref<?x?xf32>
  "lmhlo.dynamic_reshape"(%reinterpret_cast_8, %alloc_9, %alloc_10) {disc.device = "gpu"} : (memref<?xf32>, memref<2xi32>, memref<?x?xf32>) -> ()
  %reinterpret_cast_11 = memref.reinterpret_cast %alloc_10 to offset: [0], sizes: [%dim_0, %dim_1], strides: [%dim_1, 1] {kDiscSymbolicDimAttr = [@S1, @S2]} : memref<?x?xf32> to memref<?x?xf32>
  return %reinterpret_cast_11 : memref<?x?xf32>
}

// -----// IR Dump After CSE (cse) //----- //
func.func @main(%arg0: memref<?x?x?xf32>) -> memref<?x?xf32> attributes {tf.entry_function = {input_placements = "gpu", inputs = "input0", output_placements = "gpu", outputs = "output0"}} {
  %c2 = arith.constant 2 : index
  %c1 = arith.constant 1 : index
  %c0 = arith.constant 0 : index
  %alloc = memref.alloc() : memref<f32>
  "lmhlo.constant"(%alloc) {disc.device = "gpu", value = dense<0xFF800000> : tensor<f32>} : (memref<f32>) -> ()
  %dim = memref.dim %arg0, %c0 : memref<?x?x?xf32>
  %dim_0 = memref.dim %arg0, %c1 : memref<?x?x?xf32>
  %dim_1 = memref.dim %arg0, %c2 : memref<?x?x?xf32>
  %0 = arith.muli %dim_1, %dim_0 : index
  %reinterpret_cast = memref.reinterpret_cast %arg0 to offset: [0], sizes: [%dim, %dim_0, %dim_1], strides: [%0, %dim_1, 1] {kDiscSymbolicDimAttr = [@S0, @S1, @S2]} : memref<?x?x?xf32> to memref<?x?x?xf32>
  %alloc_2 = memref.alloc(%dim, %dim_0, %dim_1) : memref<?x?x?xf32>
  "lmhlo.abs"(%reinterpret_cast, %alloc_2) {disc.device = "gpu"} : (memref<?x?x?xf32>, memref<?x?x?xf32>) -> ()
  %reinterpret_cast_3 = memref.reinterpret_cast %alloc_2 to offset: [0], sizes: [%dim, %dim_0, %dim_1], strides: [%0, %dim_1, 1] {kDiscSymbolicDimAttr = [@S0, @S1, @S2]} : memref<?x?x?xf32> to memref<?x?x?xf32>
  %1 = arith.index_cast %dim : index to i32
  %2 = arith.index_cast %dim_0 : index to i32
  %3 = arith.index_cast %dim_1 : index to i32
  %4 = arith.muli %2, %3 : i32
  %alloc_4 = memref.alloc() {alignment = 64 : i64} : memref<2xi32>
  memref.store %1, %alloc_4[%c0] : memref<2xi32>
  memref.store %4, %alloc_4[%c1] : memref<2xi32>
  %5 = arith.index_cast %4 : i32 to index
  %alloc_5 = memref.alloc(%dim, %5) : memref<?x?xf32>
  "lmhlo.dynamic_reshape"(%reinterpret_cast_3, %alloc_4, %alloc_5) {disc.device = "gpu"} : (memref<?x?x?xf32>, memref<2xi32>, memref<?x?xf32>) -> ()
  %reinterpret_cast_6 = memref.reinterpret_cast %alloc_5 to offset: [0], sizes: [%dim, %5], strides: [%5, 1] {kDiscSymbolicDimAttr = [@S0, @S3]} : memref<?x?xf32> to memref<?x?xf32>
  %alloc_7 = memref.alloc(%5) : memref<?xf32>
  "lmhlo.reduce"(%reinterpret_cast_6, %alloc, %alloc_7) ({
  ^bb0(%arg1: memref<f32>, %arg2: memref<f32>, %arg3: memref<f32>):
    "lmhlo.maximum"(%arg1, %arg2, %arg3) {disc.device = "gpu"} : (memref<f32>, memref<f32>, memref<f32>) -> ()
    "lmhlo.terminator"() : () -> ()
  }) {dimensions = dense<0> : tensor<1xi64>, disc.device = "gpu"} : (memref<?x?xf32>, memref<f32>, memref<?xf32>) -> ()
  %reinterpret_cast_8 = memref.reinterpret_cast %alloc_7 to offset: [0], sizes: [%5], strides: [1] {kDiscSymbolicDimAttr = [@S3]} : memref<?xf32> to memref<?xf32>
  %alloc_9 = memref.alloc() {alignment = 64 : i64} : memref<2xi32>
  memref.store %2, %alloc_9[%c0] : memref<2xi32>
  memref.store %3, %alloc_9[%c1] : memref<2xi32>
  %alloc_10 = memref.alloc(%dim_0, %dim_1) : memref<?x?xf32>
  "lmhlo.dynamic_reshape"(%reinterpret_cast_8, %alloc_9, %alloc_10) {disc.device = "gpu"} : (memref<?xf32>, memref<2xi32>, memref<?x?xf32>) -> ()
  %reinterpret_cast_11 = memref.reinterpret_cast %alloc_10 to offset: [0], sizes: [%dim_0, %dim_1], strides: [%dim_1, 1] {kDiscSymbolicDimAttr = [@S1, @S2]} : memref<?x?xf32> to memref<?x?xf32>
  return %reinterpret_cast_11 : memref<?x?xf32>
}

// -----// IR Dump After DiscMemrefCanonicalizer (disc-memref-canonicalize) //----- //
func.func @main(%arg0: memref<?x?x?xf32>) -> memref<?x?xf32> attributes {tf.entry_function = {input_placements = "gpu", inputs = "input0", output_placements = "gpu", outputs = "output0"}} {
  %c2 = arith.constant 2 : index
  %c1 = arith.constant 1 : index
  %c0 = arith.constant 0 : index
  %alloc = memref.alloc() : memref<f32>
  "lmhlo.constant"(%alloc) {disc.device = "gpu", value = dense<0xFF800000> : tensor<f32>} : (memref<f32>) -> ()
  %dim = memref.dim %arg0, %c0 : memref<?x?x?xf32>
  %dim_0 = memref.dim %arg0, %c1 : memref<?x?x?xf32>
  %dim_1 = memref.dim %arg0, %c2 : memref<?x?x?xf32>
  %0 = arith.muli %dim_1, %dim_0 : index
  %reinterpret_cast = memref.reinterpret_cast %arg0 to offset: [0], sizes: [%dim, %dim_0, %dim_1], strides: [%0, %dim_1, 1] {kDiscSymbolicDimAttr = [@S0, @S1, @S2]} : memref<?x?x?xf32> to memref<?x?x?xf32>
  %alloc_2 = memref.alloc(%dim, %dim_0, %dim_1) {kDiscSymbolicDimAttr = [@S0, @S1, @S2]} : memref<?x?x?xf32>
  "lmhlo.abs"(%reinterpret_cast, %alloc_2) {disc.device = "gpu"} : (memref<?x?x?xf32>, memref<?x?x?xf32>) -> ()
  %1 = arith.index_cast %dim : index to i32
  %2 = arith.index_cast %dim_0 : index to i32
  %3 = arith.index_cast %dim_1 : index to i32
  %4 = arith.muli %2, %3 : i32
  %alloc_3 = memref.alloc() {alignment = 64 : i64} : memref<2xi32>
  memref.store %1, %alloc_3[%c0] : memref<2xi32>
  memref.store %4, %alloc_3[%c1] : memref<2xi32>
  %5 = arith.index_cast %4 : i32 to index
  %alloc_4 = memref.alloc(%dim, %5) {kDiscSymbolicDimAttr = [@S0, @S3]} : memref<?x?xf32>
  "lmhlo.dynamic_reshape"(%alloc_2, %alloc_3, %alloc_4) {disc.device = "gpu"} : (memref<?x?x?xf32>, memref<2xi32>, memref<?x?xf32>) -> ()
  %alloc_5 = memref.alloc(%5) {kDiscSymbolicDimAttr = [@S3]} : memref<?xf32>
  "lmhlo.reduce"(%alloc_4, %alloc, %alloc_5) ({
  ^bb0(%arg1: memref<f32>, %arg2: memref<f32>, %arg3: memref<f32>):
    "lmhlo.maximum"(%arg1, %arg2, %arg3) {disc.device = "gpu"} : (memref<f32>, memref<f32>, memref<f32>) -> ()
    "lmhlo.terminator"() : () -> ()
  }) {dimensions = dense<0> : tensor<1xi64>, disc.device = "gpu"} : (memref<?x?xf32>, memref<f32>, memref<?xf32>) -> ()
  %alloc_6 = memref.alloc() {alignment = 64 : i64} : memref<2xi32>
  memref.store %2, %alloc_6[%c0] : memref<2xi32>
  memref.store %3, %alloc_6[%c1] : memref<2xi32>
  %alloc_7 = memref.alloc(%dim_0, %dim_1) {kDiscSymbolicDimAttr = [@S1, @S2]} : memref<?x?xf32>
  "lmhlo.dynamic_reshape"(%alloc_5, %alloc_6, %alloc_7) {disc.device = "gpu"} : (memref<?xf32>, memref<2xi32>, memref<?x?xf32>) -> ()
  return %alloc_7 : memref<?x?xf32>
}

// -----// IR Dump After DiscAssignMemorySpacePass (disc-assign-memory-space) //----- //
module {
  func.func @main(%arg0: memref<?x?x?xf32, "gpu">) -> memref<?x?xf32, "gpu"> attributes {tf.entry_function = {input_placements = "gpu", inputs = "input0", output_placements = "gpu", outputs = "output0"}} {
    %c2 = arith.constant 2 : index
    %c1 = arith.constant 1 : index
    %c0 = arith.constant 0 : index
    %alloc = memref.alloc() : memref<f32, "gpu">
    "lmhlo.constant"(%alloc) {disc.device = "gpu", value = dense<0xFF800000> : tensor<f32>} : (memref<f32, "gpu">) -> ()
    %dim = memref.dim %arg0, %c0 : memref<?x?x?xf32, "gpu">
    %dim_0 = memref.dim %arg0, %c1 : memref<?x?x?xf32, "gpu">
    %dim_1 = memref.dim %arg0, %c2 : memref<?x?x?xf32, "gpu">
    %0 = arith.muli %dim_1, %dim_0 : index
    %reinterpret_cast = memref.reinterpret_cast %arg0 to offset: [0], sizes: [%dim, %dim_0, %dim_1], strides: [%0, %dim_1, 1] {kDiscSymbolicDimAttr = [@S0, @S1, @S2]} : memref<?x?x?xf32, "gpu"> to memref<?x?x?xf32, "gpu">
    %alloc_2 = memref.alloc(%dim, %dim_0, %dim_1) {kDiscSymbolicDimAttr = [@S0, @S1, @S2]} : memref<?x?x?xf32, "gpu">
    "lmhlo.abs"(%reinterpret_cast, %alloc_2) {disc.device = "gpu"} : (memref<?x?x?xf32, "gpu">, memref<?x?x?xf32, "gpu">) -> ()
    %1 = arith.index_cast %dim : index to i32
    %2 = arith.index_cast %dim_0 : index to i32
    %3 = arith.index_cast %dim_1 : index to i32
    %4 = arith.muli %2, %3 : i32
    %alloc_3 = memref.alloc() {alignment = 64 : i64} : memref<2xi32, "cpu">
    memref.store %1, %alloc_3[%c0] : memref<2xi32, "cpu">
    memref.store %4, %alloc_3[%c1] : memref<2xi32, "cpu">
    %5 = arith.index_cast %4 : i32 to index
    %alloc_4 = memref.alloc(%dim, %5) {kDiscSymbolicDimAttr = [@S0, @S3]} : memref<?x?xf32, "gpu">
    "lmhlo.dynamic_reshape"(%alloc_2, %alloc_3, %alloc_4) {disc.device = "gpu"} : (memref<?x?x?xf32, "gpu">, memref<2xi32, "cpu">, memref<?x?xf32, "gpu">) -> ()
    %alloc_5 = memref.alloc(%5) {kDiscSymbolicDimAttr = [@S3]} : memref<?xf32, "gpu">
    "lmhlo.reduce"(%alloc_4, %alloc, %alloc_5) ({
    ^bb0(%arg1: memref<f32>, %arg2: memref<f32>, %arg3: memref<f32>):
      "lmhlo.maximum"(%arg1, %arg2, %arg3) {disc.device = "gpu"} : (memref<f32>, memref<f32>, memref<f32>) -> ()
      "lmhlo.terminator"() : () -> ()
    }) {dimensions = dense<0> : tensor<1xi64>, disc.device = "gpu"} : (memref<?x?xf32, "gpu">, memref<f32, "gpu">, memref<?xf32, "gpu">) -> ()
    %alloc_6 = memref.alloc() {alignment = 64 : i64} : memref<2xi32, "cpu">
    memref.store %2, %alloc_6[%c0] : memref<2xi32, "cpu">
    memref.store %3, %alloc_6[%c1] : memref<2xi32, "cpu">
    %alloc_7 = memref.alloc(%dim_0, %dim_1) {kDiscSymbolicDimAttr = [@S1, @S2]} : memref<?x?xf32, "gpu">
    "lmhlo.dynamic_reshape"(%alloc_5, %alloc_6, %alloc_7) {disc.device = "gpu"} : (memref<?xf32, "gpu">, memref<2xi32, "cpu">, memref<?x?xf32, "gpu">) -> ()
    return %alloc_7 : memref<?x?xf32, "gpu">
  }
  "disc_shape.SymbolicDim"() {knownNegativeOne = false, knownNonNegative = true, knownNonSizeOne = false, knownNonSizeZero = false, sym_name = "S0", value = -9223372036854775808 : i64} : () -> ()
  "disc_shape.SymbolicDim"() {knownNegativeOne = false, knownNonNegative = true, knownNonSizeOne = false, knownNonSizeZero = false, sym_name = "S1", value = -9223372036854775808 : i64} : () -> ()
  "disc_shape.SymbolicDim"() {knownNegativeOne = false, knownNonNegative = true, knownNonSizeOne = false, knownNonSizeZero = false, sym_name = "S2", value = -9223372036854775808 : i64} : () -> ()
  "disc_shape.SymbolicDim"() {knownNegativeOne = false, knownNonNegative = true, knownNonSizeOne = false, knownNonSizeZero = false, sym_name = "S3", value = -9223372036854775808 : i64} : () -> ()
  func.func @shape_constraint_graph() {
    %0 = "disc_shape.dim"() {name = @S3} : () -> index
    %1 = "disc_shape.dim"() {name = @S1} : () -> index
    %2 = "disc_shape.dim"() {name = @S2} : () -> index
    "disc_shape.tie_product_equal"(%0, %1, %2) {operand_segment_sizes = array<i32: 1, 2>} : (index, index, index) -> ()
    return
  }
}


// -----// IR Dump After PromoteBuffersToStack (promote-buffers-to-stack) //----- //
func.func @main(%arg0: memref<?x?x?xf32, "gpu">) -> memref<?x?xf32, "gpu"> attributes {tf.entry_function = {input_placements = "gpu", inputs = "input0", output_placements = "gpu", outputs = "output0"}} {
  %c2 = arith.constant 2 : index
  %c1 = arith.constant 1 : index
  %c0 = arith.constant 0 : index
  %alloc = memref.alloc() : memref<f32, "gpu">
  "lmhlo.constant"(%alloc) {disc.device = "gpu", value = dense<0xFF800000> : tensor<f32>} : (memref<f32, "gpu">) -> ()
  %dim = memref.dim %arg0, %c0 : memref<?x?x?xf32, "gpu">
  %dim_0 = memref.dim %arg0, %c1 : memref<?x?x?xf32, "gpu">
  %dim_1 = memref.dim %arg0, %c2 : memref<?x?x?xf32, "gpu">
  %0 = arith.muli %dim_1, %dim_0 : index
  %reinterpret_cast = memref.reinterpret_cast %arg0 to offset: [0], sizes: [%dim, %dim_0, %dim_1], strides: [%0, %dim_1, 1] {kDiscSymbolicDimAttr = [@S0, @S1, @S2]} : memref<?x?x?xf32, "gpu"> to memref<?x?x?xf32, "gpu">
  %alloc_2 = memref.alloc(%dim, %dim_0, %dim_1) {kDiscSymbolicDimAttr = [@S0, @S1, @S2]} : memref<?x?x?xf32, "gpu">
  "lmhlo.abs"(%reinterpret_cast, %alloc_2) {disc.device = "gpu"} : (memref<?x?x?xf32, "gpu">, memref<?x?x?xf32, "gpu">) -> ()
  %1 = arith.index_cast %dim : index to i32
  %2 = arith.index_cast %dim_0 : index to i32
  %3 = arith.index_cast %dim_1 : index to i32
  %4 = arith.muli %2, %3 : i32
  %alloca = memref.alloca() : memref<2xi32, "cpu">
  memref.store %1, %alloca[%c0] : memref<2xi32, "cpu">
  memref.store %4, %alloca[%c1] : memref<2xi32, "cpu">
  %5 = arith.index_cast %4 : i32 to index
  %alloc_3 = memref.alloc(%dim, %5) {kDiscSymbolicDimAttr = [@S0, @S3]} : memref<?x?xf32, "gpu">
  "lmhlo.dynamic_reshape"(%alloc_2, %alloca, %alloc_3) {disc.device = "gpu"} : (memref<?x?x?xf32, "gpu">, memref<2xi32, "cpu">, memref<?x?xf32, "gpu">) -> ()
  %alloc_4 = memref.alloc(%5) {kDiscSymbolicDimAttr = [@S3]} : memref<?xf32, "gpu">
  "lmhlo.reduce"(%alloc_3, %alloc, %alloc_4) ({
  ^bb0(%arg1: memref<f32>, %arg2: memref<f32>, %arg3: memref<f32>):
    "lmhlo.maximum"(%arg1, %arg2, %arg3) {disc.device = "gpu"} : (memref<f32>, memref<f32>, memref<f32>) -> ()
    "lmhlo.terminator"() : () -> ()
  }) {dimensions = dense<0> : tensor<1xi64>, disc.device = "gpu"} : (memref<?x?xf32, "gpu">, memref<f32, "gpu">, memref<?xf32, "gpu">) -> ()
  %alloca_5 = memref.alloca() : memref<2xi32, "cpu">
  memref.store %2, %alloca_5[%c0] : memref<2xi32, "cpu">
  memref.store %3, %alloca_5[%c1] : memref<2xi32, "cpu">
  %alloc_6 = memref.alloc(%dim_0, %dim_1) {kDiscSymbolicDimAttr = [@S1, @S2]} : memref<?x?xf32, "gpu">
  "lmhlo.dynamic_reshape"(%alloc_4, %alloca_5, %alloc_6) {disc.device = "gpu"} : (memref<?xf32, "gpu">, memref<2xi32, "cpu">, memref<?x?xf32, "gpu">) -> ()
  return %alloc_6 : memref<?x?xf32, "gpu">
}

SymbolicDimMgr::save walkRankedTensorValue takes: 1 us
SymbolicDimMgr::save update attributes takes: 5 us
SymbolicDimMgr::updateProductEqualityMap simplifySymbolicDimProductPair takes: 7 us
productSet.size() = 2
SymbolicDimMgr::updateProductEqualityMap propagate graph takes: 3 us
SymbolicDimMgr::updateProductEqualityMap remove multiply takes: 12 us
SymbolicDimMgr::updateProductEqualityMap build toRemove  takes: 0 us
SymbolicDimMgr::updateProductEqualityMap apply toRemove  takes: 0 us
SymbolicDimMgr::save updateProductEqualityMap takes: 51 us
SymbolicDimMgr::save updateFunctionType takes: 2 us
SymbolicDimMgr::save collect symbolicDim ops takes: 4 us
SymbolicDimMgr::save remove symbolicDim ops takes: 0 us
SymbolicDimMgr::save remove unused production takes: 0 us
SymbolicDimMgr::save remove unused production #2 takes: 0 us
SymbolicDimMgr::save canonicalize the name takes: 3 us
SymbolicDimMgr::save replace the name takes: 4 us
SymbolicDimMgr::save updateFunctionType takes: 0 us
// -----// IR Dump After DiscFusionPass (disc-fusion) //----- //
func.func @main(%arg0: memref<?x?x?xf32, "gpu">) -> memref<?x?xf32, "gpu"> attributes {tf.entry_function = {input_placements = "gpu", inputs = "input0", output_placements = "gpu", outputs = "output0"}} {
  %c2 = arith.constant 2 : index
  %dim = memref.dim %arg0, %c2 : memref<?x?x?xf32, "gpu">
  %c1 = arith.constant 1 : index
  %dim_0 = memref.dim %arg0, %c1 : memref<?x?x?xf32, "gpu">
  %c0 = arith.constant 0 : index
  %dim_1 = memref.dim %arg0, %c0 : memref<?x?x?xf32, "gpu">
  %alloc = memref.alloc() : memref<f32, "gpu">
  %0 = arith.muli %dim, %dim_0 : index
  %reinterpret_cast = memref.reinterpret_cast %arg0 to offset: [0], sizes: [%dim_1, %dim_0, %dim], strides: [%0, %dim, 1] {kDiscSymbolicDimAttr = [@S0, @S1, @S2]} : memref<?x?x?xf32, "gpu"> to memref<?x?x?xf32, "gpu">
  %alloc_2 = memref.alloc(%dim_1, %dim_0, %dim) {kDiscSymbolicDimAttr = [@S0, @S1, @S2]} : memref<?x?x?xf32, "gpu">
  %1 = arith.index_cast %dim_1 : index to i32
  %2 = arith.index_cast %dim_0 : index to i32
  %3 = arith.index_cast %dim : index to i32
  %4 = arith.muli %2, %3 : i32
  %alloca = memref.alloca() : memref<2xi32, "cpu">
  memref.store %1, %alloca[%c0] : memref<2xi32, "cpu">
  memref.store %4, %alloca[%c1] : memref<2xi32, "cpu">
  %5 = arith.index_cast %4 : i32 to index
  %alloc_3 = memref.alloc(%dim_1, %5) {kDiscSymbolicDimAttr = [@S0, @S3]} : memref<?x?xf32, "gpu">
  %alloc_4 = memref.alloc(%5) {kDiscSymbolicDimAttr = [@S3]} : memref<?xf32, "gpu">
  "lmhlo.fusion"() ({
    "lmhlo.constant"(%alloc) {disc.device = "gpu", value = dense<0xFF800000> : tensor<f32>} : (memref<f32, "gpu">) -> ()
    "lmhlo.abs"(%reinterpret_cast, %alloc_2) {disc.device = "gpu"} : (memref<?x?x?xf32, "gpu">, memref<?x?x?xf32, "gpu">) -> ()
    "lmhlo.dynamic_reshape"(%alloc_2, %alloca, %alloc_3) {disc.device = "gpu"} : (memref<?x?x?xf32, "gpu">, memref<2xi32, "cpu">, memref<?x?xf32, "gpu">) -> ()
    "lmhlo.reduce"(%alloc_3, %alloc, %alloc_4) ({
    ^bb0(%arg1: memref<f32>, %arg2: memref<f32>, %arg3: memref<f32>):
      "lmhlo.maximum"(%arg1, %arg2, %arg3) {disc.device = "gpu"} : (memref<f32>, memref<f32>, memref<f32>) -> ()
      "lmhlo.terminator"() : () -> ()
    }) {dimensions = dense<0> : tensor<1xi64>, disc.device = "gpu"} : (memref<?x?xf32, "gpu">, memref<f32, "gpu">, memref<?xf32, "gpu">) -> ()
    "lmhlo.terminator"() : () -> ()
  }) {disc.device = "gpu", disc.fusion.name = "main_kColReduction_reduce__4_1_0", disc.fusion_type = "kColReduction"} : () -> ()
  %alloca_5 = memref.alloca() : memref<2xi32, "cpu">
  memref.store %2, %alloca_5[%c0] : memref<2xi32, "cpu">
  memref.store %3, %alloca_5[%c1] : memref<2xi32, "cpu">
  %alloc_6 = memref.alloc(%dim_0, %dim) {kDiscSymbolicDimAttr = [@S1, @S2]} : memref<?x?xf32, "gpu">
  "lmhlo.dynamic_reshape"(%alloc_4, %alloca_5, %alloc_6) {disc.device = "gpu"} : (memref<?xf32, "gpu">, memref<2xi32, "cpu">, memref<?x?xf32, "gpu">) -> ()
  return %alloc_6 : memref<?x?xf32, "gpu">
}

SymbolicDimMgr::save walkRankedTensorValue takes: 1 us
SymbolicDimMgr::save update attributes takes: 5 us
SymbolicDimMgr::updateProductEqualityMap simplifySymbolicDimProductPair takes: 6 us
productSet.size() = 2
SymbolicDimMgr::updateProductEqualityMap propagate graph takes: 5 us
SymbolicDimMgr::updateProductEqualityMap remove multiply takes: 11 us
SymbolicDimMgr::updateProductEqualityMap build toRemove  takes: 0 us
SymbolicDimMgr::updateProductEqualityMap apply toRemove  takes: 0 us
SymbolicDimMgr::save updateProductEqualityMap takes: 39 us
SymbolicDimMgr::save updateFunctionType takes: 2 us
SymbolicDimMgr::save collect symbolicDim ops takes: 4 us
SymbolicDimMgr::save remove symbolicDim ops takes: 0 us
SymbolicDimMgr::save remove unused production takes: 0 us
SymbolicDimMgr::save remove unused production #2 takes: 0 us
SymbolicDimMgr::save canonicalize the name takes: 4 us
SymbolicDimMgr::save replace the name takes: 5 us
SymbolicDimMgr::save updateFunctionType takes: 1 us
// -----// IR Dump After DiscSpecializeFusionWithSpeculationPass (disc-specialize-fusion-with-speculation) //----- //
func.func @main(%arg0: memref<?x?x?xf32, "gpu">) -> memref<?x?xf32, "gpu"> attributes {tf.entry_function = {input_placements = "gpu", inputs = "input0", output_placements = "gpu", outputs = "output0"}} {
  %c2 = arith.constant 2 : index
  %dim = memref.dim %arg0, %c2 : memref<?x?x?xf32, "gpu">
  %c1 = arith.constant 1 : index
  %dim_0 = memref.dim %arg0, %c1 : memref<?x?x?xf32, "gpu">
  %c0 = arith.constant 0 : index
  %dim_1 = memref.dim %arg0, %c0 : memref<?x?x?xf32, "gpu">
  %alloc = memref.alloc() : memref<f32, "gpu">
  %0 = arith.muli %dim, %dim_0 : index
  %reinterpret_cast = memref.reinterpret_cast %arg0 to offset: [0], sizes: [%dim_1, %dim_0, %dim], strides: [%0, %dim, 1] {kDiscSymbolicDimAttr = [@S0, @S1, @S2]} : memref<?x?x?xf32, "gpu"> to memref<?x?x?xf32, "gpu">
  %alloc_2 = memref.alloc(%dim_1, %dim_0, %dim) {kDiscSymbolicDimAttr = [@S0, @S1, @S2]} : memref<?x?x?xf32, "gpu">
  %1 = arith.index_cast %dim_1 : index to i32
  %2 = arith.index_cast %dim_0 : index to i32
  %3 = arith.index_cast %dim : index to i32
  %4 = arith.muli %2, %3 : i32
  %alloca = memref.alloca() : memref<2xi32, "cpu">
  memref.store %1, %alloca[%c0] : memref<2xi32, "cpu">
  memref.store %4, %alloca[%c1] : memref<2xi32, "cpu">
  %5 = arith.index_cast %4 : i32 to index
  %alloc_3 = memref.alloc(%dim_1, %5) {kDiscSymbolicDimAttr = [@S0, @S3]} : memref<?x?xf32, "gpu">
  %alloc_4 = memref.alloc(%5) {kDiscSymbolicDimAttr = [@S3]} : memref<?xf32, "gpu">
  %c0_5 = arith.constant 0 : index
  %dim_6 = memref.dim %alloc_3, %c0_5 : memref<?x?xf32, "gpu">
  %c1_7 = arith.constant 1 : index
  %dim_8 = memref.dim %alloc_3, %c1_7 : memref<?x?xf32, "gpu">
  %6 = arith.muli %dim_6, %dim_8 : index
  %c256 = arith.constant 256 : index
  %7 = arith.ceildivsi %6, %c256 : index
  %c108 = arith.constant 108 : index
  %8 = arith.cmpi slt, %dim_6, %dim_8 : index
  scf.if %8 {
    "lmhlo.fusion"() ({
      "lmhlo.constant"(%alloc) {disc.device = "gpu", value = dense<0xFF800000> : tensor<f32>} : (memref<f32, "gpu">) -> ()
      "lmhlo.abs"(%reinterpret_cast, %alloc_2) {disc.device = "gpu"} : (memref<?x?x?xf32, "gpu">, memref<?x?x?xf32, "gpu">) -> ()
      "lmhlo.dynamic_reshape"(%alloc_2, %alloca, %alloc_3) {disc.device = "gpu"} : (memref<?x?x?xf32, "gpu">, memref<2xi32, "cpu">, memref<?x?xf32, "gpu">) -> ()
      "lmhlo.reduce"(%alloc_3, %alloc, %alloc_4) ({
      ^bb0(%arg1: memref<f32>, %arg2: memref<f32>, %arg3: memref<f32>):
        "lmhlo.maximum"(%arg1, %arg2, %arg3) {disc.device = "gpu"} : (memref<f32>, memref<f32>, memref<f32>) -> ()
        "lmhlo.terminator"() : () -> ()
      }) {dimensions = dense<0> : tensor<1xi64>, disc.device = "gpu"} : (memref<?x?xf32, "gpu">, memref<f32, "gpu">, memref<?xf32, "gpu">) -> ()
      "lmhlo.terminator"() : () -> ()
    }) {disc.device = "gpu", disc.fusion.name = "main_kColReduction_reduce__4_1_0", disc.fusion.tag = "flat", disc.fusion_type = "kColReduction", disc_col_reduction_schedule_hint = 7 : i32, disc_thread_per_block_hint = 512 : i32} : () -> ()
  } else {
    "lmhlo.fusion"() ({
      "lmhlo.constant"(%alloc) {disc.device = "gpu", value = dense<0xFF800000> : tensor<f32>} : (memref<f32, "gpu">) -> ()
      "lmhlo.abs"(%reinterpret_cast, %alloc_2) {disc.device = "gpu"} : (memref<?x?x?xf32, "gpu">, memref<?x?x?xf32, "gpu">) -> ()
      "lmhlo.dynamic_reshape"(%alloc_2, %alloca, %alloc_3) {disc.device = "gpu"} : (memref<?x?x?xf32, "gpu">, memref<2xi32, "cpu">, memref<?x?xf32, "gpu">) -> ()
      "lmhlo.reduce"(%alloc_3, %alloc, %alloc_4) ({
      ^bb0(%arg1: memref<f32>, %arg2: memref<f32>, %arg3: memref<f32>):
        "lmhlo.maximum"(%arg1, %arg2, %arg3) {disc.device = "gpu"} : (memref<f32>, memref<f32>, memref<f32>) -> ()
        "lmhlo.terminator"() : () -> ()
      }) {dimensions = dense<0> : tensor<1xi64>, disc.device = "gpu"} : (memref<?x?xf32, "gpu">, memref<f32, "gpu">, memref<?xf32, "gpu">) -> ()
      "lmhlo.terminator"() : () -> ()
    }) {disc.device = "gpu", disc.fusion.name = "main_kColReduction_reduce__4_1_0", disc.fusion.tag = "thin", disc.fusion_type = "kColReduction", disc_col_reduction_schedule_hint = 8 : i32, disc_thread_per_block_hint = 256 : i32} : () -> ()
  }
  %alloca_9 = memref.alloca() : memref<2xi32, "cpu">
  memref.store %2, %alloca_9[%c0] : memref<2xi32, "cpu">
  memref.store %3, %alloca_9[%c1] : memref<2xi32, "cpu">
  %alloc_10 = memref.alloc(%dim_0, %dim) {kDiscSymbolicDimAttr = [@S1, @S2]} : memref<?x?xf32, "gpu">
  "lmhlo.dynamic_reshape"(%alloc_4, %alloca_9, %alloc_10) {disc.device = "gpu"} : (memref<?xf32, "gpu">, memref<2xi32, "cpu">, memref<?x?xf32, "gpu">) -> ()
  return %alloc_10 : memref<?x?xf32, "gpu">
}

// -----// IR Dump After Canonicalizer (canonicalize) //----- //
func.func @main(%arg0: memref<?x?x?xf32, "gpu">) -> memref<?x?xf32, "gpu"> attributes {tf.entry_function = {input_placements = "gpu", inputs = "input0", output_placements = "gpu", outputs = "output0"}} {
  %c0 = arith.constant 0 : index
  %c1 = arith.constant 1 : index
  %c2 = arith.constant 2 : index
  %dim = memref.dim %arg0, %c2 : memref<?x?x?xf32, "gpu">
  %dim_0 = memref.dim %arg0, %c1 : memref<?x?x?xf32, "gpu">
  %dim_1 = memref.dim %arg0, %c0 : memref<?x?x?xf32, "gpu">
  %alloc = memref.alloc() : memref<f32, "gpu">
  %0 = arith.muli %dim, %dim_0 : index
  %reinterpret_cast = memref.reinterpret_cast %arg0 to offset: [0], sizes: [%dim_1, %dim_0, %dim], strides: [%0, %dim, 1] {kDiscSymbolicDimAttr = [@S0, @S1, @S2]} : memref<?x?x?xf32, "gpu"> to memref<?x?x?xf32, "gpu">
  %alloc_2 = memref.alloc(%dim_1, %dim_0, %dim) {kDiscSymbolicDimAttr = [@S0, @S1, @S2]} : memref<?x?x?xf32, "gpu">
  %1 = arith.index_cast %dim_1 : index to i32
  %2 = arith.index_cast %dim_0 : index to i32
  %3 = arith.index_cast %dim : index to i32
  %4 = arith.muli %2, %3 : i32
  %alloca = memref.alloca() : memref<2xi32, "cpu">
  memref.store %1, %alloca[%c0] : memref<2xi32, "cpu">
  memref.store %4, %alloca[%c1] : memref<2xi32, "cpu">
  %5 = arith.index_cast %4 : i32 to index
  %alloc_3 = memref.alloc(%dim_1, %5) {kDiscSymbolicDimAttr = [@S0, @S3]} : memref<?x?xf32, "gpu">
  %alloc_4 = memref.alloc(%5) {kDiscSymbolicDimAttr = [@S3]} : memref<?xf32, "gpu">
  %6 = arith.cmpi slt, %dim_1, %5 : index
  scf.if %6 {
    "lmhlo.fusion"() ({
      "lmhlo.constant"(%alloc) {disc.device = "gpu", value = dense<0xFF800000> : tensor<f32>} : (memref<f32, "gpu">) -> ()
      "lmhlo.abs"(%reinterpret_cast, %alloc_2) {disc.device = "gpu"} : (memref<?x?x?xf32, "gpu">, memref<?x?x?xf32, "gpu">) -> ()
      "lmhlo.dynamic_reshape"(%alloc_2, %alloca, %alloc_3) {disc.device = "gpu"} : (memref<?x?x?xf32, "gpu">, memref<2xi32, "cpu">, memref<?x?xf32, "gpu">) -> ()
      "lmhlo.reduce"(%alloc_3, %alloc, %alloc_4) ({
      ^bb0(%arg1: memref<f32>, %arg2: memref<f32>, %arg3: memref<f32>):
        "lmhlo.maximum"(%arg1, %arg2, %arg3) {disc.device = "gpu"} : (memref<f32>, memref<f32>, memref<f32>) -> ()
        "lmhlo.terminator"() : () -> ()
      }) {dimensions = dense<0> : tensor<1xi64>, disc.device = "gpu"} : (memref<?x?xf32, "gpu">, memref<f32, "gpu">, memref<?xf32, "gpu">) -> ()
      "lmhlo.terminator"() : () -> ()
    }) {disc.device = "gpu", disc.fusion.name = "main_kColReduction_reduce__4_1_0", disc.fusion.tag = "flat", disc.fusion_type = "kColReduction", disc_col_reduction_schedule_hint = 7 : i32, disc_thread_per_block_hint = 512 : i32} : () -> ()
  } else {
    "lmhlo.fusion"() ({
      "lmhlo.constant"(%alloc) {disc.device = "gpu", value = dense<0xFF800000> : tensor<f32>} : (memref<f32, "gpu">) -> ()
      "lmhlo.abs"(%reinterpret_cast, %alloc_2) {disc.device = "gpu"} : (memref<?x?x?xf32, "gpu">, memref<?x?x?xf32, "gpu">) -> ()
      "lmhlo.dynamic_reshape"(%alloc_2, %alloca, %alloc_3) {disc.device = "gpu"} : (memref<?x?x?xf32, "gpu">, memref<2xi32, "cpu">, memref<?x?xf32, "gpu">) -> ()
      "lmhlo.reduce"(%alloc_3, %alloc, %alloc_4) ({
      ^bb0(%arg1: memref<f32>, %arg2: memref<f32>, %arg3: memref<f32>):
        "lmhlo.maximum"(%arg1, %arg2, %arg3) {disc.device = "gpu"} : (memref<f32>, memref<f32>, memref<f32>) -> ()
        "lmhlo.terminator"() : () -> ()
      }) {dimensions = dense<0> : tensor<1xi64>, disc.device = "gpu"} : (memref<?x?xf32, "gpu">, memref<f32, "gpu">, memref<?xf32, "gpu">) -> ()
      "lmhlo.terminator"() : () -> ()
    }) {disc.device = "gpu", disc.fusion.name = "main_kColReduction_reduce__4_1_0", disc.fusion.tag = "thin", disc.fusion_type = "kColReduction", disc_col_reduction_schedule_hint = 8 : i32, disc_thread_per_block_hint = 256 : i32} : () -> ()
  }
  %alloca_5 = memref.alloca() : memref<2xi32, "cpu">
  memref.store %2, %alloca_5[%c0] : memref<2xi32, "cpu">
  memref.store %3, %alloca_5[%c1] : memref<2xi32, "cpu">
  %alloc_6 = memref.alloc(%dim_0, %dim) {kDiscSymbolicDimAttr = [@S1, @S2]} : memref<?x?xf32, "gpu">
  "lmhlo.dynamic_reshape"(%alloc_4, %alloca_5, %alloc_6) {disc.device = "gpu"} : (memref<?xf32, "gpu">, memref<2xi32, "cpu">, memref<?x?xf32, "gpu">) -> ()
  return %alloc_6 : memref<?x?xf32, "gpu">
}

// -----// IR Dump After BufferDeallocation (buffer-deallocation) //----- //
func.func @main(%arg0: memref<?x?x?xf32, "gpu">) -> memref<?x?xf32, "gpu"> attributes {tf.entry_function = {input_placements = "gpu", inputs = "input0", output_placements = "gpu", outputs = "output0"}} {
  %c0 = arith.constant 0 : index
  %c1 = arith.constant 1 : index
  %c2 = arith.constant 2 : index
  %dim = memref.dim %arg0, %c2 : memref<?x?x?xf32, "gpu">
  %dim_0 = memref.dim %arg0, %c1 : memref<?x?x?xf32, "gpu">
  %dim_1 = memref.dim %arg0, %c0 : memref<?x?x?xf32, "gpu">
  %alloc = memref.alloc() : memref<f32, "gpu">
  %0 = arith.muli %dim, %dim_0 : index
  %reinterpret_cast = memref.reinterpret_cast %arg0 to offset: [0], sizes: [%dim_1, %dim_0, %dim], strides: [%0, %dim, 1] {kDiscSymbolicDimAttr = [@S0, @S1, @S2]} : memref<?x?x?xf32, "gpu"> to memref<?x?x?xf32, "gpu">
  %alloc_2 = memref.alloc(%dim_1, %dim_0, %dim) {kDiscSymbolicDimAttr = [@S0, @S1, @S2]} : memref<?x?x?xf32, "gpu">
  %1 = arith.index_cast %dim_1 : index to i32
  %2 = arith.index_cast %dim_0 : index to i32
  %3 = arith.index_cast %dim : index to i32
  %4 = arith.muli %2, %3 : i32
  %alloca = memref.alloca() : memref<2xi32, "cpu">
  memref.store %1, %alloca[%c0] : memref<2xi32, "cpu">
  memref.store %4, %alloca[%c1] : memref<2xi32, "cpu">
  %5 = arith.index_cast %4 : i32 to index
  %alloc_3 = memref.alloc(%dim_1, %5) {kDiscSymbolicDimAttr = [@S0, @S3]} : memref<?x?xf32, "gpu">
  %alloc_4 = memref.alloc(%5) {kDiscSymbolicDimAttr = [@S3]} : memref<?xf32, "gpu">
  %6 = arith.cmpi slt, %dim_1, %5 : index
  scf.if %6 {
    "lmhlo.fusion"() ({
      "lmhlo.constant"(%alloc) {disc.device = "gpu", value = dense<0xFF800000> : tensor<f32>} : (memref<f32, "gpu">) -> ()
      "lmhlo.abs"(%reinterpret_cast, %alloc_2) {disc.device = "gpu"} : (memref<?x?x?xf32, "gpu">, memref<?x?x?xf32, "gpu">) -> ()
      "lmhlo.dynamic_reshape"(%alloc_2, %alloca, %alloc_3) {disc.device = "gpu"} : (memref<?x?x?xf32, "gpu">, memref<2xi32, "cpu">, memref<?x?xf32, "gpu">) -> ()
      "lmhlo.reduce"(%alloc_3, %alloc, %alloc_4) ({
      ^bb0(%arg1: memref<f32>, %arg2: memref<f32>, %arg3: memref<f32>):
        "lmhlo.maximum"(%arg1, %arg2, %arg3) {disc.device = "gpu"} : (memref<f32>, memref<f32>, memref<f32>) -> ()
        "lmhlo.terminator"() : () -> ()
      }) {dimensions = dense<0> : tensor<1xi64>, disc.device = "gpu"} : (memref<?x?xf32, "gpu">, memref<f32, "gpu">, memref<?xf32, "gpu">) -> ()
      "lmhlo.terminator"() : () -> ()
    }) {disc.device = "gpu", disc.fusion.name = "main_kColReduction_reduce__4_1_0", disc.fusion.tag = "flat", disc.fusion_type = "kColReduction", disc_col_reduction_schedule_hint = 7 : i32, disc_thread_per_block_hint = 512 : i32} : () -> ()
  } else {
    "lmhlo.fusion"() ({
      "lmhlo.constant"(%alloc) {disc.device = "gpu", value = dense<0xFF800000> : tensor<f32>} : (memref<f32, "gpu">) -> ()
      "lmhlo.abs"(%reinterpret_cast, %alloc_2) {disc.device = "gpu"} : (memref<?x?x?xf32, "gpu">, memref<?x?x?xf32, "gpu">) -> ()
      "lmhlo.dynamic_reshape"(%alloc_2, %alloca, %alloc_3) {disc.device = "gpu"} : (memref<?x?x?xf32, "gpu">, memref<2xi32, "cpu">, memref<?x?xf32, "gpu">) -> ()
      "lmhlo.reduce"(%alloc_3, %alloc, %alloc_4) ({
      ^bb0(%arg1: memref<f32>, %arg2: memref<f32>, %arg3: memref<f32>):
        "lmhlo.maximum"(%arg1, %arg2, %arg3) {disc.device = "gpu"} : (memref<f32>, memref<f32>, memref<f32>) -> ()
        "lmhlo.terminator"() : () -> ()
      }) {dimensions = dense<0> : tensor<1xi64>, disc.device = "gpu"} : (memref<?x?xf32, "gpu">, memref<f32, "gpu">, memref<?xf32, "gpu">) -> ()
      "lmhlo.terminator"() : () -> ()
    }) {disc.device = "gpu", disc.fusion.name = "main_kColReduction_reduce__4_1_0", disc.fusion.tag = "thin", disc.fusion_type = "kColReduction", disc_col_reduction_schedule_hint = 8 : i32, disc_thread_per_block_hint = 256 : i32} : () -> ()
  }
  memref.dealloc %alloc_3 : memref<?x?xf32, "gpu">
  memref.dealloc %alloc_2 : memref<?x?x?xf32, "gpu">
  memref.dealloc %alloc : memref<f32, "gpu">
  %alloca_5 = memref.alloca() : memref<2xi32, "cpu">
  memref.store %2, %alloca_5[%c0] : memref<2xi32, "cpu">
  memref.store %3, %alloca_5[%c1] : memref<2xi32, "cpu">
  %alloc_6 = memref.alloc(%dim_0, %dim) {kDiscSymbolicDimAttr = [@S1, @S2]} : memref<?x?xf32, "gpu">
  "lmhlo.dynamic_reshape"(%alloc_4, %alloca_5, %alloc_6) {disc.device = "gpu"} : (memref<?xf32, "gpu">, memref<2xi32, "cpu">, memref<?x?xf32, "gpu">) -> ()
  memref.dealloc %alloc_4 : memref<?xf32, "gpu">
  return %alloc_6 : memref<?x?xf32, "gpu">
}

// -----// IR Dump After RalInjectExecutionContextPass (disc-ral-inject-execution-context) //----- //
module {
  func.func @main(%arg0: !disc_ral.context) attributes {tf.entry_function = {input_placements = "gpu", inputs = "input0", output_placements = "gpu", outputs = "output0"}} {
    %c0 = arith.constant 0 : index
    %0 = "disc_ral.recv_input"(%arg0, %c0) : (!disc_ral.context, index) -> memref<?x?x?xf32, "gpu">
    %c0_0 = arith.constant 0 : index
    %c1 = arith.constant 1 : index
    %c2 = arith.constant 2 : index
    %dim = memref.dim %0, %c2 : memref<?x?x?xf32, "gpu">
    %dim_1 = memref.dim %0, %c1 : memref<?x?x?xf32, "gpu">
    %dim_2 = memref.dim %0, %c0_0 : memref<?x?x?xf32, "gpu">
    %alloc = memref.alloc() : memref<f32, "gpu">
    %1 = arith.muli %dim, %dim_1 : index
    %reinterpret_cast = memref.reinterpret_cast %0 to offset: [0], sizes: [%dim_2, %dim_1, %dim], strides: [%1, %dim, 1] {kDiscSymbolicDimAttr = [@S0, @S1, @S2]} : memref<?x?x?xf32, "gpu"> to memref<?x?x?xf32, "gpu">
    %alloc_3 = memref.alloc(%dim_2, %dim_1, %dim) {kDiscSymbolicDimAttr = [@S0, @S1, @S2]} : memref<?x?x?xf32, "gpu">
    %2 = arith.index_cast %dim_2 : index to i32
    %3 = arith.index_cast %dim_1 : index to i32
    %4 = arith.index_cast %dim : index to i32
    %5 = arith.muli %3, %4 : i32
    %alloca = memref.alloca() : memref<2xi32, "cpu">
    memref.store %2, %alloca[%c0_0] : memref<2xi32, "cpu">
    memref.store %5, %alloca[%c1] : memref<2xi32, "cpu">
    %6 = arith.index_cast %5 : i32 to index
    %alloc_4 = memref.alloc(%dim_2, %6) {kDiscSymbolicDimAttr = [@S0, @S3]} : memref<?x?xf32, "gpu">
    %alloc_5 = memref.alloc(%6) {kDiscSymbolicDimAttr = [@S3]} : memref<?xf32, "gpu">
    %7 = arith.cmpi slt, %dim_2, %6 : index
    scf.if %7 {
      "lmhlo.fusion"() ({
        "lmhlo.constant"(%alloc) {disc.device = "gpu", value = dense<0xFF800000> : tensor<f32>} : (memref<f32, "gpu">) -> ()
        "lmhlo.abs"(%reinterpret_cast, %alloc_3) {disc.device = "gpu"} : (memref<?x?x?xf32, "gpu">, memref<?x?x?xf32, "gpu">) -> ()
        "lmhlo.dynamic_reshape"(%alloc_3, %alloca, %alloc_4) {disc.device = "gpu"} : (memref<?x?x?xf32, "gpu">, memref<2xi32, "cpu">, memref<?x?xf32, "gpu">) -> ()
        "lmhlo.reduce"(%alloc_4, %alloc, %alloc_5) ({
        ^bb0(%arg1: memref<f32>, %arg2: memref<f32>, %arg3: memref<f32>):
          "lmhlo.maximum"(%arg1, %arg2, %arg3) {disc.device = "gpu"} : (memref<f32>, memref<f32>, memref<f32>) -> ()
          "lmhlo.terminator"() : () -> ()
        }) {dimensions = dense<0> : tensor<1xi64>, disc.device = "gpu"} : (memref<?x?xf32, "gpu">, memref<f32, "gpu">, memref<?xf32, "gpu">) -> ()
        "lmhlo.terminator"() : () -> ()
      }) {disc.device = "gpu", disc.fusion.name = "main_kColReduction_reduce__4_1_0", disc.fusion.tag = "flat", disc.fusion_type = "kColReduction", disc_col_reduction_schedule_hint = 7 : i32, disc_thread_per_block_hint = 512 : i32} : () -> ()
    } else {
      "lmhlo.fusion"() ({
        "lmhlo.constant"(%alloc) {disc.device = "gpu", value = dense<0xFF800000> : tensor<f32>} : (memref<f32, "gpu">) -> ()
        "lmhlo.abs"(%reinterpret_cast, %alloc_3) {disc.device = "gpu"} : (memref<?x?x?xf32, "gpu">, memref<?x?x?xf32, "gpu">) -> ()
        "lmhlo.dynamic_reshape"(%alloc_3, %alloca, %alloc_4) {disc.device = "gpu"} : (memref<?x?x?xf32, "gpu">, memref<2xi32, "cpu">, memref<?x?xf32, "gpu">) -> ()
        "lmhlo.reduce"(%alloc_4, %alloc, %alloc_5) ({
        ^bb0(%arg1: memref<f32>, %arg2: memref<f32>, %arg3: memref<f32>):
          "lmhlo.maximum"(%arg1, %arg2, %arg3) {disc.device = "gpu"} : (memref<f32>, memref<f32>, memref<f32>) -> ()
          "lmhlo.terminator"() : () -> ()
        }) {dimensions = dense<0> : tensor<1xi64>, disc.device = "gpu"} : (memref<?x?xf32, "gpu">, memref<f32, "gpu">, memref<?xf32, "gpu">) -> ()
        "lmhlo.terminator"() : () -> ()
      }) {disc.device = "gpu", disc.fusion.name = "main_kColReduction_reduce__4_1_0", disc.fusion.tag = "thin", disc.fusion_type = "kColReduction", disc_col_reduction_schedule_hint = 8 : i32, disc_thread_per_block_hint = 256 : i32} : () -> ()
    }
    memref.dealloc %alloc_4 : memref<?x?xf32, "gpu">
    memref.dealloc %alloc_3 : memref<?x?x?xf32, "gpu">
    memref.dealloc %alloc : memref<f32, "gpu">
    %alloca_6 = memref.alloca() : memref<2xi32, "cpu">
    memref.store %3, %alloca_6[%c0_0] : memref<2xi32, "cpu">
    memref.store %4, %alloca_6[%c1] : memref<2xi32, "cpu">
    %alloc_7 = memref.alloc(%dim_1, %dim) {kDiscSymbolicDimAttr = [@S1, @S2]} : memref<?x?xf32, "gpu">
    "lmhlo.dynamic_reshape"(%alloc_5, %alloca_6, %alloc_7) {disc.device = "gpu"} : (memref<?xf32, "gpu">, memref<2xi32, "cpu">, memref<?x?xf32, "gpu">) -> ()
    memref.dealloc %alloc_5 : memref<?xf32, "gpu">
    %c0_8 = arith.constant 0 : index
    "disc_ral.send_output"(%arg0, %c0_8, %alloc_7) : (!disc_ral.context, index, memref<?x?xf32, "gpu">) -> ()
    return
  }
  "disc_shape.SymbolicDim"() {knownNegativeOne = false, knownNonNegative = true, knownNonSizeOne = false, knownNonSizeZero = false, sym_name = "S0", value = -9223372036854775808 : i64} : () -> ()
  "disc_shape.SymbolicDim"() {knownNegativeOne = false, knownNonNegative = true, knownNonSizeOne = false, knownNonSizeZero = false, sym_name = "S1", value = -9223372036854775808 : i64} : () -> ()
  "disc_shape.SymbolicDim"() {knownNegativeOne = false, knownNonNegative = true, knownNonSizeOne = false, knownNonSizeZero = false, sym_name = "S2", value = -9223372036854775808 : i64} : () -> ()
  "disc_shape.SymbolicDim"() {knownNegativeOne = false, knownNonNegative = true, knownNonSizeOne = false, knownNonSizeZero = false, sym_name = "S3", value = -9223372036854775808 : i64} : () -> ()
  func.func @shape_constraint_graph() {
    %0 = "disc_shape.dim"() {name = @S3} : () -> index
    %1 = "disc_shape.dim"() {name = @S1} : () -> index
    %2 = "disc_shape.dim"() {name = @S2} : () -> index
    "disc_shape.tie_product_equal"(%0, %1, %2) {operand_segment_sizes = array<i32: 1, 2>} : (index, index, index) -> ()
    return
  }
}


// -----// IR Dump After DiscLowerToLibraryCallPass (disc-lower-to-library-call) //----- //
func.func @main(%arg0: !disc_ral.context) attributes {tf.entry_function = {input_placements = "gpu", inputs = "input0", output_placements = "gpu", outputs = "output0"}} {
  %0 = llvm.mlir.constant(0 : i32) : i32
  %c0 = arith.constant 0 : index
  %c1 = arith.constant 1 : index
  %c2 = arith.constant 2 : index
  %1 = "disc_ral.dispatch"(%arg0, %c0) {backend_config = "", call_target_name = "ral_recv_input", device = "cpu", has_side_effect = false} : (!disc_ral.context, index) -> memref<?x?x?xf32, "gpu">
  %dim = memref.dim %1, %c2 : memref<?x?x?xf32, "gpu">
  %dim_0 = memref.dim %1, %c1 : memref<?x?x?xf32, "gpu">
  %dim_1 = memref.dim %1, %c0 : memref<?x?x?xf32, "gpu">
  %alloc = memref.alloc() : memref<f32, "gpu">
  %2 = arith.muli %dim, %dim_0 : index
  %reinterpret_cast = memref.reinterpret_cast %1 to offset: [0], sizes: [%dim_1, %dim_0, %dim], strides: [%2, %dim, 1] {kDiscSymbolicDimAttr = [@S0, @S1, @S2]} : memref<?x?x?xf32, "gpu"> to memref<?x?x?xf32, "gpu">
  %alloc_2 = memref.alloc(%dim_1, %dim_0, %dim) {kDiscSymbolicDimAttr = [@S0, @S1, @S2]} : memref<?x?x?xf32, "gpu">
  %3 = arith.index_cast %dim_1 : index to i32
  %4 = arith.index_cast %dim_0 : index to i32
  %5 = arith.index_cast %dim : index to i32
  %6 = arith.muli %4, %5 : i32
  %alloca = memref.alloca() : memref<2xi32, "cpu">
  memref.store %3, %alloca[%c0] : memref<2xi32, "cpu">
  memref.store %6, %alloca[%c1] : memref<2xi32, "cpu">
  %7 = arith.index_cast %6 : i32 to index
  %alloc_3 = memref.alloc(%dim_1, %7) {kDiscSymbolicDimAttr = [@S0, @S3]} : memref<?x?xf32, "gpu">
  %alloc_4 = memref.alloc(%7) {kDiscSymbolicDimAttr = [@S3]} : memref<?xf32, "gpu">
  %8 = arith.cmpi slt, %dim_1, %7 : index
  scf.if %8 {
    "lmhlo.fusion"() ({
      "lmhlo.constant"(%alloc) {disc.device = "gpu", value = dense<0xFF800000> : tensor<f32>} : (memref<f32, "gpu">) -> ()
      "lmhlo.abs"(%reinterpret_cast, %alloc_2) {disc.device = "gpu"} : (memref<?x?x?xf32, "gpu">, memref<?x?x?xf32, "gpu">) -> ()
      "lmhlo.dynamic_reshape"(%alloc_2, %alloca, %alloc_3) {disc.device = "gpu"} : (memref<?x?x?xf32, "gpu">, memref<2xi32, "cpu">, memref<?x?xf32, "gpu">) -> ()
      "lmhlo.reduce"(%alloc_3, %alloc, %alloc_4) ({
      ^bb0(%arg1: memref<f32>, %arg2: memref<f32>, %arg3: memref<f32>):
        "lmhlo.maximum"(%arg1, %arg2, %arg3) {disc.device = "gpu"} : (memref<f32>, memref<f32>, memref<f32>) -> ()
        "lmhlo.terminator"() : () -> ()
      }) {dimensions = dense<0> : tensor<1xi64>, disc.device = "gpu"} : (memref<?x?xf32, "gpu">, memref<f32, "gpu">, memref<?xf32, "gpu">) -> ()
      "lmhlo.terminator"() : () -> ()
    }) {disc.device = "gpu", disc.fusion.name = "main_kColReduction_reduce__4_1_0", disc.fusion.tag = "flat", disc.fusion_type = "kColReduction", disc_col_reduction_schedule_hint = 7 : i32, disc_thread_per_block_hint = 512 : i32} : () -> ()
  } else {
    "lmhlo.fusion"() ({
      "lmhlo.constant"(%alloc) {disc.device = "gpu", value = dense<0xFF800000> : tensor<f32>} : (memref<f32, "gpu">) -> ()
      "lmhlo.abs"(%reinterpret_cast, %alloc_2) {disc.device = "gpu"} : (memref<?x?x?xf32, "gpu">, memref<?x?x?xf32, "gpu">) -> ()
      "lmhlo.dynamic_reshape"(%alloc_2, %alloca, %alloc_3) {disc.device = "gpu"} : (memref<?x?x?xf32, "gpu">, memref<2xi32, "cpu">, memref<?x?xf32, "gpu">) -> ()
      "lmhlo.reduce"(%alloc_3, %alloc, %alloc_4) ({
      ^bb0(%arg1: memref<f32>, %arg2: memref<f32>, %arg3: memref<f32>):
        "lmhlo.maximum"(%arg1, %arg2, %arg3) {disc.device = "gpu"} : (memref<f32>, memref<f32>, memref<f32>) -> ()
        "lmhlo.terminator"() : () -> ()
      }) {dimensions = dense<0> : tensor<1xi64>, disc.device = "gpu"} : (memref<?x?xf32, "gpu">, memref<f32, "gpu">, memref<?xf32, "gpu">) -> ()
      "lmhlo.terminator"() : () -> ()
    }) {disc.device = "gpu", disc.fusion.name = "main_kColReduction_reduce__4_1_0", disc.fusion.tag = "thin", disc.fusion_type = "kColReduction", disc_col_reduction_schedule_hint = 8 : i32, disc_thread_per_block_hint = 256 : i32} : () -> ()
  }
  memref.dealloc %alloc_3 : memref<?x?xf32, "gpu">
  memref.dealloc %alloc_2 : memref<?x?x?xf32, "gpu">
  memref.dealloc %alloc : memref<f32, "gpu">
  %alloca_5 = memref.alloca() : memref<2xi32, "cpu">
  memref.store %4, %alloca_5[%c0] : memref<2xi32, "cpu">
  memref.store %5, %alloca_5[%c1] : memref<2xi32, "cpu">
  %9 = llvm.inttoptr %0 : i32 to !llvm.ptr<i8>
  %alloca_6 = memref.alloca() : memref<2xindex, "cpu">
  memref.store %dim_0, %alloca_6[%c0] : memref<2xindex, "cpu">
  memref.store %dim, %alloca_6[%c1] : memref<2xindex, "cpu">
  %10 = "disc_ral.dispatch"(%arg0, %9, %alloc_4, %alloca_6) {backend_config = "", call_target_name = "inc_ref", device = "gpu", has_side_effect = false} : (!disc_ral.context, !llvm.ptr<i8>, memref<?xf32, "gpu">, memref<2xindex, "cpu">) -> memref<?x?xf32, "gpu">
  %reinterpret_cast_7 = memref.reinterpret_cast %10 to offset: [0], sizes: [%dim_0, %dim], strides: [%dim, 1] {kDiscSymbolicDimAttr = [@S1, @S2]} : memref<?x?xf32, "gpu"> to memref<?x?xf32, "gpu">
  memref.dealloc %alloc_4 : memref<?xf32, "gpu">
  "disc_ral.dispatch"(%arg0, %c0, %reinterpret_cast_7) {backend_config = "", call_target_name = "ral_send_output", device = "cpu", has_side_effect = false} : (!disc_ral.context, index, memref<?x?xf32, "gpu">) -> ()
  return
}

kColReduction <main_kColReduction_reduce__4_1_0___flat>, use_new: 0 schedule_hint: 7
kColReduction <main_kColReduction_reduce__4_1_0___thin>, use_new: 0 schedule_hint: 8
SymbolicDimMgr::save walkRankedTensorValue takes: 4 us
SymbolicDimMgr::save update attributes takes: 9 us
SymbolicDimMgr::updateProductEqualityMap simplifySymbolicDimProductPair takes: 8 us
productSet.size() = 2
SymbolicDimMgr::updateProductEqualityMap propagate graph takes: 5 us
SymbolicDimMgr::updateProductEqualityMap remove multiply takes: 13 us
SymbolicDimMgr::updateProductEqualityMap build toRemove  takes: 0 us
SymbolicDimMgr::updateProductEqualityMap apply toRemove  takes: 0 us
SymbolicDimMgr::save updateProductEqualityMap takes: 44 us
SymbolicDimMgr::save updateFunctionType takes: 4 us
SymbolicDimMgr::save collect symbolicDim ops takes: 9 us
SymbolicDimMgr::save remove symbolicDim ops takes: 0 us
SymbolicDimMgr::save remove unused production takes: 0 us
SymbolicDimMgr::save remove unused production #2 takes: 0 us
SymbolicDimMgr::save canonicalize the name takes: 3 us
SymbolicDimMgr::save replace the name takes: 9 us
SymbolicDimMgr::save updateFunctionType takes: 2 us
// -----// IR Dump After DiscLhloLegalizeRootsToParallelLoopsPass (disc-lhlo-legalize-roots-to-parallel-loops) //----- //
func.func @main(%arg0: !disc_ral.context) attributes {tf.entry_function = {input_placements = "gpu", inputs = "input0", output_placements = "gpu", outputs = "output0"}} {
  %c4 = arith.constant 4 : index
  %c256 = arith.constant 256 : index
  %c64 = arith.constant 64 : index
  %c8 = arith.constant 8 : index
  %c32 = arith.constant 32 : index
  %c512 = arith.constant 512 : index
  %0 = llvm.mlir.constant(0 : i32) : i32
  %c0 = arith.constant 0 : index
  %c1 = arith.constant 1 : index
  %c2 = arith.constant 2 : index
  %1 = "disc_ral.dispatch"(%arg0, %c0) {backend_config = "", call_target_name = "ral_recv_input", device = "cpu", has_side_effect = false} : (!disc_ral.context, index) -> memref<?x?x?xf32, "gpu">
  %dim = memref.dim %1, %c2 : memref<?x?x?xf32, "gpu">
  %dim_0 = memref.dim %1, %c1 : memref<?x?x?xf32, "gpu">
  %dim_1 = memref.dim %1, %c0 : memref<?x?x?xf32, "gpu">
  %alloc = memref.alloc() : memref<f32, "gpu">
  %2 = arith.muli %dim, %dim_0 : index
  %reinterpret_cast = memref.reinterpret_cast %1 to offset: [0], sizes: [%dim_1, %dim_0, %dim], strides: [%2, %dim, 1] {kDiscSymbolicDimAttr = [@S0, @S1, @S2]} : memref<?x?x?xf32, "gpu"> to memref<?x?x?xf32, "gpu">
  %alloc_2 = memref.alloc(%dim_1, %dim_0, %dim) {kDiscSymbolicDimAttr = [@S0, @S1, @S2]} : memref<?x?x?xf32, "gpu">
  %3 = arith.index_cast %dim_1 : index to i32
  %4 = arith.index_cast %dim_0 : index to i32
  %5 = arith.index_cast %dim : index to i32
  %6 = arith.muli %4, %5 : i32
  %alloca = memref.alloca() : memref<2xi32, "cpu">
  memref.store %3, %alloca[%c0] : memref<2xi32, "cpu">
  memref.store %6, %alloca[%c1] : memref<2xi32, "cpu">
  %7 = arith.index_cast %6 : i32 to index
  %alloc_3 = memref.alloc(%dim_1, %7) {kDiscSymbolicDimAttr = [@S0, @S3]} : memref<?x?xf32, "gpu">
  %alloc_4 = memref.alloc(%7) {kDiscSymbolicDimAttr = [@S3]} : memref<?xf32, "gpu">
  %8 = arith.cmpi slt, %dim_1, %7 : index
  scf.if %8 {
    "lmhlo.fusion"() ({
      "lmhlo.constant"(%alloc) {disc.device = "gpu", value = dense<0xFF800000> : tensor<f32>} : (memref<f32, "gpu">) -> ()
      "lmhlo.abs"(%reinterpret_cast, %alloc_2) {disc.device = "gpu"} : (memref<?x?x?xf32, "gpu">, memref<?x?x?xf32, "gpu">) -> ()
      "lmhlo.dynamic_reshape"(%alloc_2, %alloca, %alloc_3) {disc.device = "gpu"} : (memref<?x?x?xf32, "gpu">, memref<2xi32, "cpu">, memref<?x?xf32, "gpu">) -> ()
      scf.parallel (%arg1) = (%c0) to (%7) step (%c1) {
        %14 = "disc_shape.delinearize"(%arg1, %7) : (index, index) -> index
        %15 = memref.load %alloc[] : memref<f32, "gpu">
        memref.store %15, %alloc_4[%14] : memref<?xf32, "gpu">
        scf.yield
      }
      %11 = arith.ceildivui %7, %c512 : index
      %12 = arith.ceildivui %dim_1, %c32 : index
      %13 = arith.muli %11, %12 : index
      scf.parallel (%arg1, %arg2) = (%c0, %c0) to (%13, %c512) step (%c1, %c1) {
        %14 = memref.load %alloc[] : memref<f32, "gpu">
        %15 = arith.divui %arg1, %11 : index
        %16 = arith.remui %arg1, %11 : index
        %17 = arith.muli %16, %c512 : index
        %18 = arith.addi %17, %arg2 : index
        %19 = arith.cmpi ult, %18, %7 : index
        %20 = scf.if %19 -> (f32) {
          %21 = scf.for %arg3 = %c0 to %c32 step %c1 iter_args(%arg4 = %14) -> (f32) {
            %22 = arith.muli %15, %c32 : index
            %23 = arith.addi %22, %arg3 : index
            %24 = arith.cmpi slt, %23, %dim_1 : index
            %25 = scf.if %24 -> (f32) {
              %26 = memref.load %alloc_3[%23, %18] : memref<?x?xf32, "gpu">
              %27 = arith.cmpf oge, %arg4, %26 : f32
              %28 = arith.select %27, %arg4, %26 : f32
              scf.yield %28 : f32
            } else {
              scf.yield %arg4 : f32
            }
            scf.yield %25 : f32
          }
          scf.yield %21 : f32
        } else {
          scf.yield %14 : f32
        }
        scf.if %19 {
          %21 = memref.atomic_rmw maxf %20, %alloc_4[%18] : (f32, memref<?xf32, "gpu">) -> f32
        }
        scf.yield
      }
      "lmhlo.terminator"() : () -> ()
    }) {disc.device = "gpu", disc.fusion.name = "main_kColReduction_reduce__4_1_0", disc.fusion.tag = "flat", disc.fusion_type = "kColReduction", disc_col_reduction_schedule_hint = 7 : i32, disc_thread_per_block_hint = 512 : i32} : () -> ()
  } else {
    "lmhlo.fusion"() ({
      "lmhlo.constant"(%alloc) {disc.device = "gpu", value = dense<0xFF800000> : tensor<f32>} : (memref<f32, "gpu">) -> ()
      "lmhlo.abs"(%reinterpret_cast, %alloc_2) {disc.device = "gpu"} : (memref<?x?x?xf32, "gpu">, memref<?x?x?xf32, "gpu">) -> ()
      "lmhlo.dynamic_reshape"(%alloc_2, %alloca, %alloc_3) {disc.device = "gpu"} : (memref<?x?x?xf32, "gpu">, memref<2xi32, "cpu">, memref<?x?xf32, "gpu">) -> ()
      scf.parallel (%arg1) = (%c0) to (%7) step (%c1) {
        %14 = "disc_shape.delinearize"(%arg1, %7) : (index, index) -> index
        %15 = memref.load %alloc[] : memref<f32, "gpu">
        memref.store %15, %alloc_4[%14] : memref<?xf32, "gpu">
        scf.yield
      }
      %11 = arith.ceildivui %7, %c32 : index
      %12 = arith.ceildivui %dim_1, %c512 : index
      %13 = arith.muli %11, %12 : index
      scf.parallel (%arg1, %arg2) = (%c0, %c0) to (%13, %c256) step (%c1, %c1) {
        %14 = memref.load %alloc[] : memref<f32, "gpu">
        %15 = arith.divui %arg1, %11 : index
        %16 = arith.remui %arg1, %11 : index
        %17 = arith.divui %arg2, %c32 : index
        %18 = arith.remui %arg2, %c32 : index
        %19 = arith.muli %18, %c8 : index
        %20 = arith.addi %17, %19 : index
        %21 = arith.muli %16, %c32 : index
        %22 = arith.addi %18, %21 : index
        %alloc_8 = memref.alloc() : memref<256xf32, #gpu.address_space<workgroup>>
        %23 = arith.cmpi ult, %22, %7 : index
        %24 = scf.if %23 -> (f32) {
          %29 = scf.for %arg3 = %c0 to %c64 step %c1 iter_args(%arg4 = %14) -> (f32) {
            %30 = arith.muli %15, %c8 : index
            %31 = arith.addi %17, %30 : index
            %32 = arith.muli %31, %c64 : index
            %33 = arith.addi %arg3, %32 : index
            %34 = arith.cmpi slt, %33, %dim_1 : index
            %35 = scf.if %34 -> (f32) {
              %36 = memref.load %alloc_3[%33, %22] : memref<?x?xf32, "gpu">
              %37 = arith.maxf %arg4, %36 : f32
              scf.yield %37 : f32
            } else {
              scf.yield %arg4 : f32
            }
            scf.yield %35 : f32
          }
          scf.yield %29 : f32
        } else {
          scf.yield %14 : f32
        }
        memref.store %24, %alloc_8[%20] : memref<256xf32, #gpu.address_space<workgroup>>
        gpu.barrier
        %25 = arith.cmpi slt, %17, %c4 : index
        scf.if %25 {
          %29 = arith.addi %20, %c4 : index
          %30 = memref.load %alloc_8[%20] : memref<256xf32, #gpu.address_space<workgroup>>
          %31 = memref.load %alloc_8[%29] : memref<256xf32, #gpu.address_space<workgroup>>
          %32 = arith.maxf %30, %31 : f32
          memref.store %32, %alloc_8[%20] : memref<256xf32, #gpu.address_space<workgroup>>
        }
        gpu.barrier
        %26 = arith.cmpi slt, %17, %c2 : index
        scf.if %26 {
          %29 = arith.addi %20, %c2 : index
          %30 = memref.load %alloc_8[%20] : memref<256xf32, #gpu.address_space<workgroup>>
          %31 = memref.load %alloc_8[%29] : memref<256xf32, #gpu.address_space<workgroup>>
          %32 = arith.maxf %30, %31 : f32
          memref.store %32, %alloc_8[%20] : memref<256xf32, #gpu.address_space<workgroup>>
        }
        gpu.barrier
        %27 = arith.cmpi eq, %17, %c0 : index
        %28 = arith.andi %27, %23 : i1
        scf.if %28 {
          %29 = arith.addi %20, %c1 : index
          %30 = memref.load %alloc_8[%20] : memref<256xf32, #gpu.address_space<workgroup>>
          %31 = memref.load %alloc_8[%29] : memref<256xf32, #gpu.address_space<workgroup>>
          %32 = arith.maxf %30, %31 : f32
          %33 = memref.atomic_rmw maxf %32, %alloc_4[%22] : (f32, memref<?xf32, "gpu">) -> f32
        }
        scf.yield
      }
      "lmhlo.terminator"() : () -> ()
    }) {disc.device = "gpu", disc.fusion.name = "main_kColReduction_reduce__4_1_0", disc.fusion.tag = "thin", disc.fusion_type = "kColReduction", disc_col_reduction_schedule_hint = 8 : i32, disc_thread_per_block_hint = 256 : i32} : () -> ()
  }
  memref.dealloc %alloc_3 : memref<?x?xf32, "gpu">
  memref.dealloc %alloc_2 : memref<?x?x?xf32, "gpu">
  memref.dealloc %alloc : memref<f32, "gpu">
  %alloca_5 = memref.alloca() : memref<2xi32, "cpu">
  memref.store %4, %alloca_5[%c0] : memref<2xi32, "cpu">
  memref.store %5, %alloca_5[%c1] : memref<2xi32, "cpu">
  %9 = llvm.inttoptr %0 : i32 to !llvm.ptr<i8>
  %alloca_6 = memref.alloca() : memref<2xindex, "cpu">
  memref.store %dim_0, %alloca_6[%c0] : memref<2xindex, "cpu">
  memref.store %dim, %alloca_6[%c1] : memref<2xindex, "cpu">
  %10 = "disc_ral.dispatch"(%arg0, %9, %alloc_4, %alloca_6) {backend_config = "", call_target_name = "inc_ref", device = "gpu", has_side_effect = false} : (!disc_ral.context, !llvm.ptr<i8>, memref<?xf32, "gpu">, memref<2xindex, "cpu">) -> memref<?x?xf32, "gpu">
  %reinterpret_cast_7 = memref.reinterpret_cast %10 to offset: [0], sizes: [%dim_0, %dim], strides: [%dim, 1] {kDiscSymbolicDimAttr = [@S1, @S2]} : memref<?x?xf32, "gpu"> to memref<?x?xf32, "gpu">
  memref.dealloc %alloc_4 : memref<?xf32, "gpu">
  "disc_ral.dispatch"(%arg0, %c0, %reinterpret_cast_7) {backend_config = "", call_target_name = "ral_send_output", device = "cpu", has_side_effect = false} : (!disc_ral.context, index, memref<?x?xf32, "gpu">) -> ()
  return
}

// -----// IR Dump After ExpandOps (memref-expand) //----- //
func.func @main(%arg0: !disc_ral.context) attributes {tf.entry_function = {input_placements = "gpu", inputs = "input0", output_placements = "gpu", outputs = "output0"}} {
  %c4 = arith.constant 4 : index
  %c256 = arith.constant 256 : index
  %c64 = arith.constant 64 : index
  %c8 = arith.constant 8 : index
  %c32 = arith.constant 32 : index
  %c512 = arith.constant 512 : index
  %0 = llvm.mlir.constant(0 : i32) : i32
  %c0 = arith.constant 0 : index
  %c1 = arith.constant 1 : index
  %c2 = arith.constant 2 : index
  %1 = "disc_ral.dispatch"(%arg0, %c0) {backend_config = "", call_target_name = "ral_recv_input", device = "cpu", has_side_effect = false} : (!disc_ral.context, index) -> memref<?x?x?xf32, "gpu">
  %dim = memref.dim %1, %c2 : memref<?x?x?xf32, "gpu">
  %dim_0 = memref.dim %1, %c1 : memref<?x?x?xf32, "gpu">
  %dim_1 = memref.dim %1, %c0 : memref<?x?x?xf32, "gpu">
  %alloc = memref.alloc() : memref<f32, "gpu">
  %2 = arith.muli %dim, %dim_0 : index
  %reinterpret_cast = memref.reinterpret_cast %1 to offset: [0], sizes: [%dim_1, %dim_0, %dim], strides: [%2, %dim, 1] {kDiscSymbolicDimAttr = [@S0, @S1, @S2]} : memref<?x?x?xf32, "gpu"> to memref<?x?x?xf32, "gpu">
  %alloc_2 = memref.alloc(%dim_1, %dim_0, %dim) {kDiscSymbolicDimAttr = [@S0, @S1, @S2]} : memref<?x?x?xf32, "gpu">
  %3 = arith.index_cast %dim_1 : index to i32
  %4 = arith.index_cast %dim_0 : index to i32
  %5 = arith.index_cast %dim : index to i32
  %6 = arith.muli %4, %5 : i32
  %alloca = memref.alloca() : memref<2xi32, "cpu">
  memref.store %3, %alloca[%c0] : memref<2xi32, "cpu">
  memref.store %6, %alloca[%c1] : memref<2xi32, "cpu">
  %7 = arith.index_cast %6 : i32 to index
  %alloc_3 = memref.alloc(%dim_1, %7) {kDiscSymbolicDimAttr = [@S0, @S3]} : memref<?x?xf32, "gpu">
  %alloc_4 = memref.alloc(%7) {kDiscSymbolicDimAttr = [@S3]} : memref<?xf32, "gpu">
  %8 = arith.cmpi slt, %dim_1, %7 : index
  scf.if %8 {
    "lmhlo.fusion"() ({
      "lmhlo.constant"(%alloc) {disc.device = "gpu", value = dense<0xFF800000> : tensor<f32>} : (memref<f32, "gpu">) -> ()
      "lmhlo.abs"(%reinterpret_cast, %alloc_2) {disc.device = "gpu"} : (memref<?x?x?xf32, "gpu">, memref<?x?x?xf32, "gpu">) -> ()
      "lmhlo.dynamic_reshape"(%alloc_2, %alloca, %alloc_3) {disc.device = "gpu"} : (memref<?x?x?xf32, "gpu">, memref<2xi32, "cpu">, memref<?x?xf32, "gpu">) -> ()
      scf.parallel (%arg1) = (%c0) to (%7) step (%c1) {
        %14 = "disc_shape.delinearize"(%arg1, %7) : (index, index) -> index
        %15 = memref.load %alloc[] : memref<f32, "gpu">
        memref.store %15, %alloc_4[%14] : memref<?xf32, "gpu">
        scf.yield
      }
      %11 = arith.ceildivui %7, %c512 : index
      %12 = arith.ceildivui %dim_1, %c32 : index
      %13 = arith.muli %11, %12 : index
      scf.parallel (%arg1, %arg2) = (%c0, %c0) to (%13, %c512) step (%c1, %c1) {
        %14 = memref.load %alloc[] : memref<f32, "gpu">
        %15 = arith.divui %arg1, %11 : index
        %16 = arith.remui %arg1, %11 : index
        %17 = arith.muli %16, %c512 : index
        %18 = arith.addi %17, %arg2 : index
        %19 = arith.cmpi ult, %18, %7 : index
        %20 = scf.if %19 -> (f32) {
          %21 = scf.for %arg3 = %c0 to %c32 step %c1 iter_args(%arg4 = %14) -> (f32) {
            %22 = arith.muli %15, %c32 : index
            %23 = arith.addi %22, %arg3 : index
            %24 = arith.cmpi slt, %23, %dim_1 : index
            %25 = scf.if %24 -> (f32) {
              %26 = memref.load %alloc_3[%23, %18] : memref<?x?xf32, "gpu">
              %27 = arith.cmpf oge, %arg4, %26 : f32
              %28 = arith.select %27, %arg4, %26 : f32
              scf.yield %28 : f32
            } else {
              scf.yield %arg4 : f32
            }
            scf.yield %25 : f32
          }
          scf.yield %21 : f32
        } else {
          scf.yield %14 : f32
        }
        scf.if %19 {
          %21 = memref.generic_atomic_rmw %alloc_4[%18] : memref<?xf32, "gpu"> {
          ^bb0(%arg3: f32):
            %22 = arith.cmpf ogt, %arg3, %20 : f32
            %23 = arith.select %22, %arg3, %20 : f32
            memref.atomic_yield %23 : f32
          }
        }
        scf.yield
      }
      "lmhlo.terminator"() : () -> ()
    }) {disc.device = "gpu", disc.fusion.name = "main_kColReduction_reduce__4_1_0", disc.fusion.tag = "flat", disc.fusion_type = "kColReduction", disc_col_reduction_schedule_hint = 7 : i32, disc_thread_per_block_hint = 512 : i32} : () -> ()
  } else {
    "lmhlo.fusion"() ({
      "lmhlo.constant"(%alloc) {disc.device = "gpu", value = dense<0xFF800000> : tensor<f32>} : (memref<f32, "gpu">) -> ()
      "lmhlo.abs"(%reinterpret_cast, %alloc_2) {disc.device = "gpu"} : (memref<?x?x?xf32, "gpu">, memref<?x?x?xf32, "gpu">) -> ()
      "lmhlo.dynamic_reshape"(%alloc_2, %alloca, %alloc_3) {disc.device = "gpu"} : (memref<?x?x?xf32, "gpu">, memref<2xi32, "cpu">, memref<?x?xf32, "gpu">) -> ()
      scf.parallel (%arg1) = (%c0) to (%7) step (%c1) {
        %14 = "disc_shape.delinearize"(%arg1, %7) : (index, index) -> index
        %15 = memref.load %alloc[] : memref<f32, "gpu">
        memref.store %15, %alloc_4[%14] : memref<?xf32, "gpu">
        scf.yield
      }
      %11 = arith.ceildivui %7, %c32 : index
      %12 = arith.ceildivui %dim_1, %c512 : index
      %13 = arith.muli %11, %12 : index
      scf.parallel (%arg1, %arg2) = (%c0, %c0) to (%13, %c256) step (%c1, %c1) {
        %14 = memref.load %alloc[] : memref<f32, "gpu">
        %15 = arith.divui %arg1, %11 : index
        %16 = arith.remui %arg1, %11 : index
        %17 = arith.divui %arg2, %c32 : index
        %18 = arith.remui %arg2, %c32 : index
        %19 = arith.muli %18, %c8 : index
        %20 = arith.addi %17, %19 : index
        %21 = arith.muli %16, %c32 : index
        %22 = arith.addi %18, %21 : index
        %alloc_8 = memref.alloc() : memref<256xf32, #gpu.address_space<workgroup>>
        %23 = arith.cmpi ult, %22, %7 : index
        %24 = scf.if %23 -> (f32) {
          %29 = scf.for %arg3 = %c0 to %c64 step %c1 iter_args(%arg4 = %14) -> (f32) {
            %30 = arith.muli %15, %c8 : index
            %31 = arith.addi %17, %30 : index
            %32 = arith.muli %31, %c64 : index
            %33 = arith.addi %arg3, %32 : index
            %34 = arith.cmpi slt, %33, %dim_1 : index
            %35 = scf.if %34 -> (f32) {
              %36 = memref.load %alloc_3[%33, %22] : memref<?x?xf32, "gpu">
              %37 = arith.maxf %arg4, %36 : f32
              scf.yield %37 : f32
            } else {
              scf.yield %arg4 : f32
            }
            scf.yield %35 : f32
          }
          scf.yield %29 : f32
        } else {
          scf.yield %14 : f32
        }
        memref.store %24, %alloc_8[%20] : memref<256xf32, #gpu.address_space<workgroup>>
        gpu.barrier
        %25 = arith.cmpi slt, %17, %c4 : index
        scf.if %25 {
          %29 = arith.addi %20, %c4 : index
          %30 = memref.load %alloc_8[%20] : memref<256xf32, #gpu.address_space<workgroup>>
          %31 = memref.load %alloc_8[%29] : memref<256xf32, #gpu.address_space<workgroup>>
          %32 = arith.maxf %30, %31 : f32
          memref.store %32, %alloc_8[%20] : memref<256xf32, #gpu.address_space<workgroup>>
        }
        gpu.barrier
        %26 = arith.cmpi slt, %17, %c2 : index
        scf.if %26 {
          %29 = arith.addi %20, %c2 : index
          %30 = memref.load %alloc_8[%20] : memref<256xf32, #gpu.address_space<workgroup>>
          %31 = memref.load %alloc_8[%29] : memref<256xf32, #gpu.address_space<workgroup>>
          %32 = arith.maxf %30, %31 : f32
          memref.store %32, %alloc_8[%20] : memref<256xf32, #gpu.address_space<workgroup>>
        }
        gpu.barrier
        %27 = arith.cmpi eq, %17, %c0 : index
        %28 = arith.andi %27, %23 : i1
        scf.if %28 {
          %29 = arith.addi %20, %c1 : index
          %30 = memref.load %alloc_8[%20] : memref<256xf32, #gpu.address_space<workgroup>>
          %31 = memref.load %alloc_8[%29] : memref<256xf32, #gpu.address_space<workgroup>>
          %32 = arith.maxf %30, %31 : f32
          %33 = memref.generic_atomic_rmw %alloc_4[%22] : memref<?xf32, "gpu"> {
          ^bb0(%arg3: f32):
            %34 = arith.cmpf ogt, %arg3, %32 : f32
            %35 = arith.select %34, %arg3, %32 : f32
            memref.atomic_yield %35 : f32
          }
        }
        scf.yield
      }
      "lmhlo.terminator"() : () -> ()
    }) {disc.device = "gpu", disc.fusion.name = "main_kColReduction_reduce__4_1_0", disc.fusion.tag = "thin", disc.fusion_type = "kColReduction", disc_col_reduction_schedule_hint = 8 : i32, disc_thread_per_block_hint = 256 : i32} : () -> ()
  }
  memref.dealloc %alloc_3 : memref<?x?xf32, "gpu">
  memref.dealloc %alloc_2 : memref<?x?x?xf32, "gpu">
  memref.dealloc %alloc : memref<f32, "gpu">
  %alloca_5 = memref.alloca() : memref<2xi32, "cpu">
  memref.store %4, %alloca_5[%c0] : memref<2xi32, "cpu">
  memref.store %5, %alloca_5[%c1] : memref<2xi32, "cpu">
  %9 = llvm.inttoptr %0 : i32 to !llvm.ptr<i8>
  %alloca_6 = memref.alloca() : memref<2xindex, "cpu">
  memref.store %dim_0, %alloca_6[%c0] : memref<2xindex, "cpu">
  memref.store %dim, %alloca_6[%c1] : memref<2xindex, "cpu">
…
  store ptr %21, ptr %240, align 8
  %241 = getelementptr inbounds ptr, ptr %235, i64 3
  store ptr %240, ptr %241, align 8
  %242 = getelementptr inbounds %.6, ptr %234, i64 0, i32 4
  store i64 0, ptr %242, align 8
  %243 = getelementptr inbounds ptr, ptr %235, i64 4
  store ptr %242, ptr %243, align 8
  %244 = getelementptr inbounds %.6, ptr %234, i64 0, i32 5
  store i64 %12, ptr %244, align 8
  %245 = getelementptr inbounds ptr, ptr %235, i64 5
  store ptr %244, ptr %245, align 8
  %246 = getelementptr inbounds %.6, ptr %234, i64 0, i32 6
  store i64 1, ptr %246, align 8
  %247 = getelementptr inbounds ptr, ptr %235, i64 6
  store ptr %246, ptr %247, align 8
  %248 = getelementptr inbounds %.6, ptr %234, i64 0, i32 7
  store ptr %232, ptr %248, align 8
  %249 = getelementptr inbounds ptr, ptr %235, i64 7
  store ptr %248, ptr %249, align 8
  %250 = getelementptr inbounds %.6, ptr %234, i64 0, i32 8
  store ptr %232, ptr %250, align 8
  %251 = getelementptr inbounds ptr, ptr %235, i64 8
  store ptr %250, ptr %251, align 8
  %252 = getelementptr inbounds %.6, ptr %234, i64 0, i32 9
  store i64 0, ptr %252, align 8
  %253 = getelementptr inbounds ptr, ptr %235, i64 9
  store ptr %252, ptr %253, align 8
  %254 = getelementptr inbounds %.6, ptr %234, i64 0, i32 10
  store i64 2, ptr %254, align 8
  %255 = getelementptr inbounds ptr, ptr %235, i64 10
  store ptr %254, ptr %255, align 8
  %256 = getelementptr inbounds %.6, ptr %234, i64 0, i32 11
  store i64 1, ptr %256, align 8
  %257 = getelementptr inbounds ptr, ptr %235, i64 11
  store ptr %256, ptr %257, align 8
  %258 = getelementptr inbounds %.6, ptr %234, i64 0, i32 12
  %259 = getelementptr inbounds ptr, ptr %235, i64 12
  store ptr %258, ptr %259, align 8
  %260 = load ptr, ptr %0, align 8
  %261 = load ptr, ptr %9, align 8
  store ptr %260, ptr %234, align 8
  call void %261(ptr %260, ptr nonnull @inc_ref___gpu___pvoid_pvoid_m1df32_m1di64___m2df32, ptr nonnull %235)
  %.unpack = load ptr, ptr %258, align 8
  %.elt1 = getelementptr inbounds %.6, ptr %234, i64 0, i32 12, i32 1
  %.unpack2 = load ptr, ptr %.elt1, align 8
  %262 = alloca %.7, align 8
  %263 = alloca [2 x ptr], align 8
  store ptr %262, ptr %263, align 8
  %264 = getelementptr inbounds %.7, ptr %262, i64 0, i32 1
  store ptr %21, ptr %264, align 8
  %265 = getelementptr inbounds ptr, ptr %263, i64 1
  store ptr %264, ptr %265, align 8
  %266 = load ptr, ptr %0, align 8
  %267 = load ptr, ptr %9, align 8
  store ptr %266, ptr %262, align 8
  call void %267(ptr %266, ptr nonnull @dealloc___gpu___pvoid_pvoid___void, ptr nonnull %263)
  %268 = alloca %.8, align 8
  %269 = alloca [9 x ptr], align 8
  store ptr %268, ptr %269, align 8
  %270 = getelementptr inbounds %.8, ptr %268, i64 0, i32 1
  store i64 0, ptr %270, align 8
  %271 = getelementptr inbounds ptr, ptr %269, i64 1
  store ptr %270, ptr %271, align 8
  %272 = getelementptr inbounds %.8, ptr %268, i64 0, i32 2
  store ptr %.unpack, ptr %272, align 8
  %273 = getelementptr inbounds ptr, ptr %269, i64 2
  store ptr %272, ptr %273, align 8
  %274 = getelementptr inbounds %.8, ptr %268, i64 0, i32 3
  store ptr %.unpack2, ptr %274, align 8
  %275 = getelementptr inbounds ptr, ptr %269, i64 3
  store ptr %274, ptr %275, align 8
  %276 = getelementptr inbounds %.8, ptr %268, i64 0, i32 4
  store i64 0, ptr %276, align 8
  %277 = getelementptr inbounds ptr, ptr %269, i64 4
  store ptr %276, ptr %277, align 8
  %278 = getelementptr inbounds %.8, ptr %268, i64 0, i32 5
  store i64 %.fca.3.1.load, ptr %278, align 8
  %279 = getelementptr inbounds ptr, ptr %269, i64 5
  store ptr %278, ptr %279, align 8
  %280 = getelementptr inbounds %.8, ptr %268, i64 0, i32 6
  store i64 %.fca.3.2.load, ptr %280, align 8
  %281 = getelementptr inbounds ptr, ptr %269, i64 6
  store ptr %280, ptr %281, align 8
  %282 = getelementptr inbounds %.8, ptr %268, i64 0, i32 7
  store i64 %.fca.3.2.load, ptr %282, align 8
  %283 = getelementptr inbounds ptr, ptr %269, i64 7
  store ptr %282, ptr %283, align 8
  %284 = getelementptr inbounds %.8, ptr %268, i64 0, i32 8
  store i64 1, ptr %284, align 8
  %285 = getelementptr inbounds ptr, ptr %269, i64 8
  store ptr %284, ptr %285, align 8
  %286 = load ptr, ptr %0, align 8
  %287 = load ptr, ptr %9, align 8
  store ptr %286, ptr %268, align 8
  call void %287(ptr %286, ptr nonnull @ral_send_output___cpu___pvoid_i64_m2df32___void, ptr nonnull %269)
  ret void
}

[DISC] LowerLLVMToBinary takes: 2.527400e-02 s.
object file to shared library command: gcc --shared -o /root/.cache/bazel/_bazel_root/54ece412abe75fa85ab728a2c061e33c/execroot/org_disc_compiler/_tmp/b247c1654ecfc81b23b002417f617beaColReduceFullyDynamicShape3DF32_1_0.so /root/.cache/bazel/_bazel_root/54ece412abe75fa85ab728a2c061e33c/execroot/org_disc_compiler/_tmp/b247c1654ecfc81b23b002417f617beaColReduceFullyDynamicShape3DF32_1_0.so.o
save shared lib file to : /root/.cache/bazel/_bazel_root/54ece412abe75fa85ab728a2c061e33c/execroot/org_disc_compiler/_tmp/b247c1654ecfc81b23b002417f617beaColReduceFullyDynamicShape3DF32_1_0.so
[DISC] BinaryStrToSharedLibrary takes: 6.423800e-02 s.
[DISC] LowerHLOToSharedLibrary takes: 1.697026e+00 s.

============ END ============

2023-07-03 08:37:04.236034: I mlir/disc/tests/mlir_test.cc:275] ret: 0

2023-07-03 08:37:04.236092: I mlir/disc/tests/mlir_test.cc:241] run compiled program

2023-07-03 08:37:05.951610: I external/org_tensorflow/tensorflow/compiler/xla/stream_executor/cuda/cuda_gpu_executor.cc:996] successful NUMA node read from SysFS had negative value (-1), but there must be at least one NUMA node, so returning NUMA node zero. See more at https://github.com/torvalds/linux/blob/v6.0/Documentation/ABI/testing/sysfs-bus-pci#L344-L355
2023-07-03 08:37:05.955916: I mlir/disc/tests/mlir_test.cc:932] --- MLIR Execution uses: 4.309 ms
2023-07-03 08:37:05.955995: I mlir/disc/tests/mlir_test.cc:183] out buffer = 0x7fa7db232000
2023-07-03 08:37:05.956002: I mlir/disc/tests/mlir_test.cc:184] out shape:
2023-07-03 08:37:05.956005: I mlir/disc/tests/mlir_test.cc:186]   dim #0: 10
2023-07-03 08:37:05.956007: I mlir/disc/tests/mlir_test.cc:186]   dim #1: 10
2023-07-03 08:37:05.956056: I mlir/disc/tests/mlir_test.cc:244] run golden tf

2023-07-03 08:37:05.956065: I mlir/disc/tests/mlir_test.cc:257] program_path: external/org_tensorflow/tensorflow/compiler/mlir/tf-mlir-translate

2023-07-03 08:37:06.048246: I mlir/disc/tests/mlir_test.cc:269] Executed: external/org_tensorflow/tensorflow/compiler/mlir/tf-mlir-translate -mlir-to-graphdef /root/.cache/bazel/_bazel_root/54ece412abe75fa85ab728a2c061e33c/execroot/org_disc_compiler/_tmp/b247c1654ecfc81b23b002417f617bea/tempfile-adf59ec6ac82-b79f4076-1052541-5ff91121403af -o /root/.cache/bazel/_bazel_root/54ece412abe75fa85ab728a2c061e33c/execroot/org_disc_compiler/_tmp/b247c1654ecfc81b23b002417f617beaColReduceFullyDynamicShape3DF32_1_0.pbtxt 
2023-07-03 08:37:06.048258: I mlir/disc/tests/mlir_test.cc:270] external/org_tensorflow/tensorflow/compiler/mlir/tf-mlir-translate: 0
2023-07-03 08:37:06.048261: I mlir/disc/tests/mlir_test.cc:271] -- stdout:

============ END ============

2023-07-03 08:37:06.048264: I mlir/disc/tests/mlir_test.cc:273] -- stderr:

============ END ============

2023-07-03 08:37:06.048266: I mlir/disc/tests/mlir_test.cc:275] ret: 0

2023-07-03 08:37:06.048274: I mlir/disc/tests/mlir_test.cc:391] graphdef_path: /root/.cache/bazel/_bazel_root/54ece412abe75fa85ab728a2c061e33c/execroot/org_disc_compiler/_tmp/b247c1654ecfc81b23b002417f617beaColReduceFullyDynamicShape3DF32_1_0.pbtxt
2023-07-03 08:37:06.049666: I external/org_tensorflow/tensorflow/core/platform/cpu_feature_guard.cc:182] This TensorFlow binary is optimized to use available CPU instructions in performance-critical operations.
To enable the following instructions: SSE3 SSE4.1 SSE4.2 AVX AVX2 AVX512F AVX512_VNNI FMA, in other operations, rebuild TensorFlow with the appropriate compiler flags.
2023-07-03 08:37:08.330516: I external/org_tensorflow/tensorflow/compiler/xla/stream_executor/cuda/cuda_gpu_executor.cc:996] successful NUMA node read from SysFS had negative value (-1), but there must be at least one NUMA node, so returning NUMA node zero. See more at https://github.com/torvalds/linux/blob/v6.0/Documentation/ABI/testing/sysfs-bus-pci#L344-L355
2023-07-03 08:37:08.334663: I external/org_tensorflow/tensorflow/compiler/xla/stream_executor/cuda/cuda_gpu_executor.cc:996] successful NUMA node read from SysFS had negative value (-1), but there must be at least one NUMA node, so returning NUMA node zero. See more at https://github.com/torvalds/linux/blob/v6.0/Documentation/ABI/testing/sysfs-bus-pci#L344-L355
2023-07-03 08:37:08.338742: I external/org_tensorflow/tensorflow/compiler/xla/stream_executor/cuda/cuda_gpu_executor.cc:996] successful NUMA node read from SysFS had negative value (-1), but there must be at least one NUMA node, so returning NUMA node zero. See more at https://github.com/torvalds/linux/blob/v6.0/Documentation/ABI/testing/sysfs-bus-pci#L344-L355
2023-07-03 08:37:08.342333: I external/org_tensorflow/tensorflow/compiler/xla/stream_executor/cuda/cuda_gpu_executor.cc:996] successful NUMA node read from SysFS had negative value (-1), but there must be at least one NUMA node, so returning NUMA node zero. See more at https://github.com/torvalds/linux/blob/v6.0/Documentation/ABI/testing/sysfs-bus-pci#L344-L355
2023-07-03 08:37:08.346129: I external/org_tensorflow/tensorflow/compiler/xla/stream_executor/cuda/cuda_gpu_executor.cc:996] successful NUMA node read from SysFS had negative value (-1), but there must be at least one NUMA node, so returning NUMA node zero. See more at https://github.com/torvalds/linux/blob/v6.0/Documentation/ABI/testing/sysfs-bus-pci#L344-L355
2023-07-03 08:37:08.350031: I external/org_tensorflow/tensorflow/compiler/xla/stream_executor/cuda/cuda_gpu_executor.cc:996] successful NUMA node read from SysFS had negative value (-1), but there must be at least one NUMA node, so returning NUMA node zero. See more at https://github.com/torvalds/linux/blob/v6.0/Documentation/ABI/testing/sysfs-bus-pci#L344-L355
2023-07-03 08:37:08.354018: I external/org_tensorflow/tensorflow/compiler/xla/stream_executor/cuda/cuda_gpu_executor.cc:996] successful NUMA node read from SysFS had negative value (-1), but there must be at least one NUMA node, so returning NUMA node zero. See more at https://github.com/torvalds/linux/blob/v6.0/Documentation/ABI/testing/sysfs-bus-pci#L344-L355
2023-07-03 08:37:08.357634: I external/org_tensorflow/tensorflow/compiler/xla/stream_executor/cuda/cuda_gpu_executor.cc:996] successful NUMA node read from SysFS had negative value (-1), but there must be at least one NUMA node, so returning NUMA node zero. See more at https://github.com/torvalds/linux/blob/v6.0/Documentation/ABI/testing/sysfs-bus-pci#L344-L355
2023-07-03 08:37:08.579134: I external/org_tensorflow/tensorflow/compiler/xla/stream_executor/cuda/cuda_gpu_executor.cc:996] successful NUMA node read from SysFS had negative value (-1), but there must be at least one NUMA node, so returning NUMA node zero. See more at https://github.com/torvalds/linux/blob/v6.0/Documentation/ABI/testing/sysfs-bus-pci#L344-L355
2023-07-03 08:37:08.583430: I external/org_tensorflow/tensorflow/compiler/xla/stream_executor/cuda/cuda_gpu_executor.cc:996] successful NUMA node read from SysFS had negative value (-1), but there must be at least one NUMA node, so returning NUMA node zero. See more at https://github.com/torvalds/linux/blob/v6.0/Documentation/ABI/testing/sysfs-bus-pci#L344-L355
2023-07-03 08:37:08.587400: I external/org_tensorflow/tensorflow/compiler/xla/stream_executor/cuda/cuda_gpu_executor.cc:996] successful NUMA node read from SysFS had negative value (-1), but there must be at least one NUMA node, so returning NUMA node zero. See more at https://github.com/torvalds/linux/blob/v6.0/Documentation/ABI/testing/sysfs-bus-pci#L344-L355
2023-07-03 08:37:08.592484: I external/org_tensorflow/tensorflow/compiler/xla/stream_executor/cuda/cuda_gpu_executor.cc:996] successful NUMA node read from SysFS had negative value (-1), but there must be at least one NUMA node, so returning NUMA node zero. See more at https://github.com/torvalds/linux/blob/v6.0/Documentation/ABI/testing/sysfs-bus-pci#L344-L355
2023-07-03 08:37:08.596404: I external/org_tensorflow/tensorflow/compiler/xla/stream_executor/cuda/cuda_gpu_executor.cc:996] successful NUMA node read from SysFS had negative value (-1), but there must be at least one NUMA node, so returning NUMA node zero. See more at https://github.com/torvalds/linux/blob/v6.0/Documentation/ABI/testing/sysfs-bus-pci#L344-L355
2023-07-03 08:37:08.600399: I external/org_tensorflow/tensorflow/compiler/xla/stream_executor/cuda/cuda_gpu_executor.cc:996] successful NUMA node read from SysFS had negative value (-1), but there must be at least one NUMA node, so returning NUMA node zero. See more at https://github.com/torvalds/linux/blob/v6.0/Documentation/ABI/testing/sysfs-bus-pci#L344-L355
2023-07-03 08:37:08.604389: I external/org_tensorflow/tensorflow/compiler/xla/stream_executor/cuda/cuda_gpu_executor.cc:996] successful NUMA node read from SysFS had negative value (-1), but there must be at least one NUMA node, so returning NUMA node zero. See more at https://github.com/torvalds/linux/blob/v6.0/Documentation/ABI/testing/sysfs-bus-pci#L344-L355
2023-07-03 08:37:08.608531: I external/org_tensorflow/tensorflow/compiler/xla/stream_executor/cuda/cuda_gpu_executor.cc:996] successful NUMA node read from SysFS had negative value (-1), but there must be at least one NUMA node, so returning NUMA node zero. See more at https://github.com/torvalds/linux/blob/v6.0/Documentation/ABI/testing/sysfs-bus-pci#L344-L355
2023-07-03 08:37:08.612382: I external/org_tensorflow/tensorflow/compiler/xla/stream_executor/cuda/cuda_gpu_executor.cc:996] successful NUMA node read from SysFS had negative value (-1), but there must be at least one NUMA node, so returning NUMA node zero. See more at https://github.com/torvalds/linux/blob/v6.0/Documentation/ABI/testing/sysfs-bus-pci#L344-L355
2023-07-03 08:37:08.616515: I external/org_tensorflow/tensorflow/compiler/xla/stream_executor/cuda/cuda_gpu_executor.cc:996] successful NUMA node read from SysFS had negative value (-1), but there must be at least one NUMA node, so returning NUMA node zero. See more at https://github.com/torvalds/linux/blob/v6.0/Documentation/ABI/testing/sysfs-bus-pci#L344-L355
2023-07-03 08:37:08.619797: I external/org_tensorflow/tensorflow/compiler/xla/stream_executor/cuda/cuda_gpu_executor.cc:996] successful NUMA node read from SysFS had negative value (-1), but there must be at least one NUMA node, so returning NUMA node zero. See more at https://github.com/torvalds/linux/blob/v6.0/Documentation/ABI/testing/sysfs-bus-pci#L344-L355
2023-07-03 08:37:08.623140: I external/org_tensorflow/tensorflow/compiler/xla/stream_executor/cuda/cuda_gpu_executor.cc:996] successful NUMA node read from SysFS had negative value (-1), but there must be at least one NUMA node, so returning NUMA node zero. See more at https://github.com/torvalds/linux/blob/v6.0/Documentation/ABI/testing/sysfs-bus-pci#L344-L355
2023-07-03 08:37:08.626251: I external/org_tensorflow/tensorflow/compiler/xla/stream_executor/cuda/cuda_gpu_executor.cc:996] successful NUMA node read from SysFS had negative value (-1), but there must be at least one NUMA node, so returning NUMA node zero. See more at https://github.com/torvalds/linux/blob/v6.0/Documentation/ABI/testing/sysfs-bus-pci#L344-L355
2023-07-03 08:37:08.629576: I external/org_tensorflow/tensorflow/compiler/xla/stream_executor/cuda/cuda_gpu_executor.cc:996] successful NUMA node read from SysFS had negative value (-1), but there must be at least one NUMA node, so returning NUMA node zero. See more at https://github.com/torvalds/linux/blob/v6.0/Documentation/ABI/testing/sysfs-bus-pci#L344-L355
2023-07-03 08:37:08.632707: I external/org_tensorflow/tensorflow/compiler/xla/stream_executor/cuda/cuda_gpu_executor.cc:996] successful NUMA node read from SysFS had negative value (-1), but there must be at least one NUMA node, so returning NUMA node zero. See more at https://github.com/torvalds/linux/blob/v6.0/Documentation/ABI/testing/sysfs-bus-pci#L344-L355
2023-07-03 08:37:08.636111: I external/org_tensorflow/tensorflow/compiler/xla/stream_executor/cuda/cuda_gpu_executor.cc:996] successful NUMA node read from SysFS had negative value (-1), but there must be at least one NUMA node, so returning NUMA node zero. See more at https://github.com/torvalds/linux/blob/v6.0/Documentation/ABI/testing/sysfs-bus-pci#L344-L355
2023-07-03 08:37:11.783809: I external/org_tensorflow/tensorflow/compiler/xla/stream_executor/cuda/cuda_gpu_executor.cc:996] successful NUMA node read from SysFS had negative value (-1), but there must be at least one NUMA node, so returning NUMA node zero. See more at https://github.com/torvalds/linux/blob/v6.0/Documentation/ABI/testing/sysfs-bus-pci#L344-L355
2023-07-03 08:37:11.786437: I external/org_tensorflow/tensorflow/compiler/xla/stream_executor/cuda/cuda_gpu_executor.cc:996] successful NUMA node read from SysFS had negative value (-1), but there must be at least one NUMA node, so returning NUMA node zero. See more at https://github.com/torvalds/linux/blob/v6.0/Documentation/ABI/testing/sysfs-bus-pci#L344-L355
2023-07-03 08:37:11.788963: I external/org_tensorflow/tensorflow/compiler/xla/stream_executor/cuda/cuda_gpu_executor.cc:996] successful NUMA node read from SysFS had negative value (-1), but there must be at least one NUMA node, so returning NUMA node zero. See more at https://github.com/torvalds/linux/blob/v6.0/Documentation/ABI/testing/sysfs-bus-pci#L344-L355
2023-07-03 08:37:11.791370: I external/org_tensorflow/tensorflow/compiler/xla/stream_executor/cuda/cuda_gpu_executor.cc:996] successful NUMA node read from SysFS had negative value (-1), but there must be at least one NUMA node, so returning NUMA node zero. See more at https://github.com/torvalds/linux/blob/v6.0/Documentation/ABI/testing/sysfs-bus-pci#L344-L355
2023-07-03 08:37:11.793774: I external/org_tensorflow/tensorflow/compiler/xla/stream_executor/cuda/cuda_gpu_executor.cc:996] successful NUMA node read from SysFS had negative value (-1), but there must be at least one NUMA node, so returning NUMA node zero. See more at https://github.com/torvalds/linux/blob/v6.0/Documentation/ABI/testing/sysfs-bus-pci#L344-L355
2023-07-03 08:37:11.796159: I external/org_tensorflow/tensorflow/compiler/xla/stream_executor/cuda/cuda_gpu_executor.cc:996] successful NUMA node read from SysFS had negative value (-1), but there must be at least one NUMA node, so returning NUMA node zero. See more at https://github.com/torvalds/linux/blob/v6.0/Documentation/ABI/testing/sysfs-bus-pci#L344-L355
2023-07-03 08:37:11.798551: I external/org_tensorflow/tensorflow/compiler/xla/stream_executor/cuda/cuda_gpu_executor.cc:996] successful NUMA node read from SysFS had negative value (-1), but there must be at least one NUMA node, so returning NUMA node zero. See more at https://github.com/torvalds/linux/blob/v6.0/Documentation/ABI/testing/sysfs-bus-pci#L344-L355
2023-07-03 08:37:11.800925: I external/org_tensorflow/tensorflow/compiler/xla/stream_executor/cuda/cuda_gpu_executor.cc:996] successful NUMA node read from SysFS had negative value (-1), but there must be at least one NUMA node, so returning NUMA node zero. See more at https://github.com/torvalds/linux/blob/v6.0/Documentation/ABI/testing/sysfs-bus-pci#L344-L355
2023-07-03 08:37:11.803334: I external/org_tensorflow/tensorflow/compiler/xla/stream_executor/cuda/cuda_gpu_executor.cc:996] successful NUMA node read from SysFS had negative value (-1), but there must be at least one NUMA node, so returning NUMA node zero. See more at https://github.com/torvalds/linux/blob/v6.0/Documentation/ABI/testing/sysfs-bus-pci#L344-L355
2023-07-03 08:37:11.805694: I external/org_tensorflow/tensorflow/compiler/xla/stream_executor/cuda/cuda_gpu_executor.cc:996] successful NUMA node read from SysFS had negative value (-1), but there must be at least one NUMA node, so returning NUMA node zero. See more at https://github.com/torvalds/linux/blob/v6.0/Documentation/ABI/testing/sysfs-bus-pci#L344-L355
2023-07-03 08:37:11.808037: I external/org_tensorflow/tensorflow/compiler/xla/stream_executor/cuda/cuda_gpu_executor.cc:996] successful NUMA node read from SysFS had negative value (-1), but there must be at least one NUMA node, so returning NUMA node zero. See more at https://github.com/torvalds/linux/blob/v6.0/Documentation/ABI/testing/sysfs-bus-pci#L344-L355
2023-07-03 08:37:11.810370: I external/org_tensorflow/tensorflow/compiler/xla/stream_executor/cuda/cuda_gpu_executor.cc:996] successful NUMA node read from SysFS had negative value (-1), but there must be at least one NUMA node, so returning NUMA node zero. See more at https://github.com/torvalds/linux/blob/v6.0/Documentation/ABI/testing/sysfs-bus-pci#L344-L355
2023-07-03 08:37:11.812696: I external/org_tensorflow/tensorflow/compiler/xla/stream_executor/cuda/cuda_gpu_executor.cc:996] successful NUMA node read from SysFS had negative value (-1), but there must be at least one NUMA node, so returning NUMA node zero. See more at https://github.com/torvalds/linux/blob/v6.0/Documentation/ABI/testing/sysfs-bus-pci#L344-L355
2023-07-03 08:37:11.815025: I external/org_tensorflow/tensorflow/compiler/xla/stream_executor/cuda/cuda_gpu_executor.cc:996] successful NUMA node read from SysFS had negative value (-1), but there must be at least one NUMA node, so returning NUMA node zero. See more at https://github.com/torvalds/linux/blob/v6.0/Documentation/ABI/testing/sysfs-bus-pci#L344-L355
2023-07-03 08:37:11.817346: I external/org_tensorflow/tensorflow/compiler/xla/stream_executor/cuda/cuda_gpu_executor.cc:996] successful NUMA node read from SysFS had negative value (-1), but there must be at least one NUMA node, so returning NUMA node zero. See more at https://github.com/torvalds/linux/blob/v6.0/Documentation/ABI/testing/sysfs-bus-pci#L344-L355
2023-07-03 08:37:11.819681: I external/org_tensorflow/tensorflow/compiler/xla/stream_executor/cuda/cuda_gpu_executor.cc:996] successful NUMA node read from SysFS had negative value (-1), but there must be at least one NUMA node, so returning NUMA node zero. See more at https://github.com/torvalds/linux/blob/v6.0/Documentation/ABI/testing/sysfs-bus-pci#L344-L355
2023-07-03 08:37:11.822023: I external/org_tensorflow/tensorflow/compiler/xla/stream_executor/cuda/cuda_gpu_executor.cc:996] successful NUMA node read from SysFS had negative value (-1), but there must be at least one NUMA node, so returning NUMA node zero. See more at https://github.com/torvalds/linux/blob/v6.0/Documentation/ABI/testing/sysfs-bus-pci#L344-L355
2023-07-03 08:37:11.824329: I external/org_tensorflow/tensorflow/core/common_runtime/gpu/gpu_device.cc:1635] Created device /job:localhost/replica:0/task:0/device:GPU:0 with 79147 MB memory:  -> device: 0, name: NVIDIA A100-SXM4-80GB, pci bus id: 0000:00:08.0, compute capability: 8.0
2023-07-03 08:37:11.825310: I external/org_tensorflow/tensorflow/compiler/xla/stream_executor/cuda/cuda_gpu_executor.cc:996] successful NUMA node read from SysFS had negative value (-1), but there must be at least one NUMA node, so returning NUMA node zero. See more at https://github.com/torvalds/linux/blob/v6.0/Documentation/ABI/testing/sysfs-bus-pci#L344-L355
2023-07-03 08:37:11.827635: I external/org_tensorflow/tensorflow/core/common_runtime/gpu/gpu_device.cc:1635] Created device /job:localhost/replica:0/task:0/device:GPU:1 with 79149 MB memory:  -> device: 1, name: NVIDIA A100-SXM4-80GB, pci bus id: 0000:00:09.0, compute capability: 8.0
2023-07-03 08:37:11.828876: I external/org_tensorflow/tensorflow/compiler/xla/stream_executor/cuda/cuda_gpu_executor.cc:996] successful NUMA node read from SysFS had negative value (-1), but there must be at least one NUMA node, so returning NUMA node zero. See more at https://github.com/torvalds/linux/blob/v6.0/Documentation/ABI/testing/sysfs-bus-pci#L344-L355
2023-07-03 08:37:11.831165: I external/org_tensorflow/tensorflow/core/common_runtime/gpu/gpu_device.cc:1635] Created device /job:localhost/replica:0/task:0/device:GPU:2 with 79149 MB memory:  -> device: 2, name: NVIDIA A100-SXM4-80GB, pci bus id: 0000:00:0a.0, compute capability: 8.0
2023-07-03 08:37:11.832165: I external/org_tensorflow/tensorflow/compiler/xla/stream_executor/cuda/cuda_gpu_executor.cc:996] successful NUMA node read from SysFS had negative value (-1), but there must be at least one NUMA node, so returning NUMA node zero. See more at https://github.com/torvalds/linux/blob/v6.0/Documentation/ABI/testing/sysfs-bus-pci#L344-L355
2023-07-03 08:37:11.834449: I external/org_tensorflow/tensorflow/core/common_runtime/gpu/gpu_device.cc:1635] Created device /job:localhost/replica:0/task:0/device:GPU:3 with 79149 MB memory:  -> device: 3, name: NVIDIA A100-SXM4-80GB, pci bus id: 0000:00:0b.0, compute capability: 8.0
2023-07-03 08:37:11.835414: I external/org_tensorflow/tensorflow/compiler/xla/stream_executor/cuda/cuda_gpu_executor.cc:996] successful NUMA node read from SysFS had negative value (-1), but there must be at least one NUMA node, so returning NUMA node zero. See more at https://github.com/torvalds/linux/blob/v6.0/Documentation/ABI/testing/sysfs-bus-pci#L344-L355
2023-07-03 08:37:11.837704: I external/org_tensorflow/tensorflow/core/common_runtime/gpu/gpu_device.cc:1635] Created device /job:localhost/replica:0/task:0/device:GPU:4 with 79149 MB memory:  -> device: 4, name: NVIDIA A100-SXM4-80GB, pci bus id: 0000:00:0c.0, compute capability: 8.0
2023-07-03 08:37:11.838666: I external/org_tensorflow/tensorflow/compiler/xla/stream_executor/cuda/cuda_gpu_executor.cc:996] successful NUMA node read from SysFS had negative value (-1), but there must be at least one NUMA node, so returning NUMA node zero. See more at https://github.com/torvalds/linux/blob/v6.0/Documentation/ABI/testing/sysfs-bus-pci#L344-L355
2023-07-03 08:37:11.840937: I external/org_tensorflow/tensorflow/core/common_runtime/gpu/gpu_device.cc:1635] Created device /job:localhost/replica:0/task:0/device:GPU:5 with 79149 MB memory:  -> device: 5, name: NVIDIA A100-SXM4-80GB, pci bus id: 0000:00:0d.0, compute capability: 8.0
2023-07-03 08:37:11.841927: I external/org_tensorflow/tensorflow/compiler/xla/stream_executor/cuda/cuda_gpu_executor.cc:996] successful NUMA node read from SysFS had negative value (-1), but there must be at least one NUMA node, so returning NUMA node zero. See more at https://github.com/torvalds/linux/blob/v6.0/Documentation/ABI/testing/sysfs-bus-pci#L344-L355
2023-07-03 08:37:11.844205: I external/org_tensorflow/tensorflow/core/common_runtime/gpu/gpu_device.cc:1635] Created device /job:localhost/replica:0/task:0/device:GPU:6 with 79149 MB memory:  -> device: 6, name: NVIDIA A100-SXM4-80GB, pci bus id: 0000:00:0e.0, compute capability: 8.0
2023-07-03 08:37:11.845151: I external/org_tensorflow/tensorflow/compiler/xla/stream_executor/cuda/cuda_gpu_executor.cc:996] successful NUMA node read from SysFS had negative value (-1), but there must be at least one NUMA node, so returning NUMA node zero. See more at https://github.com/torvalds/linux/blob/v6.0/Documentation/ABI/testing/sysfs-bus-pci#L344-L355
2023-07-03 08:37:11.847434: I external/org_tensorflow/tensorflow/core/common_runtime/gpu/gpu_device.cc:1635] Created device /job:localhost/replica:0/task:0/device:GPU:7 with 79149 MB memory:  -> device: 7, name: NVIDIA A100-SXM4-80GB, pci bus id: 0000:00:0f.0, compute capability: 8.0
2023-07-03 08:37:11.890796: I mlir/disc/tests/mlir_test.cc:467] --- TF Execution uses: 25.064 ms
2023-07-03 08:37:11.890816: I mlir/disc/tests/mlir_test.cc:474] 	output shape #0: [10,10]
2023-07-03 08:37:11.891509: I mlir/disc/tests/mlir_test.cc:467] --- TF Execution uses: 0.686 ms
2023-07-03 08:37:11.891515: I mlir/disc/tests/mlir_test.cc:474] 	output shape #0: [10,10]
2023-07-03 08:37:11.891908: I mlir/disc/tests/mlir_test.cc:467] --- TF Execution uses: 0.388 ms
2023-07-03 08:37:11.891912: I mlir/disc/tests/mlir_test.cc:474] 	output shape #0: [10,10]
2023-07-03 08:37:11.892179: I mlir/disc/tests/mlir_test.cc:467] --- TF Execution uses: 0.262 ms
2023-07-03 08:37:11.892184: I mlir/disc/tests/mlir_test.cc:474] 	output shape #0: [10,10]
2023-07-03 08:37:11.892484: I mlir/disc/tests/mlir_test.cc:467] --- TF Execution uses: 0.295 ms
2023-07-03 08:37:11.892488: I mlir/disc/tests/mlir_test.cc:474] 	output shape #0: [10,10]
2023-07-03 08:37:11.892496: I mlir/disc/tests/mlir_test.cc:484] processing output 0
2023-07-03 08:37:11.893979: I ./mlir/disc/tests/mlir_feature_test.h:37] Unset env setting:
[       OK ] TFMaxOpTest.ColReduceFullyDynamicShape3DF32_1 (9698 ms)
[----------] 1 test from TFMaxOpTest (9698 ms total)

[----------] Global test environment tear-down
[==========] 1 test from 1 test suite ran. (9698 ms total)
[  PASSED  ] 1 test.
Generating '/tmp/nsys-report-8910.qdstrm'
[1/8] [0%                          ] report89.nsys-rep[1/8] [0%                          ] report89.nsys-rep[1/8] [==20%                       ] report89.nsys-rep[1/8] [========41%                 ] report89.nsys-rep[1/8] [=========43%                ] report89.nsys-rep[1/8] [=========46%                ] report89.nsys-rep[1/8] [===========51%              ] report89.nsys-rep[1/8] [============56%             ] report89.nsys-rep[1/8] [=============58%            ] report89.nsys-rep[1/8] [=============59%            ] report89.nsys-rep[1/8] [==============61%           ] report89.nsys-rep[1/8] [==============63%           ] report89.nsys-rep[1/8] [==============64%           ] report89.nsys-rep[1/8] [===============67%          ] report89.nsys-rep[1/8] [================70%         ] report89.nsys-rep[1/8] [================71%         ] report89.nsys-rep[1/8] [=================72%        ] report89.nsys-rep[1/8] [==================78%       ] report89.nsys-rep[1/8] [====================83%     ] report89.nsys-rep[1/8] [====================85%     ] report89.nsys-rep[1/8] [=====================87%    ] report89.nsys-rep[1/8] [=====================89%    ] report89.nsys-rep[1/8] [======================90%   ] report89.nsys-rep[1/8] [======================91%   ] report89.nsys-rep[1/8] [=======================93%  ] report89.nsys-rep[1/8] [=======================94%  ] report89.nsys-rep[1/8] [=======================96%  ] report89.nsys-rep[1/8] [========================97% ] report89.nsys-rep[1/8] [========================98% ] report89.nsys-rep[1/8] [========================99% ] report89.nsys-rep[1/8] [========================100%] report89.nsys-rep[1/8] [0%                          ] report89.nsys-rep[1/8] [5%                          ] report89.nsys-rep[1/8] [0%                          ] report89.nsys-rep[1/8] [6%                          ] report89.nsys-rep[1/8] [10%                         ] report89.nsys-rep[1/8] [14%                         ] report89.nsys-rep[1/8] [==18%                       ] report89.nsys-rep[1/8] [==21%                       ] report89.nsys-rep[1/8] [====25%                     ] report89.nsys-rep[1/8] [=====29%                    ] report89.nsys-rep[1/8] [======33%                   ] report89.nsys-rep[1/8] [=======37%                  ] report89.nsys-rep[1/8] [========41%                 ] report89.nsys-rep[1/8] [=========44%                ] report89.nsys-rep[1/8] [==========48%               ] report89.nsys-rep[1/8] [===========52%              ] report89.nsys-rep[1/8] [============56%             ] report89.nsys-rep[1/8] [=============60%            ] report89.nsys-rep[1/8] [==============62%           ] report89.nsys-rep[1/8] [===============66%          ] report89.nsys-rep[1/8] [================69%         ] report89.nsys-rep[1/8] [=================73%        ] report89.nsys-rep[1/8] [==================77%       ] report89.nsys-rep[1/8] [===================81%      ] report89.nsys-rep[1/8] [====================85%     ] report89.nsys-rep[1/8] [=====================89%    ] report89.nsys-rep[1/8] [======================92%   ] report89.nsys-rep[1/8] [=======================96%  ] report89.nsys-rep[1/8] [========================99% ] report89.nsys-rep[1/8] [========================100%] report89.nsys-rep[1/8] [========================100%] report89.nsys-rep
[2/8] [0%                          ] report89.sqlite[2/8] [1%                          ] report89.sqlite[2/8] [2%                          ] report89.sqlite[2/8] [3%                          ] report89.sqlite[2/8] [4%                          ] report89.sqlite[2/8] [5%                          ] report89.sqlite[2/8] [6%                          ] report89.sqlite[2/8] [7%                          ] report89.sqlite[2/8] [8%                          ] report89.sqlite[2/8] [9%                          ] report89.sqlite[2/8] [10%                         ] report89.sqlite[2/8] [11%                         ] report89.sqlite[2/8] [12%                         ] report89.sqlite[2/8] [13%                         ] report89.sqlite[2/8] [14%                         ] report89.sqlite[2/8] [=15%                        ] report89.sqlite[2/8] [=16%                        ] report89.sqlite[2/8] [=17%                        ] report89.sqlite[2/8] [==18%                       ] report89.sqlite[2/8] [==19%                       ] report89.sqlite[2/8] [==20%                       ] report89.sqlite[2/8] [==21%                       ] report89.sqlite[2/8] [===22%                      ] report89.sqlite[2/8] [===23%                      ] report89.sqlite[2/8] [===24%                      ] report89.sqlite[2/8] [====25%                     ] report89.sqlite[2/8] [====26%                     ] report89.sqlite[2/8] [====27%                     ] report89.sqlite[2/8] [====28%                     ] report89.sqlite[2/8] [=====29%                    ] report89.sqlite[2/8] [=====30%                    ] report89.sqlite[2/8] [=====31%                    ] report89.sqlite[2/8] [=====32%                    ] report89.sqlite[2/8] [======33%                   ] report89.sqlite[2/8] [======34%                   ] report89.sqlite[2/8] [======35%                   ] report89.sqlite[2/8] [=======36%                  ] report89.sqlite[2/8] [=======37%                  ] report89.sqlite[2/8] [=======38%                  ] report89.sqlite[2/8] [=======39%                  ] report89.sqlite[2/8] [========40%                 ] report89.sqlite[2/8] [========41%                 ] report89.sqlite[2/8] [========42%                 ] report89.sqlite[2/8] [=========43%                ] report89.sqlite[2/8] [=========44%                ] report89.sqlite[2/8] [=========45%                ] report89.sqlite[2/8] [=========46%                ] report89.sqlite[2/8] [==========47%               ] report89.sqlite[2/8] [==========48%               ] report89.sqlite[2/8] [==========49%               ] report89.sqlite[2/8] [===========50%              ] report89.sqlite[2/8] [===========51%              ] report89.sqlite[2/8] [===========52%              ] report89.sqlite[2/8] [===========53%              ] report89.sqlite[2/8] [============54%             ] report89.sqlite[2/8] [============55%             ] report89.sqlite[2/8] [============56%             ] report89.sqlite[2/8] [============57%             ] report89.sqlite[2/8] [=============58%            ] report89.sqlite[2/8] [=============59%            ] report89.sqlite[2/8] [=============60%            ] report89.sqlite[2/8] [==============61%           ] report89.sqlite[2/8] [==============62%           ] report89.sqlite[2/8] [==============63%           ] report89.sqlite[2/8] [==============64%           ] report89.sqlite[2/8] [===============65%          ] report89.sqlite[2/8] [===============66%          ] report89.sqlite[2/8] [===============67%          ] report89.sqlite[2/8] [================68%         ] report89.sqlite[2/8] [================69%         ] report89.sqlite[2/8] [================70%         ] report89.sqlite[2/8] [================71%         ] report89.sqlite[2/8] [=================72%        ] report89.sqlite[2/8] [=================73%        ] report89.sqlite[2/8] [=================74%        ] report89.sqlite[2/8] [==================75%       ] report89.sqlite[2/8] [==================76%       ] report89.sqlite[2/8] [==================77%       ] report89.sqlite[2/8] [==================78%       ] report89.sqlite[2/8] [===================79%      ] report89.sqlite[2/8] [===================80%      ] report89.sqlite[2/8] [===================81%      ] report89.sqlite[2/8] [===================82%      ] report89.sqlite[2/8] [====================83%     ] report89.sqlite[2/8] [====================84%     ] report89.sqlite[2/8] [====================85%     ] report89.sqlite[2/8] [=====================86%    ] report89.sqlite[2/8] [=====================87%    ] report89.sqlite[2/8] [=====================88%    ] report89.sqlite[2/8] [=====================89%    ] report89.sqlite[2/8] [======================90%   ] report89.sqlite[2/8] [======================91%   ] report89.sqlite[2/8] [======================92%   ] report89.sqlite[2/8] [=======================93%  ] report89.sqlite[2/8] [=======================94%  ] report89.sqlite[2/8] [=======================95%  ] report89.sqlite[2/8] [=======================96%  ] report89.sqlite[2/8] [========================97% ] report89.sqlite[2/8] [========================98% ] report89.sqlite[2/8] [========================99% ] report89.sqlite[2/8] [========================100%] report89.sqlite[2/8] [========================100%] report89.sqlite
[3/8] Executing 'nvtx_sum' stats report

 Time (%)  Total Time (ns)  Instances  Avg (ns)  Med (ns)  Min (ns)  Max (ns)  StdDev (ns)   Style                   Range                 
 --------  ---------------  ---------  --------  --------  --------  --------  -----------  -------  --------------------------------------
     78.9           404171          5   80834.2   91148.0     30572    119513      36446.6  PushPop  TSL:#edge_name=edge_7__arg_input0_0_0#
     21.1           108146          5   21629.2   19792.0     14753     29228       5614.5  PushPop  TSL:#edge_name=edge_8_tf.Max#         

[4/8] Executing 'osrt_sum' stats report

 Time (%)  Total Time (ns)  Num Calls   Avg (ns)    Med (ns)    Min (ns)  Max (ns)   StdDev (ns)           Name         
 --------  ---------------  ---------  ----------  -----------  --------  ---------  -----------  ----------------------
     91.7      42354454238        524  80829111.1  100103438.0      2584  100122844   36353596.6  poll                  
      6.3       2904339587      10778    269469.3     152797.0       390   20315425     629880.6  ioctl                 
      0.5        208793539         52   4015260.4     172039.0      4815   64956875   11671099.1  pthread_cond_wait     
      0.4        202200048     350912       576.2        416.0       241      19417        576.6  write                 
      0.3        144057691         15   9603846.1      33589.0     22638   75295218   22021416.2  waitpid               
      0.2         89260811     153970       579.7        575.0       207      35539        180.1  read                  
      0.2         88890494         80   1111131.2       3801.5      1409   65089654    7362694.9  futex                 
      0.1         68454069        809     84615.7      15427.0      5447   20687282     736496.5  open64                
      0.1         64035558          1  64035558.0   64035558.0  64035558   64035558          0.0  system                
      0.0         22684002        619     36646.2      31691.0      3060    1094661      98830.7  mmap64                
      0.0         17859914        557     32064.5      29573.0     14215     100715      12250.8  pthread_create        
      0.0          3019593         90     33551.0      11836.0        68     250363      65617.8  sem_timedwait         
      0.0          1681600        240      7006.7       4898.0       833      69492       7002.1  fopen                 
      0.0          1463696        148      9889.8       8576.5      1229      36673       7332.9  mmap                  
      0.0           603898        252      2396.4       1391.5       460      25332       3363.4  fclose                
      0.0           451588        903       500.1        491.0       140       9721        348.8  fcntl                 
      0.0           424619       1034       410.7         45.0        32      20352       1495.2  fread                 
      0.0           405021         66      6136.7       5752.5      1267      31604       4830.0  munmap                
      0.0           340391         46      7399.8       4860.0      1706      49200       8146.6  open                  
      0.0           211457         32      6608.0       2110.0       893      57461      13029.2  fopen64               
      0.0           201046       2166        92.8         34.0        27      16664        722.1  fwrite                
      0.0           197083          1    197083.0     197083.0    197083     197083          0.0  sem_wait              
      0.0           131861          2     65930.5      65930.5     65267      66594        938.3  nanosleep             
      0.0           111212         52      2138.7       1753.5      1260       6883       1178.0  pthread_cond_signal   
      0.0            67564         50      1351.3         49.5        34      33852       6410.4  fgets                 
      0.0            49903         16      3118.9       2147.0      1137       8901       2208.3  pipe                  
      0.0            44954         15      2996.9       1847.0       450       8524       2470.7  pread                 
      0.0            38748        149       260.1         86.0        20      11369       1010.1  fflush                
      0.0            30778         67       459.4        190.0       153       7308        919.1  sigaction             
      0.0            29330          4      7332.5       7618.0      4080      10014       2846.3  socket                
      0.0            22395          4      5598.8       5685.0      3250       7775       2341.6  pipe2                 
      0.0            21819          1     21819.0      21819.0     21819      21819          0.0  writev                
      0.0            19833          2      9916.5       9916.5      8450      11383       2073.9  connect               
      0.0             8520          2      4260.0       4260.0      2145       6375       2991.1  getc                  
      0.0             6308         22       286.7        196.5       172       1165        278.1  signal                
      0.0             5413          1      5413.0       5413.0      5413       5413          0.0  fputs                 
      0.0             5319          2      2659.5       2659.5      1761       3558       1270.7  bind                  
      0.0             4935         13       379.6        417.0       112        562        144.1  pthread_cond_broadcast
      0.0             4777          1      4777.0       4777.0      4777       4777          0.0  pthread_mutex_lock    
      0.0             3020          2      1510.0       1510.0       966       2054        769.3  listen                
      0.0             2395         64        37.4         23.0        22        489         63.0  pthread_mutex_trylock 
      0.0             1079          2       539.5        539.5       213        866        461.7  dup2                  

[5/8] Executing 'cuda_api_sum' stats report

 Time (%)  Total Time (ns)  Num Calls   Avg (ns)     Med (ns)    Min (ns)   Max (ns)   StdDev (ns)          Name         
 --------  ---------------  ---------  -----------  -----------  ---------  ---------  -----------  ---------------------
     96.4        313649310          1  313649310.0  313649310.0  313649310  313649310          0.0  cuCtxCreate_v2       
      1.3          4196897          3    1398965.7     665997.0       5892    3525008    1870555.2  cuMemAlloc_v2        
      0.9          2771005          1    2771005.0    2771005.0    2771005    2771005          0.0  cuMemHostAlloc       
      0.7          2189499         32      68421.8       6764.5       1382     281578     111468.4  cuStreamCreate       
      0.3          1044927          2     522463.5     522463.5       8806    1036121     726421.4  cuMemFree_v2         
      0.1           471519          8      58939.9      39709.5      35193     139481      37058.6  cuMemGetInfo_v2      
      0.1           169480          3      56493.3      24871.0      23268     121341      56165.4  cuModuleUnload       
      0.0           123617          7      17659.6      21876.0       6218      29633       8817.8  cuLaunchKernel       
      0.0           123118          1     123118.0     123118.0     123118     123118          0.0  cuModuleLoadData     
      0.0           111001        408        272.1        167.5        125       3371        324.5  cuCtxSetCurrent      
      0.0           104353          5      20870.6      21713.0       5882      36136      12115.3  cuMemcpyHtoDAsync_v2 
      0.0           102707          2      51353.5      51353.5      44324      58383       9941.2  cuModuleLoadFatBinary
      0.0            94464         10       9446.4       7211.0       5096      20145       5151.8  cudaLaunchKernel     
      0.0            76442        365        209.4        171.0         93       1128        119.7  cuGetProcAddress     
      0.0            52374         22       2380.6       2348.5        620       7999       1796.9  cuEventQuery         
      0.0            34525          1      34525.0      34525.0      34525      34525          0.0  cuMemcpyHtoD_v2      
      0.0            34424          5       6884.8       6555.0       4920       9080       1736.5  cuMemcpyDtoHAsync_v2 
      0.0            33815         20       1690.8        705.0        415       9897       2495.1  cuEventRecord        
      0.0            31452          1      31452.0      31452.0      31452      31452          0.0  cuMemcpyDtoH_v2      
      0.0            22809          6       3801.5       3727.0       2496       5134        910.6  cuStreamSynchronize  
      0.0            16871          1      16871.0      16871.0      16871      16871          0.0  cuMemsetD32_v2       
      0.0            14969         34        440.3        342.5        230       1397        293.2  cuEventCreate        
      0.0            14276         10       1427.6       1510.5        876       2024        362.8  cuStreamWaitEvent    
      0.0             5617          2       2808.5       2808.5       2370       3247        620.1  cuInit               

[6/8] Executing 'cuda_gpu_kern_sum' stats report

 Time (%)  Total Time (ns)  Instances  Avg (ns)  Med (ns)  Min (ns)  Max (ns)  StdDev (ns)                                                  Name                                                
 --------  ---------------  ---------  --------  --------  --------  --------  -----------  ----------------------------------------------------------------------------------------------------
     29.9            28161          5    5632.2    5600.0      5536      5792         96.0  void tensorflow::functor::ColumnReduceKernel<float *, float *, tensorflow::functor::MaxPropagateNaN
     28.0            26367          5    5273.4    5280.0      5247      5312         27.0  void tensorflow::functor::CleanupSegments<float *, float *, tensorflow::functor::MaxPropagateNaN>(T
     24.9            23391          5    4678.2    4607.0      4577      4992        175.9  Abs_GPU_DT_FLOAT_DT_FLOAT_kernel                                                                    
     12.3            11584          1   11584.0   11584.0     11584     11584          0.0  main_kColReduction_reduce__4_1_0___thin_1                                                           
      4.8             4544          1    4544.0    4544.0      4544      4544          0.0  main_kColReduction_reduce__4_1_0___thin                                                             

[7/8] Executing 'cuda_gpu_mem_time_sum' stats report

 Time (%)  Total Time (ns)  Count  Avg (ns)  Med (ns)  Min (ns)  Max (ns)  StdDev (ns)      Operation     
 --------  ---------------  -----  --------  --------  --------  --------  -----------  ------------------
     80.1            73152      6   12192.0   11808.0     11712     13632        765.6  [CUDA memcpy HtoD]
     16.3            14848      6    2474.7    2272.0      2272      3040        329.9  [CUDA memcpy DtoH]
      3.7             3360      1    3360.0    3360.0      3360      3360          0.0  [CUDA memset]     

[8/8] Executing 'cuda_gpu_mem_size_sum' stats report

 Total (MB)  Count  Avg (MB)  Med (MB)  Min (MB)  Max (MB)  StdDev (MB)      Operation     
 ----------  -----  --------  --------  --------  --------  -----------  ------------------
      1.229      6     0.205     0.205     0.205     0.205        0.000  [CUDA memcpy HtoD]
      0.002      6     0.000     0.000     0.000     0.000        0.000  [CUDA memcpy DtoH]
      0.001      1     0.001     0.001     0.001     0.001        0.000  [CUDA memset]     

Generated:
    /root/.cache/bazel/_bazel_root/54ece412abe75fa85ab728a2c061e33c/execroot/org_disc_compiler/bazel-out/k8-opt/bin/mlir/disc/tests/tensorflow_ops/max.cpp.test.runfiles/org_disc_compiler/report89.nsys-rep
    /root/.cache/bazel/_bazel_root/54ece412abe75fa85ab728a2c061e33c/execroot/org_disc_compiler/bazel-out/k8-opt/bin/mlir/disc/tests/tensorflow_ops/max.cpp.test.runfiles/org_disc_compiler/report89.sqlite
