exec ${PAGER:-/usr/bin/less} "$0" || exit 1
Executing tests from //mlir/disc/tests/tensorflow_ops:max.cpp.test
-----------------------------------------------------------------------------
[==========] Running 1 test from 1 test suite.
[----------] Global test environment set-up.
[----------] 1 test from TFMaxOpTest
[ RUN      ] TFMaxOpTest.ColReduceFullyDynamicShape3DF32
2023-06-08 04:48:05.309156: I ./mlir/disc/tests/mlir_feature_test.h:29] Apply env setting:
2023-06-08 04:48:05.309204: I ./mlir/disc/tests/mlir_feature_test.h:31] 	DISC_MEM_INTENSIVE_OPT_EXPERIMENTAL = true
2023-06-08 04:48:05.309207: I ./mlir/disc/tests/mlir_feature_test.h:31] 	DISC_ENABLE_STITCH = true
2023-06-08 04:48:05.309211: I mlir/disc/tests/mlir_feature_test.cc:271] Testing for CUDA backend
2023-06-08 04:48:05.309262: I mlir/disc/tests/mlir_feature_test.cc:145] Original TF code: func.func @main(%arg0: tensor<?x?x?xf32>) -> tensor<?x?xf32> attributes {tf.entry_function = {inputs = "{{INPUTS}}", outputs = "{{OUTPUTS}}", input_placements="{{INPUT_PLACEMENTS}}", output_placements="{{OUTPUT_PLACEMENTS}}"}} {
  %graph = tf_executor.graph {
    %1:2 = tf_executor.island wraps "tf.Const"() {value = dense<[0]> : tensor<1xi32>} : () -> tensor<1xi32>
    %2:2 = tf_executor.island wraps "tf.Abs"(%arg0) : (tensor<?x?x?xf32>) -> tensor<?x?x?xf32>
    %3:2 = tf_executor.island wraps "tf.Max"(%2, %1) : (tensor<?x?x?xf32>, tensor<1xi32>) -> tensor<?x?xf32>
    tf_executor.fetch %3 : tensor<?x?xf32>
  }
  return %graph : tensor<?x?xf32>
}
2023-06-08 04:48:05.309280: I mlir/disc/tests/mlir_feature_test.cc:149] New TF code: func.func @main(%arg0: tensor<?x?x?xf32>) -> tensor<?x?xf32> attributes {tf.entry_function = {inputs = "input0", outputs = "output0", input_placements="gpu", output_placements="gpu"}} {
  %graph = tf_executor.graph {
    %1:2 = tf_executor.island wraps "tf.Const"() {value = dense<[0]> : tensor<1xi32>} : () -> tensor<1xi32>
    %2:2 = tf_executor.island wraps "tf.Abs"(%arg0) : (tensor<?x?x?xf32>) -> tensor<?x?x?xf32>
    %3:2 = tf_executor.island wraps "tf.Max"(%2, %1) : (tensor<?x?x?xf32>, tensor<1xi32>) -> tensor<?x?xf32>
    tf_executor.fetch %3 : tensor<?x?xf32>
  }
  return %graph : tensor<?x?xf32>
}
2023-06-08 04:48:05.309371: I mlir/disc/tests/mlir_test.cc:233] tf_opt_pat: external/org_tensorflow/tensorflow/compiler/mlir/tf-opt
2023-06-08 04:48:05.309375: I mlir/disc/tests/mlir_test.cc:234] mlir_file_path: /root/.cache/bazel/_bazel_root/54ece412abe75fa85ab728a2c061e33c/execroot/org_disc_compiler/_tmp/b247c1654ecfc81b23b002417f617bea/tempfile-adf59ec6ac82-11dd47f9-244707-5fd96f5436371
2023-06-08 04:48:05.309378: I mlir/disc/tests/mlir_test.cc:235] tmp_dir: /root/.cache/bazel/_bazel_root/54ece412abe75fa85ab728a2c061e33c/execroot/org_disc_compiler/_tmp/b247c1654ecfc81b23b002417f617bea
2023-06-08 04:48:05.309381: I mlir/disc/tests/mlir_test.cc:236] test_name: ColReduceFullyDynamicShape3DF32_0
2023-06-08 04:48:05.309388: I mlir/disc/tests/mlir_test.cc:284] tf_opt_path: external/org_tensorflow/tensorflow/compiler/mlir/tf-opt

2023-06-08 04:48:05.309393: I mlir/disc/tests/mlir_test.cc:257] program_path: external/org_tensorflow/tensorflow/compiler/mlir/tf-opt

2023-06-08 04:48:05.369174: I mlir/disc/tests/mlir_test.cc:269] Executed: external/org_tensorflow/tensorflow/compiler/mlir/tf-opt --tf-standard-pipeline /root/.cache/bazel/_bazel_root/54ece412abe75fa85ab728a2c061e33c/execroot/org_disc_compiler/_tmp/b247c1654ecfc81b23b002417f617bea/tempfile-adf59ec6ac82-11dd47f9-244707-5fd96f5436371 -o /root/.cache/bazel/_bazel_root/54ece412abe75fa85ab728a2c061e33c/execroot/org_disc_compiler/_tmp/b247c1654ecfc81b23b002417f617beaColReduceFullyDynamicShape3DF32_0_tf_dialect.mlir 
2023-06-08 04:48:05.369191: I mlir/disc/tests/mlir_test.cc:270] external/org_tensorflow/tensorflow/compiler/mlir/tf-opt: 0
2023-06-08 04:48:05.369194: I mlir/disc/tests/mlir_test.cc:271] -- stdout:

============ END ============

2023-06-08 04:48:05.369198: I mlir/disc/tests/mlir_test.cc:273] -- stderr:
2023-06-08 04:48:05.355435: I external/org_tensorflow/tensorflow/core/platform/cpu_feature_guard.cc:182] This TensorFlow binary is optimized to use available CPU instructions in performance-critical operations.
To enable the following instructions: SSE3 SSE4.1 SSE4.2 AVX AVX2 AVX512F AVX512_VNNI FMA, in other operations, rebuild TensorFlow with the appropriate compiler flags.

============ END ============

2023-06-08 04:48:05.369207: I mlir/disc/tests/mlir_test.cc:275] ret: 0

2023-06-08 04:48:05.369222: I mlir/disc/tests/mlir_test.cc:257] program_path: mlir/disc/disc_compiler_main

2023-06-08 04:48:06.280831: I mlir/disc/tests/mlir_test.cc:269] Executed: mlir/disc/disc_compiler_main --mlir-print-elementsattrs-with-hex-if-larger -1 --mlir-elide-elementsattrs-if-larger 8 /root/.cache/bazel/_bazel_root/54ece412abe75fa85ab728a2c061e33c/execroot/org_disc_compiler/_tmp/b247c1654ecfc81b23b002417f617beaColReduceFullyDynamicShape3DF32_0_tf_dialect.mlir /root/.cache/bazel/_bazel_root/54ece412abe75fa85ab728a2c061e33c/execroot/org_disc_compiler/_tmp/b247c1654ecfc81b23b002417f617beaColReduceFullyDynamicShape3DF32_0.so 
2023-06-08 04:48:06.280857: I mlir/disc/tests/mlir_test.cc:270] mlir/disc/disc_compiler_main: 0
2023-06-08 04:48:06.280861: I mlir/disc/tests/mlir_test.cc:271] -- stdout:

============ END ============

2023-06-08 04:48:06.282226: I mlir/disc/tests/mlir_test.cc:273] -- stderr:
======== BEGIN Original Module =========
module {
  func.func @main(%arg0: tensor<?x?x?xf32>) -> tensor<?x?xf32> attributes {tf.entry_function = {input_placements = "gpu", inputs = "input0", output_placements = "gpu", outputs = "output0"}} {
    %cst = "tf.Const"() {value = dense<0> : tensor<1xi32>} : () -> tensor<1xi32>
    %0 = "tf.Abs"(%arg0) : (tensor<?x?x?xf32>) -> tensor<?x?x?xf32>
    %1 = "tf.Max"(%0, %cst) : (tensor<?x?x?xf32>, tensor<1xi32>) -> tensor<?x?xf32>
    return %1 : tensor<?x?xf32>
  }
}

======= END Original Module ==========
[DISC] Load Input IR takes: 2.035000e-03 s.
[[ INFO ]] Running TF2XLA
2023-06-08 04:48:05.417869: I external/org_tensorflow/tensorflow/core/platform/cpu_feature_guard.cc:182] This TensorFlow binary is optimized to use available CPU instructions in performance-critical operations.
To enable the following instructions: SSE3 SSE4.1 SSE4.2 AVX AVX2 AVX512F AVX512_VNNI FMA, in other operations, rebuild TensorFlow with the appropriate compiler flags.
// -----// IR Dump After SCCP (sccp) //----- //
module {
  func.func @main(%arg0: tensor<?x?x?xf32>) -> tensor<?x?xf32> attributes {tf.entry_function = {input_placements = "gpu", inputs = "input0", output_placements = "gpu", outputs = "output0"}} {
    %cst = "tf.Const"() {value = dense<0> : tensor<1xi32>} : () -> tensor<1xi32>
    %0 = "tf.Abs"(%arg0) : (tensor<?x?x?xf32>) -> tensor<?x?x?xf32>
    %1 = "tf.Max"(%0, %cst) : (tensor<?x?x?xf32>, tensor<1xi32>) -> tensor<?x?xf32>
    return %1 : tensor<?x?xf32>
  }
}


// -----// IR Dump After SCCP (sccp) //----- //
module {
  func.func @main(%arg0: tensor<?x?x?xf32>) -> tensor<?x?xf32> attributes {tf.entry_function = {input_placements = "gpu", inputs = "input0", output_placements = "gpu", outputs = "output0"}} {
    %cst = "tf.Const"() {value = dense<0> : tensor<1xi32>} : () -> tensor<1xi32>
    %0 = "tf.Abs"(%arg0) : (tensor<?x?x?xf32>) -> tensor<?x?x?xf32>
    %1 = "tf.Max"(%0, %cst) : (tensor<?x?x?xf32>, tensor<1xi32>) -> tensor<?x?xf32>
    return %1 : tensor<?x?xf32>
  }
}


// -----// IR Dump After LegalizeTF (xla-legalize-tf) //----- //
func.func @main(%arg0: tensor<?x?x?xf32>) -> tensor<?x?xf32> attributes {tf.entry_function = {input_placements = "gpu", inputs = "input0", output_placements = "gpu", outputs = "output0"}} {
  %0 = mhlo.constant dense<0> : tensor<1xi32>
  %1 = mhlo.abs %arg0 : tensor<?x?x?xf32>
  %2 = mhlo.convert %1 : tensor<?x?x?xf32>
  %3 = mhlo.constant dense<0xFF800000> : tensor<f32>
  %4 = mhlo.reduce(%2 init: %3) applies mhlo.maximum across dimensions = [0] : (tensor<?x?x?xf32>, tensor<f32>) -> tensor<?x?xf32>
  %5 = mhlo.convert %4 : tensor<?x?xf32>
  return %5 : tensor<?x?xf32>
}

// -----// IR Dump After DiscLowerTfPass (disc-lower-tf) //----- //
func.func @main(%arg0: tensor<?x?x?xf32>) -> tensor<?x?xf32> attributes {tf.entry_function = {input_placements = "gpu", inputs = "input0", output_placements = "gpu", outputs = "output0"}} {
  %0 = mhlo.constant dense<0xFF800000> : tensor<f32>
  %1 = mhlo.abs %arg0 : tensor<?x?x?xf32>
  %2 = mhlo.reduce(%1 init: %0) applies mhlo.maximum across dimensions = [0] : (tensor<?x?x?xf32>, tensor<f32>) -> tensor<?x?xf32>
  return %2 : tensor<?x?xf32>
}

===-------------------------------------------------------------------------===
                         ... Execution time report ...
===-------------------------------------------------------------------------===
  Total Execution Time: 0.0082 seconds

  ----Wall Time----  ----Name----
    0.0000 (  0.5%)  ReviseArgumentsForStaticRankPass
    0.0000 (  0.1%)  FunctionalControlFlowToRegionsPass
    0.0042 ( 51.0%)  Inliner
    0.0000 (  0.1%)    (A) CallGraph
    0.0040 ( 48.4%)  'func.func' Pipeline
    0.0040 ( 48.4%)    Canonicalizer
    0.0001 (  1.0%)  'func.func' Pipeline
    0.0000 (  0.1%)    DropWhileShapeInvariantPass
    0.0000 (  0.0%)    ReplicateTensorListInitOpsPass
    0.0001 (  0.9%)    Canonicalizer
    0.0002 (  2.5%)  SCCP
    0.0000 (  0.2%)  GuaranteeAllFuncsOneUsePass
    0.0000 (  0.0%)    (A) CallGraph
    0.0000 (  0.1%)  TensorFlowShapeInferencePass
    0.0002 (  2.0%)  SCCP
    0.0000 (  0.1%)  TensorListOpsDecompositionPass
    0.0000 (  0.1%)  StackOpsDecompositionPass
    0.0000 (  0.1%)  TensorArrayOpsDecompositionPass
    0.0000 (  0.6%)  'func.func' Pipeline
    0.0000 (  0.6%)    DecomposeResourceOpsPass
    0.0000 (  0.2%)  PromoteResourcesToArgsPass
    0.0000 (  0.1%)  SymbolDCE
    0.0000 (  0.1%)  'func.func' Pipeline
    0.0000 (  0.1%)    SinkConstantsToControlFlowPass
    0.0000 (  0.1%)  TensorFlowShapeInferencePass
    0.0002 (  2.7%)  StablehloLegalizeToHloPass
    0.0001 (  0.6%)  'func.func' Pipeline
    0.0000 (  0.4%)    DiscLowerTfPass
    0.0000 (  0.2%)    LowerQuantizedPass
    0.0000 (  0.2%)  LegalizeTfTypesPass
    0.0010 ( 11.7%)  'func.func' Pipeline
    0.0008 (  9.6%)    LegalizeTF
    0.0002 (  1.9%)    DiscLowerTfPass
    0.0000 (  0.1%)    mlir::mhlo::{anonymous}::AdjustLayout
    0.0000 (  0.3%)  LegalizeTFCollective
    0.0001 (  0.8%)  'func.func' Pipeline
    0.0001 (  0.8%)    Canonicalizer
    0.0000 (  0.1%)  TensorFlowShapeInferencePass
    0.0003 (  4.2%)  'func.func' Pipeline
    0.0003 (  4.2%)    LegalizeTF
    0.0000 (  0.2%)  LegalizeTFCommunicationPass
    0.0000 (  0.5%)  'func.func' Pipeline
    0.0000 (  0.4%)    DiscDynamicSliceConverterPass
    0.0000 (  0.1%)    SinkConstantsToControlFlowPass
   -0.0024 (-28.8%)  Rest
    0.0082 (100.0%)  Total
======== BEGIN After TF2HLO =========
module {
  func.func @main(%arg0: tensor<?x?x?xf32>) -> tensor<?x?xf32> attributes {tf.entry_function = {input_placements = "gpu", inputs = "input0", output_placements = "gpu", outputs = "output0"}} {
    %0 = mhlo.constant dense<0xFF800000> : tensor<f32>
    %1 = mhlo.abs %arg0 : tensor<?x?x?xf32>
    %2 = mhlo.reduce(%1 init: %0) applies mhlo.maximum across dimensions = [0] : (tensor<?x?x?xf32>, tensor<f32>) -> tensor<?x?xf32>
    return %2 : tensor<?x?xf32>
  }
}

======= END After TF2HLO ==========
[DISC] tf2hlo takes: 8.531000e-03 s.
SymbolicDimMgr::save walkRankedTensorValue takes: 5 us
SymbolicDimMgr::save update attributes takes: 1 us
SymbolicDimMgr::updateProductEqualityMap simplifySymbolicDimProductPair takes: 0 us
productSet.size() = 0
SymbolicDimMgr::updateProductEqualityMap propagate graph takes: 1 us
SymbolicDimMgr::updateProductEqualityMap remove multiply takes: 0 us
SymbolicDimMgr::updateProductEqualityMap build toRemove  takes: 0 us
SymbolicDimMgr::updateProductEqualityMap apply toRemove  takes: 0 us
SymbolicDimMgr::save updateProductEqualityMap takes: 11 us
SymbolicDimMgr::save updateFunctionType takes: 1 us
SymbolicDimMgr::save collect symbolicDim ops takes: 4 us
SymbolicDimMgr::save remove symbolicDim ops takes: 1 us
SymbolicDimMgr::save remove unused production takes: 0 us
SymbolicDimMgr::save remove unused production #2 takes: 0 us
SymbolicDimMgr::save canonicalize the name takes: 4 us
SymbolicDimMgr::save replace the name takes: 3 us
SymbolicDimMgr::save updateFunctionType takes: 0 us
// -----// IR Dump After DiscShapeOptimizationPass (disc-shape-optimization) //----- //
module {
  func.func @main(%arg0: tensor<?x?x?xf32, [@S0, @S1, @S2]>) -> tensor<?x?xf32, [@S1, @S2]> attributes {tf.entry_function = {input_placements = "gpu", inputs = "input0", output_placements = "gpu", outputs = "output0"}} {
    %0 = mhlo.constant dense<0xFF800000> : tensor<f32>
    %1 = mhlo.abs %arg0 : tensor<?x?x?xf32, [@S0, @S1, @S2]>
    %2 = mhlo.reduce(%1 init: %0) applies mhlo.maximum across dimensions = [0] : (tensor<?x?x?xf32, [@S0, @S1, @S2]>, tensor<f32>) -> tensor<?x?xf32, [@S1, @S2]>
    return %2 : tensor<?x?xf32, [@S1, @S2]>
  }
  "disc_shape.SymbolicDim"() {knownNegativeOne = false, knownNonNegative = true, knownNonSizeOne = false, knownNonSizeZero = false, sym_name = "S0", value = -9223372036854775808 : i64} : () -> ()
  "disc_shape.SymbolicDim"() {knownNegativeOne = false, knownNonNegative = true, knownNonSizeOne = false, knownNonSizeZero = false, sym_name = "S1", value = -9223372036854775808 : i64} : () -> ()
  "disc_shape.SymbolicDim"() {knownNegativeOne = false, knownNonNegative = true, knownNonSizeOne = false, knownNonSizeZero = false, sym_name = "S2", value = -9223372036854775808 : i64} : () -> ()
  func.func @shape_constraint_graph() {
    return
  }
}


SymbolicDimMgr::save walkRankedTensorValue takes: 4 us
SymbolicDimMgr::save update attributes takes: 0 us
SymbolicDimMgr::updateProductEqualityMap simplifySymbolicDimProductPair takes: 0 us
productSet.size() = 0
SymbolicDimMgr::updateProductEqualityMap propagate graph takes: 4 us
SymbolicDimMgr::updateProductEqualityMap remove multiply takes: 0 us
SymbolicDimMgr::updateProductEqualityMap build toRemove  takes: 0 us
SymbolicDimMgr::updateProductEqualityMap apply toRemove  takes: 0 us
SymbolicDimMgr::save updateProductEqualityMap takes: 12 us
SymbolicDimMgr::save updateFunctionType takes: 1 us
SymbolicDimMgr::save collect symbolicDim ops takes: 3 us
SymbolicDimMgr::save remove symbolicDim ops takes: 0 us
SymbolicDimMgr::save remove unused production takes: 0 us
SymbolicDimMgr::save remove unused production #2 takes: 0 us
SymbolicDimMgr::save canonicalize the name takes: 2 us
SymbolicDimMgr::save replace the name takes: 3 us
SymbolicDimMgr::save updateFunctionType takes: 0 us
// -----// IR Dump After DiscShapeOptimizationPass (disc-shape-optimization) //----- //
module {
  func.func @main(%arg0: tensor<?x?x?xf32, [@S0, @S1, @S2]>) -> tensor<?x?xf32, [@S1, @S2]> attributes {tf.entry_function = {input_placements = "gpu", inputs = "input0", output_placements = "gpu", outputs = "output0"}} {
    %0 = mhlo.constant dense<0xFF800000> : tensor<f32>
    %1 = mhlo.abs %arg0 : tensor<?x?x?xf32, [@S0, @S1, @S2]>
    %2 = mhlo.reduce(%1 init: %0) applies mhlo.maximum across dimensions = [0] : (tensor<?x?x?xf32, [@S0, @S1, @S2]>, tensor<f32>) -> tensor<?x?xf32, [@S1, @S2]>
    return %2 : tensor<?x?xf32, [@S1, @S2]>
  }
  "disc_shape.SymbolicDim"() {knownNegativeOne = false, knownNonNegative = true, knownNonSizeOne = false, knownNonSizeZero = false, sym_name = "S0", value = -9223372036854775808 : i64} : () -> ()
  "disc_shape.SymbolicDim"() {knownNegativeOne = false, knownNonNegative = true, knownNonSizeOne = false, knownNonSizeZero = false, sym_name = "S1", value = -9223372036854775808 : i64} : () -> ()
  "disc_shape.SymbolicDim"() {knownNegativeOne = false, knownNonNegative = true, knownNonSizeOne = false, knownNonSizeZero = false, sym_name = "S2", value = -9223372036854775808 : i64} : () -> ()
  func.func @shape_constraint_graph() {
    return
  }
}


SymbolicDimMgr::save walkRankedTensorValue takes: 3 us
SymbolicDimMgr::save update attributes takes: 0 us
SymbolicDimMgr::updateProductEqualityMap simplifySymbolicDimProductPair takes: 0 us
productSet.size() = 0
SymbolicDimMgr::updateProductEqualityMap propagate graph takes: 1 us
SymbolicDimMgr::updateProductEqualityMap remove multiply takes: 0 us
SymbolicDimMgr::updateProductEqualityMap build toRemove  takes: 0 us
SymbolicDimMgr::updateProductEqualityMap apply toRemove  takes: 0 us
SymbolicDimMgr::save updateProductEqualityMap takes: 14 us
SymbolicDimMgr::save updateFunctionType takes: 1 us
SymbolicDimMgr::save collect symbolicDim ops takes: 3 us
SymbolicDimMgr::save remove symbolicDim ops takes: 0 us
SymbolicDimMgr::save remove unused production takes: 0 us
SymbolicDimMgr::save remove unused production #2 takes: 0 us
SymbolicDimMgr::save canonicalize the name takes: 3 us
SymbolicDimMgr::save replace the name takes: 3 us
SymbolicDimMgr::save updateFunctionType takes: 0 us
// -----// IR Dump After DiscShapeOptimizationPass (disc-shape-optimization) //----- //
module {
  func.func @main(%arg0: tensor<?x?x?xf32, [@S0, @S1, @S2]>) -> tensor<?x?xf32, [@S1, @S2]> attributes {tf.entry_function = {input_placements = "gpu", inputs = "input0", output_placements = "gpu", outputs = "output0"}} {
    %0 = mhlo.constant dense<0xFF800000> : tensor<f32>
    %1 = mhlo.abs %arg0 : tensor<?x?x?xf32, [@S0, @S1, @S2]>
    %2 = mhlo.reduce(%1 init: %0) applies mhlo.maximum across dimensions = [0] : (tensor<?x?x?xf32, [@S0, @S1, @S2]>, tensor<f32>) -> tensor<?x?xf32, [@S1, @S2]>
    return %2 : tensor<?x?xf32, [@S1, @S2]>
  }
  "disc_shape.SymbolicDim"() {knownNegativeOne = false, knownNonNegative = true, knownNonSizeOne = false, knownNonSizeZero = false, sym_name = "S0", value = -9223372036854775808 : i64} : () -> ()
  "disc_shape.SymbolicDim"() {knownNegativeOne = false, knownNonNegative = true, knownNonSizeOne = false, knownNonSizeZero = false, sym_name = "S1", value = -9223372036854775808 : i64} : () -> ()
  "disc_shape.SymbolicDim"() {knownNegativeOne = false, knownNonNegative = true, knownNonSizeOne = false, knownNonSizeZero = false, sym_name = "S2", value = -9223372036854775808 : i64} : () -> ()
  func.func @shape_constraint_graph() {
    return
  }
}


// -----// IR Dump After HloCanonicalizeReductionPass (hlo-canonicalize-reduction) //----- //
func.func @main(%arg0: tensor<?x?x?xf32, [@S0, @S1, @S2]>) -> tensor<?x?xf32, [@S1, @S2]> attributes {tf.entry_function = {input_placements = "gpu", inputs = "input0", output_placements = "gpu", outputs = "output0"}} {
  %0 = mhlo.constant dense<0xFF800000> : tensor<f32>
  %1 = mhlo.abs %arg0 : tensor<?x?x?xf32, [@S0, @S1, @S2]>
  %c1_i32 = arith.constant 1 : i32
  %c0 = arith.constant 0 : index
  %dim = tensor.dim %1, %c0 : tensor<?x?x?xf32, [@S0, @S1, @S2]>
  %2 = arith.index_cast %dim : index to i32
  %3 = arith.muli %c1_i32, %2 : i32
  %c1 = arith.constant 1 : index
  %dim_0 = tensor.dim %1, %c1 : tensor<?x?x?xf32, [@S0, @S1, @S2]>
  %4 = arith.index_cast %dim_0 : index to i32
  %5 = arith.muli %c1_i32, %4 : i32
  %c2 = arith.constant 2 : index
  %dim_1 = tensor.dim %1, %c2 : tensor<?x?x?xf32, [@S0, @S1, @S2]>
  %6 = arith.index_cast %dim_1 : index to i32
  %7 = arith.muli %5, %6 : i32
  %from_elements = tensor.from_elements %3, %7 : tensor<2xi32>
  %8 = mhlo.dynamic_reshape %1, %from_elements : (tensor<?x?x?xf32, [@S0, @S1, @S2]>, tensor<2xi32>) -> tensor<?x?xf32>
  %9 = mhlo.reduce(%8 init: %0) applies mhlo.maximum across dimensions = [0] : (tensor<?x?xf32>, tensor<f32>) -> tensor<?xf32>
  %c1_2 = arith.constant 1 : index
  %dim_3 = tensor.dim %1, %c1_2 : tensor<?x?x?xf32, [@S0, @S1, @S2]>
  %10 = arith.index_cast %dim_3 : index to i32
  %c2_4 = arith.constant 2 : index
  %dim_5 = tensor.dim %1, %c2_4 : tensor<?x?x?xf32, [@S0, @S1, @S2]>
  %11 = arith.index_cast %dim_5 : index to i32
  %from_elements_6 = tensor.from_elements %10, %11 : tensor<2xi32>
  %12 = mhlo.dynamic_reshape %9, %from_elements_6 : (tensor<?xf32>, tensor<2xi32>) -> tensor<?x?xf32, [@S1, @S2]>
  return %12 : tensor<?x?xf32, [@S1, @S2]>
}

// -----// IR Dump After CSE (cse) //----- //
module {
  func.func @main(%arg0: tensor<?x?x?xf32, [@S0, @S1, @S2]>) -> tensor<?x?xf32, [@S1, @S2]> attributes {tf.entry_function = {input_placements = "gpu", inputs = "input0", output_placements = "gpu", outputs = "output0"}} {
    %c0 = arith.constant 0 : index
    %c1 = arith.constant 1 : index
    %c2 = arith.constant 2 : index
    %0 = mhlo.constant dense<0xFF800000> : tensor<f32>
    %dim = tensor.dim %arg0, %c0 : tensor<?x?x?xf32, [@S0, @S1, @S2]>
    %dim_0 = tensor.dim %arg0, %c1 : tensor<?x?x?xf32, [@S0, @S1, @S2]>
    %dim_1 = tensor.dim %arg0, %c2 : tensor<?x?x?xf32, [@S0, @S1, @S2]>
    %1 = "disc_shape.tie_shape"(%arg0, %dim, %dim_0, %dim_1) : (tensor<?x?x?xf32, [@S0, @S1, @S2]>, index, index, index) -> tensor<?x?x?xf32, [@S0, @S1, @S2]>
    %2 = mhlo.abs %1 : tensor<?x?x?xf32, [@S0, @S1, @S2]>
    %3 = "disc_shape.tie_shape"(%2, %dim, %dim_0, %dim_1) : (tensor<?x?x?xf32, [@S0, @S1, @S2]>, index, index, index) -> tensor<?x?x?xf32, [@S0, @S1, @S2]>
    %4 = arith.index_cast %dim : index to i32
    %5 = arith.index_cast %dim_0 : index to i32
    %6 = arith.index_cast %dim_1 : index to i32
    %7 = arith.muli %5, %6 : i32
    %from_elements = tensor.from_elements %4, %7 : tensor<2xi32>
    %8 = "disc_shape.tie_shape"(%from_elements, %c2) : (tensor<2xi32>, index) -> tensor<2xi32>
    %9 = mhlo.dynamic_reshape %3, %8 : (tensor<?x?x?xf32, [@S0, @S1, @S2]>, tensor<2xi32>) -> tensor<?x?xf32>
    %10 = arith.index_cast %7 : i32 to index
    %11 = "disc_shape.tie_shape"(%9, %dim, %10) : (tensor<?x?xf32>, index, index) -> tensor<?x?xf32>
    %12 = mhlo.reduce(%11 init: %0) applies mhlo.maximum across dimensions = [0] : (tensor<?x?xf32>, tensor<f32>) -> tensor<?xf32>
    %13 = "disc_shape.tie_shape"(%12, %10) : (tensor<?xf32>, index) -> tensor<?xf32>
    %from_elements_2 = tensor.from_elements %5, %6 : tensor<2xi32>
    %14 = "disc_shape.tie_shape"(%from_elements_2, %c2) : (tensor<2xi32>, index) -> tensor<2xi32>
    %15 = mhlo.dynamic_reshape %13, %14 : (tensor<?xf32>, tensor<2xi32>) -> tensor<?x?xf32, [@S1, @S2]>
    %16 = "disc_shape.tie_shape"(%15, %dim_0, %dim_1) : (tensor<?x?xf32, [@S1, @S2]>, index, index) -> tensor<?x?xf32, [@S1, @S2]>
    return %16 : tensor<?x?xf32, [@S1, @S2]>
  }
  "disc_shape.SymbolicDim"() {knownNegativeOne = false, knownNonNegative = true, knownNonSizeOne = false, knownNonSizeZero = false, sym_name = "S0", value = -9223372036854775808 : i64} : () -> ()
  "disc_shape.SymbolicDim"() {knownNegativeOne = false, knownNonNegative = true, knownNonSizeOne = false, knownNonSizeZero = false, sym_name = "S1", value = -9223372036854775808 : i64} : () -> ()
  "disc_shape.SymbolicDim"() {knownNegativeOne = false, knownNonNegative = true, knownNonSizeOne = false, knownNonSizeZero = false, sym_name = "S2", value = -9223372036854775808 : i64} : () -> ()
  func.func @shape_constraint_graph() {
    return
  }
}


SymbolicDimMgr::save walkRankedTensorValue takes: 6 us
SymbolicDimMgr::save update attributes takes: 1 us
SymbolicDimMgr::updateProductEqualityMap simplifySymbolicDimProductPair takes: 24 us
productSet.size() = 4
SymbolicDimMgr::updateProductEqualityMap propagate graph takes: 6 us
SymbolicDimMgr::updateProductEqualityMap remove multiply takes: 36 us
SymbolicDimMgr::updateProductEqualityMap build toRemove  takes: 3 us
SymbolicDimMgr::updateProductEqualityMap apply toRemove  takes: 2 us
SymbolicDimMgr::save updateProductEqualityMap takes: 85 us
SymbolicDimMgr::save updateFunctionType takes: 1 us
SymbolicDimMgr::save collect symbolicDim ops takes: 5 us
SymbolicDimMgr::save remove symbolicDim ops takes: 1 us
SymbolicDimMgr::save remove unused production takes: 0 us
SymbolicDimMgr::save remove unused production #2 takes: 1 us
SymbolicDimMgr::save canonicalize the name takes: 4 us
SymbolicDimMgr::save replace the name takes: 7 us
SymbolicDimMgr::save updateFunctionType takes: 1 us
// -----// IR Dump After DiscShapeOptimizationPass (disc-shape-optimization) //----- //
module {
  func.func @main(%arg0: tensor<?x?x?xf32, [@S0, @S1, @S2]>) -> tensor<?x?xf32, [@S1, @S2]> attributes {tf.entry_function = {input_placements = "gpu", inputs = "input0", output_placements = "gpu", outputs = "output0"}} {
    %c0 = arith.constant 0 : index
    %c1 = arith.constant 1 : index
    %c2 = arith.constant 2 : index
    %0 = mhlo.constant dense<0xFF800000> : tensor<f32>
    %dim = tensor.dim %arg0, %c0 : tensor<?x?x?xf32, [@S0, @S1, @S2]>
    %dim_0 = tensor.dim %arg0, %c1 : tensor<?x?x?xf32, [@S0, @S1, @S2]>
    %dim_1 = tensor.dim %arg0, %c2 : tensor<?x?x?xf32, [@S0, @S1, @S2]>
    %1 = mhlo.abs %arg0 : tensor<?x?x?xf32, [@S0, @S1, @S2]>
    %2 = arith.index_cast %dim : index to i32
    %3 = arith.index_cast %dim_0 : index to i32
    %4 = arith.index_cast %dim_1 : index to i32
    %5 = arith.muli %3, %4 : i32
    %from_elements = tensor.from_elements %2, %5 : tensor<2xi32>
    %6 = mhlo.dynamic_reshape %1, %from_elements : (tensor<?x?x?xf32, [@S0, @S1, @S2]>, tensor<2xi32>) -> tensor<?x?xf32, [@S0, @S3]>
    %7 = mhlo.reduce(%6 init: %0) applies mhlo.maximum across dimensions = [0] : (tensor<?x?xf32, [@S0, @S3]>, tensor<f32>) -> tensor<?xf32, [@S3]>
    %from_elements_2 = tensor.from_elements %3, %4 : tensor<2xi32>
    %8 = mhlo.dynamic_reshape %7, %from_elements_2 : (tensor<?xf32, [@S3]>, tensor<2xi32>) -> tensor<?x?xf32, [@S1, @S2]>
    return %8 : tensor<?x?xf32, [@S1, @S2]>
  }
  "disc_shape.SymbolicDim"() {knownNegativeOne = false, knownNonNegative = true, knownNonSizeOne = false, knownNonSizeZero = false, sym_name = "S0", value = -9223372036854775808 : i64} : () -> ()
  "disc_shape.SymbolicDim"() {knownNegativeOne = false, knownNonNegative = true, knownNonSizeOne = false, knownNonSizeZero = false, sym_name = "S1", value = -9223372036854775808 : i64} : () -> ()
  "disc_shape.SymbolicDim"() {knownNegativeOne = false, knownNonNegative = true, knownNonSizeOne = false, knownNonSizeZero = false, sym_name = "S2", value = -9223372036854775808 : i64} : () -> ()
  "disc_shape.SymbolicDim"() {knownNegativeOne = false, knownNonNegative = true, knownNonSizeOne = false, knownNonSizeZero = false, sym_name = "S3", value = -9223372036854775808 : i64} : () -> ()
  func.func @shape_constraint_graph() {
    %0 = "disc_shape.dim"() {name = @S3} : () -> index
    %1 = "disc_shape.dim"() {name = @S1} : () -> index
    %2 = "disc_shape.dim"() {name = @S2} : () -> index
    "disc_shape.tie_product_equal"(%0, %1, %2) {operand_segment_sizes = array<i32: 1, 2>} : (index, index, index) -> ()
    return
  }
}


// -----// IR Dump After DiscMarkShapeCalculationPass (disc-mhlo-mark-shape-calc) //----- //
module {
  func.func @main(%arg0: tensor<?x?x?xf32, [@S0, @S1, @S2]>) -> tensor<?x?xf32, [@S1, @S2]> attributes {tf.entry_function = {input_placements = "gpu", inputs = "input0", output_placements = "gpu", outputs = "output0"}} {
    %c0 = arith.constant 0 : index
    %c1 = arith.constant 1 : index
    %c2 = arith.constant 2 : index
    %0 = mhlo.constant dense<0xFF800000> : tensor<f32>
    %dim = tensor.dim %arg0, %c0 : tensor<?x?x?xf32, [@S0, @S1, @S2]>
    %dim_0 = tensor.dim %arg0, %c1 : tensor<?x?x?xf32, [@S0, @S1, @S2]>
    %dim_1 = tensor.dim %arg0, %c2 : tensor<?x?x?xf32, [@S0, @S1, @S2]>
    %1 = mhlo.abs %arg0 : tensor<?x?x?xf32, [@S0, @S1, @S2]>
    %2 = arith.index_cast %dim : index to i32
    %3 = arith.index_cast %dim_0 : index to i32
    %4 = arith.index_cast %dim_1 : index to i32
    %5 = arith.muli %3, %4 : i32
    %from_elements = tensor.from_elements %2, %5 {disc.shape_op = true} : tensor<2xi32>
    %6 = mhlo.dynamic_reshape %1, %from_elements : (tensor<?x?x?xf32, [@S0, @S1, @S2]>, tensor<2xi32>) -> tensor<?x?xf32, [@S0, @S3]>
    %7 = mhlo.reduce(%6 init: %0) applies mhlo.maximum across dimensions = [0] : (tensor<?x?xf32, [@S0, @S3]>, tensor<f32>) -> tensor<?xf32, [@S3]>
    %from_elements_2 = tensor.from_elements %3, %4 {disc.shape_op = true} : tensor<2xi32>
    %8 = mhlo.dynamic_reshape %7, %from_elements_2 : (tensor<?xf32, [@S3]>, tensor<2xi32>) -> tensor<?x?xf32, [@S1, @S2]>
    return %8 : tensor<?x?xf32, [@S1, @S2]>
  }
  "disc_shape.SymbolicDim"() {knownNegativeOne = false, knownNonNegative = true, knownNonSizeOne = false, knownNonSizeZero = false, sym_name = "S0", value = -9223372036854775808 : i64} : () -> ()
  "disc_shape.SymbolicDim"() {knownNegativeOne = false, knownNonNegative = true, knownNonSizeOne = false, knownNonSizeZero = false, sym_name = "S1", value = -9223372036854775808 : i64} : () -> ()
  "disc_shape.SymbolicDim"() {knownNegativeOne = false, knownNonNegative = true, knownNonSizeOne = false, knownNonSizeZero = false, sym_name = "S2", value = -9223372036854775808 : i64} : () -> ()
  "disc_shape.SymbolicDim"() {knownNegativeOne = false, knownNonNegative = true, knownNonSizeOne = false, knownNonSizeZero = false, sym_name = "S3", value = -9223372036854775808 : i64} : () -> ()
  func.func @shape_constraint_graph() {
    %0 = "disc_shape.dim"() {name = @S3} : () -> index
    %1 = "disc_shape.dim"() {name = @S1} : () -> index
    %2 = "disc_shape.dim"() {name = @S2} : () -> index
    "disc_shape.tie_product_equal"(%0, %1, %2) {operand_segment_sizes = array<i32: 1, 2>} : (index, index, index) -> ()
    return
  }
}


// -----// IR Dump After PlaceOpsPass (mhlo-place-ops) //----- //
module {
  func.func @main(%arg0: tensor<?x?x?xf32, [@S0, @S1, @S2]>) -> tensor<?x?xf32, [@S1, @S2]> attributes {tf.entry_function = {input_placements = "gpu", inputs = "input0", output_placements = "gpu", outputs = "output0"}} {
    %c0 = arith.constant 0 : index
    %c1 = arith.constant 1 : index
    %c2 = arith.constant 2 : index
    %0 = mhlo.constant {disc.device = "gpu"} dense<0xFF800000> : tensor<f32>
    %dim = tensor.dim %arg0, %c0 : tensor<?x?x?xf32, [@S0, @S1, @S2]>
    %dim_0 = tensor.dim %arg0, %c1 : tensor<?x?x?xf32, [@S0, @S1, @S2]>
    %dim_1 = tensor.dim %arg0, %c2 : tensor<?x?x?xf32, [@S0, @S1, @S2]>
    %1 = mhlo.abs %arg0 {disc.device = "gpu"} : tensor<?x?x?xf32, [@S0, @S1, @S2]>
    %2 = arith.index_cast %dim : index to i32
    %3 = arith.index_cast %dim_0 : index to i32
    %4 = arith.index_cast %dim_1 : index to i32
    %5 = arith.muli %3, %4 : i32
    %from_elements = tensor.from_elements %2, %5 {disc.shape_op = true} : tensor<2xi32>
    %6 = mhlo.dynamic_reshape %1, %from_elements {disc.device = "gpu"} : (tensor<?x?x?xf32, [@S0, @S1, @S2]>, tensor<2xi32>) -> tensor<?x?xf32, [@S0, @S3]>
    %7 = mhlo.reduce(%6 init: %0) applies mhlo.maximum across dimensions = [0] : (tensor<?x?xf32, [@S0, @S3]>, tensor<f32>) -> tensor<?xf32, [@S3]>
    %from_elements_2 = tensor.from_elements %3, %4 {disc.shape_op = true} : tensor<2xi32>
    %8 = mhlo.dynamic_reshape %7, %from_elements_2 {disc.device = "gpu"} : (tensor<?xf32, [@S3]>, tensor<2xi32>) -> tensor<?x?xf32, [@S1, @S2]>
    return %8 : tensor<?x?xf32, [@S1, @S2]>
  }
  "disc_shape.SymbolicDim"() {knownNegativeOne = false, knownNonNegative = true, knownNonSizeOne = false, knownNonSizeZero = false, sym_name = "S0", value = -9223372036854775808 : i64} : () -> ()
  "disc_shape.SymbolicDim"() {knownNegativeOne = false, knownNonNegative = true, knownNonSizeOne = false, knownNonSizeZero = false, sym_name = "S1", value = -9223372036854775808 : i64} : () -> ()
  "disc_shape.SymbolicDim"() {knownNegativeOne = false, knownNonNegative = true, knownNonSizeOne = false, knownNonSizeZero = false, sym_name = "S2", value = -9223372036854775808 : i64} : () -> ()
  "disc_shape.SymbolicDim"() {knownNegativeOne = false, knownNonNegative = true, knownNonSizeOne = false, knownNonSizeZero = false, sym_name = "S3", value = -9223372036854775808 : i64} : () -> ()
  func.func @shape_constraint_graph() {
    %0 = "disc_shape.dim"() {name = @S3} : () -> index
    %1 = "disc_shape.dim"() {name = @S1} : () -> index
    %2 = "disc_shape.dim"() {name = @S2} : () -> index
    "disc_shape.tie_product_equal"(%0, %1, %2) {operand_segment_sizes = array<i32: 1, 2>} : (index, index, index) -> ()
    return
  }
}


SymbolicDimMgr::save walkRankedTensorValue takes: 6 us
SymbolicDimMgr::save update attributes takes: 1 us
SymbolicDimMgr::updateProductEqualityMap simplifySymbolicDimProductPair takes: 13 us
productSet.size() = 4
SymbolicDimMgr::updateProductEqualityMap propagate graph takes: 5 us
SymbolicDimMgr::updateProductEqualityMap remove multiply takes: 36 us
SymbolicDimMgr::updateProductEqualityMap build toRemove  takes: 2 us
SymbolicDimMgr::updateProductEqualityMap apply toRemove  takes: 1 us
SymbolicDimMgr::save updateProductEqualityMap takes: 72 us
SymbolicDimMgr::save updateFunctionType takes: 1 us
SymbolicDimMgr::save collect symbolicDim ops takes: 6 us
SymbolicDimMgr::save remove symbolicDim ops takes: 1 us
SymbolicDimMgr::save remove unused production takes: 0 us
SymbolicDimMgr::save remove unused production #2 takes: 1 us
SymbolicDimMgr::save canonicalize the name takes: 3 us
SymbolicDimMgr::save replace the name takes: 5 us
SymbolicDimMgr::save updateFunctionType takes: 0 us
// -----// IR Dump After DiscShapeOptimizationPass (disc-shape-optimization) //----- //
module {
  func.func @main(%arg0: tensor<?x?x?xf32, [@S0, @S1, @S2]>) -> tensor<?x?xf32, [@S1, @S2]> attributes {tf.entry_function = {input_placements = "gpu", inputs = "input0", output_placements = "gpu", outputs = "output0"}} {
    %c0 = arith.constant 0 : index
    %c1 = arith.constant 1 : index
    %c2 = arith.constant 2 : index
    %0 = mhlo.constant {disc.device = "gpu"} dense<0xFF800000> : tensor<f32>
    %dim = tensor.dim %arg0, %c0 : tensor<?x?x?xf32, [@S0, @S1, @S2]>
    %dim_0 = tensor.dim %arg0, %c1 : tensor<?x?x?xf32, [@S0, @S1, @S2]>
    %dim_1 = tensor.dim %arg0, %c2 : tensor<?x?x?xf32, [@S0, @S1, @S2]>
    %1 = mhlo.abs %arg0 {disc.device = "gpu"} : tensor<?x?x?xf32, [@S0, @S1, @S2]>
    %2 = arith.index_cast %dim : index to i32
    %3 = arith.index_cast %dim_0 : index to i32
    %4 = arith.index_cast %dim_1 : index to i32
    %5 = arith.muli %3, %4 : i32
    %from_elements = tensor.from_elements %2, %5 {disc.shape_op = true} : tensor<2xi32>
    %6 = mhlo.dynamic_reshape %1, %from_elements {disc.device = "gpu"} : (tensor<?x?x?xf32, [@S0, @S1, @S2]>, tensor<2xi32>) -> tensor<?x?xf32, [@S0, @S3]>
    %7 = mhlo.reduce(%6 init: %0) applies mhlo.maximum across dimensions = [0] : (tensor<?x?xf32, [@S0, @S3]>, tensor<f32>) -> tensor<?xf32, [@S3]>
    %from_elements_2 = tensor.from_elements %3, %4 {disc.shape_op = true} : tensor<2xi32>
    %8 = mhlo.dynamic_reshape %7, %from_elements_2 {disc.device = "gpu"} : (tensor<?xf32, [@S3]>, tensor<2xi32>) -> tensor<?x?xf32, [@S1, @S2]>
    return %8 : tensor<?x?xf32, [@S1, @S2]>
  }
  "disc_shape.SymbolicDim"() {knownNegativeOne = false, knownNonNegative = true, knownNonSizeOne = false, knownNonSizeZero = false, sym_name = "S0", value = -9223372036854775808 : i64} : () -> ()
  "disc_shape.SymbolicDim"() {knownNegativeOne = false, knownNonNegative = true, knownNonSizeOne = false, knownNonSizeZero = false, sym_name = "S1", value = -9223372036854775808 : i64} : () -> ()
  "disc_shape.SymbolicDim"() {knownNegativeOne = false, knownNonNegative = true, knownNonSizeOne = false, knownNonSizeZero = false, sym_name = "S2", value = -9223372036854775808 : i64} : () -> ()
  "disc_shape.SymbolicDim"() {knownNegativeOne = false, knownNonNegative = true, knownNonSizeOne = false, knownNonSizeZero = false, sym_name = "S3", value = -9223372036854775808 : i64} : () -> ()
  func.func @shape_constraint_graph() {
    %0 = "disc_shape.dim"() {name = @S3} : () -> index
    %1 = "disc_shape.dim"() {name = @S1} : () -> index
    %2 = "disc_shape.dim"() {name = @S2} : () -> index
    "disc_shape.tie_product_equal"(%0, %1, %2) {operand_segment_sizes = array<i32: 1, 2>} : (index, index, index) -> ()
    return
  }
}


SymbolicDimMgr::save walkRankedTensorValue takes: 6 us
SymbolicDimMgr::save update attributes takes: 1 us
SymbolicDimMgr::updateProductEqualityMap simplifySymbolicDimProductPair takes: 25 us
productSet.size() = 4
SymbolicDimMgr::updateProductEqualityMap propagate graph takes: 5 us
SymbolicDimMgr::updateProductEqualityMap remove multiply takes: 36 us
SymbolicDimMgr::updateProductEqualityMap build toRemove  takes: 2 us
SymbolicDimMgr::updateProductEqualityMap apply toRemove  takes: 2 us
SymbolicDimMgr::save updateProductEqualityMap takes: 85 us
SymbolicDimMgr::save updateFunctionType takes: 1 us
SymbolicDimMgr::save collect symbolicDim ops takes: 5 us
SymbolicDimMgr::save remove symbolicDim ops takes: 1 us
SymbolicDimMgr::save remove unused production takes: 0 us
SymbolicDimMgr::save remove unused production #2 takes: 1 us
SymbolicDimMgr::save canonicalize the name takes: 3 us
SymbolicDimMgr::save replace the name takes: 5 us
SymbolicDimMgr::save updateFunctionType takes: 0 us
// -----// IR Dump After DiscShapeOptimizationPass (disc-shape-optimization) //----- //
module {
  func.func @main(%arg0: tensor<?x?x?xf32, [@S0, @S1, @S2]>) -> tensor<?x?xf32, [@S1, @S2]> attributes {tf.entry_function = {input_placements = "gpu", inputs = "input0", output_placements = "gpu", outputs = "output0"}} {
    %c0 = arith.constant 0 : index
    %c1 = arith.constant 1 : index
    %c2 = arith.constant 2 : index
    %0 = mhlo.constant {disc.device = "gpu"} dense<0xFF800000> : tensor<f32>
    %dim = tensor.dim %arg0, %c0 : tensor<?x?x?xf32, [@S0, @S1, @S2]>
    %dim_0 = tensor.dim %arg0, %c1 : tensor<?x?x?xf32, [@S0, @S1, @S2]>
    %dim_1 = tensor.dim %arg0, %c2 : tensor<?x?x?xf32, [@S0, @S1, @S2]>
    %1 = mhlo.abs %arg0 {disc.device = "gpu"} : tensor<?x?x?xf32, [@S0, @S1, @S2]>
    %2 = arith.index_cast %dim : index to i32
    %3 = arith.index_cast %dim_0 : index to i32
    %4 = arith.index_cast %dim_1 : index to i32
    %5 = arith.muli %3, %4 : i32
    %from_elements = tensor.from_elements %2, %5 {disc.shape_op = true} : tensor<2xi32>
    %6 = mhlo.dynamic_reshape %1, %from_elements {disc.device = "gpu"} : (tensor<?x?x?xf32, [@S0, @S1, @S2]>, tensor<2xi32>) -> tensor<?x?xf32, [@S0, @S3]>
    %7 = mhlo.reduce(%6 init: %0) applies mhlo.maximum across dimensions = [0] : (tensor<?x?xf32, [@S0, @S3]>, tensor<f32>) -> tensor<?xf32, [@S3]>
    %from_elements_2 = tensor.from_elements %3, %4 {disc.shape_op = true} : tensor<2xi32>
    %8 = mhlo.dynamic_reshape %7, %from_elements_2 {disc.device = "gpu"} : (tensor<?xf32, [@S3]>, tensor<2xi32>) -> tensor<?x?xf32, [@S1, @S2]>
    return %8 : tensor<?x?xf32, [@S1, @S2]>
  }
  "disc_shape.SymbolicDim"() {knownNegativeOne = false, knownNonNegative = true, knownNonSizeOne = false, knownNonSizeZero = false, sym_name = "S0", value = -9223372036854775808 : i64} : () -> ()
  "disc_shape.SymbolicDim"() {knownNegativeOne = false, knownNonNegative = true, knownNonSizeOne = false, knownNonSizeZero = false, sym_name = "S1", value = -9223372036854775808 : i64} : () -> ()
  "disc_shape.SymbolicDim"() {knownNegativeOne = false, knownNonNegative = true, knownNonSizeOne = false, knownNonSizeZero = false, sym_name = "S2", value = -9223372036854775808 : i64} : () -> ()
  "disc_shape.SymbolicDim"() {knownNegativeOne = false, knownNonNegative = true, knownNonSizeOne = false, knownNonSizeZero = false, sym_name = "S3", value = -9223372036854775808 : i64} : () -> ()
  func.func @shape_constraint_graph() {
    %0 = "disc_shape.dim"() {name = @S3} : () -> index
    %1 = "disc_shape.dim"() {name = @S1} : () -> index
    %2 = "disc_shape.dim"() {name = @S2} : () -> index
    "disc_shape.tie_product_equal"(%0, %1, %2) {operand_segment_sizes = array<i32: 1, 2>} : (index, index, index) -> ()
    return
  }
}


SymbolicDimMgr::save walkRankedTensorValue takes: 6 us
SymbolicDimMgr::save update attributes takes: 1 us
SymbolicDimMgr::updateProductEqualityMap simplifySymbolicDimProductPair takes: 19 us
productSet.size() = 4
SymbolicDimMgr::updateProductEqualityMap propagate graph takes: 5 us
SymbolicDimMgr::updateProductEqualityMap remove multiply takes: 35 us
SymbolicDimMgr::updateProductEqualityMap build toRemove  takes: 3 us
SymbolicDimMgr::updateProductEqualityMap apply toRemove  takes: 2 us
SymbolicDimMgr::save updateProductEqualityMap takes: 77 us
SymbolicDimMgr::save updateFunctionType takes: 1 us
SymbolicDimMgr::save collect symbolicDim ops takes: 6 us
SymbolicDimMgr::save remove symbolicDim ops takes: 1 us
SymbolicDimMgr::save remove unused production takes: 0 us
SymbolicDimMgr::save remove unused production #2 takes: 1 us
SymbolicDimMgr::save canonicalize the name takes: 3 us
SymbolicDimMgr::save replace the name takes: 5 us
SymbolicDimMgr::save updateFunctionType takes: 0 us
// -----// IR Dump After DiscShapeOptimizationPass (disc-shape-optimization) //----- //
module {
  func.func @main(%arg0: tensor<?x?x?xf32, [@S0, @S1, @S2]>) -> tensor<?x?xf32, [@S1, @S2]> attributes {tf.entry_function = {input_placements = "gpu", inputs = "input0", output_placements = "gpu", outputs = "output0"}} {
    %c0 = arith.constant 0 : index
    %c1 = arith.constant 1 : index
    %c2 = arith.constant 2 : index
    %0 = mhlo.constant {disc.device = "gpu"} dense<0xFF800000> : tensor<f32>
    %dim = tensor.dim %arg0, %c0 : tensor<?x?x?xf32, [@S0, @S1, @S2]>
    %dim_0 = tensor.dim %arg0, %c1 : tensor<?x?x?xf32, [@S0, @S1, @S2]>
    %dim_1 = tensor.dim %arg0, %c2 : tensor<?x?x?xf32, [@S0, @S1, @S2]>
    %1 = mhlo.abs %arg0 {disc.device = "gpu"} : tensor<?x?x?xf32, [@S0, @S1, @S2]>
    %2 = arith.index_cast %dim : index to i32
    %3 = arith.index_cast %dim_0 : index to i32
    %4 = arith.index_cast %dim_1 : index to i32
    %5 = arith.muli %3, %4 : i32
    %from_elements = tensor.from_elements %2, %5 {disc.shape_op = true} : tensor<2xi32>
    %6 = mhlo.dynamic_reshape %1, %from_elements {disc.device = "gpu"} : (tensor<?x?x?xf32, [@S0, @S1, @S2]>, tensor<2xi32>) -> tensor<?x?xf32, [@S0, @S3]>
    %7 = mhlo.reduce(%6 init: %0) applies mhlo.maximum across dimensions = [0] : (tensor<?x?xf32, [@S0, @S3]>, tensor<f32>) -> tensor<?xf32, [@S3]>
    %from_elements_2 = tensor.from_elements %3, %4 {disc.shape_op = true} : tensor<2xi32>
    %8 = mhlo.dynamic_reshape %7, %from_elements_2 {disc.device = "gpu"} : (tensor<?xf32, [@S3]>, tensor<2xi32>) -> tensor<?x?xf32, [@S1, @S2]>
    return %8 : tensor<?x?xf32, [@S1, @S2]>
  }
  "disc_shape.SymbolicDim"() {knownNegativeOne = false, knownNonNegative = true, knownNonSizeOne = false, knownNonSizeZero = false, sym_name = "S0", value = -9223372036854775808 : i64} : () -> ()
  "disc_shape.SymbolicDim"() {knownNegativeOne = false, knownNonNegative = true, knownNonSizeOne = false, knownNonSizeZero = false, sym_name = "S1", value = -9223372036854775808 : i64} : () -> ()
  "disc_shape.SymbolicDim"() {knownNegativeOne = false, knownNonNegative = true, knownNonSizeOne = false, knownNonSizeZero = false, sym_name = "S2", value = -9223372036854775808 : i64} : () -> ()
  "disc_shape.SymbolicDim"() {knownNegativeOne = false, knownNonNegative = true, knownNonSizeOne = false, knownNonSizeZero = false, sym_name = "S3", value = -9223372036854775808 : i64} : () -> ()
  func.func @shape_constraint_graph() {
    %0 = "disc_shape.dim"() {name = @S3} : () -> index
    %1 = "disc_shape.dim"() {name = @S1} : () -> index
    %2 = "disc_shape.dim"() {name = @S2} : () -> index
    "disc_shape.tie_product_equal"(%0, %1, %2) {operand_segment_sizes = array<i32: 1, 2>} : (index, index, index) -> ()
    return
  }
}


SymbolicDimMgr::save walkRankedTensorValue takes: 5 us
SymbolicDimMgr::save update attributes takes: 1 us
SymbolicDimMgr::updateProductEqualityMap simplifySymbolicDimProductPair takes: 15 us
productSet.size() = 4
SymbolicDimMgr::updateProductEqualityMap propagate graph takes: 5 us
SymbolicDimMgr::updateProductEqualityMap remove multiply takes: 34 us
SymbolicDimMgr::updateProductEqualityMap build toRemove  takes: 2 us
SymbolicDimMgr::updateProductEqualityMap apply toRemove  takes: 2 us
SymbolicDimMgr::save updateProductEqualityMap takes: 73 us
SymbolicDimMgr::save updateFunctionType takes: 1 us
SymbolicDimMgr::save collect symbolicDim ops takes: 5 us
SymbolicDimMgr::save remove symbolicDim ops takes: 1 us
SymbolicDimMgr::save remove unused production takes: 0 us
SymbolicDimMgr::save remove unused production #2 takes: 1 us
SymbolicDimMgr::save canonicalize the name takes: 3 us
SymbolicDimMgr::save replace the name takes: 5 us
SymbolicDimMgr::save updateFunctionType takes: 0 us
// -----// IR Dump After DiscShapeOptimizationPass (disc-shape-optimization) //----- //
module {
  func.func @main(%arg0: tensor<?x?x?xf32>) -> tensor<?x?xf32> attributes {tf.entry_function = {input_placements = "gpu", inputs = "input0", output_placements = "gpu", outputs = "output0"}} {
    %c0 = arith.constant 0 : index
    %c1 = arith.constant 1 : index
    %c2 = arith.constant 2 : index
    %0 = mhlo.constant {disc.device = "gpu"} dense<0xFF800000> : tensor<f32>
    %dim = tensor.dim %arg0, %c0 : tensor<?x?x?xf32>
    %dim_0 = tensor.dim %arg0, %c1 : tensor<?x?x?xf32>
    %dim_1 = tensor.dim %arg0, %c2 : tensor<?x?x?xf32>
    %1 = "disc_shape.tie_shape"(%arg0, %dim, %dim_0, %dim_1) {kDiscSymbolicDimAttr = [@S0, @S1, @S2]} : (tensor<?x?x?xf32>, index, index, index) -> tensor<?x?x?xf32>
    %2 = mhlo.abs %1 {disc.device = "gpu"} : tensor<?x?x?xf32>
    %3 = "disc_shape.tie_shape"(%2, %dim, %dim_0, %dim_1) {kDiscSymbolicDimAttr = [@S0, @S1, @S2]} : (tensor<?x?x?xf32>, index, index, index) -> tensor<?x?x?xf32>
    %4 = arith.index_cast %dim : index to i32
    %5 = arith.index_cast %dim_0 : index to i32
    %6 = arith.index_cast %dim_1 : index to i32
    %7 = arith.muli %5, %6 : i32
    %from_elements = tensor.from_elements %4, %7 {disc.shape_op = true} : tensor<2xi32>
    %8 = "disc_shape.tie_shape"(%from_elements, %c2) : (tensor<2xi32>, index) -> tensor<2xi32>
    %9 = arith.index_cast %7 : i32 to index
    %10 = mhlo.dynamic_reshape %3, %8 {disc.device = "gpu"} : (tensor<?x?x?xf32>, tensor<2xi32>) -> tensor<?x?xf32>
    %11 = "disc_shape.tie_shape"(%10, %dim, %9) {kDiscSymbolicDimAttr = [@S0, @S3]} : (tensor<?x?xf32>, index, index) -> tensor<?x?xf32>
    %12 = mhlo.reduce(%11 init: %0) applies mhlo.maximum across dimensions = [0] : (tensor<?x?xf32>, tensor<f32>) -> tensor<?xf32>
    %13 = "disc_shape.tie_shape"(%12, %9) {kDiscSymbolicDimAttr = [@S3]} : (tensor<?xf32>, index) -> tensor<?xf32>
    %from_elements_2 = tensor.from_elements %5, %6 {disc.shape_op = true} : tensor<2xi32>
    %14 = "disc_shape.tie_shape"(%from_elements_2, %c2) : (tensor<2xi32>, index) -> tensor<2xi32>
    %15 = mhlo.dynamic_reshape %13, %14 {disc.device = "gpu"} : (tensor<?xf32>, tensor<2xi32>) -> tensor<?x?xf32>
    %16 = "disc_shape.tie_shape"(%15, %dim_0, %dim_1) {kDiscSymbolicDimAttr = [@S1, @S2]} : (tensor<?x?xf32>, index, index) -> tensor<?x?xf32>
    return %16 : tensor<?x?xf32>
  }
  "disc_shape.SymbolicDim"() {knownNegativeOne = false, knownNonNegative = true, knownNonSizeOne = false, knownNonSizeZero = false, sym_name = "S0", value = -9223372036854775808 : i64} : () -> ()
  "disc_shape.SymbolicDim"() {knownNegativeOne = false, knownNonNegative = true, knownNonSizeOne = false, knownNonSizeZero = false, sym_name = "S1", value = -9223372036854775808 : i64} : () -> ()
  "disc_shape.SymbolicDim"() {knownNegativeOne = false, knownNonNegative = true, knownNonSizeOne = false, knownNonSizeZero = false, sym_name = "S2", value = -9223372036854775808 : i64} : () -> ()
  "disc_shape.SymbolicDim"() {knownNegativeOne = false, knownNonNegative = true, knownNonSizeOne = false, knownNonSizeZero = false, sym_name = "S3", value = -9223372036854775808 : i64} : () -> ()
  func.func @shape_constraint_graph() {
    %0 = "disc_shape.dim"() {name = @S3} : () -> index
    %1 = "disc_shape.dim"() {name = @S1} : () -> index
    %2 = "disc_shape.dim"() {name = @S2} : () -> index
    "disc_shape.tie_product_equal"(%0, %1, %2) {operand_segment_sizes = array<i32: 1, 2>} : (index, index, index) -> ()
    return
  }
}


// -----// IR Dump After Canonicalizer (canonicalize) //----- //
func.func @main(%arg0: tensor<?x?x?xf32>) -> tensor<?x?xf32> attributes {tf.entry_function = {input_placements = "gpu", inputs = "input0", output_placements = "gpu", outputs = "output0"}} {
  %c0 = arith.constant 0 : index
  %c1 = arith.constant 1 : index
  %c2 = arith.constant 2 : index
  %0 = mhlo.constant {disc.device = "gpu"} dense<0xFF800000> : tensor<f32>
  %dim = tensor.dim %arg0, %c0 : tensor<?x?x?xf32>
  %dim_0 = tensor.dim %arg0, %c1 : tensor<?x?x?xf32>
  %dim_1 = tensor.dim %arg0, %c2 : tensor<?x?x?xf32>
  %1 = "disc_shape.tie_shape"(%arg0, %dim, %dim_0, %dim_1) {kDiscSymbolicDimAttr = [@S0, @S1, @S2]} : (tensor<?x?x?xf32>, index, index, index) -> tensor<?x?x?xf32>
  %2 = mhlo.abs %1 {disc.device = "gpu"} : tensor<?x?x?xf32>
  %3 = "disc_shape.tie_shape"(%2, %dim, %dim_0, %dim_1) {kDiscSymbolicDimAttr = [@S0, @S1, @S2]} : (tensor<?x?x?xf32>, index, index, index) -> tensor<?x?x?xf32>
  %4 = arith.index_cast %dim : index to i32
  %5 = arith.index_cast %dim_0 : index to i32
  %6 = arith.index_cast %dim_1 : index to i32
  %7 = arith.muli %5, %6 : i32
  %from_elements = tensor.from_elements %4, %7 {disc.shape_op = true} : tensor<2xi32>
  %8 = arith.index_cast %7 : i32 to index
  %9 = mhlo.dynamic_reshape %3, %from_elements {disc.device = "gpu"} : (tensor<?x?x?xf32>, tensor<2xi32>) -> tensor<?x?xf32>
  %10 = "disc_shape.tie_shape"(%9, %dim, %8) {kDiscSymbolicDimAttr = [@S0, @S3]} : (tensor<?x?xf32>, index, index) -> tensor<?x?xf32>
  %11 = mhlo.reduce(%10 init: %0) applies mhlo.maximum across dimensions = [0] : (tensor<?x?xf32>, tensor<f32>) -> tensor<?xf32>
  %12 = "disc_shape.tie_shape"(%11, %8) {kDiscSymbolicDimAttr = [@S3]} : (tensor<?xf32>, index) -> tensor<?xf32>
  %from_elements_2 = tensor.from_elements %5, %6 {disc.shape_op = true} : tensor<2xi32>
  %13 = mhlo.dynamic_reshape %12, %from_elements_2 {disc.device = "gpu"} : (tensor<?xf32>, tensor<2xi32>) -> tensor<?x?xf32>
  %14 = "disc_shape.tie_shape"(%13, %dim_0, %dim_1) {kDiscSymbolicDimAttr = [@S1, @S2]} : (tensor<?x?xf32>, index, index) -> tensor<?x?xf32>
  return %14 : tensor<?x?xf32>
}

// -----// IR Dump After FuncBufferize (func-bufferize) //----- //
module {
  func.func @main(%arg0: memref<?x?x?xf32>) -> memref<?x?xf32> attributes {tf.entry_function = {input_placements = "gpu", inputs = "input0", output_placements = "gpu", outputs = "output0"}} {
    %0 = bufferization.to_tensor %arg0 : memref<?x?x?xf32>
    %c0 = arith.constant 0 : index
    %c1 = arith.constant 1 : index
    %c2 = arith.constant 2 : index
    %1 = mhlo.constant {disc.device = "gpu"} dense<0xFF800000> : tensor<f32>
    %dim = tensor.dim %0, %c0 : tensor<?x?x?xf32>
    %dim_0 = tensor.dim %0, %c1 : tensor<?x?x?xf32>
    %dim_1 = tensor.dim %0, %c2 : tensor<?x?x?xf32>
    %2 = "disc_shape.tie_shape"(%0, %dim, %dim_0, %dim_1) {kDiscSymbolicDimAttr = [@S0, @S1, @S2]} : (tensor<?x?x?xf32>, index, index, index) -> tensor<?x?x?xf32>
    %3 = mhlo.abs %2 {disc.device = "gpu"} : tensor<?x?x?xf32>
    %4 = "disc_shape.tie_shape"(%3, %dim, %dim_0, %dim_1) {kDiscSymbolicDimAttr = [@S0, @S1, @S2]} : (tensor<?x?x?xf32>, index, index, index) -> tensor<?x?x?xf32>
    %5 = arith.index_cast %dim : index to i32
    %6 = arith.index_cast %dim_0 : index to i32
    %7 = arith.index_cast %dim_1 : index to i32
    %8 = arith.muli %6, %7 : i32
    %from_elements = tensor.from_elements %5, %8 {disc.shape_op = true} : tensor<2xi32>
    %9 = arith.index_cast %8 : i32 to index
    %10 = mhlo.dynamic_reshape %4, %from_elements {disc.device = "gpu"} : (tensor<?x?x?xf32>, tensor<2xi32>) -> tensor<?x?xf32>
    %11 = "disc_shape.tie_shape"(%10, %dim, %9) {kDiscSymbolicDimAttr = [@S0, @S3]} : (tensor<?x?xf32>, index, index) -> tensor<?x?xf32>
    %12 = mhlo.reduce(%11 init: %1) applies mhlo.maximum across dimensions = [0] : (tensor<?x?xf32>, tensor<f32>) -> tensor<?xf32>
    %13 = "disc_shape.tie_shape"(%12, %9) {kDiscSymbolicDimAttr = [@S3]} : (tensor<?xf32>, index) -> tensor<?xf32>
    %from_elements_2 = tensor.from_elements %6, %7 {disc.shape_op = true} : tensor<2xi32>
    %14 = mhlo.dynamic_reshape %13, %from_elements_2 {disc.device = "gpu"} : (tensor<?xf32>, tensor<2xi32>) -> tensor<?x?xf32>
    %15 = "disc_shape.tie_shape"(%14, %dim_0, %dim_1) {kDiscSymbolicDimAttr = [@S1, @S2]} : (tensor<?x?xf32>, index, index) -> tensor<?x?xf32>
    %16 = bufferization.to_memref %15 : memref<?x?xf32>
    return %16 : memref<?x?xf32>
  }
  "disc_shape.SymbolicDim"() {knownNegativeOne = false, knownNonNegative = true, knownNonSizeOne = false, knownNonSizeZero = false, sym_name = "S0", value = -9223372036854775808 : i64} : () -> ()
  "disc_shape.SymbolicDim"() {knownNegativeOne = false, knownNonNegative = true, knownNonSizeOne = false, knownNonSizeZero = false, sym_name = "S1", value = -9223372036854775808 : i64} : () -> ()
  "disc_shape.SymbolicDim"() {knownNegativeOne = false, knownNonNegative = true, knownNonSizeOne = false, knownNonSizeZero = false, sym_name = "S2", value = -9223372036854775808 : i64} : () -> ()
  "disc_shape.SymbolicDim"() {knownNegativeOne = false, knownNonNegative = true, knownNonSizeOne = false, knownNonSizeZero = false, sym_name = "S3", value = -9223372036854775808 : i64} : () -> ()
  func.func @shape_constraint_graph() {
    %0 = "disc_shape.dim"() {name = @S3} : () -> index
    %1 = "disc_shape.dim"() {name = @S1} : () -> index
    %2 = "disc_shape.dim"() {name = @S2} : () -> index
    "disc_shape.tie_product_equal"(%0, %1, %2) {operand_segment_sizes = array<i32: 1, 2>} : (index, index, index) -> ()
    return
  }
}


// -----// IR Dump After DiscHloLegalizeToLhloPass (disc-hlo-legalize-to-lhlo) //----- //
module {
  func.func @main(%arg0: memref<?x?x?xf32>) -> memref<?x?xf32> attributes {tf.entry_function = {input_placements = "gpu", inputs = "input0", output_placements = "gpu", outputs = "output0"}} {
    %0 = bufferization.to_tensor %arg0 : memref<?x?x?xf32>
    %1 = bufferization.to_memref %0 : memref<?x?x?xf32>
    %c0 = arith.constant 0 : index
    %c1 = arith.constant 1 : index
    %c2 = arith.constant 2 : index
    %2 = mhlo.constant {disc.device = "gpu"} dense<0xFF800000> : tensor<f32>
    %dim = tensor.dim %0, %c0 : tensor<?x?x?xf32>
    %dim_0 = tensor.dim %0, %c1 : tensor<?x?x?xf32>
    %dim_1 = tensor.dim %0, %c2 : tensor<?x?x?xf32>
    %c1_2 = arith.constant 1 : index
    %3 = arith.muli %c1_2, %dim_1 : index
    %4 = arith.muli %3, %dim_0 : index
    %5 = arith.muli %4, %dim : index
    %reinterpret_cast = memref.reinterpret_cast %1 to offset: [0], sizes: [%dim, %dim_0, %dim_1], strides: [%4, %3, 1] {kDiscSymbolicDimAttr = [@S0, @S1, @S2]} : memref<?x?x?xf32> to memref<?x?x?xf32>
    %6 = bufferization.to_tensor %reinterpret_cast : memref<?x?x?xf32>
    %7 = mhlo.abs %6 {disc.device = "gpu"} : tensor<?x?x?xf32>
    %8 = bufferization.to_memref %7 : memref<?x?x?xf32>
    %c1_3 = arith.constant 1 : index
    %9 = arith.muli %c1_3, %dim_1 : index
    %10 = arith.muli %9, %dim_0 : index
    %11 = arith.muli %10, %dim : index
    %reinterpret_cast_4 = memref.reinterpret_cast %8 to offset: [0], sizes: [%dim, %dim_0, %dim_1], strides: [%10, %9, 1] {kDiscSymbolicDimAttr = [@S0, @S1, @S2]} : memref<?x?x?xf32> to memref<?x?x?xf32>
    %12 = bufferization.to_tensor %reinterpret_cast_4 : memref<?x?x?xf32>
    %13 = arith.index_cast %dim : index to i32
    %14 = arith.index_cast %dim_0 : index to i32
    %15 = arith.index_cast %dim_1 : index to i32
    %16 = arith.muli %14, %15 : i32
    %from_elements = tensor.from_elements %13, %16 {disc.shape_op = true} : tensor<2xi32>
    %17 = arith.index_cast %16 : i32 to index
    %18 = mhlo.dynamic_reshape %12, %from_elements {disc.device = "gpu"} : (tensor<?x?x?xf32>, tensor<2xi32>) -> tensor<?x?xf32>
    %19 = bufferization.to_memref %18 : memref<?x?xf32>
    %c1_5 = arith.constant 1 : index
    %20 = arith.muli %c1_5, %17 : index
    %21 = arith.muli %20, %dim : index
    %reinterpret_cast_6 = memref.reinterpret_cast %19 to offset: [0], sizes: [%dim, %17], strides: [%20, 1] {kDiscSymbolicDimAttr = [@S0, @S3]} : memref<?x?xf32> to memref<?x?xf32>
    %22 = bufferization.to_tensor %reinterpret_cast_6 : memref<?x?xf32>
    %23 = mhlo.reduce(%22 init: %2) applies mhlo.maximum across dimensions = [0] : (tensor<?x?xf32>, tensor<f32>) -> tensor<?xf32>
    %24 = bufferization.to_memref %23 : memref<?xf32>
    %c1_7 = arith.constant 1 : index
    %25 = arith.muli %c1_7, %17 : index
    %reinterpret_cast_8 = memref.reinterpret_cast %24 to offset: [0], sizes: [%17], strides: [1] {kDiscSymbolicDimAttr = [@S3]} : memref<?xf32> to memref<?xf32>
    %26 = bufferization.to_tensor %reinterpret_cast_8 : memref<?xf32>
    %from_elements_9 = tensor.from_elements %14, %15 {disc.shape_op = true} : tensor<2xi32>
    %27 = mhlo.dynamic_reshape %26, %from_elements_9 {disc.device = "gpu"} : (tensor<?xf32>, tensor<2xi32>) -> tensor<?x?xf32>
    %28 = bufferization.to_memref %27 : memref<?x?xf32>
    %c1_10 = arith.constant 1 : index
    %29 = arith.muli %c1_10, %dim_1 : index
    %30 = arith.muli %29, %dim_0 : index
    %reinterpret_cast_11 = memref.reinterpret_cast %28 to offset: [0], sizes: [%dim_0, %dim_1], strides: [%29, 1] {kDiscSymbolicDimAttr = [@S1, @S2]} : memref<?x?xf32> to memref<?x?xf32>
    %31 = bufferization.to_tensor %reinterpret_cast_11 : memref<?x?xf32>
    %32 = bufferization.to_memref %31 : memref<?x?xf32>
    return %32 : memref<?x?xf32>
  }
  "disc_shape.SymbolicDim"() {knownNegativeOne = false, knownNonNegative = true, knownNonSizeOne = false, knownNonSizeZero = false, sym_name = "S0", value = -9223372036854775808 : i64} : () -> ()
  "disc_shape.SymbolicDim"() {knownNegativeOne = false, knownNonNegative = true, knownNonSizeOne = false, knownNonSizeZero = false, sym_name = "S1", value = -9223372036854775808 : i64} : () -> ()
  "disc_shape.SymbolicDim"() {knownNegativeOne = false, knownNonNegative = true, knownNonSizeOne = false, knownNonSizeZero = false, sym_name = "S2", value = -9223372036854775808 : i64} : () -> ()
  "disc_shape.SymbolicDim"() {knownNegativeOne = false, knownNonNegative = true, knownNonSizeOne = false, knownNonSizeZero = false, sym_name = "S3", value = -9223372036854775808 : i64} : () -> ()
  func.func @shape_constraint_graph() {
    %0 = "disc_shape.dim"() {name = @S3} : () -> index
    %1 = "disc_shape.dim"() {name = @S1} : () -> index
    %2 = "disc_shape.dim"() {name = @S2} : () -> index
    "disc_shape.tie_product_equal"(%0, %1, %2) {operand_segment_sizes = array<i32: 1, 2>} : (index, index, index) -> ()
    return
  }
}


// -----// IR Dump After HloLegalizeToLhloPass (hlo-legalize-to-lhlo) //----- //
module {
  func.func @main(%arg0: memref<?x?x?xf32>) -> memref<?x?xf32> attributes {tf.entry_function = {input_placements = "gpu", inputs = "input0", output_placements = "gpu", outputs = "output0"}} {
    %0 = bufferization.to_tensor %arg0 : memref<?x?x?xf32>
    %c0 = arith.constant 0 : index
    %c1 = arith.constant 1 : index
    %c2 = arith.constant 2 : index
    %alloc = memref.alloc() : memref<f32>
    "lmhlo.constant"(%alloc) {disc.device = "gpu", value = dense<0xFF800000> : tensor<f32>} : (memref<f32>) -> ()
    %dim = tensor.dim %0, %c0 : tensor<?x?x?xf32>
    %dim_0 = tensor.dim %0, %c1 : tensor<?x?x?xf32>
    %dim_1 = tensor.dim %0, %c2 : tensor<?x?x?xf32>
    %c1_2 = arith.constant 1 : index
    %1 = arith.muli %c1_2, %dim_1 : index
    %2 = arith.muli %1, %dim_0 : index
    %3 = arith.muli %2, %dim : index
    %reinterpret_cast = memref.reinterpret_cast %arg0 to offset: [0], sizes: [%dim, %dim_0, %dim_1], strides: [%2, %1, 1] {kDiscSymbolicDimAttr = [@S0, @S1, @S2]} : memref<?x?x?xf32> to memref<?x?x?xf32>
    %4 = bufferization.to_tensor %reinterpret_cast : memref<?x?x?xf32>
    %5 = bufferization.to_memref %4 : memref<?x?x?xf32>
    %6 = bufferization.to_tensor %5 : memref<?x?x?xf32>
    %7 = shape.shape_of %6 : tensor<?x?x?xf32> -> tensor<3xindex>
    %c0_3 = arith.constant 0 : index
    %extracted = tensor.extract %7[%c0_3] : tensor<3xindex>
    %c1_4 = arith.constant 1 : index
    %extracted_5 = tensor.extract %7[%c1_4] : tensor<3xindex>
    %c2_6 = arith.constant 2 : index
    %extracted_7 = tensor.extract %7[%c2_6] : tensor<3xindex>
    %alloc_8 = memref.alloc(%extracted, %extracted_5, %extracted_7) : memref<?x?x?xf32>
    "lmhlo.abs"(%5, %alloc_8) {disc.device = "gpu"} : (memref<?x?x?xf32>, memref<?x?x?xf32>) -> ()
    %8 = bufferization.to_tensor %alloc_8 : memref<?x?x?xf32>
    %9 = bufferization.to_memref %8 : memref<?x?x?xf32>
    %c1_9 = arith.constant 1 : index
    %10 = arith.muli %c1_9, %dim_1 : index
    %11 = arith.muli %10, %dim_0 : index
    %12 = arith.muli %11, %dim : index
    %reinterpret_cast_10 = memref.reinterpret_cast %9 to offset: [0], sizes: [%dim, %dim_0, %dim_1], strides: [%11, %10, 1] {kDiscSymbolicDimAttr = [@S0, @S1, @S2]} : memref<?x?x?xf32> to memref<?x?x?xf32>
    %13 = bufferization.to_tensor %reinterpret_cast_10 : memref<?x?x?xf32>
    %14 = bufferization.to_memref %13 : memref<?x?x?xf32>
    %15 = arith.index_cast %dim : index to i32
    %16 = arith.index_cast %dim_0 : index to i32
    %17 = arith.index_cast %dim_1 : index to i32
    %18 = arith.muli %16, %17 : i32
    %from_elements = tensor.from_elements %15, %18 {disc.shape_op = true} : tensor<2xi32>
    %19 = bufferization.to_memref %from_elements : memref<2xi32>
    %20 = arith.index_cast %18 : i32 to index
    %21 = bufferization.to_tensor %14 : memref<?x?x?xf32>
    %22 = bufferization.to_tensor %19 : memref<2xi32>
    %23 = arith.index_cast %22 : tensor<2xi32> to tensor<2xindex>
    %c0_11 = arith.constant 0 : index
    %extracted_12 = tensor.extract %23[%c0_11] : tensor<2xindex>
    %c1_13 = arith.constant 1 : index
    %extracted_14 = tensor.extract %23[%c1_13] : tensor<2xindex>
    %alloc_15 = memref.alloc(%extracted_12, %extracted_14) : memref<?x?xf32>
    "lmhlo.dynamic_reshape"(%14, %19, %alloc_15) {disc.device = "gpu"} : (memref<?x?x?xf32>, memref<2xi32>, memref<?x?xf32>) -> ()
    %24 = bufferization.to_tensor %alloc_15 : memref<?x?xf32>
    %25 = bufferization.to_memref %24 : memref<?x?xf32>
    %c1_16 = arith.constant 1 : index
    %26 = arith.muli %c1_16, %20 : index
    %27 = arith.muli %26, %dim : index
    %reinterpret_cast_17 = memref.reinterpret_cast %25 to offset: [0], sizes: [%dim, %20], strides: [%26, 1] {kDiscSymbolicDimAttr = [@S0, @S3]} : memref<?x?xf32> to memref<?x?xf32>
    %28 = bufferization.to_tensor %reinterpret_cast_17 : memref<?x?xf32>
    %29 = bufferization.to_memref %28 : memref<?x?xf32>
    %30 = bufferization.to_tensor %29 : memref<?x?xf32>
    %31 = bufferization.to_tensor %alloc : memref<f32>
    %c1_18 = arith.constant 1 : index
    %dim_19 = tensor.dim %30, %c1_18 : tensor<?x?xf32>
    %from_elements_20 = tensor.from_elements %dim_19 : tensor<1xindex>
    %c0_21 = arith.constant 0 : index
    %extracted_22 = tensor.extract %from_elements_20[%c0_21] : tensor<1xindex>
    %alloc_23 = memref.alloc(%extracted_22) : memref<?xf32>
    "lmhlo.reduce"(%29, %alloc, %alloc_23) ({
    ^bb0(%arg1: memref<f32>, %arg2: memref<f32>, %arg3: memref<f32>):
      %alloc_34 = memref.alloc() : memref<f32>
      "lmhlo.maximum"(%arg1, %arg2, %alloc_34) {disc.device = "gpu"} : (memref<f32>, memref<f32>, memref<f32>) -> ()
      "lmhlo.copy"(%alloc_34, %arg3) : (memref<f32>, memref<f32>) -> ()
      "lmhlo.terminator"() : () -> ()
    }) {dimensions = dense<0> : tensor<1xi64>, disc.device = "gpu"} : (memref<?x?xf32>, memref<f32>, memref<?xf32>) -> ()
    %32 = bufferization.to_tensor %alloc_23 : memref<?xf32>
    %33 = bufferization.to_memref %32 : memref<?xf32>
    %c1_24 = arith.constant 1 : index
    %34 = arith.muli %c1_24, %20 : index
    %reinterpret_cast_25 = memref.reinterpret_cast %33 to offset: [0], sizes: [%20], strides: [1] {kDiscSymbolicDimAttr = [@S3]} : memref<?xf32> to memref<?xf32>
    %35 = bufferization.to_tensor %reinterpret_cast_25 : memref<?xf32>
    %36 = bufferization.to_memref %35 : memref<?xf32>
    %from_elements_26 = tensor.from_elements %16, %17 {disc.shape_op = true} : tensor<2xi32>
    %37 = bufferization.to_memref %from_elements_26 : memref<2xi32>
    %38 = bufferization.to_tensor %36 : memref<?xf32>
    %39 = bufferization.to_tensor %37 : memref<2xi32>
    %40 = arith.index_cast %39 : tensor<2xi32> to tensor<2xindex>
    %c0_27 = arith.constant 0 : index
    %extracted_28 = tensor.extract %40[%c0_27] : tensor<2xindex>
    %c1_29 = arith.constant 1 : index
    %extracted_30 = tensor.extract %40[%c1_29] : tensor<2xindex>
    %alloc_31 = memref.alloc(%extracted_28, %extracted_30) : memref<?x?xf32>
    "lmhlo.dynamic_reshape"(%36, %37, %alloc_31) {disc.device = "gpu"} : (memref<?xf32>, memref<2xi32>, memref<?x?xf32>) -> ()
    %41 = bufferization.to_tensor %alloc_31 : memref<?x?xf32>
    %42 = bufferization.to_memref %41 : memref<?x?xf32>
    %c1_32 = arith.constant 1 : index
    %43 = arith.muli %c1_32, %dim_1 : index
    %44 = arith.muli %43, %dim_0 : index
    %reinterpret_cast_33 = memref.reinterpret_cast %42 to offset: [0], sizes: [%dim_0, %dim_1], strides: [%43, 1] {kDiscSymbolicDimAttr = [@S1, @S2]} : memref<?x?xf32> to memref<?x?xf32>
    return %reinterpret_cast_33 : memref<?x?xf32>
  }
  "disc_shape.SymbolicDim"() {knownNegativeOne = false, knownNonNegative = true, knownNonSizeOne = false, knownNonSizeZero = false, sym_name = "S0", value = -9223372036854775808 : i64} : () -> ()
  "disc_shape.SymbolicDim"() {knownNegativeOne = false, knownNonNegative = true, knownNonSizeOne = false, knownNonSizeZero = false, sym_name = "S1", value = -9223372036854775808 : i64} : () -> ()
  "disc_shape.SymbolicDim"() {knownNegativeOne = false, knownNonNegative = true, knownNonSizeOne = false, knownNonSizeZero = false, sym_name = "S2", value = -9223372036854775808 : i64} : () -> ()
  "disc_shape.SymbolicDim"() {knownNegativeOne = false, knownNonNegative = true, knownNonSizeOne = false, knownNonSizeZero = false, sym_name = "S3", value = -9223372036854775808 : i64} : () -> ()
  func.func @shape_constraint_graph() {
    %0 = "disc_shape.dim"() {name = @S3} : () -> index
    %1 = "disc_shape.dim"() {name = @S1} : () -> index
    %2 = "disc_shape.dim"() {name = @S2} : () -> index
    "disc_shape.tie_product_equal"(%0, %1, %2) {operand_segment_sizes = array<i32: 1, 2>} : (index, index, index) -> ()
    return
  }
}


// -----// IR Dump After Canonicalizer (canonicalize) //----- //
func.func @main(%arg0: memref<?x?x?xf32>) -> memref<?x?xf32> attributes {tf.entry_function = {input_placements = "gpu", inputs = "input0", output_placements = "gpu", outputs = "output0"}} {
  %c2 = arith.constant 2 : index
  %c1 = arith.constant 1 : index
  %c0 = arith.constant 0 : index
  %alloc = memref.alloc() : memref<f32>
  "lmhlo.constant"(%alloc) {disc.device = "gpu", value = dense<0xFF800000> : tensor<f32>} : (memref<f32>) -> ()
  %dim = memref.dim %arg0, %c0 : memref<?x?x?xf32>
  %dim_0 = memref.dim %arg0, %c1 : memref<?x?x?xf32>
  %dim_1 = memref.dim %arg0, %c2 : memref<?x?x?xf32>
  %0 = arith.muli %dim_1, %dim_0 : index
  %reinterpret_cast = memref.reinterpret_cast %arg0 to offset: [0], sizes: [%dim, %dim_0, %dim_1], strides: [%0, %dim_1, 1] {kDiscSymbolicDimAttr = [@S0, @S1, @S2]} : memref<?x?x?xf32> to memref<?x?x?xf32>
  %alloc_2 = memref.alloc(%dim, %dim_0, %dim_1) : memref<?x?x?xf32>
  "lmhlo.abs"(%reinterpret_cast, %alloc_2) {disc.device = "gpu"} : (memref<?x?x?xf32>, memref<?x?x?xf32>) -> ()
  %1 = arith.muli %dim_1, %dim_0 : index
  %reinterpret_cast_3 = memref.reinterpret_cast %alloc_2 to offset: [0], sizes: [%dim, %dim_0, %dim_1], strides: [%1, %dim_1, 1] {kDiscSymbolicDimAttr = [@S0, @S1, @S2]} : memref<?x?x?xf32> to memref<?x?x?xf32>
  %2 = arith.index_cast %dim : index to i32
  %3 = arith.index_cast %dim_0 : index to i32
  %4 = arith.index_cast %dim_1 : index to i32
  %5 = arith.muli %3, %4 : i32
  %from_elements = tensor.from_elements %2, %5 {disc.shape_op = true} : tensor<2xi32>
  %6 = bufferization.to_memref %from_elements : memref<2xi32>
  %7 = arith.index_cast %5 : i32 to index
  %8 = bufferization.to_tensor %6 : memref<2xi32>
  %extracted = tensor.extract %8[%c0] : tensor<2xi32>
  %9 = arith.index_cast %extracted : i32 to index
  %extracted_4 = tensor.extract %8[%c1] : tensor<2xi32>
  %10 = arith.index_cast %extracted_4 : i32 to index
  %alloc_5 = memref.alloc(%9, %10) : memref<?x?xf32>
  "lmhlo.dynamic_reshape"(%reinterpret_cast_3, %6, %alloc_5) {disc.device = "gpu"} : (memref<?x?x?xf32>, memref<2xi32>, memref<?x?xf32>) -> ()
  %reinterpret_cast_6 = memref.reinterpret_cast %alloc_5 to offset: [0], sizes: [%dim, %7], strides: [%7, 1] {kDiscSymbolicDimAttr = [@S0, @S3]} : memref<?x?xf32> to memref<?x?xf32>
  %alloc_7 = memref.alloc(%7) : memref<?xf32>
  "lmhlo.reduce"(%reinterpret_cast_6, %alloc, %alloc_7) ({
  ^bb0(%arg1: memref<f32>, %arg2: memref<f32>, %arg3: memref<f32>):
    "lmhlo.maximum"(%arg1, %arg2, %arg3) {disc.device = "gpu"} : (memref<f32>, memref<f32>, memref<f32>) -> ()
    "lmhlo.terminator"() : () -> ()
  }) {dimensions = dense<0> : tensor<1xi64>, disc.device = "gpu"} : (memref<?x?xf32>, memref<f32>, memref<?xf32>) -> ()
  %reinterpret_cast_8 = memref.reinterpret_cast %alloc_7 to offset: [0], sizes: [%7], strides: [1] {kDiscSymbolicDimAttr = [@S3]} : memref<?xf32> to memref<?xf32>
  %from_elements_9 = tensor.from_elements %3, %4 {disc.shape_op = true} : tensor<2xi32>
  %11 = bufferization.to_memref %from_elements_9 : memref<2xi32>
  %alloc_10 = memref.alloc(%dim_0, %dim_1) : memref<?x?xf32>
  "lmhlo.dynamic_reshape"(%reinterpret_cast_8, %11, %alloc_10) {disc.device = "gpu"} : (memref<?xf32>, memref<2xi32>, memref<?x?xf32>) -> ()
  %reinterpret_cast_11 = memref.reinterpret_cast %alloc_10 to offset: [0], sizes: [%dim_0, %dim_1], strides: [%dim_1, 1] {kDiscSymbolicDimAttr = [@S1, @S2]} : memref<?x?xf32> to memref<?x?xf32>
  return %reinterpret_cast_11 : memref<?x?xf32>
}

// -----// IR Dump After CSE (cse) //----- //
func.func @main(%arg0: memref<?x?x?xf32>) -> memref<?x?xf32> attributes {tf.entry_function = {input_placements = "gpu", inputs = "input0", output_placements = "gpu", outputs = "output0"}} {
  %c2 = arith.constant 2 : index
  %c1 = arith.constant 1 : index
  %c0 = arith.constant 0 : index
  %alloc = memref.alloc() : memref<f32>
  "lmhlo.constant"(%alloc) {disc.device = "gpu", value = dense<0xFF800000> : tensor<f32>} : (memref<f32>) -> ()
  %dim = memref.dim %arg0, %c0 : memref<?x?x?xf32>
  %dim_0 = memref.dim %arg0, %c1 : memref<?x?x?xf32>
  %dim_1 = memref.dim %arg0, %c2 : memref<?x?x?xf32>
  %0 = arith.muli %dim_1, %dim_0 : index
  %reinterpret_cast = memref.reinterpret_cast %arg0 to offset: [0], sizes: [%dim, %dim_0, %dim_1], strides: [%0, %dim_1, 1] {kDiscSymbolicDimAttr = [@S0, @S1, @S2]} : memref<?x?x?xf32> to memref<?x?x?xf32>
  %alloc_2 = memref.alloc(%dim, %dim_0, %dim_1) : memref<?x?x?xf32>
  "lmhlo.abs"(%reinterpret_cast, %alloc_2) {disc.device = "gpu"} : (memref<?x?x?xf32>, memref<?x?x?xf32>) -> ()
  %reinterpret_cast_3 = memref.reinterpret_cast %alloc_2 to offset: [0], sizes: [%dim, %dim_0, %dim_1], strides: [%0, %dim_1, 1] {kDiscSymbolicDimAttr = [@S0, @S1, @S2]} : memref<?x?x?xf32> to memref<?x?x?xf32>
  %1 = arith.index_cast %dim : index to i32
  %2 = arith.index_cast %dim_0 : index to i32
  %3 = arith.index_cast %dim_1 : index to i32
  %4 = arith.muli %2, %3 : i32
  %from_elements = tensor.from_elements %1, %4 {disc.shape_op = true} : tensor<2xi32>
  %5 = bufferization.to_memref %from_elements : memref<2xi32>
  %6 = arith.index_cast %4 : i32 to index
  %7 = bufferization.to_tensor %5 : memref<2xi32>
  %extracted = tensor.extract %7[%c0] : tensor<2xi32>
  %8 = arith.index_cast %extracted : i32 to index
  %extracted_4 = tensor.extract %7[%c1] : tensor<2xi32>
  %9 = arith.index_cast %extracted_4 : i32 to index
  %alloc_5 = memref.alloc(%8, %9) : memref<?x?xf32>
  "lmhlo.dynamic_reshape"(%reinterpret_cast_3, %5, %alloc_5) {disc.device = "gpu"} : (memref<?x?x?xf32>, memref<2xi32>, memref<?x?xf32>) -> ()
  %reinterpret_cast_6 = memref.reinterpret_cast %alloc_5 to offset: [0], sizes: [%dim, %6], strides: [%6, 1] {kDiscSymbolicDimAttr = [@S0, @S3]} : memref<?x?xf32> to memref<?x?xf32>
  %alloc_7 = memref.alloc(%6) : memref<?xf32>
  "lmhlo.reduce"(%reinterpret_cast_6, %alloc, %alloc_7) ({
  ^bb0(%arg1: memref<f32>, %arg2: memref<f32>, %arg3: memref<f32>):
    "lmhlo.maximum"(%arg1, %arg2, %arg3) {disc.device = "gpu"} : (memref<f32>, memref<f32>, memref<f32>) -> ()
    "lmhlo.terminator"() : () -> ()
  }) {dimensions = dense<0> : tensor<1xi64>, disc.device = "gpu"} : (memref<?x?xf32>, memref<f32>, memref<?xf32>) -> ()
  %reinterpret_cast_8 = memref.reinterpret_cast %alloc_7 to offset: [0], sizes: [%6], strides: [1] {kDiscSymbolicDimAttr = [@S3]} : memref<?xf32> to memref<?xf32>
  %from_elements_9 = tensor.from_elements %2, %3 {disc.shape_op = true} : tensor<2xi32>
  %10 = bufferization.to_memref %from_elements_9 : memref<2xi32>
  %alloc_10 = memref.alloc(%dim_0, %dim_1) : memref<?x?xf32>
  "lmhlo.dynamic_reshape"(%reinterpret_cast_8, %10, %alloc_10) {disc.device = "gpu"} : (memref<?xf32>, memref<2xi32>, memref<?x?xf32>) -> ()
  %reinterpret_cast_11 = memref.reinterpret_cast %alloc_10 to offset: [0], sizes: [%dim_0, %dim_1], strides: [%dim_1, 1] {kDiscSymbolicDimAttr = [@S1, @S2]} : memref<?x?xf32> to memref<?x?xf32>
  return %reinterpret_cast_11 : memref<?x?xf32>
}

// -----// IR Dump After LegalizeToTensorOpPass (lhlo-legalize-to-tensor-op) //----- //
func.func @main(%arg0: memref<?x?x?xf32>) -> memref<?x?xf32> attributes {tf.entry_function = {input_placements = "gpu", inputs = "input0", output_placements = "gpu", outputs = "output0"}} {
  %c2 = arith.constant 2 : index
  %c1 = arith.constant 1 : index
  %c0 = arith.constant 0 : index
  %alloc = memref.alloc() : memref<f32>
  "lmhlo.constant"(%alloc) {disc.device = "gpu", value = dense<0xFF800000> : tensor<f32>} : (memref<f32>) -> ()
  %dim = memref.dim %arg0, %c0 : memref<?x?x?xf32>
  %dim_0 = memref.dim %arg0, %c1 : memref<?x?x?xf32>
  %dim_1 = memref.dim %arg0, %c2 : memref<?x?x?xf32>
  %0 = arith.muli %dim_1, %dim_0 : index
  %reinterpret_cast = memref.reinterpret_cast %arg0 to offset: [0], sizes: [%dim, %dim_0, %dim_1], strides: [%0, %dim_1, 1] {kDiscSymbolicDimAttr = [@S0, @S1, @S2]} : memref<?x?x?xf32> to memref<?x?x?xf32>
  %alloc_2 = memref.alloc(%dim, %dim_0, %dim_1) : memref<?x?x?xf32>
  "lmhlo.abs"(%reinterpret_cast, %alloc_2) {disc.device = "gpu"} : (memref<?x?x?xf32>, memref<?x?x?xf32>) -> ()
  %reinterpret_cast_3 = memref.reinterpret_cast %alloc_2 to offset: [0], sizes: [%dim, %dim_0, %dim_1], strides: [%0, %dim_1, 1] {kDiscSymbolicDimAttr = [@S0, @S1, @S2]} : memref<?x?x?xf32> to memref<?x?x?xf32>
  %1 = arith.index_cast %dim : index to i32
  %2 = arith.index_cast %dim_0 : index to i32
  %3 = arith.index_cast %dim_1 : index to i32
  %4 = arith.muli %2, %3 : i32
  %from_elements = tensor.from_elements %1, %4 {disc.shape_op = true} : tensor<2xi32>
  %5 = bufferization.to_memref %from_elements : memref<2xi32>
  %6 = arith.index_cast %4 : i32 to index
  %7 = memref.load %5[%c0] : memref<2xi32>
  %8 = arith.index_cast %7 : i32 to index
  %9 = memref.load %5[%c1] : memref<2xi32>
  %10 = arith.index_cast %9 : i32 to index
  %alloc_4 = memref.alloc(%8, %10) : memref<?x?xf32>
  "lmhlo.dynamic_reshape"(%reinterpret_cast_3, %5, %alloc_4) {disc.device = "gpu"} : (memref<?x?x?xf32>, memref<2xi32>, memref<?x?xf32>) -> ()
  %reinterpret_cast_5 = memref.reinterpret_cast %alloc_4 to offset: [0], sizes: [%dim, %6], strides: [%6, 1] {kDiscSymbolicDimAttr = [@S0, @S3]} : memref<?x?xf32> to memref<?x?xf32>
  %alloc_6 = memref.alloc(%6) : memref<?xf32>
  "lmhlo.reduce"(%reinterpret_cast_5, %alloc, %alloc_6) ({
  ^bb0(%arg1: memref<f32>, %arg2: memref<f32>, %arg3: memref<f32>):
    "lmhlo.maximum"(%arg1, %arg2, %arg3) {disc.device = "gpu"} : (memref<f32>, memref<f32>, memref<f32>) -> ()
    "lmhlo.terminator"() : () -> ()
  }) {dimensions = dense<0> : tensor<1xi64>, disc.device = "gpu"} : (memref<?x?xf32>, memref<f32>, memref<?xf32>) -> ()
  %reinterpret_cast_7 = memref.reinterpret_cast %alloc_6 to offset: [0], sizes: [%6], strides: [1] {kDiscSymbolicDimAttr = [@S3]} : memref<?xf32> to memref<?xf32>
  %from_elements_8 = tensor.from_elements %2, %3 {disc.shape_op = true} : tensor<2xi32>
  %11 = bufferization.to_memref %from_elements_8 : memref<2xi32>
  %alloc_9 = memref.alloc(%dim_0, %dim_1) : memref<?x?xf32>
  "lmhlo.dynamic_reshape"(%reinterpret_cast_7, %11, %alloc_9) {disc.device = "gpu"} : (memref<?xf32>, memref<2xi32>, memref<?x?xf32>) -> ()
  %reinterpret_cast_10 = memref.reinterpret_cast %alloc_9 to offset: [0], sizes: [%dim_0, %dim_1], strides: [%dim_1, 1] {kDiscSymbolicDimAttr = [@S1, @S2]} : memref<?x?xf32> to memref<?x?xf32>
  return %reinterpret_cast_10 : memref<?x?xf32>
}

// -----// IR Dump After Canonicalizer (canonicalize) //----- //
func.func @main(%arg0: memref<?x?x?xf32>) -> memref<?x?xf32> attributes {tf.entry_function = {input_placements = "gpu", inputs = "input0", output_placements = "gpu", outputs = "output0"}} {
  %c2 = arith.constant 2 : index
  %c1 = arith.constant 1 : index
  %c0 = arith.constant 0 : index
  %alloc = memref.alloc() : memref<f32>
  "lmhlo.constant"(%alloc) {disc.device = "gpu", value = dense<0xFF800000> : tensor<f32>} : (memref<f32>) -> ()
  %dim = memref.dim %arg0, %c0 : memref<?x?x?xf32>
  %dim_0 = memref.dim %arg0, %c1 : memref<?x?x?xf32>
  %dim_1 = memref.dim %arg0, %c2 : memref<?x?x?xf32>
  %0 = arith.muli %dim_1, %dim_0 : index
  %reinterpret_cast = memref.reinterpret_cast %arg0 to offset: [0], sizes: [%dim, %dim_0, %dim_1], strides: [%0, %dim_1, 1] {kDiscSymbolicDimAttr = [@S0, @S1, @S2]} : memref<?x?x?xf32> to memref<?x?x?xf32>
  %alloc_2 = memref.alloc(%dim, %dim_0, %dim_1) : memref<?x?x?xf32>
  "lmhlo.abs"(%reinterpret_cast, %alloc_2) {disc.device = "gpu"} : (memref<?x?x?xf32>, memref<?x?x?xf32>) -> ()
  %reinterpret_cast_3 = memref.reinterpret_cast %alloc_2 to offset: [0], sizes: [%dim, %dim_0, %dim_1], strides: [%0, %dim_1, 1] {kDiscSymbolicDimAttr = [@S0, @S1, @S2]} : memref<?x?x?xf32> to memref<?x?x?xf32>
  %1 = arith.index_cast %dim : index to i32
  %2 = arith.index_cast %dim_0 : index to i32
  %3 = arith.index_cast %dim_1 : index to i32
  %4 = arith.muli %2, %3 : i32
  %from_elements = tensor.from_elements %1, %4 {disc.shape_op = true} : tensor<2xi32>
  %5 = bufferization.to_memref %from_elements : memref<2xi32>
  %6 = arith.index_cast %4 : i32 to index
  %7 = arith.index_cast %4 : i32 to index
  %alloc_4 = memref.alloc(%dim, %7) : memref<?x?xf32>
  "lmhlo.dynamic_reshape"(%reinterpret_cast_3, %5, %alloc_4) {disc.device = "gpu"} : (memref<?x?x?xf32>, memref<2xi32>, memref<?x?xf32>) -> ()
  %reinterpret_cast_5 = memref.reinterpret_cast %alloc_4 to offset: [0], sizes: [%dim, %6], strides: [%6, 1] {kDiscSymbolicDimAttr = [@S0, @S3]} : memref<?x?xf32> to memref<?x?xf32>
  %alloc_6 = memref.alloc(%6) : memref<?xf32>
  "lmhlo.reduce"(%reinterpret_cast_5, %alloc, %alloc_6) ({
  ^bb0(%arg1: memref<f32>, %arg2: memref<f32>, %arg3: memref<f32>):
    "lmhlo.maximum"(%arg1, %arg2, %arg3) {disc.device = "gpu"} : (memref<f32>, memref<f32>, memref<f32>) -> ()
    "lmhlo.terminator"() : () -> ()
  }) {dimensions = dense<0> : tensor<1xi64>, disc.device = "gpu"} : (memref<?x?xf32>, memref<f32>, memref<?xf32>) -> ()
  %reinterpret_cast_7 = memref.reinterpret_cast %alloc_6 to offset: [0], sizes: [%6], strides: [1] {kDiscSymbolicDimAttr = [@S3]} : memref<?xf32> to memref<?xf32>
  %from_elements_8 = tensor.from_elements %2, %3 {disc.shape_op = true} : tensor<2xi32>
  %8 = bufferization.to_memref %from_elements_8 : memref<2xi32>
  %alloc_9 = memref.alloc(%dim_0, %dim_1) : memref<?x?xf32>
  "lmhlo.dynamic_reshape"(%reinterpret_cast_7, %8, %alloc_9) {disc.device = "gpu"} : (memref<?xf32>, memref<2xi32>, memref<?x?xf32>) -> ()
  %reinterpret_cast_10 = memref.reinterpret_cast %alloc_9 to offset: [0], sizes: [%dim_0, %dim_1], strides: [%dim_1, 1] {kDiscSymbolicDimAttr = [@S1, @S2]} : memref<?x?xf32> to memref<?x?xf32>
  return %reinterpret_cast_10 : memref<?x?xf32>
}

// -----// IR Dump After TensorBufferize (tensor-bufferize) //----- //
func.func @main(%arg0: memref<?x?x?xf32>) -> memref<?x?xf32> attributes {tf.entry_function = {input_placements = "gpu", inputs = "input0", output_placements = "gpu", outputs = "output0"}} {
  %c2 = arith.constant 2 : index
  %c1 = arith.constant 1 : index
  %c0 = arith.constant 0 : index
  %alloc = memref.alloc() : memref<f32>
  "lmhlo.constant"(%alloc) {disc.device = "gpu", value = dense<0xFF800000> : tensor<f32>} : (memref<f32>) -> ()
  %dim = memref.dim %arg0, %c0 : memref<?x?x?xf32>
  %dim_0 = memref.dim %arg0, %c1 : memref<?x?x?xf32>
  %dim_1 = memref.dim %arg0, %c2 : memref<?x?x?xf32>
  %0 = arith.muli %dim_1, %dim_0 : index
  %reinterpret_cast = memref.reinterpret_cast %arg0 to offset: [0], sizes: [%dim, %dim_0, %dim_1], strides: [%0, %dim_1, 1] {kDiscSymbolicDimAttr = [@S0, @S1, @S2]} : memref<?x?x?xf32> to memref<?x?x?xf32>
  %alloc_2 = memref.alloc(%dim, %dim_0, %dim_1) : memref<?x?x?xf32>
  "lmhlo.abs"(%reinterpret_cast, %alloc_2) {disc.device = "gpu"} : (memref<?x?x?xf32>, memref<?x?x?xf32>) -> ()
  %reinterpret_cast_3 = memref.reinterpret_cast %alloc_2 to offset: [0], sizes: [%dim, %dim_0, %dim_1], strides: [%0, %dim_1, 1] {kDiscSymbolicDimAttr = [@S0, @S1, @S2]} : memref<?x?x?xf32> to memref<?x?x?xf32>
  %1 = arith.index_cast %dim : index to i32
  %2 = arith.index_cast %dim_0 : index to i32
  %3 = arith.index_cast %dim_1 : index to i32
  %4 = arith.muli %2, %3 : i32
  %alloc_4 = memref.alloc() {alignment = 64 : i64} : memref<2xi32>
  %c0_5 = arith.constant 0 : index
  %c1_6 = arith.constant 1 : index
  memref.store %1, %alloc_4[%c0_5] : memref<2xi32>
  memref.store %4, %alloc_4[%c1_6] : memref<2xi32>
  %5 = arith.index_cast %4 : i32 to index
  %6 = arith.index_cast %4 : i32 to index
  %alloc_7 = memref.alloc(%dim, %6) : memref<?x?xf32>
  "lmhlo.dynamic_reshape"(%reinterpret_cast_3, %alloc_4, %alloc_7) {disc.device = "gpu"} : (memref<?x?x?xf32>, memref<2xi32>, memref<?x?xf32>) -> ()
  %reinterpret_cast_8 = memref.reinterpret_cast %alloc_7 to offset: [0], sizes: [%dim, %5], strides: [%5, 1] {kDiscSymbolicDimAttr = [@S0, @S3]} : memref<?x?xf32> to memref<?x?xf32>
  %alloc_9 = memref.alloc(%5) : memref<?xf32>
  "lmhlo.reduce"(%reinterpret_cast_8, %alloc, %alloc_9) ({
  ^bb0(%arg1: memref<f32>, %arg2: memref<f32>, %arg3: memref<f32>):
    "lmhlo.maximum"(%arg1, %arg2, %arg3) {disc.device = "gpu"} : (memref<f32>, memref<f32>, memref<f32>) -> ()
    "lmhlo.terminator"() : () -> ()
  }) {dimensions = dense<0> : tensor<1xi64>, disc.device = "gpu"} : (memref<?x?xf32>, memref<f32>, memref<?xf32>) -> ()
  %reinterpret_cast_10 = memref.reinterpret_cast %alloc_9 to offset: [0], sizes: [%5], strides: [1] {kDiscSymbolicDimAttr = [@S3]} : memref<?xf32> to memref<?xf32>
  %alloc_11 = memref.alloc() {alignment = 64 : i64} : memref<2xi32>
  %c0_12 = arith.constant 0 : index
  %c1_13 = arith.constant 1 : index
  memref.store %2, %alloc_11[%c0_12] : memref<2xi32>
  memref.store %3, %alloc_11[%c1_13] : memref<2xi32>
  %alloc_14 = memref.alloc(%dim_0, %dim_1) : memref<?x?xf32>
  "lmhlo.dynamic_reshape"(%reinterpret_cast_10, %alloc_11, %alloc_14) {disc.device = "gpu"} : (memref<?xf32>, memref<2xi32>, memref<?x?xf32>) -> ()
  %reinterpret_cast_15 = memref.reinterpret_cast %alloc_14 to offset: [0], sizes: [%dim_0, %dim_1], strides: [%dim_1, 1] {kDiscSymbolicDimAttr = [@S1, @S2]} : memref<?x?xf32> to memref<?x?xf32>
  return %reinterpret_cast_15 : memref<?x?xf32>
}

// -----// IR Dump After Canonicalizer (canonicalize) //----- //
func.func @main(%arg0: memref<?x?x?xf32>) -> memref<?x?xf32> attributes {tf.entry_function = {input_placements = "gpu", inputs = "input0", output_placements = "gpu", outputs = "output0"}} {
  %c2 = arith.constant 2 : index
  %c1 = arith.constant 1 : index
  %c0 = arith.constant 0 : index
  %alloc = memref.alloc() : memref<f32>
  "lmhlo.constant"(%alloc) {disc.device = "gpu", value = dense<0xFF800000> : tensor<f32>} : (memref<f32>) -> ()
  %dim = memref.dim %arg0, %c0 : memref<?x?x?xf32>
  %dim_0 = memref.dim %arg0, %c1 : memref<?x?x?xf32>
  %dim_1 = memref.dim %arg0, %c2 : memref<?x?x?xf32>
  %0 = arith.muli %dim_1, %dim_0 : index
  %reinterpret_cast = memref.reinterpret_cast %arg0 to offset: [0], sizes: [%dim, %dim_0, %dim_1], strides: [%0, %dim_1, 1] {kDiscSymbolicDimAttr = [@S0, @S1, @S2]} : memref<?x?x?xf32> to memref<?x?x?xf32>
  %alloc_2 = memref.alloc(%dim, %dim_0, %dim_1) : memref<?x?x?xf32>
  "lmhlo.abs"(%reinterpret_cast, %alloc_2) {disc.device = "gpu"} : (memref<?x?x?xf32>, memref<?x?x?xf32>) -> ()
  %reinterpret_cast_3 = memref.reinterpret_cast %alloc_2 to offset: [0], sizes: [%dim, %dim_0, %dim_1], strides: [%0, %dim_1, 1] {kDiscSymbolicDimAttr = [@S0, @S1, @S2]} : memref<?x?x?xf32> to memref<?x?x?xf32>
  %1 = arith.index_cast %dim : index to i32
  %2 = arith.index_cast %dim_0 : index to i32
  %3 = arith.index_cast %dim_1 : index to i32
  %4 = arith.muli %2, %3 : i32
  %alloc_4 = memref.alloc() {alignment = 64 : i64} : memref<2xi32>
  memref.store %1, %alloc_4[%c0] : memref<2xi32>
  memref.store %4, %alloc_4[%c1] : memref<2xi32>
  %5 = arith.index_cast %4 : i32 to index
  %6 = arith.index_cast %4 : i32 to index
  %alloc_5 = memref.alloc(%dim, %6) : memref<?x?xf32>
  "lmhlo.dynamic_reshape"(%reinterpret_cast_3, %alloc_4, %alloc_5) {disc.device = "gpu"} : (memref<?x?x?xf32>, memref<2xi32>, memref<?x?xf32>) -> ()
  %reinterpret_cast_6 = memref.reinterpret_cast %alloc_5 to offset: [0], sizes: [%dim, %5], strides: [%5, 1] {kDiscSymbolicDimAttr = [@S0, @S3]} : memref<?x?xf32> to memref<?x?xf32>
  %alloc_7 = memref.alloc(%5) : memref<?xf32>
  "lmhlo.reduce"(%reinterpret_cast_6, %alloc, %alloc_7) ({
  ^bb0(%arg1: memref<f32>, %arg2: memref<f32>, %arg3: memref<f32>):
    "lmhlo.maximum"(%arg1, %arg2, %arg3) {disc.device = "gpu"} : (memref<f32>, memref<f32>, memref<f32>) -> ()
    "lmhlo.terminator"() : () -> ()
  }) {dimensions = dense<0> : tensor<1xi64>, disc.device = "gpu"} : (memref<?x?xf32>, memref<f32>, memref<?xf32>) -> ()
  %reinterpret_cast_8 = memref.reinterpret_cast %alloc_7 to offset: [0], sizes: [%5], strides: [1] {kDiscSymbolicDimAttr = [@S3]} : memref<?xf32> to memref<?xf32>
  %alloc_9 = memref.alloc() {alignment = 64 : i64} : memref<2xi32>
  memref.store %2, %alloc_9[%c0] : memref<2xi32>
  memref.store %3, %alloc_9[%c1] : memref<2xi32>
  %alloc_10 = memref.alloc(%dim_0, %dim_1) : memref<?x?xf32>
  "lmhlo.dynamic_reshape"(%reinterpret_cast_8, %alloc_9, %alloc_10) {disc.device = "gpu"} : (memref<?xf32>, memref<2xi32>, memref<?x?xf32>) -> ()
  %reinterpret_cast_11 = memref.reinterpret_cast %alloc_10 to offset: [0], sizes: [%dim_0, %dim_1], strides: [%dim_1, 1] {kDiscSymbolicDimAttr = [@S1, @S2]} : memref<?x?xf32> to memref<?x?xf32>
  return %reinterpret_cast_11 : memref<?x?xf32>
}

// -----// IR Dump After CSE (cse) //----- //
func.func @main(%arg0: memref<?x?x?xf32>) -> memref<?x?xf32> attributes {tf.entry_function = {input_placements = "gpu", inputs = "input0", output_placements = "gpu", outputs = "output0"}} {
  %c2 = arith.constant 2 : index
  %c1 = arith.constant 1 : index
  %c0 = arith.constant 0 : index
  %alloc = memref.alloc() : memref<f32>
  "lmhlo.constant"(%alloc) {disc.device = "gpu", value = dense<0xFF800000> : tensor<f32>} : (memref<f32>) -> ()
  %dim = memref.dim %arg0, %c0 : memref<?x?x?xf32>
  %dim_0 = memref.dim %arg0, %c1 : memref<?x?x?xf32>
  %dim_1 = memref.dim %arg0, %c2 : memref<?x?x?xf32>
  %0 = arith.muli %dim_1, %dim_0 : index
  %reinterpret_cast = memref.reinterpret_cast %arg0 to offset: [0], sizes: [%dim, %dim_0, %dim_1], strides: [%0, %dim_1, 1] {kDiscSymbolicDimAttr = [@S0, @S1, @S2]} : memref<?x?x?xf32> to memref<?x?x?xf32>
  %alloc_2 = memref.alloc(%dim, %dim_0, %dim_1) : memref<?x?x?xf32>
  "lmhlo.abs"(%reinterpret_cast, %alloc_2) {disc.device = "gpu"} : (memref<?x?x?xf32>, memref<?x?x?xf32>) -> ()
  %reinterpret_cast_3 = memref.reinterpret_cast %alloc_2 to offset: [0], sizes: [%dim, %dim_0, %dim_1], strides: [%0, %dim_1, 1] {kDiscSymbolicDimAttr = [@S0, @S1, @S2]} : memref<?x?x?xf32> to memref<?x?x?xf32>
  %1 = arith.index_cast %dim : index to i32
  %2 = arith.index_cast %dim_0 : index to i32
  %3 = arith.index_cast %dim_1 : index to i32
  %4 = arith.muli %2, %3 : i32
  %alloc_4 = memref.alloc() {alignment = 64 : i64} : memref<2xi32>
  memref.store %1, %alloc_4[%c0] : memref<2xi32>
  memref.store %4, %alloc_4[%c1] : memref<2xi32>
  %5 = arith.index_cast %4 : i32 to index
  %alloc_5 = memref.alloc(%dim, %5) : memref<?x?xf32>
  "lmhlo.dynamic_reshape"(%reinterpret_cast_3, %alloc_4, %alloc_5) {disc.device = "gpu"} : (memref<?x?x?xf32>, memref<2xi32>, memref<?x?xf32>) -> ()
  %reinterpret_cast_6 = memref.reinterpret_cast %alloc_5 to offset: [0], sizes: [%dim, %5], strides: [%5, 1] {kDiscSymbolicDimAttr = [@S0, @S3]} : memref<?x?xf32> to memref<?x?xf32>
  %alloc_7 = memref.alloc(%5) : memref<?xf32>
  "lmhlo.reduce"(%reinterpret_cast_6, %alloc, %alloc_7) ({
  ^bb0(%arg1: memref<f32>, %arg2: memref<f32>, %arg3: memref<f32>):
    "lmhlo.maximum"(%arg1, %arg2, %arg3) {disc.device = "gpu"} : (memref<f32>, memref<f32>, memref<f32>) -> ()
    "lmhlo.terminator"() : () -> ()
  }) {dimensions = dense<0> : tensor<1xi64>, disc.device = "gpu"} : (memref<?x?xf32>, memref<f32>, memref<?xf32>) -> ()
  %reinterpret_cast_8 = memref.reinterpret_cast %alloc_7 to offset: [0], sizes: [%5], strides: [1] {kDiscSymbolicDimAttr = [@S3]} : memref<?xf32> to memref<?xf32>
  %alloc_9 = memref.alloc() {alignment = 64 : i64} : memref<2xi32>
  memref.store %2, %alloc_9[%c0] : memref<2xi32>
  memref.store %3, %alloc_9[%c1] : memref<2xi32>
  %alloc_10 = memref.alloc(%dim_0, %dim_1) : memref<?x?xf32>
  "lmhlo.dynamic_reshape"(%reinterpret_cast_8, %alloc_9, %alloc_10) {disc.device = "gpu"} : (memref<?xf32>, memref<2xi32>, memref<?x?xf32>) -> ()
  %reinterpret_cast_11 = memref.reinterpret_cast %alloc_10 to offset: [0], sizes: [%dim_0, %dim_1], strides: [%dim_1, 1] {kDiscSymbolicDimAttr = [@S1, @S2]} : memref<?x?xf32> to memref<?x?xf32>
  return %reinterpret_cast_11 : memref<?x?xf32>
}

// -----// IR Dump After DiscMemrefCanonicalizer (disc-memref-canonicalize) //----- //
func.func @main(%arg0: memref<?x?x?xf32>) -> memref<?x?xf32> attributes {tf.entry_function = {input_placements = "gpu", inputs = "input0", output_placements = "gpu", outputs = "output0"}} {
  %c2 = arith.constant 2 : index
  %c1 = arith.constant 1 : index
  %c0 = arith.constant 0 : index
  %alloc = memref.alloc() : memref<f32>
  "lmhlo.constant"(%alloc) {disc.device = "gpu", value = dense<0xFF800000> : tensor<f32>} : (memref<f32>) -> ()
  %dim = memref.dim %arg0, %c0 : memref<?x?x?xf32>
  %dim_0 = memref.dim %arg0, %c1 : memref<?x?x?xf32>
  %dim_1 = memref.dim %arg0, %c2 : memref<?x?x?xf32>
  %0 = arith.muli %dim_1, %dim_0 : index
  %reinterpret_cast = memref.reinterpret_cast %arg0 to offset: [0], sizes: [%dim, %dim_0, %dim_1], strides: [%0, %dim_1, 1] {kDiscSymbolicDimAttr = [@S0, @S1, @S2]} : memref<?x?x?xf32> to memref<?x?x?xf32>
  %alloc_2 = memref.alloc(%dim, %dim_0, %dim_1) {kDiscSymbolicDimAttr = [@S0, @S1, @S2]} : memref<?x?x?xf32>
  "lmhlo.abs"(%reinterpret_cast, %alloc_2) {disc.device = "gpu"} : (memref<?x?x?xf32>, memref<?x?x?xf32>) -> ()
  %1 = arith.index_cast %dim : index to i32
  %2 = arith.index_cast %dim_0 : index to i32
  %3 = arith.index_cast %dim_1 : index to i32
  %4 = arith.muli %2, %3 : i32
  %alloc_3 = memref.alloc() {alignment = 64 : i64} : memref<2xi32>
  memref.store %1, %alloc_3[%c0] : memref<2xi32>
  memref.store %4, %alloc_3[%c1] : memref<2xi32>
  %5 = arith.index_cast %4 : i32 to index
  %alloc_4 = memref.alloc(%dim, %5) {kDiscSymbolicDimAttr = [@S0, @S3]} : memref<?x?xf32>
  "lmhlo.dynamic_reshape"(%alloc_2, %alloc_3, %alloc_4) {disc.device = "gpu"} : (memref<?x?x?xf32>, memref<2xi32>, memref<?x?xf32>) -> ()
  %alloc_5 = memref.alloc(%5) {kDiscSymbolicDimAttr = [@S3]} : memref<?xf32>
  "lmhlo.reduce"(%alloc_4, %alloc, %alloc_5) ({
  ^bb0(%arg1: memref<f32>, %arg2: memref<f32>, %arg3: memref<f32>):
    "lmhlo.maximum"(%arg1, %arg2, %arg3) {disc.device = "gpu"} : (memref<f32>, memref<f32>, memref<f32>) -> ()
    "lmhlo.terminator"() : () -> ()
  }) {dimensions = dense<0> : tensor<1xi64>, disc.device = "gpu"} : (memref<?x?xf32>, memref<f32>, memref<?xf32>) -> ()
  %alloc_6 = memref.alloc() {alignment = 64 : i64} : memref<2xi32>
  memref.store %2, %alloc_6[%c0] : memref<2xi32>
  memref.store %3, %alloc_6[%c1] : memref<2xi32>
  %alloc_7 = memref.alloc(%dim_0, %dim_1) {kDiscSymbolicDimAttr = [@S1, @S2]} : memref<?x?xf32>
  "lmhlo.dynamic_reshape"(%alloc_5, %alloc_6, %alloc_7) {disc.device = "gpu"} : (memref<?xf32>, memref<2xi32>, memref<?x?xf32>) -> ()
  return %alloc_7 : memref<?x?xf32>
}

// -----// IR Dump After DiscAssignMemorySpacePass (disc-assign-memory-space) //----- //
module {
  func.func @main(%arg0: memref<?x?x?xf32, "gpu">) -> memref<?x?xf32, "gpu"> attributes {tf.entry_function = {input_placements = "gpu", inputs = "input0", output_placements = "gpu", outputs = "output0"}} {
    %c2 = arith.constant 2 : index
    %c1 = arith.constant 1 : index
    %c0 = arith.constant 0 : index
    %alloc = memref.alloc() : memref<f32, "gpu">
    "lmhlo.constant"(%alloc) {disc.device = "gpu", value = dense<0xFF800000> : tensor<f32>} : (memref<f32, "gpu">) -> ()
    %dim = memref.dim %arg0, %c0 : memref<?x?x?xf32, "gpu">
    %dim_0 = memref.dim %arg0, %c1 : memref<?x?x?xf32, "gpu">
    %dim_1 = memref.dim %arg0, %c2 : memref<?x?x?xf32, "gpu">
    %0 = arith.muli %dim_1, %dim_0 : index
    %reinterpret_cast = memref.reinterpret_cast %arg0 to offset: [0], sizes: [%dim, %dim_0, %dim_1], strides: [%0, %dim_1, 1] {kDiscSymbolicDimAttr = [@S0, @S1, @S2]} : memref<?x?x?xf32, "gpu"> to memref<?x?x?xf32, "gpu">
    %alloc_2 = memref.alloc(%dim, %dim_0, %dim_1) {kDiscSymbolicDimAttr = [@S0, @S1, @S2]} : memref<?x?x?xf32, "gpu">
    "lmhlo.abs"(%reinterpret_cast, %alloc_2) {disc.device = "gpu"} : (memref<?x?x?xf32, "gpu">, memref<?x?x?xf32, "gpu">) -> ()
    %1 = arith.index_cast %dim : index to i32
    %2 = arith.index_cast %dim_0 : index to i32
    %3 = arith.index_cast %dim_1 : index to i32
    %4 = arith.muli %2, %3 : i32
    %alloc_3 = memref.alloc() {alignment = 64 : i64} : memref<2xi32, "cpu">
    memref.store %1, %alloc_3[%c0] : memref<2xi32, "cpu">
    memref.store %4, %alloc_3[%c1] : memref<2xi32, "cpu">
    %5 = arith.index_cast %4 : i32 to index
    %alloc_4 = memref.alloc(%dim, %5) {kDiscSymbolicDimAttr = [@S0, @S3]} : memref<?x?xf32, "gpu">
    "lmhlo.dynamic_reshape"(%alloc_2, %alloc_3, %alloc_4) {disc.device = "gpu"} : (memref<?x?x?xf32, "gpu">, memref<2xi32, "cpu">, memref<?x?xf32, "gpu">) -> ()
    %alloc_5 = memref.alloc(%5) {kDiscSymbolicDimAttr = [@S3]} : memref<?xf32, "gpu">
    "lmhlo.reduce"(%alloc_4, %alloc, %alloc_5) ({
    ^bb0(%arg1: memref<f32>, %arg2: memref<f32>, %arg3: memref<f32>):
      "lmhlo.maximum"(%arg1, %arg2, %arg3) {disc.device = "gpu"} : (memref<f32>, memref<f32>, memref<f32>) -> ()
      "lmhlo.terminator"() : () -> ()
    }) {dimensions = dense<0> : tensor<1xi64>, disc.device = "gpu"} : (memref<?x?xf32, "gpu">, memref<f32, "gpu">, memref<?xf32, "gpu">) -> ()
    %alloc_6 = memref.alloc() {alignment = 64 : i64} : memref<2xi32, "cpu">
    memref.store %2, %alloc_6[%c0] : memref<2xi32, "cpu">
    memref.store %3, %alloc_6[%c1] : memref<2xi32, "cpu">
    %alloc_7 = memref.alloc(%dim_0, %dim_1) {kDiscSymbolicDimAttr = [@S1, @S2]} : memref<?x?xf32, "gpu">
    "lmhlo.dynamic_reshape"(%alloc_5, %alloc_6, %alloc_7) {disc.device = "gpu"} : (memref<?xf32, "gpu">, memref<2xi32, "cpu">, memref<?x?xf32, "gpu">) -> ()
    return %alloc_7 : memref<?x?xf32, "gpu">
  }
  "disc_shape.SymbolicDim"() {knownNegativeOne = false, knownNonNegative = true, knownNonSizeOne = false, knownNonSizeZero = false, sym_name = "S0", value = -9223372036854775808 : i64} : () -> ()
  "disc_shape.SymbolicDim"() {knownNegativeOne = false, knownNonNegative = true, knownNonSizeOne = false, knownNonSizeZero = false, sym_name = "S1", value = -9223372036854775808 : i64} : () -> ()
  "disc_shape.SymbolicDim"() {knownNegativeOne = false, knownNonNegative = true, knownNonSizeOne = false, knownNonSizeZero = false, sym_name = "S2", value = -9223372036854775808 : i64} : () -> ()
  "disc_shape.SymbolicDim"() {knownNegativeOne = false, knownNonNegative = true, knownNonSizeOne = false, knownNonSizeZero = false, sym_name = "S3", value = -9223372036854775808 : i64} : () -> ()
  func.func @shape_constraint_graph() {
    %0 = "disc_shape.dim"() {name = @S3} : () -> index
    %1 = "disc_shape.dim"() {name = @S1} : () -> index
    %2 = "disc_shape.dim"() {name = @S2} : () -> index
    "disc_shape.tie_product_equal"(%0, %1, %2) {operand_segment_sizes = array<i32: 1, 2>} : (index, index, index) -> ()
    return
  }
}


// -----// IR Dump After PromoteBuffersToStack (promote-buffers-to-stack) //----- //
func.func @main(%arg0: memref<?x?x?xf32, "gpu">) -> memref<?x?xf32, "gpu"> attributes {tf.entry_function = {input_placements = "gpu", inputs = "input0", output_placements = "gpu", outputs = "output0"}} {
  %c2 = arith.constant 2 : index
  %c1 = arith.constant 1 : index
  %c0 = arith.constant 0 : index
  %alloc = memref.alloc() : memref<f32, "gpu">
  "lmhlo.constant"(%alloc) {disc.device = "gpu", value = dense<0xFF800000> : tensor<f32>} : (memref<f32, "gpu">) -> ()
  %dim = memref.dim %arg0, %c0 : memref<?x?x?xf32, "gpu">
  %dim_0 = memref.dim %arg0, %c1 : memref<?x?x?xf32, "gpu">
  %dim_1 = memref.dim %arg0, %c2 : memref<?x?x?xf32, "gpu">
  %0 = arith.muli %dim_1, %dim_0 : index
  %reinterpret_cast = memref.reinterpret_cast %arg0 to offset: [0], sizes: [%dim, %dim_0, %dim_1], strides: [%0, %dim_1, 1] {kDiscSymbolicDimAttr = [@S0, @S1, @S2]} : memref<?x?x?xf32, "gpu"> to memref<?x?x?xf32, "gpu">
  %alloc_2 = memref.alloc(%dim, %dim_0, %dim_1) {kDiscSymbolicDimAttr = [@S0, @S1, @S2]} : memref<?x?x?xf32, "gpu">
  "lmhlo.abs"(%reinterpret_cast, %alloc_2) {disc.device = "gpu"} : (memref<?x?x?xf32, "gpu">, memref<?x?x?xf32, "gpu">) -> ()
  %1 = arith.index_cast %dim : index to i32
  %2 = arith.index_cast %dim_0 : index to i32
  %3 = arith.index_cast %dim_1 : index to i32
  %4 = arith.muli %2, %3 : i32
  %alloca = memref.alloca() : memref<2xi32, "cpu">
  memref.store %1, %alloca[%c0] : memref<2xi32, "cpu">
  memref.store %4, %alloca[%c1] : memref<2xi32, "cpu">
  %5 = arith.index_cast %4 : i32 to index
  %alloc_3 = memref.alloc(%dim, %5) {kDiscSymbolicDimAttr = [@S0, @S3]} : memref<?x?xf32, "gpu">
  "lmhlo.dynamic_reshape"(%alloc_2, %alloca, %alloc_3) {disc.device = "gpu"} : (memref<?x?x?xf32, "gpu">, memref<2xi32, "cpu">, memref<?x?xf32, "gpu">) -> ()
  %alloc_4 = memref.alloc(%5) {kDiscSymbolicDimAttr = [@S3]} : memref<?xf32, "gpu">
  "lmhlo.reduce"(%alloc_3, %alloc, %alloc_4) ({
  ^bb0(%arg1: memref<f32>, %arg2: memref<f32>, %arg3: memref<f32>):
    "lmhlo.maximum"(%arg1, %arg2, %arg3) {disc.device = "gpu"} : (memref<f32>, memref<f32>, memref<f32>) -> ()
    "lmhlo.terminator"() : () -> ()
  }) {dimensions = dense<0> : tensor<1xi64>, disc.device = "gpu"} : (memref<?x?xf32, "gpu">, memref<f32, "gpu">, memref<?xf32, "gpu">) -> ()
  %alloca_5 = memref.alloca() : memref<2xi32, "cpu">
  memref.store %2, %alloca_5[%c0] : memref<2xi32, "cpu">
  memref.store %3, %alloca_5[%c1] : memref<2xi32, "cpu">
  %alloc_6 = memref.alloc(%dim_0, %dim_1) {kDiscSymbolicDimAttr = [@S1, @S2]} : memref<?x?xf32, "gpu">
  "lmhlo.dynamic_reshape"(%alloc_4, %alloca_5, %alloc_6) {disc.device = "gpu"} : (memref<?xf32, "gpu">, memref<2xi32, "cpu">, memref<?x?xf32, "gpu">) -> ()
  return %alloc_6 : memref<?x?xf32, "gpu">
}

SymbolicDimMgr::save walkRankedTensorValue takes: 1 us
SymbolicDimMgr::save update attributes takes: 6 us
SymbolicDimMgr::updateProductEqualityMap simplifySymbolicDimProductPair takes: 7 us
productSet.size() = 2
SymbolicDimMgr::updateProductEqualityMap propagate graph takes: 4 us
SymbolicDimMgr::updateProductEqualityMap remove multiply takes: 13 us
SymbolicDimMgr::updateProductEqualityMap build toRemove  takes: 0 us
SymbolicDimMgr::updateProductEqualityMap apply toRemove  takes: 0 us
SymbolicDimMgr::save updateProductEqualityMap takes: 39 us
SymbolicDimMgr::save updateFunctionType takes: 2 us
SymbolicDimMgr::save collect symbolicDim ops takes: 4 us
SymbolicDimMgr::save remove symbolicDim ops takes: 0 us
SymbolicDimMgr::save remove unused production takes: 0 us
SymbolicDimMgr::save remove unused production #2 takes: 0 us
SymbolicDimMgr::save canonicalize the name takes: 3 us
SymbolicDimMgr::save replace the name takes: 4 us
SymbolicDimMgr::save updateFunctionType takes: 0 us
// -----// IR Dump After DiscFusionPass (disc-fusion) //----- //
func.func @main(%arg0: memref<?x?x?xf32, "gpu">) -> memref<?x?xf32, "gpu"> attributes {tf.entry_function = {input_placements = "gpu", inputs = "input0", output_placements = "gpu", outputs = "output0"}} {
  %c2 = arith.constant 2 : index
  %dim = memref.dim %arg0, %c2 : memref<?x?x?xf32, "gpu">
  %c1 = arith.constant 1 : index
  %dim_0 = memref.dim %arg0, %c1 : memref<?x?x?xf32, "gpu">
  %c0 = arith.constant 0 : index
  %dim_1 = memref.dim %arg0, %c0 : memref<?x?x?xf32, "gpu">
  %alloc = memref.alloc() : memref<f32, "gpu">
  %0 = arith.muli %dim, %dim_0 : index
  %reinterpret_cast = memref.reinterpret_cast %arg0 to offset: [0], sizes: [%dim_1, %dim_0, %dim], strides: [%0, %dim, 1] {kDiscSymbolicDimAttr = [@S0, @S1, @S2]} : memref<?x?x?xf32, "gpu"> to memref<?x?x?xf32, "gpu">
  %alloc_2 = memref.alloc(%dim_1, %dim_0, %dim) {kDiscSymbolicDimAttr = [@S0, @S1, @S2]} : memref<?x?x?xf32, "gpu">
  %1 = arith.index_cast %dim_1 : index to i32
  %2 = arith.index_cast %dim_0 : index to i32
  %3 = arith.index_cast %dim : index to i32
  %4 = arith.muli %2, %3 : i32
  %alloca = memref.alloca() : memref<2xi32, "cpu">
  memref.store %1, %alloca[%c0] : memref<2xi32, "cpu">
  memref.store %4, %alloca[%c1] : memref<2xi32, "cpu">
  %5 = arith.index_cast %4 : i32 to index
  %alloc_3 = memref.alloc(%dim_1, %5) {kDiscSymbolicDimAttr = [@S0, @S3]} : memref<?x?xf32, "gpu">
  %alloc_4 = memref.alloc(%5) {kDiscSymbolicDimAttr = [@S3]} : memref<?xf32, "gpu">
  "lmhlo.fusion"() ({
    "lmhlo.constant"(%alloc) {disc.device = "gpu", value = dense<0xFF800000> : tensor<f32>} : (memref<f32, "gpu">) -> ()
    "lmhlo.abs"(%reinterpret_cast, %alloc_2) {disc.device = "gpu"} : (memref<?x?x?xf32, "gpu">, memref<?x?x?xf32, "gpu">) -> ()
    "lmhlo.dynamic_reshape"(%alloc_2, %alloca, %alloc_3) {disc.device = "gpu"} : (memref<?x?x?xf32, "gpu">, memref<2xi32, "cpu">, memref<?x?xf32, "gpu">) -> ()
    "lmhlo.reduce"(%alloc_3, %alloc, %alloc_4) ({
    ^bb0(%arg1: memref<f32>, %arg2: memref<f32>, %arg3: memref<f32>):
      "lmhlo.maximum"(%arg1, %arg2, %arg3) {disc.device = "gpu"} : (memref<f32>, memref<f32>, memref<f32>) -> ()
      "lmhlo.terminator"() : () -> ()
    }) {dimensions = dense<0> : tensor<1xi64>, disc.device = "gpu"} : (memref<?x?xf32, "gpu">, memref<f32, "gpu">, memref<?xf32, "gpu">) -> ()
    "lmhlo.terminator"() : () -> ()
  }) {disc.device = "gpu", disc.fusion.name = "main_kColReduction_reduce__4_1_0", disc.fusion_type = "kColReduction"} : () -> ()
  %alloca_5 = memref.alloca() : memref<2xi32, "cpu">
  memref.store %2, %alloca_5[%c0] : memref<2xi32, "cpu">
  memref.store %3, %alloca_5[%c1] : memref<2xi32, "cpu">
  %alloc_6 = memref.alloc(%dim_0, %dim) {kDiscSymbolicDimAttr = [@S1, @S2]} : memref<?x?xf32, "gpu">
  "lmhlo.dynamic_reshape"(%alloc_4, %alloca_5, %alloc_6) {disc.device = "gpu"} : (memref<?xf32, "gpu">, memref<2xi32, "cpu">, memref<?x?xf32, "gpu">) -> ()
  return %alloc_6 : memref<?x?xf32, "gpu">
}

SymbolicDimMgr::save walkRankedTensorValue takes: 1 us
SymbolicDimMgr::save update attributes takes: 5 us
SymbolicDimMgr::updateProductEqualityMap simplifySymbolicDimProductPair takes: 6 us
productSet.size() = 2
SymbolicDimMgr::updateProductEqualityMap propagate graph takes: 4 us
SymbolicDimMgr::updateProductEqualityMap remove multiply takes: 12 us
SymbolicDimMgr::updateProductEqualityMap build toRemove  takes: 0 us
SymbolicDimMgr::updateProductEqualityMap apply toRemove  takes: 0 us
SymbolicDimMgr::save updateProductEqualityMap takes: 37 us
SymbolicDimMgr::save updateFunctionType takes: 1 us
SymbolicDimMgr::save collect symbolicDim ops takes: 5 us
SymbolicDimMgr::save remove symbolicDim ops takes: 0 us
SymbolicDimMgr::save remove unused production takes: 0 us
SymbolicDimMgr::save remove unused production #2 takes: 0 us
SymbolicDimMgr::save canonicalize the name takes: 3 us
SymbolicDimMgr::save replace the name takes: 5 us
SymbolicDimMgr::save updateFunctionType takes: 0 us
// -----// IR Dump After DiscSpecializeFusionWithSpeculationPass (disc-specialize-fusion-with-speculation) //----- //
func.func @main(%arg0: memref<?x?x?xf32, "gpu">) -> memref<?x?xf32, "gpu"> attributes {tf.entry_function = {input_placements = "gpu", inputs = "input0", output_placements = "gpu", outputs = "output0"}} {
  %c2 = arith.constant 2 : index
  %dim = memref.dim %arg0, %c2 : memref<?x?x?xf32, "gpu">
  %c1 = arith.constant 1 : index
  %dim_0 = memref.dim %arg0, %c1 : memref<?x?x?xf32, "gpu">
  %c0 = arith.constant 0 : index
  %dim_1 = memref.dim %arg0, %c0 : memref<?x?x?xf32, "gpu">
  %alloc = memref.alloc() : memref<f32, "gpu">
  %0 = arith.muli %dim, %dim_0 : index
  %reinterpret_cast = memref.reinterpret_cast %arg0 to offset: [0], sizes: [%dim_1, %dim_0, %dim], strides: [%0, %dim, 1] {kDiscSymbolicDimAttr = [@S0, @S1, @S2]} : memref<?x?x?xf32, "gpu"> to memref<?x?x?xf32, "gpu">
  %alloc_2 = memref.alloc(%dim_1, %dim_0, %dim) {kDiscSymbolicDimAttr = [@S0, @S1, @S2]} : memref<?x?x?xf32, "gpu">
  %1 = arith.index_cast %dim_1 : index to i32
  %2 = arith.index_cast %dim_0 : index to i32
  %3 = arith.index_cast %dim : index to i32
  %4 = arith.muli %2, %3 : i32
  %alloca = memref.alloca() : memref<2xi32, "cpu">
  memref.store %1, %alloca[%c0] : memref<2xi32, "cpu">
  memref.store %4, %alloca[%c1] : memref<2xi32, "cpu">
  %5 = arith.index_cast %4 : i32 to index
  %alloc_3 = memref.alloc(%dim_1, %5) {kDiscSymbolicDimAttr = [@S0, @S3]} : memref<?x?xf32, "gpu">
  %alloc_4 = memref.alloc(%5) {kDiscSymbolicDimAttr = [@S3]} : memref<?xf32, "gpu">
  %c0_5 = arith.constant 0 : index
  %dim_6 = memref.dim %alloc_3, %c0_5 : memref<?x?xf32, "gpu">
  %c1_7 = arith.constant 1 : index
  %dim_8 = memref.dim %alloc_3, %c1_7 : memref<?x?xf32, "gpu">
  %6 = arith.muli %dim_6, %dim_8 : index
  %c256 = arith.constant 256 : index
  %7 = arith.ceildivsi %6, %c256 : index
  %c108 = arith.constant 108 : index
  %8 = arith.cmpi sgt, %7, %c108 : index
  scf.if %8 {
    "lmhlo.fusion"() ({
      "lmhlo.constant"(%alloc) {disc.device = "gpu", value = dense<0xFF800000> : tensor<f32>} : (memref<f32, "gpu">) -> ()
      "lmhlo.abs"(%reinterpret_cast, %alloc_2) {disc.device = "gpu"} : (memref<?x?x?xf32, "gpu">, memref<?x?x?xf32, "gpu">) -> ()
      "lmhlo.dynamic_reshape"(%alloc_2, %alloca, %alloc_3) {disc.device = "gpu"} : (memref<?x?x?xf32, "gpu">, memref<2xi32, "cpu">, memref<?x?xf32, "gpu">) -> ()
      "lmhlo.reduce"(%alloc_3, %alloc, %alloc_4) ({
      ^bb0(%arg1: memref<f32>, %arg2: memref<f32>, %arg3: memref<f32>):
        "lmhlo.maximum"(%arg1, %arg2, %arg3) {disc.device = "gpu"} : (memref<f32>, memref<f32>, memref<f32>) -> ()
        "lmhlo.terminator"() : () -> ()
      }) {dimensions = dense<0> : tensor<1xi64>, disc.device = "gpu"} : (memref<?x?xf32, "gpu">, memref<f32, "gpu">, memref<?xf32, "gpu">) -> ()
      "lmhlo.terminator"() : () -> ()
    }) {disc.device = "gpu", disc.fusion.name = "main_kColReduction_reduce__4_1_0", disc.fusion.tag = "8w32h", disc.fusion_type = "kColReduction", disc_col_reduction_schedule_hint = 1 : i32, disc_thread_per_block_hint = 256 : i32} : () -> ()
  } else {
    "lmhlo.fusion"() ({
      "lmhlo.constant"(%alloc) {disc.device = "gpu", value = dense<0xFF800000> : tensor<f32>} : (memref<f32, "gpu">) -> ()
      "lmhlo.abs"(%reinterpret_cast, %alloc_2) {disc.device = "gpu"} : (memref<?x?x?xf32, "gpu">, memref<?x?x?xf32, "gpu">) -> ()
      "lmhlo.dynamic_reshape"(%alloc_2, %alloca, %alloc_3) {disc.device = "gpu"} : (memref<?x?x?xf32, "gpu">, memref<2xi32, "cpu">, memref<?x?xf32, "gpu">) -> ()
      "lmhlo.reduce"(%alloc_3, %alloc, %alloc_4) ({
      ^bb0(%arg1: memref<f32>, %arg2: memref<f32>, %arg3: memref<f32>):
        "lmhlo.maximum"(%arg1, %arg2, %arg3) {disc.device = "gpu"} : (memref<f32>, memref<f32>, memref<f32>) -> ()
        "lmhlo.terminator"() : () -> ()
      }) {dimensions = dense<0> : tensor<1xi64>, disc.device = "gpu"} : (memref<?x?xf32, "gpu">, memref<f32, "gpu">, memref<?xf32, "gpu">) -> ()
      "lmhlo.terminator"() : () -> ()
    }) {disc.device = "gpu", disc.fusion.name = "main_kColReduction_reduce__4_1_0", disc.fusion.tag = "8w16h", disc.fusion_type = "kColReduction", disc_col_reduction_schedule_hint = 2 : i32, disc_thread_per_block_hint = 128 : i32} : () -> ()
  }
  %alloca_9 = memref.alloca() : memref<2xi32, "cpu">
  memref.store %2, %alloca_9[%c0] : memref<2xi32, "cpu">
  memref.store %3, %alloca_9[%c1] : memref<2xi32, "cpu">
  %alloc_10 = memref.alloc(%dim_0, %dim) {kDiscSymbolicDimAttr = [@S1, @S2]} : memref<?x?xf32, "gpu">
  "lmhlo.dynamic_reshape"(%alloc_4, %alloca_9, %alloc_10) {disc.device = "gpu"} : (memref<?xf32, "gpu">, memref<2xi32, "cpu">, memref<?x?xf32, "gpu">) -> ()
  return %alloc_10 : memref<?x?xf32, "gpu">
}

// -----// IR Dump After Canonicalizer (canonicalize) //----- //
func.func @main(%arg0: memref<?x?x?xf32, "gpu">) -> memref<?x?xf32, "gpu"> attributes {tf.entry_function = {input_placements = "gpu", inputs = "input0", output_placements = "gpu", outputs = "output0"}} {
  %c108 = arith.constant 108 : index
  %c256 = arith.constant 256 : index
  %c0 = arith.constant 0 : index
  %c1 = arith.constant 1 : index
  %c2 = arith.constant 2 : index
  %dim = memref.dim %arg0, %c2 : memref<?x?x?xf32, "gpu">
  %dim_0 = memref.dim %arg0, %c1 : memref<?x?x?xf32, "gpu">
  %dim_1 = memref.dim %arg0, %c0 : memref<?x?x?xf32, "gpu">
  %alloc = memref.alloc() : memref<f32, "gpu">
  %0 = arith.muli %dim, %dim_0 : index
  %reinterpret_cast = memref.reinterpret_cast %arg0 to offset: [0], sizes: [%dim_1, %dim_0, %dim], strides: [%0, %dim, 1] {kDiscSymbolicDimAttr = [@S0, @S1, @S2]} : memref<?x?x?xf32, "gpu"> to memref<?x?x?xf32, "gpu">
  %alloc_2 = memref.alloc(%dim_1, %dim_0, %dim) {kDiscSymbolicDimAttr = [@S0, @S1, @S2]} : memref<?x?x?xf32, "gpu">
  %1 = arith.index_cast %dim_1 : index to i32
  %2 = arith.index_cast %dim_0 : index to i32
  %3 = arith.index_cast %dim : index to i32
  %4 = arith.muli %2, %3 : i32
  %alloca = memref.alloca() : memref<2xi32, "cpu">
  memref.store %1, %alloca[%c0] : memref<2xi32, "cpu">
  memref.store %4, %alloca[%c1] : memref<2xi32, "cpu">
  %5 = arith.index_cast %4 : i32 to index
  %alloc_3 = memref.alloc(%dim_1, %5) {kDiscSymbolicDimAttr = [@S0, @S3]} : memref<?x?xf32, "gpu">
  %alloc_4 = memref.alloc(%5) {kDiscSymbolicDimAttr = [@S3]} : memref<?xf32, "gpu">
  %6 = arith.muli %dim_1, %5 : index
  %7 = arith.ceildivsi %6, %c256 : index
  %8 = arith.cmpi sgt, %7, %c108 : index
  scf.if %8 {
    "lmhlo.fusion"() ({
      "lmhlo.constant"(%alloc) {disc.device = "gpu", value = dense<0xFF800000> : tensor<f32>} : (memref<f32, "gpu">) -> ()
      "lmhlo.abs"(%reinterpret_cast, %alloc_2) {disc.device = "gpu"} : (memref<?x?x?xf32, "gpu">, memref<?x?x?xf32, "gpu">) -> ()
      "lmhlo.dynamic_reshape"(%alloc_2, %alloca, %alloc_3) {disc.device = "gpu"} : (memref<?x?x?xf32, "gpu">, memref<2xi32, "cpu">, memref<?x?xf32, "gpu">) -> ()
      "lmhlo.reduce"(%alloc_3, %alloc, %alloc_4) ({
      ^bb0(%arg1: memref<f32>, %arg2: memref<f32>, %arg3: memref<f32>):
        "lmhlo.maximum"(%arg1, %arg2, %arg3) {disc.device = "gpu"} : (memref<f32>, memref<f32>, memref<f32>) -> ()
        "lmhlo.terminator"() : () -> ()
      }) {dimensions = dense<0> : tensor<1xi64>, disc.device = "gpu"} : (memref<?x?xf32, "gpu">, memref<f32, "gpu">, memref<?xf32, "gpu">) -> ()
      "lmhlo.terminator"() : () -> ()
    }) {disc.device = "gpu", disc.fusion.name = "main_kColReduction_reduce__4_1_0", disc.fusion.tag = "8w32h", disc.fusion_type = "kColReduction", disc_col_reduction_schedule_hint = 1 : i32, disc_thread_per_block_hint = 256 : i32} : () -> ()
  } else {
    "lmhlo.fusion"() ({
      "lmhlo.constant"(%alloc) {disc.device = "gpu", value = dense<0xFF800000> : tensor<f32>} : (memref<f32, "gpu">) -> ()
      "lmhlo.abs"(%reinterpret_cast, %alloc_2) {disc.device = "gpu"} : (memref<?x?x?xf32, "gpu">, memref<?x?x?xf32, "gpu">) -> ()
      "lmhlo.dynamic_reshape"(%alloc_2, %alloca, %alloc_3) {disc.device = "gpu"} : (memref<?x?x?xf32, "gpu">, memref<2xi32, "cpu">, memref<?x?xf32, "gpu">) -> ()
      "lmhlo.reduce"(%alloc_3, %alloc, %alloc_4) ({
      ^bb0(%arg1: memref<f32>, %arg2: memref<f32>, %arg3: memref<f32>):
        "lmhlo.maximum"(%arg1, %arg2, %arg3) {disc.device = "gpu"} : (memref<f32>, memref<f32>, memref<f32>) -> ()
        "lmhlo.terminator"() : () -> ()
      }) {dimensions = dense<0> : tensor<1xi64>, disc.device = "gpu"} : (memref<?x?xf32, "gpu">, memref<f32, "gpu">, memref<?xf32, "gpu">) -> ()
      "lmhlo.terminator"() : () -> ()
    }) {disc.device = "gpu", disc.fusion.name = "main_kColReduction_reduce__4_1_0", disc.fusion.tag = "8w16h", disc.fusion_type = "kColReduction", disc_col_reduction_schedule_hint = 2 : i32, disc_thread_per_block_hint = 128 : i32} : () -> ()
  }
  %alloca_5 = memref.alloca() : memref<2xi32, "cpu">
  memref.store %2, %alloca_5[%c0] : memref<2xi32, "cpu">
  memref.store %3, %alloca_5[%c1] : memref<2xi32, "cpu">
  %alloc_6 = memref.alloc(%dim_0, %dim) {kDiscSymbolicDimAttr = [@S1, @S2]} : memref<?x?xf32, "gpu">
  "lmhlo.dynamic_reshape"(%alloc_4, %alloca_5, %alloc_6) {disc.device = "gpu"} : (memref<?xf32, "gpu">, memref<2xi32, "cpu">, memref<?x?xf32, "gpu">) -> ()
  return %alloc_6 : memref<?x?xf32, "gpu">
}

// -----// IR Dump After BufferDeallocation (buffer-deallocation) //----- //
func.func @main(%arg0: memref<?x?x?xf32, "gpu">) -> memref<?x?xf32, "gpu"> attributes {tf.entry_function = {input_placements = "gpu", inputs = "input0", output_placements = "gpu", outputs = "output0"}} {
  %c108 = arith.constant 108 : index
  %c256 = arith.constant 256 : index
  %c0 = arith.constant 0 : index
  %c1 = arith.constant 1 : index
  %c2 = arith.constant 2 : index
  %dim = memref.dim %arg0, %c2 : memref<?x?x?xf32, "gpu">
  %dim_0 = memref.dim %arg0, %c1 : memref<?x?x?xf32, "gpu">
  %dim_1 = memref.dim %arg0, %c0 : memref<?x?x?xf32, "gpu">
  %alloc = memref.alloc() : memref<f32, "gpu">
  %0 = arith.muli %dim, %dim_0 : index
  %reinterpret_cast = memref.reinterpret_cast %arg0 to offset: [0], sizes: [%dim_1, %dim_0, %dim], strides: [%0, %dim, 1] {kDiscSymbolicDimAttr = [@S0, @S1, @S2]} : memref<?x?x?xf32, "gpu"> to memref<?x?x?xf32, "gpu">
  %alloc_2 = memref.alloc(%dim_1, %dim_0, %dim) {kDiscSymbolicDimAttr = [@S0, @S1, @S2]} : memref<?x?x?xf32, "gpu">
  %1 = arith.index_cast %dim_1 : index to i32
  %2 = arith.index_cast %dim_0 : index to i32
  %3 = arith.index_cast %dim : index to i32
  %4 = arith.muli %2, %3 : i32
  %alloca = memref.alloca() : memref<2xi32, "cpu">
  memref.store %1, %alloca[%c0] : memref<2xi32, "cpu">
  memref.store %4, %alloca[%c1] : memref<2xi32, "cpu">
  %5 = arith.index_cast %4 : i32 to index
  %alloc_3 = memref.alloc(%dim_1, %5) {kDiscSymbolicDimAttr = [@S0, @S3]} : memref<?x?xf32, "gpu">
  %alloc_4 = memref.alloc(%5) {kDiscSymbolicDimAttr = [@S3]} : memref<?xf32, "gpu">
  %6 = arith.muli %dim_1, %5 : index
  %7 = arith.ceildivsi %6, %c256 : index
  %8 = arith.cmpi sgt, %7, %c108 : index
  scf.if %8 {
    "lmhlo.fusion"() ({
      "lmhlo.constant"(%alloc) {disc.device = "gpu", value = dense<0xFF800000> : tensor<f32>} : (memref<f32, "gpu">) -> ()
      "lmhlo.abs"(%reinterpret_cast, %alloc_2) {disc.device = "gpu"} : (memref<?x?x?xf32, "gpu">, memref<?x?x?xf32, "gpu">) -> ()
      "lmhlo.dynamic_reshape"(%alloc_2, %alloca, %alloc_3) {disc.device = "gpu"} : (memref<?x?x?xf32, "gpu">, memref<2xi32, "cpu">, memref<?x?xf32, "gpu">) -> ()
      "lmhlo.reduce"(%alloc_3, %alloc, %alloc_4) ({
      ^bb0(%arg1: memref<f32>, %arg2: memref<f32>, %arg3: memref<f32>):
        "lmhlo.maximum"(%arg1, %arg2, %arg3) {disc.device = "gpu"} : (memref<f32>, memref<f32>, memref<f32>) -> ()
        "lmhlo.terminator"() : () -> ()
      }) {dimensions = dense<0> : tensor<1xi64>, disc.device = "gpu"} : (memref<?x?xf32, "gpu">, memref<f32, "gpu">, memref<?xf32, "gpu">) -> ()
      "lmhlo.terminator"() : () -> ()
    }) {disc.device = "gpu", disc.fusion.name = "main_kColReduction_reduce__4_1_0", disc.fusion.tag = "8w32h", disc.fusion_type = "kColReduction", disc_col_reduction_schedule_hint = 1 : i32, disc_thread_per_block_hint = 256 : i32} : () -> ()
  } else {
    "lmhlo.fusion"() ({
      "lmhlo.constant"(%alloc) {disc.device = "gpu", value = dense<0xFF800000> : tensor<f32>} : (memref<f32, "gpu">) -> ()
      "lmhlo.abs"(%reinterpret_cast, %alloc_2) {disc.device = "gpu"} : (memref<?x?x?xf32, "gpu">, memref<?x?x?xf32, "gpu">) -> ()
      "lmhlo.dynamic_reshape"(%alloc_2, %alloca, %alloc_3) {disc.device = "gpu"} : (memref<?x?x?xf32, "gpu">, memref<2xi32, "cpu">, memref<?x?xf32, "gpu">) -> ()
      "lmhlo.reduce"(%alloc_3, %alloc, %alloc_4) ({
      ^bb0(%arg1: memref<f32>, %arg2: memref<f32>, %arg3: memref<f32>):
        "lmhlo.maximum"(%arg1, %arg2, %arg3) {disc.device = "gpu"} : (memref<f32>, memref<f32>, memref<f32>) -> ()
        "lmhlo.terminator"() : () -> ()
      }) {dimensions = dense<0> : tensor<1xi64>, disc.device = "gpu"} : (memref<?x?xf32, "gpu">, memref<f32, "gpu">, memref<?xf32, "gpu">) -> ()
      "lmhlo.terminator"() : () -> ()
    }) {disc.device = "gpu", disc.fusion.name = "main_kColReduction_reduce__4_1_0", disc.fusion.tag = "8w16h", disc.fusion_type = "kColReduction", disc_col_reduction_schedule_hint = 2 : i32, disc_thread_per_block_hint = 128 : i32} : () -> ()
  }
  memref.dealloc %alloc_3 : memref<?x?xf32, "gpu">
  memref.dealloc %alloc_2 : memref<?x?x?xf32, "gpu">
  memref.dealloc %alloc : memref<f32, "gpu">
  %alloca_5 = memref.alloca() : memref<2xi32, "cpu">
  memref.store %2, %alloca_5[%c0] : memref<2xi32, "cpu">
  memref.store %3, %alloca_5[%c1] : memref<2xi32, "cpu">
  %alloc_6 = memref.alloc(%dim_0, %dim) {kDiscSymbolicDimAttr = [@S1, @S2]} : memref<?x?xf32, "gpu">
  "lmhlo.dynamic_reshape"(%alloc_4, %alloca_5, %alloc_6) {disc.device = "gpu"} : (memref<?xf32, "gpu">, memref<2xi32, "cpu">, memref<?x?xf32, "gpu">) -> ()
  memref.dealloc %alloc_4 : memref<?xf32, "gpu">
  return %alloc_6 : memref<?x?xf32, "gpu">
}

// -----// IR Dump After RalInjectExecutionContextPass (disc-ral-inject-execution-context) //----- //
module {
  func.func @main(%arg0: !disc_ral.context) attributes {tf.entry_function = {input_placements = "gpu", inputs = "input0", output_placements = "gpu", outputs = "output0"}} {
    %c0 = arith.constant 0 : index
    %0 = "disc_ral.recv_input"(%arg0, %c0) : (!disc_ral.context, index) -> memref<?x?x?xf32, "gpu">
    %c108 = arith.constant 108 : index
    %c256 = arith.constant 256 : index
    %c0_0 = arith.constant 0 : index
    %c1 = arith.constant 1 : index
    %c2 = arith.constant 2 : index
    %dim = memref.dim %0, %c2 : memref<?x?x?xf32, "gpu">
    %dim_1 = memref.dim %0, %c1 : memref<?x?x?xf32, "gpu">
    %dim_2 = memref.dim %0, %c0_0 : memref<?x?x?xf32, "gpu">
    %alloc = memref.alloc() : memref<f32, "gpu">
    %1 = arith.muli %dim, %dim_1 : index
    %reinterpret_cast = memref.reinterpret_cast %0 to offset: [0], sizes: [%dim_2, %dim_1, %dim], strides: [%1, %dim, 1] {kDiscSymbolicDimAttr = [@S0, @S1, @S2]} : memref<?x?x?xf32, "gpu"> to memref<?x?x?xf32, "gpu">
    %alloc_3 = memref.alloc(%dim_2, %dim_1, %dim) {kDiscSymbolicDimAttr = [@S0, @S1, @S2]} : memref<?x?x?xf32, "gpu">
    %2 = arith.index_cast %dim_2 : index to i32
    %3 = arith.index_cast %dim_1 : index to i32
    %4 = arith.index_cast %dim : index to i32
    %5 = arith.muli %3, %4 : i32
    %alloca = memref.alloca() : memref<2xi32, "cpu">
    memref.store %2, %alloca[%c0_0] : memref<2xi32, "cpu">
    memref.store %5, %alloca[%c1] : memref<2xi32, "cpu">
    %6 = arith.index_cast %5 : i32 to index
    %alloc_4 = memref.alloc(%dim_2, %6) {kDiscSymbolicDimAttr = [@S0, @S3]} : memref<?x?xf32, "gpu">
    %alloc_5 = memref.alloc(%6) {kDiscSymbolicDimAttr = [@S3]} : memref<?xf32, "gpu">
    %7 = arith.muli %dim_2, %6 : index
    %8 = arith.ceildivsi %7, %c256 : index
    %9 = arith.cmpi sgt, %8, %c108 : index
    scf.if %9 {
      "lmhlo.fusion"() ({
        "lmhlo.constant"(%alloc) {disc.device = "gpu", value = dense<0xFF800000> : tensor<f32>} : (memref<f32, "gpu">) -> ()
        "lmhlo.abs"(%reinterpret_cast, %alloc_3) {disc.device = "gpu"} : (memref<?x?x?xf32, "gpu">, memref<?x?x?xf32, "gpu">) -> ()
        "lmhlo.dynamic_reshape"(%alloc_3, %alloca, %alloc_4) {disc.device = "gpu"} : (memref<?x?x?xf32, "gpu">, memref<2xi32, "cpu">, memref<?x?xf32, "gpu">) -> ()
        "lmhlo.reduce"(%alloc_4, %alloc, %alloc_5) ({
        ^bb0(%arg1: memref<f32>, %arg2: memref<f32>, %arg3: memref<f32>):
          "lmhlo.maximum"(%arg1, %arg2, %arg3) {disc.device = "gpu"} : (memref<f32>, memref<f32>, memref<f32>) -> ()
          "lmhlo.terminator"() : () -> ()
        }) {dimensions = dense<0> : tensor<1xi64>, disc.device = "gpu"} : (memref<?x?xf32, "gpu">, memref<f32, "gpu">, memref<?xf32, "gpu">) -> ()
        "lmhlo.terminator"() : () -> ()
      }) {disc.device = "gpu", disc.fusion.name = "main_kColReduction_reduce__4_1_0", disc.fusion.tag = "8w32h", disc.fusion_type = "kColReduction", disc_col_reduction_schedule_hint = 1 : i32, disc_thread_per_block_hint = 256 : i32} : () -> ()
    } else {
      "lmhlo.fusion"() ({
        "lmhlo.constant"(%alloc) {disc.device = "gpu", value = dense<0xFF800000> : tensor<f32>} : (memref<f32, "gpu">) -> ()
        "lmhlo.abs"(%reinterpret_cast, %alloc_3) {disc.device = "gpu"} : (memref<?x?x?xf32, "gpu">, memref<?x?x?xf32, "gpu">) -> ()
        "lmhlo.dynamic_reshape"(%alloc_3, %alloca, %alloc_4) {disc.device = "gpu"} : (memref<?x?x?xf32, "gpu">, memref<2xi32, "cpu">, memref<?x?xf32, "gpu">) -> ()
        "lmhlo.reduce"(%alloc_4, %alloc, %alloc_5) ({
        ^bb0(%arg1: memref<f32>, %arg2: memref<f32>, %arg3: memref<f32>):
          "lmhlo.maximum"(%arg1, %arg2, %arg3) {disc.device = "gpu"} : (memref<f32>, memref<f32>, memref<f32>) -> ()
          "lmhlo.terminator"() : () -> ()
        }) {dimensions = dense<0> : tensor<1xi64>, disc.device = "gpu"} : (memref<?x?xf32, "gpu">, memref<f32, "gpu">, memref<?xf32, "gpu">) -> ()
        "lmhlo.terminator"() : () -> ()
      }) {disc.device = "gpu", disc.fusion.name = "main_kColReduction_reduce__4_1_0", disc.fusion.tag = "8w16h", disc.fusion_type = "kColReduction", disc_col_reduction_schedule_hint = 2 : i32, disc_thread_per_block_hint = 128 : i32} : () -> ()
    }
    memref.dealloc %alloc_4 : memref<?x?xf32, "gpu">
    memref.dealloc %alloc_3 : memref<?x?x?xf32, "gpu">
    memref.dealloc %alloc : memref<f32, "gpu">
    %alloca_6 = memref.alloca() : memref<2xi32, "cpu">
    memref.store %3, %alloca_6[%c0_0] : memref<2xi32, "cpu">
    memref.store %4, %alloca_6[%c1] : memref<2xi32, "cpu">
    %alloc_7 = memref.alloc(%dim_1, %dim) {kDiscSymbolicDimAttr = [@S1, @S2]} : memref<?x?xf32, "gpu">
    "lmhlo.dynamic_reshape"(%alloc_5, %alloca_6, %alloc_7) {disc.device = "gpu"} : (memref<?xf32, "gpu">, memref<2xi32, "cpu">, memref<?x?xf32, "gpu">) -> ()
    memref.dealloc %alloc_5 : memref<?xf32, "gpu">
    %c0_8 = arith.constant 0 : index
    "disc_ral.send_output"(%arg0, %c0_8, %alloc_7) : (!disc_ral.context, index, memref<?x?xf32, "gpu">) -> ()
    return
  }
  "disc_shape.SymbolicDim"() {knownNegativeOne = false, knownNonNegative = true, knownNonSizeOne = false, knownNonSizeZero = false, sym_name = "S0", value = -9223372036854775808 : i64} : () -> ()
  "disc_shape.SymbolicDim"() {knownNegativeOne = false, knownNonNegative = true, knownNonSizeOne = false, knownNonSizeZero = false, sym_name = "S1", value = -9223372036854775808 : i64} : () -> ()
  "disc_shape.SymbolicDim"() {knownNegativeOne = false, knownNonNegative = true, knownNonSizeOne = false, knownNonSizeZero = false, sym_name = "S2", value = -9223372036854775808 : i64} : () -> ()
  "disc_shape.SymbolicDim"() {knownNegativeOne = false, knownNonNegative = true, knownNonSizeOne = false, knownNonSizeZero = false, sym_name = "S3", value = -9223372036854775808 : i64} : () -> ()
  func.func @shape_constraint_graph() {
    %0 = "disc_shape.dim"() {name = @S3} : () -> index
    %1 = "disc_shape.dim"() {name = @S1} : () -> index
    %2 = "disc_shape.dim"() {name = @S2} : () -> index
    "disc_shape.tie_product_equal"(%0, %1, %2) {operand_segment_sizes = array<i32: 1, 2>} : (index, index, index) -> ()
    return
  }
}


// -----// IR Dump After DiscLowerToLibraryCallPass (disc-lower-to-library-call) //----- //
func.func @main(%arg0: !disc_ral.context) attributes {tf.entry_function = {input_placements = "gpu", inputs = "input0", output_placements = "gpu", outputs = "output0"}} {
  %0 = llvm.mlir.constant(0 : i32) : i32
  %c0 = arith.constant 0 : index
  %c1 = arith.constant 1 : index
  %c2 = arith.constant 2 : index
  %c256 = arith.constant 256 : index
  %c108 = arith.constant 108 : index
  %1 = "disc_ral.dispatch"(%arg0, %c0) {backend_config = "", call_target_name = "ral_recv_input", device = "cpu", has_side_effect = false} : (!disc_ral.context, index) -> memref<?x?x?xf32, "gpu">
  %dim = memref.dim %1, %c2 : memref<?x?x?xf32, "gpu">
  %dim_0 = memref.dim %1, %c1 : memref<?x?x?xf32, "gpu">
  %dim_1 = memref.dim %1, %c0 : memref<?x?x?xf32, "gpu">
  %alloc = memref.alloc() : memref<f32, "gpu">
  %2 = arith.muli %dim, %dim_0 : index
  %reinterpret_cast = memref.reinterpret_cast %1 to offset: [0], sizes: [%dim_1, %dim_0, %dim], strides: [%2, %dim, 1] {kDiscSymbolicDimAttr = [@S0, @S1, @S2]} : memref<?x?x?xf32, "gpu"> to memref<?x?x?xf32, "gpu">
  %alloc_2 = memref.alloc(%dim_1, %dim_0, %dim) {kDiscSymbolicDimAttr = [@S0, @S1, @S2]} : memref<?x?x?xf32, "gpu">
  %3 = arith.index_cast %dim_1 : index to i32
  %4 = arith.index_cast %dim_0 : index to i32
  %5 = arith.index_cast %dim : index to i32
  %6 = arith.muli %4, %5 : i32
  %alloca = memref.alloca() : memref<2xi32, "cpu">
  memref.store %3, %alloca[%c0] : memref<2xi32, "cpu">
  memref.store %6, %alloca[%c1] : memref<2xi32, "cpu">
  %7 = arith.index_cast %6 : i32 to index
  %alloc_3 = memref.alloc(%dim_1, %7) {kDiscSymbolicDimAttr = [@S0, @S3]} : memref<?x?xf32, "gpu">
  %alloc_4 = memref.alloc(%7) {kDiscSymbolicDimAttr = [@S3]} : memref<?xf32, "gpu">
  %8 = arith.muli %dim_1, %7 : index
  %9 = arith.ceildivsi %8, %c256 : index
  %10 = arith.cmpi sgt, %9, %c108 : index
  scf.if %10 {
    "lmhlo.fusion"() ({
      "lmhlo.constant"(%alloc) {disc.device = "gpu", value = dense<0xFF800000> : tensor<f32>} : (memref<f32, "gpu">) -> ()
      "lmhlo.abs"(%reinterpret_cast, %alloc_2) {disc.device = "gpu"} : (memref<?x?x?xf32, "gpu">, memref<?x?x?xf32, "gpu">) -> ()
      "lmhlo.dynamic_reshape"(%alloc_2, %alloca, %alloc_3) {disc.device = "gpu"} : (memref<?x?x?xf32, "gpu">, memref<2xi32, "cpu">, memref<?x?xf32, "gpu">) -> ()
      "lmhlo.reduce"(%alloc_3, %alloc, %alloc_4) ({
      ^bb0(%arg1: memref<f32>, %arg2: memref<f32>, %arg3: memref<f32>):
        "lmhlo.maximum"(%arg1, %arg2, %arg3) {disc.device = "gpu"} : (memref<f32>, memref<f32>, memref<f32>) -> ()
        "lmhlo.terminator"() : () -> ()
      }) {dimensions = dense<0> : tensor<1xi64>, disc.device = "gpu"} : (memref<?x?xf32, "gpu">, memref<f32, "gpu">, memref<?xf32, "gpu">) -> ()
      "lmhlo.terminator"() : () -> ()
    }) {disc.device = "gpu", disc.fusion.name = "main_kColReduction_reduce__4_1_0", disc.fusion.tag = "8w32h", disc.fusion_type = "kColReduction", disc_col_reduction_schedule_hint = 1 : i32, disc_thread_per_block_hint = 256 : i32} : () -> ()
  } else {
    "lmhlo.fusion"() ({
      "lmhlo.constant"(%alloc) {disc.device = "gpu", value = dense<0xFF800000> : tensor<f32>} : (memref<f32, "gpu">) -> ()
      "lmhlo.abs"(%reinterpret_cast, %alloc_2) {disc.device = "gpu"} : (memref<?x?x?xf32, "gpu">, memref<?x?x?xf32, "gpu">) -> ()
      "lmhlo.dynamic_reshape"(%alloc_2, %alloca, %alloc_3) {disc.device = "gpu"} : (memref<?x?x?xf32, "gpu">, memref<2xi32, "cpu">, memref<?x?xf32, "gpu">) -> ()
      "lmhlo.reduce"(%alloc_3, %alloc, %alloc_4) ({
      ^bb0(%arg1: memref<f32>, %arg2: memref<f32>, %arg3: memref<f32>):
        "lmhlo.maximum"(%arg1, %arg2, %arg3) {disc.device = "gpu"} : (memref<f32>, memref<f32>, memref<f32>) -> ()
        "lmhlo.terminator"() : () -> ()
      }) {dimensions = dense<0> : tensor<1xi64>, disc.device = "gpu"} : (memref<?x?xf32, "gpu">, memref<f32, "gpu">, memref<?xf32, "gpu">) -> ()
      "lmhlo.terminator"() : () -> ()
    }) {disc.device = "gpu", disc.fusion.name = "main_kColReduction_reduce__4_1_0", disc.fusion.tag = "8w16h", disc.fusion_type = "kColReduction", disc_col_reduction_schedule_hint = 2 : i32, disc_thread_per_block_hint = 128 : i32} : () -> ()
  }
  memref.dealloc %alloc_3 : memref<?x?xf32, "gpu">
  memref.dealloc %alloc_2 : memref<?x?x?xf32, "gpu">
  memref.dealloc %alloc : memref<f32, "gpu">
  %alloca_5 = memref.alloca() : memref<2xi32, "cpu">
  memref.store %4, %alloca_5[%c0] : memref<2xi32, "cpu">
  memref.store %5, %alloca_5[%c1] : memref<2xi32, "cpu">
  %11 = llvm.inttoptr %0 : i32 to !llvm.ptr<i8>
  %alloca_6 = memref.alloca() : memref<2xindex, "cpu">
  memref.store %dim_0, %alloca_6[%c0] : memref<2xindex, "cpu">
  memref.store %dim, %alloca_6[%c1] : memref<2xindex, "cpu">
  %12 = "disc_ral.dispatch"(%arg0, %11, %alloc_4, %alloca_6) {backend_config = "", call_target_name = "inc_ref", device = "gpu", has_side_effect = false} : (!disc_ral.context, !llvm.ptr<i8>, memref<?xf32, "gpu">, memref<2xindex, "cpu">) -> memref<?x?xf32, "gpu">
  %reinterpret_cast_7 = memref.reinterpret_cast %12 to offset: [0], sizes: [%dim_0, %dim], strides: [%dim, 1] {kDiscSymbolicDimAttr = [@S1, @S2]} : memref<?x?xf32, "gpu"> to memref<?x?xf32, "gpu">
  memref.dealloc %alloc_4 : memref<?xf32, "gpu">
  "disc_ral.dispatch"(%arg0, %c0, %reinterpret_cast_7) {backend_config = "", call_target_name = "ral_send_output", device = "cpu", has_side_effect = false} : (!disc_ral.context, index, memref<?x?xf32, "gpu">) -> ()
  return
}

kColReduction <main_kColReduction_reduce__4_1_0___8w32h>, use_new: 0 schedule_hint: 1
kColReduction <main_kColReduction_reduce__4_1_0___8w16h>, use_new: 0 schedule_hint: 2
SymbolicDimMgr::save walkRankedTensorValue takes: 4 us
SymbolicDimMgr::save update attributes takes: 9 us
SymbolicDimMgr::updateProductEqualityMap simplifySymbolicDimProductPair takes: 7 us
productSet.size() = 2
SymbolicDimMgr::updateProductEqualityMap propagate graph takes: 4 us
SymbolicDimMgr::updateProductEqualityMap remove multiply takes: 13 us
SymbolicDimMgr::updateProductEqualityMap build toRemove  takes: 0 us
SymbolicDimMgr::updateProductEqualityMap apply toRemove  takes: 0 us
SymbolicDimMgr::save updateProductEqualityMap takes: 40 us
SymbolicDimMgr::save updateFunctionType takes: 14 us
SymbolicDimMgr::save collect symbolicDim ops takes: 9 us
SymbolicDimMgr::save remove symbolicDim ops takes: 0 us
SymbolicDimMgr::save remove unused production takes: 0 us
SymbolicDimMgr::save remove unused production #2 takes: 0 us
SymbolicDimMgr::save canonicalize the name takes: 3 us
SymbolicDimMgr::save replace the name takes: 9 us
SymbolicDimMgr::save updateFunctionType takes: 1 us
// -----// IR Dump After DiscLhloLegalizeRootsToParallelLoopsPass (disc-lhlo-legalize-roots-to-parallel-loops) //----- //
func.func @main(%arg0: !disc_ral.context) attributes {tf.entry_function = {input_placements = "gpu", inputs = "input0", output_placements = "gpu", outputs = "output0"}} {
  %c128 = arith.constant 128 : index
  %0 = llvm.mlir.constant(0 : i32) : i32
  %c0 = arith.constant 0 : index
  %c1 = arith.constant 1 : index
  %c2 = arith.constant 2 : index
  %c256 = arith.constant 256 : index
  %c108 = arith.constant 108 : index
  %1 = "disc_ral.dispatch"(%arg0, %c0) {backend_config = "", call_target_name = "ral_recv_input", device = "cpu", has_side_effect = false} : (!disc_ral.context, index) -> memref<?x?x?xf32, "gpu">
  %dim = memref.dim %1, %c2 : memref<?x?x?xf32, "gpu">
  %dim_0 = memref.dim %1, %c1 : memref<?x?x?xf32, "gpu">
  %dim_1 = memref.dim %1, %c0 : memref<?x?x?xf32, "gpu">
  %alloc = memref.alloc() : memref<f32, "gpu">
  %2 = arith.muli %dim, %dim_0 : index
  %reinterpret_cast = memref.reinterpret_cast %1 to offset: [0], sizes: [%dim_1, %dim_0, %dim], strides: [%2, %dim, 1] {kDiscSymbolicDimAttr = [@S0, @S1, @S2]} : memref<?x?x?xf32, "gpu"> to memref<?x?x?xf32, "gpu">
  %alloc_2 = memref.alloc(%dim_1, %dim_0, %dim) {kDiscSymbolicDimAttr = [@S0, @S1, @S2]} : memref<?x?x?xf32, "gpu">
  %3 = arith.index_cast %dim_1 : index to i32
  %4 = arith.index_cast %dim_0 : index to i32
  %5 = arith.index_cast %dim : index to i32
  %6 = arith.muli %4, %5 : i32
  %alloca = memref.alloca() : memref<2xi32, "cpu">
  memref.store %3, %alloca[%c0] : memref<2xi32, "cpu">
  memref.store %6, %alloca[%c1] : memref<2xi32, "cpu">
  %7 = arith.index_cast %6 : i32 to index
  %alloc_3 = memref.alloc(%dim_1, %7) {kDiscSymbolicDimAttr = [@S0, @S3]} : memref<?x?xf32, "gpu">
  %alloc_4 = memref.alloc(%7) {kDiscSymbolicDimAttr = [@S3]} : memref<?xf32, "gpu">
  %8 = arith.muli %dim_1, %7 : index
  %9 = arith.ceildivsi %8, %c256 : index
  %10 = arith.cmpi sgt, %9, %c108 : index
  scf.if %10 {
    "lmhlo.fusion"() ({
      "lmhlo.constant"(%alloc) {disc.device = "gpu", value = dense<0xFF800000> : tensor<f32>} : (memref<f32, "gpu">) -> ()
      "lmhlo.abs"(%reinterpret_cast, %alloc_2) {disc.device = "gpu"} : (memref<?x?x?xf32, "gpu">, memref<?x?x?xf32, "gpu">) -> ()
      "lmhlo.dynamic_reshape"(%alloc_2, %alloca, %alloc_3) {disc.device = "gpu"} : (memref<?x?x?xf32, "gpu">, memref<2xi32, "cpu">, memref<?x?xf32, "gpu">) -> ()
      scf.parallel (%arg1) = (%c0) to (%7) step (%c1) {
        %13 = "disc_shape.delinearize"(%arg1, %7) : (index, index) -> index
        %14 = memref.load %alloc[] : memref<f32, "gpu">
        memref.store %14, %alloc_4[%13] : memref<?xf32, "gpu">
        scf.yield
      }
      scf.parallel (%arg1, %arg2) = (%c0, %c0) to (%dim_1, %7) step (%c128, %c2) {
        %13 = memref.load %alloc[] : memref<f32, "gpu">
        %14 = arith.addi %arg1, %c128 : index
        %15 = arith.cmpi slt, %14, %dim_1 : index
        %16 = arith.remui %dim_1, %c128 : index
        %17 = arith.cmpi eq, %16, %c0 : index
        %18 = arith.ori %17, %15 : i1
        %19 = arith.addi %arg2, %c2 : index
        %20 = arith.cmpi slt, %19, %7 : index
        %21 = arith.remui %7, %c2 : index
        %22 = arith.cmpi eq, %21, %c0 : index
        %23 = arith.ori %22, %20 : i1
        %24 = arith.andi %18, %23 : i1
        %25:2 = scf.if %24 -> (f32, f32) {
          %29:2 = scf.for %arg3 = %c0 to %c128 step %c1 iter_args(%arg4 = %13, %arg5 = %13) -> (f32, f32) {
            %30 = arith.addi %arg1, %arg3 : index
            %31 = memref.load %alloc_3[%30, %arg2] : memref<?x?xf32, "gpu">
            %32 = arith.cmpf oge, %arg4, %31 : f32
            %33 = arith.select %32, %arg4, %31 : f32
            %34 = arith.addi %arg2, %c1 : index
            %35 = memref.load %alloc_3[%30, %34] : memref<?x?xf32, "gpu">
            %36 = arith.cmpf oge, %arg5, %35 : f32
            %37 = arith.select %36, %arg5, %35 : f32
            scf.yield %33, %37 : f32, f32
          }
          scf.yield %29#0, %29#1 : f32, f32
        } else {
          %29:2 = scf.for %arg3 = %c0 to %c128 step %c1 iter_args(%arg4 = %13, %arg5 = %13) -> (f32, f32) {
            %30 = arith.addi %arg1, %arg3 : index
            %31 = arith.cmpi slt, %30, %dim_1 : index
            %32 = arith.cmpi slt, %arg2, %7 : index
            %33 = arith.andi %31, %32 : i1
            %34 = scf.if %33 -> (f32) {
              %39 = memref.load %alloc_3[%30, %arg2] : memref<?x?xf32, "gpu">
              %40 = arith.cmpf oge, %arg4, %39 : f32
              %41 = arith.select %40, %arg4, %39 : f32
              scf.yield %41 : f32
            } else {
              scf.yield %arg4 : f32
            }
            %35 = arith.addi %arg2, %c1 : index
            %36 = arith.cmpi slt, %35, %7 : index
            %37 = arith.andi %31, %36 : i1
            %38 = scf.if %37 -> (f32) {
              %39 = memref.load %alloc_3[%30, %35] : memref<?x?xf32, "gpu">
              %40 = arith.cmpf oge, %arg5, %39 : f32
              %41 = arith.select %40, %arg5, %39 : f32
              scf.yield %41 : f32
            } else {
              scf.yield %arg5 : f32
            }
            scf.yield %34, %38 : f32, f32
          }
          scf.yield %29#0, %29#1 : f32, f32
        }
        %26 = arith.cmpi slt, %arg2, %7 : index
        scf.if %26 {
          %29 = memref.atomic_rmw maxf %25#0, %alloc_4[%arg2] : (f32, memref<?xf32, "gpu">) -> f32
        }
        %27 = arith.addi %arg2, %c1 : index
        %28 = arith.cmpi slt, %27, %7 : index
        scf.if %28 {
          %29 = memref.atomic_rmw maxf %25#1, %alloc_4[%27] : (f32, memref<?xf32, "gpu">) -> f32
        }
        scf.yield
      }
      "lmhlo.terminator"() : () -> ()
    }) {disc.device = "gpu", disc.fusion.name = "main_kColReduction_reduce__4_1_0", disc.fusion.tag = "8w32h", disc.fusion_type = "kColReduction", disc_col_reduction_schedule_hint = 1 : i32, disc_thread_per_block_hint = 256 : i32} : () -> ()
  } else {
    "lmhlo.fusion"() ({
      "lmhlo.constant"(%alloc) {disc.device = "gpu", value = dense<0xFF800000> : tensor<f32>} : (memref<f32, "gpu">) -> ()
      "lmhlo.abs"(%reinterpret_cast, %alloc_2) {disc.device = "gpu"} : (memref<?x?x?xf32, "gpu">, memref<?x?x?xf32, "gpu">) -> ()
      "lmhlo.dynamic_reshape"(%alloc_2, %alloca, %alloc_3) {disc.device = "gpu"} : (memref<?x?x?xf32, "gpu">, memref<2xi32, "cpu">, memref<?x?xf32, "gpu">) -> ()
      scf.parallel (%arg1) = (%c0) to (%7) step (%c1) {
        %13 = "disc_shape.delinearize"(%arg1, %7) : (index, index) -> index
        %14 = memref.load %alloc[] : memref<f32, "gpu">
        memref.store %14, %alloc_4[%13] : memref<?xf32, "gpu">
        scf.yield
      }
      scf.parallel (%arg1, %arg2) = (%c0, %c0) to (%dim_1, %7) step (%c128, %c2) {
        %13 = memref.load %alloc[] : memref<f32, "gpu">
        %14 = arith.addi %arg1, %c128 : index
        %15 = arith.cmpi slt, %14, %dim_1 : index
        %16 = arith.remui %dim_1, %c128 : index
        %17 = arith.cmpi eq, %16, %c0 : index
        %18 = arith.ori %17, %15 : i1
        %19 = arith.addi %arg2, %c2 : index
        %20 = arith.cmpi slt, %19, %7 : index
        %21 = arith.remui %7, %c2 : index
        %22 = arith.cmpi eq, %21, %c0 : index
        %23 = arith.ori %22, %20 : i1
        %24 = arith.andi %18, %23 : i1
        %25:2 = scf.if %24 -> (f32, f32) {
          %29:2 = scf.for %arg3 = %c0 to %c128 step %c1 iter_args(%arg4 = %13, %arg5 = %13) -> (f32, f32) {
            %30 = arith.addi %arg1, %arg3 : index
            %31 = memref.load %alloc_3[%30, %arg2] : memref<?x?xf32, "gpu">
            %32 = arith.cmpf oge, %arg4, %31 : f32
            %33 = arith.select %32, %arg4, %31 : f32
            %34 = arith.addi %arg2, %c1 : index
            %35 = memref.load %alloc_3[%30, %34] : memref<?x?xf32, "gpu">
            %36 = arith.cmpf oge, %arg5, %35 : f32
            %37 = arith.select %36, %arg5, %35 : f32
            scf.yield %33, %37 : f32, f32
          }
          scf.yield %29#0, %29#1 : f32, f32
        } else {
          %29:2 = scf.for %arg3 = %c0 to %c128 step %c1 iter_args(%arg4 = %13, %arg5 = %13) -> (f32, f32) {
            %30 = arith.addi %arg1, %arg3 : index
            %31 = arith.cmpi slt, %30, %dim_1 : index
            %32 = arith.cmpi slt, %arg2, %7 : index
            %33 = arith.andi %31, %32 : i1
            %34 = scf.if %33 -> (f32) {
              %39 = memref.load %alloc_3[%30, %arg2] : memref<?x?xf32, "gpu">
              %40 = arith.cmpf oge, %arg4, %39 : f32
              %41 = arith.select %40, %arg4, %39 : f32
              scf.yield %41 : f32
            } else {
              scf.yield %arg4 : f32
            }
            %35 = arith.addi %arg2, %c1 : index
            %36 = arith.cmpi slt, %35, %7 : index
            %37 = arith.andi %31, %36 : i1
            %38 = scf.if %37 -> (f32) {
              %39 = memref.load %alloc_3[%30, %35] : memref<?x?xf32, "gpu">
              %40 = arith.cmpf oge, %arg5, %39 : f32
              %41 = arith.select %40, %arg5, %39 : f32
              scf.yield %41 : f32
            } else {
              scf.yield %arg5 : f32
            }
            scf.yield %34, %38 : f32, f32
          }
          scf.yield %29#0, %29#1 : f32, f32
        }
        %26 = arith.cmpi slt, %arg2, %7 : index
        scf.if %26 {
          %29 = memref.atomic_rmw maxf %25#0, %alloc_4[%arg2] : (f32, memref<?xf32, "gpu">) -> f32
        }
        %27 = arith.addi %arg2, %c1 : index
        %28 = arith.cmpi slt, %27, %7 : index
        scf.if %28 {
          %29 = memref.atomic_rmw maxf %25#1, %alloc_4[%27] : (f32, memref<?xf32, "gpu">) -> f32
        }
        scf.yield
      }
      "lmhlo.terminator"() : () -> ()
    }) {disc.device = "gpu", disc.fusion.name = "main_kColReduction_reduce__4_1_0", disc.fusion.tag = "8w16h", disc.fusion_type = "kColReduction", disc_col_reduction_schedule_hint = 2 : i32, disc_thread_per_block_hint = 128 : i32} : () -> ()
  }
  memref.dealloc %alloc_3 : memref<?x?xf32, "gpu">
  memref.dealloc %alloc_2 : memref<?x?x?xf32, "gpu">
  memref.dealloc %alloc : memref<f32, "gpu">
  %alloca_5 = memref.alloca() : memref<2xi32, "cpu">
  memref.store %4, %alloca_5[%c0] : memref<2xi32, "cpu">
  memref.store %5, %alloca_5[%c1] : memref<2xi32, "cpu">
  %11 = llvm.inttoptr %0 : i32 to !llvm.ptr<i8>
  %alloca_6 = memref.alloca() : memref<2xindex, "cpu">
  memref.store %dim_0, %alloca_6[%c0] : memref<2xindex, "cpu">
  memref.store %dim, %alloca_6[%c1] : memref<2xindex, "cpu">
  %12 = "disc_ral.dispatch"(%arg0, %11, %alloc_4, %alloca_6) {backend_config = "", call_target_name = "inc_ref", device = "gpu", has_side_effect = false} : (!disc_ral.context, !llvm.ptr<i8>, memref<?xf32, "gpu">, memref<2xindex, "cpu">) -> memref<?x?xf32, "gpu">
  %reinterpret_cast_7 = memref.reinterpret_cast %12 to offset: [0], sizes: [%dim_0, %dim], strides: [%dim, 1] {kDiscSymbolicDimAttr = [@S1, @S2]} : memref<?x?xf32, "gpu"> to memref<?x?xf32, "gpu">
  memref.dealloc %alloc_4 : memref<?xf32, "gpu">
  "disc_ral.dispatch"(%arg0, %c0, %reinterpret_cast_7) {backend_config = "", call_target_name = "ral_send_output", device = "cpu", has_side_effect = false} : (!disc_ral.context, index, memref<?x?xf32, "gpu">) -> ()
  return
}

// -----// IR Dump After ExpandOps (memref-expand) //----- //
func.func @main(%arg0: !disc_ral.context) attributes {tf.entry_function = {input_placements = "gpu", inputs = "input0", output_placements = "gpu", outputs = "output0"}} {
  %c128 = arith.constant 128 : index
  %0 = llvm.mlir.constant(0 : i32) : i32
  %c0 = arith.constant 0 : index
  %c1 = arith.constant 1 : index
  %c2 = arith.constant 2 : index
  %c256 = arith.constant 256 : index
  %c108 = arith.constant 108 : index
  %1 = "disc_ral.dispatch"(%arg0, %c0) {backend_config = "", call_target_name = "ral_recv_input", device = "cpu", has_side_effect = false} : (!disc_ral.context, index) -> memref<?x?x?xf32, "gpu">
  %dim = memref.dim %1, %c2 : memref<?x?x?xf32, "gpu">
  %dim_0 = memref.dim %1, %c1 : memref<?x?x?xf32, "gpu">
  %dim_1 = memref.dim %1, %c0 : memref<?x?x?xf32, "gpu">
  %alloc = memref.alloc() : memref<f32, "gpu">
  %2 = arith.muli %dim, %dim_0 : index
  %reinterpret_cast = memref.reinterpret_cast %1 to offset: [0], sizes: [%dim_1, %dim_0, %dim], strides: [%2, %dim, 1] {kDiscSymbolicDimAttr = [@S0, @S1, @S2]} : memref<?x?x?xf32, "gpu"> to memref<?x?x?xf32, "gpu">
  %alloc_2 = memref.alloc(%dim_1, %dim_0, %dim) {kDiscSymbolicDimAttr = [@S0, @S1, @S2]} : memref<?x?x?xf32, "gpu">
  %3 = arith.index_cast %dim_1 : index to i32
  %4 = arith.index_cast %dim_0 : index to i32
  %5 = arith.index_cast %dim : index to i32
  %6 = arith.muli %4, %5 : i32
  %alloca = memref.alloca() : memref<2xi32, "cpu">
  memref.store %3, %alloca[%c0] : memref<2xi32, "cpu">
  memref.store %6, %alloca[%c1] : memref<2xi32, "cpu">
  %7 = arith.index_cast %6 : i32 to index
  %alloc_3 = memref.alloc(%dim_1, %7) {kDiscSymbolicDimAttr = [@S0, @S3]} : memref<?x?xf32, "gpu">
  %alloc_4 = memref.alloc(%7) {kDiscSymbolicDimAttr = [@S3]} : memref<?xf32, "gpu">
  %8 = arith.muli %dim_1, %7 : index
  %9 = arith.ceildivsi %8, %c256 : index
  %10 = arith.cmpi sgt, %9, %c108 : index
  scf.if %10 {
    "lmhlo.fusion"() ({
      "lmhlo.constant"(%alloc) {disc.device = "gpu", value = dense<0xFF800000> : tensor<f32>} : (memref<f32, "gpu">) -> ()
      "lmhlo.abs"(%reinterpret_cast, %alloc_2) {disc.device = "gpu"} : (memref<?x?x?xf32, "gpu">, memref<?x?x?xf32, "gpu">) -> ()
      "lmhlo.dynamic_reshape"(%alloc_2, %alloca, %alloc_3) {disc.device = "gpu"} : (memref<?x?x?xf32, "gpu">, memref<2xi32, "cpu">, memref<?x?xf32, "gpu">) -> ()
      scf.parallel (%arg1) = (%c0) to (%7) step (%c1) {
        %13 = "disc_shape.delinearize"(%arg1, %7) : (index, index) -> index
        %14 = memref.load %alloc[] : memref<f32, "gpu">
        memref.store %14, %alloc_4[%13] : memref<?xf32, "gpu">
        scf.yield
      }
      scf.parallel (%arg1, %arg2) = (%c0, %c0) to (%dim_1, %7) step (%c128, %c2) {
        %13 = memref.load %alloc[] : memref<f32, "gpu">
        %14 = arith.addi %arg1, %c128 : index
        %15 = arith.cmpi slt, %14, %dim_1 : index
        %16 = arith.remui %dim_1, %c128 : index
        %17 = arith.cmpi eq, %16, %c0 : index
        %18 = arith.ori %17, %15 : i1
        %19 = arith.addi %arg2, %c2 : index
        %20 = arith.cmpi slt, %19, %7 : index
        %21 = arith.remui %7, %c2 : index
        %22 = arith.cmpi eq, %21, %c0 : index
        %23 = arith.ori %22, %20 : i1
        %24 = arith.andi %18, %23 : i1
        %25:2 = scf.if %24 -> (f32, f32) {
          %29:2 = scf.for %arg3 = %c0 to %c128 step %c1 iter_args(%arg4 = %13, %arg5 = %13) -> (f32, f32) {
            %30 = arith.addi %arg1, %arg3 : index
            %31 = memref.load %alloc_3[%30, %arg2] : memref<?x?xf32, "gpu">
            %32 = arith.cmpf oge, %arg4, %31 : f32
            %33 = arith.select %32, %arg4, %31 : f32
            %34 = arith.addi %arg2, %c1 : index
            %35 = memref.load %alloc_3[%30, %34] : memref<?x?xf32, "gpu">
            %36 = arith.cmpf oge, %arg5, %35 : f32
            %37 = arith.select %36, %arg5, %35 : f32
            scf.yield %33, %37 : f32, f32
          }
          scf.yield %29#0, %29#1 : f32, f32
        } else {
          %29:2 = scf.for %arg3 = %c0 to %c128 step %c1 iter_args(%arg4 = %13, %arg5 = %13) -> (f32, f32) {
            %30 = arith.addi %arg1, %arg3 : index
            %31 = arith.cmpi slt, %30, %dim_1 : index
            %32 = arith.cmpi slt, %arg2, %7 : index
            %33 = arith.andi %31, %32 : i1
            %34 = scf.if %33 -> (f32) {
              %39 = memref.load %alloc_3[%30, %arg2] : memref<?x?xf32, "gpu">
              %40 = arith.cmpf oge, %arg4, %39 : f32
              %41 = arith.select %40, %arg4, %39 : f32
              scf.yield %41 : f32
            } else {
              scf.yield %arg4 : f32
            }
            %35 = arith.addi %arg2, %c1 : index
            %36 = arith.cmpi slt, %35, %7 : index
            %37 = arith.andi %31, %36 : i1
            %38 = scf.if %37 -> (f32) {
              %39 = memref.load %alloc_3[%30, %35] : memref<?x?xf32, "gpu">
              %40 = arith.cmpf oge, %arg5, %39 : f32
              %41 = arith.select %40, %arg5, %39 : f32
              scf.yield %41 : f32
            } else {
              scf.yield %arg5 : f32
            }
            scf.yield %34, %38 : f32, f32
          }
          scf.yield %29#0, %29#1 : f32, f32
        }
        %26 = arith.cmpi slt, %arg2, %7 : index
        scf.if %26 {
          %29 = memref.generic_atomic_rmw %alloc_4[%arg2] : memref<?xf32, "gpu"> {
          ^bb0(%arg3: f32):
            %30 = arith.cmpf ogt, %arg3, %25#0 : f32
            %31 = arith.select %30, %arg3, %25#0 : f32
            memref.atomic_yield %31 : f32
          }
        }
        %27 = arith.addi %arg2, %c1 : index
        %28 = arith.cmpi slt, %27, %7 : index
        scf.if %28 {
          %29 = memref.generic_atomic_rmw %alloc_4[%27] : memref<?xf32, "gpu"> {
          ^bb0(%arg3: f32):
            %30 = arith.cmpf ogt, %arg3, %25#1 : f32
            %31 = arith.select %30, %arg3, %25#1 : f32
            memref.atomic_yield %31 : f32
          }
        }
        scf.yield
      }
      "lmhlo.terminator"() : () -> ()
    }) {disc.device = "gpu", disc.fusion.name = "main_kColReduction_reduce__4_1_0", disc.fusion.tag = "8w32h", disc.fusion_type = "kColReduction", disc_col_reduction_schedule_hint = 1 : i32, disc_thread_per_block_hint = 256 : i32} : () -> ()
  } else {
    "lmhlo.fusion"() ({
      "lmhlo.constant"(%alloc) {disc.device = "gpu", value = dense<0xFF800000> : tensor<f32>} : (memref<f32, "gpu">) -> ()
      "lmhlo.abs"(%reinterpret_cast, %alloc_2) {disc.device = "gpu"} : (memref<?x?x?xf32, "gpu">, memref<?x?x?xf32, "gpu">) -> ()
      "lmhlo.dynamic_reshape"(%alloc_2, %alloca, %alloc_3) {disc.device = "gpu"} : (memref<?x?x?xf32, "gpu">, memref<2xi32, "cpu">, memref<?x?xf32, "gpu">) -> ()
      scf.parallel (%arg1) = (%c0) to (%7) step (%c1) {
        %13 = "disc_shape.delinearize"(%arg1, %7) : (index, index) -> index
        %14 = memref.load %alloc[] : memref<f32, "gpu">
        memref.store %14, %alloc_4[%13] : memref<?xf32, "gpu">
        scf.yield
      }
      scf.parallel (%arg1, %arg2) = (%c0, %c0) to (%dim_1, %7) step (%c128, %c2) {
        %13 = memref.load %alloc[] : memref<f32, "gpu">
        %14 = arith.addi %arg1, %c128 : index
…
00\0B\1F)'\00\03#\00\C8@\00\04P\06\04\E4\00*\04\00\01\00\1Fa@\00\04\13\F81\00&\\\00@\00\1F\0A@\00\00!\1C\01D\01\0D@\00\13X)\00*\D8\00\01\00\1B\08\08\00?\0B\01\00\86\07\00Q\00\000\05\00\01\00&\10\00\80\00\17\048\00\04\18\00\13\C7\14\01\0C\84\01*@\058\07\1F\00\C0\00\04\132@\00+\06\00\01\00\1A\07\D0\07\12\03\F0\05:\08\80\00\01\00\13\06\08\06\04(\0B\0C\01\00*\A8\00\08\00\04\F8\00\14\018\00/\05\00\01\00\029@\03\00\08\00\088\00/\06\00\01\00\17\80\08\00\00\00\00\00\00\00"
@alloc___gpu___pvoid_i64___pvoid = internal constant [32 x i8] c"alloc___gpu___pvoid_i64___pvoid\00"
@ral_recv_input___cpu___pvoid_i64___m3df32 = internal constant [42 x i8] c"ral_recv_input___cpu___pvoid_i64___m3df32\00"

define void @disc_ral_call(ptr nocapture readonly %0, ptr %1, ptr %2) local_unnamed_addr {
entry:
  %3 = load ptr, ptr %0, align 8
  %4 = getelementptr ptr, ptr %0, i64 1
  %5 = load ptr, ptr %4, align 8
  %6 = load ptr, ptr %2, align 8
  store ptr %3, ptr %6, align 8
  tail call void %5(ptr %3, ptr %1, ptr nonnull %2)
  ret void
}

define void @main(ptr %0) local_unnamed_addr {
  %2 = alloca %0, align 8
  %3 = alloca [3 x ptr], align 8
  store ptr %2, ptr %3, align 8
  %4 = getelementptr inbounds %0, ptr %2, i64 0, i32 1
  store i64 0, ptr %4, align 8
  %5 = getelementptr inbounds ptr, ptr %3, i64 1
  store ptr %4, ptr %5, align 8
  %6 = getelementptr inbounds %0, ptr %2, i64 0, i32 2
  %7 = getelementptr inbounds ptr, ptr %3, i64 2
  store ptr %6, ptr %7, align 8
  %8 = load ptr, ptr %0, align 8
  %9 = getelementptr ptr, ptr %0, i64 1
  %10 = load ptr, ptr %9, align 8
  store ptr %8, ptr %2, align 8
  call void %10(ptr %8, ptr nonnull @ral_recv_input___cpu___pvoid_i64___m3df32, ptr nonnull %3)
  %.fca.1.gep = getelementptr inbounds %0, ptr %2, i64 0, i32 2, i32 1
  %.fca.1.load = load ptr, ptr %.fca.1.gep, align 8
  %.fca.3.0.gep = getelementptr inbounds %0, ptr %2, i64 0, i32 2, i32 3
  %.fca.3.0.load = load i64, ptr %.fca.3.0.gep, align 8
  %.fca.3.1.gep = getelementptr inbounds %0, ptr %2, i64 0, i32 2, i32 3, i64 1
  %.fca.3.1.load = load i64, ptr %.fca.3.1.gep, align 8
  %.fca.3.2.gep = getelementptr inbounds %0, ptr %2, i64 0, i32 2, i32 3, i64 2
  %.fca.3.2.load = load i64, ptr %.fca.3.2.gep, align 8
  %11 = mul i64 %.fca.3.2.load, %.fca.3.1.load
  %sext = shl i64 %11, 32
  %12 = ashr exact i64 %sext, 32
  %.idx = ashr exact i64 %sext, 30
  %13 = alloca %.1, align 8
  %14 = alloca [3 x ptr], align 8
  store ptr %13, ptr %14, align 8
  %15 = getelementptr inbounds %.1, ptr %13, i64 0, i32 1
  store i64 %.idx, ptr %15, align 8
  %16 = getelementptr inbounds ptr, ptr %14, i64 1
  store ptr %15, ptr %16, align 8
  %17 = getelementptr inbounds %.1, ptr %13, i64 0, i32 2
  %18 = getelementptr inbounds ptr, ptr %14, i64 2
  store ptr %17, ptr %18, align 8
  %19 = load ptr, ptr %0, align 8
  %20 = load ptr, ptr %9, align 8
  store ptr %19, ptr %13, align 8
  call void %20(ptr %19, ptr nonnull @alloc___gpu___pvoid_i64___pvoid, ptr nonnull %14)
  %21 = load ptr, ptr %17, align 8
  %22 = mul i64 %12, %.fca.3.0.load
  %23 = add i64 %22, -1
  %24 = lshr i64 %23, 8
  %25 = add nuw nsw i64 %24, 1
  %26 = sub i64 0, %22
  %.neg = sdiv i64 %26, -256
  %27 = icmp sgt i64 %22, 0
  %28 = select i1 %27, i64 %25, i64 %.neg
  %29 = icmp sgt i64 %28, 108
  %30 = icmp slt i64 %sext, 4294967296
  %31 = sub nsw i64 0, %12
  %32 = add nsw i64 %12, -1
  %33 = select i1 %30, i64 %31, i64 %32
  %34 = alloca ptr, align 8
  %35 = alloca [3 x ptr], align 8
  %36 = getelementptr inbounds ptr, ptr %35, i64 1
  %37 = getelementptr inbounds ptr, ptr %35, i64 2
  %38 = alloca [14 x ptr], align 8
  %39 = getelementptr inbounds ptr, ptr %38, i64 1
  br i1 %29, label %40, label %140

40:                                               ; preds = %1
  %41 = sdiv i64 %33, 256
  %42 = sub nsw i64 0, %41
  %43 = add nsw i64 %41, 1
  %44 = select i1 %30, i64 %42, i64 %43
  store ptr @main_kernel_blob_gpu.binary, ptr %34, align 8
  %45 = alloca %.9, align 8
  store i64 256, ptr %45, align 8
  store ptr %45, ptr %35, align 8
  %46 = getelementptr inbounds %.9, ptr %45, i64 0, i32 1
  store i64 %12, ptr %46, align 8
  store ptr %46, ptr %36, align 8
  %47 = getelementptr inbounds %.9, ptr %45, i64 0, i32 2
  store ptr %21, ptr %47, align 8
  store ptr %47, ptr %37, align 8
  %48 = alloca %.10, align 8
  store ptr %48, ptr %38, align 8
  %49 = getelementptr inbounds %.10, ptr %48, i64 0, i32 1
  store ptr %34, ptr %49, align 8
  store ptr %49, ptr %39, align 8
  %50 = getelementptr inbounds %.10, ptr %48, i64 0, i32 2
  store i64 1, ptr %50, align 8
  %51 = getelementptr inbounds ptr, ptr %38, i64 2
  store ptr %50, ptr %51, align 8
  %52 = getelementptr inbounds %.10, ptr %48, i64 0, i32 3
  store ptr @main_kernel_main_kColReduction_reduce__4_1_0___8w32h_kernel_name, ptr %52, align 8
  %53 = getelementptr inbounds ptr, ptr %38, i64 3
  store ptr %52, ptr %53, align 8
  %54 = getelementptr inbounds %.10, ptr %48, i64 0, i32 4
  store i64 %44, ptr %54, align 8
  %55 = getelementptr inbounds ptr, ptr %38, i64 4
  store ptr %54, ptr %55, align 8
  %56 = getelementptr inbounds %.10, ptr %48, i64 0, i32 5
  store i64 1, ptr %56, align 8
  %57 = getelementptr inbounds ptr, ptr %38, i64 5
  store ptr %56, ptr %57, align 8
  %58 = getelementptr inbounds %.10, ptr %48, i64 0, i32 6
  store i64 1, ptr %58, align 8
  %59 = getelementptr inbounds ptr, ptr %38, i64 6
  store ptr %58, ptr %59, align 8
  %60 = getelementptr inbounds %.10, ptr %48, i64 0, i32 7
  store i64 256, ptr %60, align 8
  %61 = getelementptr inbounds ptr, ptr %38, i64 7
  store ptr %60, ptr %61, align 8
  %62 = getelementptr inbounds %.10, ptr %48, i64 0, i32 8
  store i64 1, ptr %62, align 8
  %63 = getelementptr inbounds ptr, ptr %38, i64 8
  store ptr %62, ptr %63, align 8
  %64 = getelementptr inbounds %.10, ptr %48, i64 0, i32 9
  store i64 1, ptr %64, align 8
  %65 = getelementptr inbounds ptr, ptr %38, i64 9
  store ptr %64, ptr %65, align 8
  %66 = getelementptr inbounds %.10, ptr %48, i64 0, i32 10
  store i32 0, ptr %66, align 8
  %67 = getelementptr inbounds ptr, ptr %38, i64 10
  store ptr %66, ptr %67, align 8
  %68 = getelementptr inbounds %.10, ptr %48, i64 0, i32 11
  store ptr null, ptr %68, align 8
  %69 = getelementptr inbounds ptr, ptr %38, i64 11
  store ptr %68, ptr %69, align 8
  %70 = getelementptr inbounds %.10, ptr %48, i64 0, i32 12
  store i32 3, ptr %70, align 8
  %71 = getelementptr inbounds ptr, ptr %38, i64 12
  store ptr %70, ptr %71, align 8
  %72 = getelementptr inbounds %.10, ptr %48, i64 0, i32 13
  store ptr %35, ptr %72, align 8
  %73 = getelementptr inbounds ptr, ptr %38, i64 13
  store ptr %72, ptr %73, align 8
  %74 = load ptr, ptr %0, align 8
  %75 = load ptr, ptr %9, align 8
  store ptr %74, ptr %48, align 8
  call void %75(ptr %74, ptr nonnull @ral_kernel_launch___gpu___pvoid_ppvoid_i64_pvoid_i64_i64_i64_i64_i64_i64_i32_pvoid_i32_ppvoid___void, ptr nonnull %38)
  %76 = add i64 %.fca.3.0.load, -1
  %77 = lshr i64 %76, 7
  %78 = add nuw nsw i64 %77, 1
  %79 = sub i64 0, %.fca.3.0.load
  %.neg17 = sdiv i64 %79, -128
  %80 = icmp sgt i64 %.fca.3.0.load, 0
  %81 = select i1 %80, i64 %78, i64 %.neg17
  %82 = sdiv i64 %32, 2
  %83 = add nsw i64 %82, 1
  %.neg18.lhs.trunc = trunc i64 %11 to i32
  %.neg1819 = sdiv i32 %.neg18.lhs.trunc, 2
  %.neg18.sext = sext i32 %.neg1819 to i64
  %84 = icmp sgt i64 %sext, 0
  %85 = select i1 %84, i64 %83, i64 %.neg18.sext
  %86 = mul i64 %85, %81
  %87 = icmp slt i64 %86, 1
  %88 = sub i64 0, %86
  %89 = add i64 %86, -1
  %90 = select i1 %87, i64 %88, i64 %89
  %91 = sdiv i64 %90, 256
  %92 = sub nsw i64 0, %91
  %93 = add nsw i64 %91, 1
  %94 = select i1 %87, i64 %92, i64 %93
  %95 = alloca ptr, align 8
  store ptr @main_kernel_0_blob_gpu.binary, ptr %95, align 8
  %96 = alloca %.11, align 8
  %97 = alloca [7 x ptr], align 8
  store ptr %.fca.1.load, ptr %96, align 8
  store ptr %96, ptr %97, align 8
  %98 = getelementptr inbounds %.11, ptr %96, i64 0, i32 1
  store i64 %.fca.3.0.load, ptr %98, align 8
  %99 = getelementptr inbounds ptr, ptr %97, i64 1
  store ptr %98, ptr %99, align 8
  %100 = getelementptr inbounds %.11, ptr %96, i64 0, i32 2
  store i64 256, ptr %100, align 8
  %101 = getelementptr inbounds ptr, ptr %97, i64 2
  store ptr %100, ptr %101, align 8
  %102 = getelementptr inbounds %.11, ptr %96, i64 0, i32 3
  store i64 %86, ptr %102, align 8
  %103 = getelementptr inbounds ptr, ptr %97, i64 3
  store ptr %102, ptr %103, align 8
  %104 = getelementptr inbounds %.11, ptr %96, i64 0, i32 4
  store i64 %85, ptr %104, align 8
  %105 = getelementptr inbounds ptr, ptr %97, i64 4
  store ptr %104, ptr %105, align 8
  %106 = getelementptr inbounds %.11, ptr %96, i64 0, i32 5
  store i64 %12, ptr %106, align 8
  %107 = getelementptr inbounds ptr, ptr %97, i64 5
  store ptr %106, ptr %107, align 8
  %108 = getelementptr inbounds %.11, ptr %96, i64 0, i32 6
  store ptr %21, ptr %108, align 8
  %109 = getelementptr inbounds ptr, ptr %97, i64 6
  store ptr %108, ptr %109, align 8
  %110 = alloca %.12, align 8
  %111 = alloca [14 x ptr], align 8
  store ptr %110, ptr %111, align 8
  %112 = getelementptr inbounds %.12, ptr %110, i64 0, i32 1
  store ptr %95, ptr %112, align 8
  %113 = getelementptr inbounds ptr, ptr %111, i64 1
  store ptr %112, ptr %113, align 8
  %114 = getelementptr inbounds %.12, ptr %110, i64 0, i32 2
  store i64 1, ptr %114, align 8
  %115 = getelementptr inbounds ptr, ptr %111, i64 2
  store ptr %114, ptr %115, align 8
  %116 = getelementptr inbounds %.12, ptr %110, i64 0, i32 3
  store ptr @main_kernel_0_main_kColReduction_reduce__4_1_0___8w32h_1_kernel_name, ptr %116, align 8
  %117 = getelementptr inbounds ptr, ptr %111, i64 3
  store ptr %116, ptr %117, align 8
  %118 = getelementptr inbounds %.12, ptr %110, i64 0, i32 4
  store i64 %94, ptr %118, align 8
  %119 = getelementptr inbounds ptr, ptr %111, i64 4
  store ptr %118, ptr %119, align 8
  %120 = getelementptr inbounds %.12, ptr %110, i64 0, i32 5
  store i64 1, ptr %120, align 8
  %121 = getelementptr inbounds ptr, ptr %111, i64 5
  store ptr %120, ptr %121, align 8
  %122 = getelementptr inbounds %.12, ptr %110, i64 0, i32 6
  store i64 1, ptr %122, align 8
  %123 = getelementptr inbounds ptr, ptr %111, i64 6
  store ptr %122, ptr %123, align 8
  %124 = getelementptr inbounds %.12, ptr %110, i64 0, i32 7
  store i64 256, ptr %124, align 8
  %125 = getelementptr inbounds ptr, ptr %111, i64 7
  store ptr %124, ptr %125, align 8
  %126 = getelementptr inbounds %.12, ptr %110, i64 0, i32 8
  store i64 1, ptr %126, align 8
  %127 = getelementptr inbounds ptr, ptr %111, i64 8
  store ptr %126, ptr %127, align 8
  %128 = getelementptr inbounds %.12, ptr %110, i64 0, i32 9
  store i64 1, ptr %128, align 8
  %129 = getelementptr inbounds ptr, ptr %111, i64 9
  store ptr %128, ptr %129, align 8
  %130 = getelementptr inbounds %.12, ptr %110, i64 0, i32 10
  store i32 0, ptr %130, align 8
  %131 = getelementptr inbounds ptr, ptr %111, i64 10
  store ptr %130, ptr %131, align 8
  %132 = getelementptr inbounds %.12, ptr %110, i64 0, i32 11
  store ptr null, ptr %132, align 8
  %133 = getelementptr inbounds ptr, ptr %111, i64 11
  store ptr %132, ptr %133, align 8
  %134 = getelementptr inbounds %.12, ptr %110, i64 0, i32 12
  store i32 7, ptr %134, align 8
  %135 = getelementptr inbounds ptr, ptr %111, i64 12
  store ptr %134, ptr %135, align 8
  %136 = getelementptr inbounds %.12, ptr %110, i64 0, i32 13
  store ptr %97, ptr %136, align 8
  %137 = getelementptr inbounds ptr, ptr %111, i64 13
  store ptr %136, ptr %137, align 8
  %138 = load ptr, ptr %0, align 8
  %139 = load ptr, ptr %9, align 8
  store ptr %138, ptr %110, align 8
  call void %139(ptr %138, ptr nonnull @ral_kernel_launch___gpu___pvoid_ppvoid_i64_pvoid_i64_i64_i64_i64_i64_i64_i32_pvoid_i32_ppvoid___void, ptr nonnull %111)
  br label %240

140:                                              ; preds = %1
  %141 = sdiv i64 %33, 128
  %142 = sub nsw i64 0, %141
  %143 = add nsw i64 %141, 1
  %144 = select i1 %30, i64 %142, i64 %143
  store ptr @main_kernel_1_blob_gpu.binary, ptr %34, align 8
  %145 = alloca %.2, align 8
  store i64 128, ptr %145, align 8
  store ptr %145, ptr %35, align 8
  %146 = getelementptr inbounds %.2, ptr %145, i64 0, i32 1
  store i64 %12, ptr %146, align 8
  store ptr %146, ptr %36, align 8
  %147 = getelementptr inbounds %.2, ptr %145, i64 0, i32 2
  store ptr %21, ptr %147, align 8
  store ptr %147, ptr %37, align 8
  %148 = alloca %.3, align 8
  store ptr %148, ptr %38, align 8
  %149 = getelementptr inbounds %.3, ptr %148, i64 0, i32 1
  store ptr %34, ptr %149, align 8
  store ptr %149, ptr %39, align 8
  %150 = getelementptr inbounds %.3, ptr %148, i64 0, i32 2
  store i64 1, ptr %150, align 8
  %151 = getelementptr inbounds ptr, ptr %38, i64 2
  store ptr %150, ptr %151, align 8
  %152 = getelementptr inbounds %.3, ptr %148, i64 0, i32 3
  store ptr @main_kernel_1_main_kColReduction_reduce__4_1_0___8w16h_kernel_name, ptr %152, align 8
  %153 = getelementptr inbounds ptr, ptr %38, i64 3
  store ptr %152, ptr %153, align 8
  %154 = getelementptr inbounds %.3, ptr %148, i64 0, i32 4
  store i64 %144, ptr %154, align 8
  %155 = getelementptr inbounds ptr, ptr %38, i64 4
  store ptr %154, ptr %155, align 8
  %156 = getelementptr inbounds %.3, ptr %148, i64 0, i32 5
  store i64 1, ptr %156, align 8
  %157 = getelementptr inbounds ptr, ptr %38, i64 5
  store ptr %156, ptr %157, align 8
  %158 = getelementptr inbounds %.3, ptr %148, i64 0, i32 6
  store i64 1, ptr %158, align 8
  %159 = getelementptr inbounds ptr, ptr %38, i64 6
  store ptr %158, ptr %159, align 8
  %160 = getelementptr inbounds %.3, ptr %148, i64 0, i32 7
  store i64 128, ptr %160, align 8
  %161 = getelementptr inbounds ptr, ptr %38, i64 7
  store ptr %160, ptr %161, align 8
  %162 = getelementptr inbounds %.3, ptr %148, i64 0, i32 8
  store i64 1, ptr %162, align 8
  %163 = getelementptr inbounds ptr, ptr %38, i64 8
  store ptr %162, ptr %163, align 8
  %164 = getelementptr inbounds %.3, ptr %148, i64 0, i32 9
  store i64 1, ptr %164, align 8
  %165 = getelementptr inbounds ptr, ptr %38, i64 9
  store ptr %164, ptr %165, align 8
  %166 = getelementptr inbounds %.3, ptr %148, i64 0, i32 10
  store i32 0, ptr %166, align 8
  %167 = getelementptr inbounds ptr, ptr %38, i64 10
  store ptr %166, ptr %167, align 8
  %168 = getelementptr inbounds %.3, ptr %148, i64 0, i32 11
  store ptr null, ptr %168, align 8
  %169 = getelementptr inbounds ptr, ptr %38, i64 11
  store ptr %168, ptr %169, align 8
  %170 = getelementptr inbounds %.3, ptr %148, i64 0, i32 12
  store i32 3, ptr %170, align 8
  %171 = getelementptr inbounds ptr, ptr %38, i64 12
  store ptr %170, ptr %171, align 8
  %172 = getelementptr inbounds %.3, ptr %148, i64 0, i32 13
  store ptr %35, ptr %172, align 8
  %173 = getelementptr inbounds ptr, ptr %38, i64 13
  store ptr %172, ptr %173, align 8
  %174 = load ptr, ptr %0, align 8
  %175 = load ptr, ptr %9, align 8
  store ptr %174, ptr %148, align 8
  call void %175(ptr %174, ptr nonnull @ral_kernel_launch___gpu___pvoid_ppvoid_i64_pvoid_i64_i64_i64_i64_i64_i64_i32_pvoid_i32_ppvoid___void, ptr nonnull %38)
  %176 = add i64 %.fca.3.0.load, -1
  %177 = lshr i64 %176, 7
  %178 = add nuw nsw i64 %177, 1
  %179 = sub i64 0, %.fca.3.0.load
  %.neg1 = sdiv i64 %179, -128
  %180 = icmp sgt i64 %.fca.3.0.load, 0
  %181 = select i1 %180, i64 %178, i64 %.neg1
  %182 = sdiv i64 %32, 2
  %183 = add nsw i64 %182, 1
  %.neg2.lhs.trunc = trunc i64 %11 to i32
  %.neg220 = sdiv i32 %.neg2.lhs.trunc, 2
  %.neg2.sext = sext i32 %.neg220 to i64
  %184 = icmp sgt i64 %sext, 0
  %185 = select i1 %184, i64 %183, i64 %.neg2.sext
  %186 = mul i64 %185, %181
  %187 = icmp slt i64 %186, 1
  %188 = sub i64 0, %186
  %189 = add i64 %186, -1
  %190 = select i1 %187, i64 %188, i64 %189
  %191 = sdiv i64 %190, 128
  %192 = sub nsw i64 0, %191
  %193 = add nsw i64 %191, 1
  %194 = select i1 %187, i64 %192, i64 %193
  %195 = alloca ptr, align 8
  store ptr @main_kernel_2_blob_gpu.binary, ptr %195, align 8
  %196 = alloca %.4, align 8
  %197 = alloca [7 x ptr], align 8
  store ptr %.fca.1.load, ptr %196, align 8
  store ptr %196, ptr %197, align 8
  %198 = getelementptr inbounds %.4, ptr %196, i64 0, i32 1
  store i64 %.fca.3.0.load, ptr %198, align 8
  %199 = getelementptr inbounds ptr, ptr %197, i64 1
  store ptr %198, ptr %199, align 8
  %200 = getelementptr inbounds %.4, ptr %196, i64 0, i32 2
  store i64 128, ptr %200, align 8
  %201 = getelementptr inbounds ptr, ptr %197, i64 2
  store ptr %200, ptr %201, align 8
  %202 = getelementptr inbounds %.4, ptr %196, i64 0, i32 3
  store i64 %186, ptr %202, align 8
  %203 = getelementptr inbounds ptr, ptr %197, i64 3
  store ptr %202, ptr %203, align 8
  %204 = getelementptr inbounds %.4, ptr %196, i64 0, i32 4
  store i64 %185, ptr %204, align 8
  %205 = getelementptr inbounds ptr, ptr %197, i64 4
  store ptr %204, ptr %205, align 8
  %206 = getelementptr inbounds %.4, ptr %196, i64 0, i32 5
  store i64 %12, ptr %206, align 8
  %207 = getelementptr inbounds ptr, ptr %197, i64 5
  store ptr %206, ptr %207, align 8
  %208 = getelementptr inbounds %.4, ptr %196, i64 0, i32 6
  store ptr %21, ptr %208, align 8
  %209 = getelementptr inbounds ptr, ptr %197, i64 6
  store ptr %208, ptr %209, align 8
  %210 = alloca %.5, align 8
  %211 = alloca [14 x ptr], align 8
  store ptr %210, ptr %211, align 8
  %212 = getelementptr inbounds %.5, ptr %210, i64 0, i32 1
  store ptr %195, ptr %212, align 8
  %213 = getelementptr inbounds ptr, ptr %211, i64 1
  store ptr %212, ptr %213, align 8
  %214 = getelementptr inbounds %.5, ptr %210, i64 0, i32 2
  store i64 1, ptr %214, align 8
  %215 = getelementptr inbounds ptr, ptr %211, i64 2
  store ptr %214, ptr %215, align 8
  %216 = getelementptr inbounds %.5, ptr %210, i64 0, i32 3
  store ptr @main_kernel_2_main_kColReduction_reduce__4_1_0___8w16h_1_kernel_name, ptr %216, align 8
  %217 = getelementptr inbounds ptr, ptr %211, i64 3
  store ptr %216, ptr %217, align 8
  %218 = getelementptr inbounds %.5, ptr %210, i64 0, i32 4
  store i64 %194, ptr %218, align 8
  %219 = getelementptr inbounds ptr, ptr %211, i64 4
  store ptr %218, ptr %219, align 8
  %220 = getelementptr inbounds %.5, ptr %210, i64 0, i32 5
  store i64 1, ptr %220, align 8
  %221 = getelementptr inbounds ptr, ptr %211, i64 5
  store ptr %220, ptr %221, align 8
  %222 = getelementptr inbounds %.5, ptr %210, i64 0, i32 6
  store i64 1, ptr %222, align 8
  %223 = getelementptr inbounds ptr, ptr %211, i64 6
  store ptr %222, ptr %223, align 8
  %224 = getelementptr inbounds %.5, ptr %210, i64 0, i32 7
  store i64 128, ptr %224, align 8
  %225 = getelementptr inbounds ptr, ptr %211, i64 7
  store ptr %224, ptr %225, align 8
  %226 = getelementptr inbounds %.5, ptr %210, i64 0, i32 8
  store i64 1, ptr %226, align 8
  %227 = getelementptr inbounds ptr, ptr %211, i64 8
  store ptr %226, ptr %227, align 8
  %228 = getelementptr inbounds %.5, ptr %210, i64 0, i32 9
  store i64 1, ptr %228, align 8
  %229 = getelementptr inbounds ptr, ptr %211, i64 9
  store ptr %228, ptr %229, align 8
  %230 = getelementptr inbounds %.5, ptr %210, i64 0, i32 10
  store i32 0, ptr %230, align 8
  %231 = getelementptr inbounds ptr, ptr %211, i64 10
  store ptr %230, ptr %231, align 8
  %232 = getelementptr inbounds %.5, ptr %210, i64 0, i32 11
  store ptr null, ptr %232, align 8
  %233 = getelementptr inbounds ptr, ptr %211, i64 11
  store ptr %232, ptr %233, align 8
  %234 = getelementptr inbounds %.5, ptr %210, i64 0, i32 12
  store i32 7, ptr %234, align 8
  %235 = getelementptr inbounds ptr, ptr %211, i64 12
  store ptr %234, ptr %235, align 8
  %236 = getelementptr inbounds %.5, ptr %210, i64 0, i32 13
  store ptr %197, ptr %236, align 8
  %237 = getelementptr inbounds ptr, ptr %211, i64 13
  store ptr %236, ptr %237, align 8
  %238 = load ptr, ptr %0, align 8
  %239 = load ptr, ptr %9, align 8
  store ptr %238, ptr %210, align 8
  call void %239(ptr %238, ptr nonnull @ral_kernel_launch___gpu___pvoid_ppvoid_i64_pvoid_i64_i64_i64_i64_i64_i64_i32_pvoid_i32_ppvoid___void, ptr nonnull %211)
  br label %240

240:                                              ; preds = %40, %140
  %241 = alloca [16 x i64], align 8
  store i64 %.fca.3.1.load, ptr %241, align 8
  %242 = getelementptr inbounds i64, ptr %241, i64 1
  store i64 %.fca.3.2.load, ptr %242, align 8
  %243 = alloca %.6, align 8
  %244 = alloca [13 x ptr], align 8
  store ptr %243, ptr %244, align 8
  %245 = getelementptr inbounds %.6, ptr %243, i64 0, i32 1
  store ptr null, ptr %245, align 8
  %246 = getelementptr inbounds ptr, ptr %244, i64 1
  store ptr %245, ptr %246, align 8
  %247 = getelementptr inbounds %.6, ptr %243, i64 0, i32 2
  store ptr %21, ptr %247, align 8
  %248 = getelementptr inbounds ptr, ptr %244, i64 2
  store ptr %247, ptr %248, align 8
  %249 = getelementptr inbounds %.6, ptr %243, i64 0, i32 3
  store ptr %21, ptr %249, align 8
  %250 = getelementptr inbounds ptr, ptr %244, i64 3
  store ptr %249, ptr %250, align 8
  %251 = getelementptr inbounds %.6, ptr %243, i64 0, i32 4
  store i64 0, ptr %251, align 8
  %252 = getelementptr inbounds ptr, ptr %244, i64 4
  store ptr %251, ptr %252, align 8
  %253 = getelementptr inbounds %.6, ptr %243, i64 0, i32 5
  store i64 %12, ptr %253, align 8
  %254 = getelementptr inbounds ptr, ptr %244, i64 5
  store ptr %253, ptr %254, align 8
  %255 = getelementptr inbounds %.6, ptr %243, i64 0, i32 6
  store i64 1, ptr %255, align 8
  %256 = getelementptr inbounds ptr, ptr %244, i64 6
  store ptr %255, ptr %256, align 8
  %257 = getelementptr inbounds %.6, ptr %243, i64 0, i32 7
  store ptr %241, ptr %257, align 8
  %258 = getelementptr inbounds ptr, ptr %244, i64 7
  store ptr %257, ptr %258, align 8
  %259 = getelementptr inbounds %.6, ptr %243, i64 0, i32 8
  store ptr %241, ptr %259, align 8
  %260 = getelementptr inbounds ptr, ptr %244, i64 8
  store ptr %259, ptr %260, align 8
  %261 = getelementptr inbounds %.6, ptr %243, i64 0, i32 9
  store i64 0, ptr %261, align 8
  %262 = getelementptr inbounds ptr, ptr %244, i64 9
  store ptr %261, ptr %262, align 8
  %263 = getelementptr inbounds %.6, ptr %243, i64 0, i32 10
  store i64 2, ptr %263, align 8
  %264 = getelementptr inbounds ptr, ptr %244, i64 10
  store ptr %263, ptr %264, align 8
  %265 = getelementptr inbounds %.6, ptr %243, i64 0, i32 11
  store i64 1, ptr %265, align 8
  %266 = getelementptr inbounds ptr, ptr %244, i64 11
  store ptr %265, ptr %266, align 8
  %267 = getelementptr inbounds %.6, ptr %243, i64 0, i32 12
  %268 = getelementptr inbounds ptr, ptr %244, i64 12
  store ptr %267, ptr %268, align 8
  %269 = load ptr, ptr %0, align 8
  %270 = load ptr, ptr %9, align 8
  store ptr %269, ptr %243, align 8
  call void %270(ptr %269, ptr nonnull @inc_ref___gpu___pvoid_pvoid_m1df32_m1di64___m2df32, ptr nonnull %244)
  %.unpack = load ptr, ptr %267, align 8
  %.elt3 = getelementptr inbounds %.6, ptr %243, i64 0, i32 12, i32 1
  %.unpack4 = load ptr, ptr %.elt3, align 8
  %271 = alloca %.7, align 8
  %272 = alloca [2 x ptr], align 8
  store ptr %271, ptr %272, align 8
  %273 = getelementptr inbounds %.7, ptr %271, i64 0, i32 1
  store ptr %21, ptr %273, align 8
  %274 = getelementptr inbounds ptr, ptr %272, i64 1
  store ptr %273, ptr %274, align 8
  %275 = load ptr, ptr %0, align 8
  %276 = load ptr, ptr %9, align 8
  store ptr %275, ptr %271, align 8
  call void %276(ptr %275, ptr nonnull @dealloc___gpu___pvoid_pvoid___void, ptr nonnull %272)
  %277 = alloca %.8, align 8
  %278 = alloca [9 x ptr], align 8
  store ptr %277, ptr %278, align 8
  %279 = getelementptr inbounds %.8, ptr %277, i64 0, i32 1
  store i64 0, ptr %279, align 8
  %280 = getelementptr inbounds ptr, ptr %278, i64 1
  store ptr %279, ptr %280, align 8
  %281 = getelementptr inbounds %.8, ptr %277, i64 0, i32 2
  store ptr %.unpack, ptr %281, align 8
  %282 = getelementptr inbounds ptr, ptr %278, i64 2
  store ptr %281, ptr %282, align 8
  %283 = getelementptr inbounds %.8, ptr %277, i64 0, i32 3
  store ptr %.unpack4, ptr %283, align 8
  %284 = getelementptr inbounds ptr, ptr %278, i64 3
  store ptr %283, ptr %284, align 8
  %285 = getelementptr inbounds %.8, ptr %277, i64 0, i32 4
  store i64 0, ptr %285, align 8
  %286 = getelementptr inbounds ptr, ptr %278, i64 4
  store ptr %285, ptr %286, align 8
  %287 = getelementptr inbounds %.8, ptr %277, i64 0, i32 5
  store i64 %.fca.3.1.load, ptr %287, align 8
  %288 = getelementptr inbounds ptr, ptr %278, i64 5
  store ptr %287, ptr %288, align 8
  %289 = getelementptr inbounds %.8, ptr %277, i64 0, i32 6
  store i64 %.fca.3.2.load, ptr %289, align 8
  %290 = getelementptr inbounds ptr, ptr %278, i64 6
  store ptr %289, ptr %290, align 8
  %291 = getelementptr inbounds %.8, ptr %277, i64 0, i32 7
  store i64 %.fca.3.2.load, ptr %291, align 8
  %292 = getelementptr inbounds ptr, ptr %278, i64 7
  store ptr %291, ptr %292, align 8
  %293 = getelementptr inbounds %.8, ptr %277, i64 0, i32 8
  store i64 1, ptr %293, align 8
  %294 = getelementptr inbounds ptr, ptr %278, i64 8
  store ptr %293, ptr %294, align 8
  %295 = load ptr, ptr %0, align 8
  %296 = load ptr, ptr %9, align 8
  store ptr %295, ptr %277, align 8
  call void %296(ptr %295, ptr nonnull @ral_send_output___cpu___pvoid_i64_m2df32___void, ptr nonnull %278)
  ret void
}

[DISC] LowerLLVMToBinary takes: 2.634800e-02 s.
object file to shared library command: gcc --shared -o /root/.cache/bazel/_bazel_root/54ece412abe75fa85ab728a2c061e33c/execroot/org_disc_compiler/_tmp/b247c1654ecfc81b23b002417f617beaColReduceFullyDynamicShape3DF32_0.so /root/.cache/bazel/_bazel_root/54ece412abe75fa85ab728a2c061e33c/execroot/org_disc_compiler/_tmp/b247c1654ecfc81b23b002417f617beaColReduceFullyDynamicShape3DF32_0.so.o
save shared lib file to : /root/.cache/bazel/_bazel_root/54ece412abe75fa85ab728a2c061e33c/execroot/org_disc_compiler/_tmp/b247c1654ecfc81b23b002417f617beaColReduceFullyDynamicShape3DF32_0.so
[DISC] BinaryStrToSharedLibrary takes: 9.379000e-03 s.
[DISC] LowerHLOToSharedLibrary takes: 8.053700e-01 s.

============ END ============

2023-06-08 04:48:06.283471: I mlir/disc/tests/mlir_test.cc:275] ret: 0

2023-06-08 04:48:06.283548: I mlir/disc/tests/mlir_test.cc:241] run compiled program

2023-06-08 04:48:06.478892: I external/org_tensorflow/tensorflow/compiler/xla/stream_executor/cuda/cuda_gpu_executor.cc:996] successful NUMA node read from SysFS had negative value (-1), but there must be at least one NUMA node, so returning NUMA node zero. See more at https://github.com/torvalds/linux/blob/v6.0/Documentation/ABI/testing/sysfs-bus-pci#L344-L355
2023-06-08 04:48:06.483383: I mlir/disc/tests/mlir_test.cc:932] --- MLIR Execution uses: 4.518 ms
2023-06-08 04:48:06.483476: I mlir/disc/tests/mlir_test.cc:183] out buffer = 0x7fb8a328bc00
2023-06-08 04:48:06.483483: I mlir/disc/tests/mlir_test.cc:184] out shape:
2023-06-08 04:48:06.483487: I mlir/disc/tests/mlir_test.cc:186]   dim #0: 100
2023-06-08 04:48:06.483490: I mlir/disc/tests/mlir_test.cc:186]   dim #1: 13
2023-06-08 04:48:06.483532: I mlir/disc/tests/mlir_test.cc:244] run golden tf

2023-06-08 04:48:06.483541: I mlir/disc/tests/mlir_test.cc:257] program_path: external/org_tensorflow/tensorflow/compiler/mlir/tf-mlir-translate

2023-06-08 04:48:06.541405: I mlir/disc/tests/mlir_test.cc:269] Executed: external/org_tensorflow/tensorflow/compiler/mlir/tf-mlir-translate -mlir-to-graphdef /root/.cache/bazel/_bazel_root/54ece412abe75fa85ab728a2c061e33c/execroot/org_disc_compiler/_tmp/b247c1654ecfc81b23b002417f617bea/tempfile-adf59ec6ac82-11dd47f9-244707-5fd96f5436371 -o /root/.cache/bazel/_bazel_root/54ece412abe75fa85ab728a2c061e33c/execroot/org_disc_compiler/_tmp/b247c1654ecfc81b23b002417f617beaColReduceFullyDynamicShape3DF32_0.pbtxt 
2023-06-08 04:48:06.541415: I mlir/disc/tests/mlir_test.cc:270] external/org_tensorflow/tensorflow/compiler/mlir/tf-mlir-translate: 0
2023-06-08 04:48:06.541418: I mlir/disc/tests/mlir_test.cc:271] -- stdout:

============ END ============

2023-06-08 04:48:06.541421: I mlir/disc/tests/mlir_test.cc:273] -- stderr:

============ END ============

2023-06-08 04:48:06.541424: I mlir/disc/tests/mlir_test.cc:275] ret: 0

2023-06-08 04:48:06.541432: I mlir/disc/tests/mlir_test.cc:391] graphdef_path: /root/.cache/bazel/_bazel_root/54ece412abe75fa85ab728a2c061e33c/execroot/org_disc_compiler/_tmp/b247c1654ecfc81b23b002417f617beaColReduceFullyDynamicShape3DF32_0.pbtxt
2023-06-08 04:48:06.542800: I external/org_tensorflow/tensorflow/core/platform/cpu_feature_guard.cc:182] This TensorFlow binary is optimized to use available CPU instructions in performance-critical operations.
To enable the following instructions: SSE3 SSE4.1 SSE4.2 AVX AVX2 AVX512F AVX512_VNNI FMA, in other operations, rebuild TensorFlow with the appropriate compiler flags.
2023-06-08 04:48:07.350279: I external/org_tensorflow/tensorflow/compiler/xla/stream_executor/cuda/cuda_gpu_executor.cc:996] successful NUMA node read from SysFS had negative value (-1), but there must be at least one NUMA node, so returning NUMA node zero. See more at https://github.com/torvalds/linux/blob/v6.0/Documentation/ABI/testing/sysfs-bus-pci#L344-L355
2023-06-08 04:48:07.352747: I external/org_tensorflow/tensorflow/compiler/xla/stream_executor/cuda/cuda_gpu_executor.cc:996] successful NUMA node read from SysFS had negative value (-1), but there must be at least one NUMA node, so returning NUMA node zero. See more at https://github.com/torvalds/linux/blob/v6.0/Documentation/ABI/testing/sysfs-bus-pci#L344-L355
2023-06-08 04:48:07.355102: I external/org_tensorflow/tensorflow/compiler/xla/stream_executor/cuda/cuda_gpu_executor.cc:996] successful NUMA node read from SysFS had negative value (-1), but there must be at least one NUMA node, so returning NUMA node zero. See more at https://github.com/torvalds/linux/blob/v6.0/Documentation/ABI/testing/sysfs-bus-pci#L344-L355
2023-06-08 04:48:07.357446: I external/org_tensorflow/tensorflow/compiler/xla/stream_executor/cuda/cuda_gpu_executor.cc:996] successful NUMA node read from SysFS had negative value (-1), but there must be at least one NUMA node, so returning NUMA node zero. See more at https://github.com/torvalds/linux/blob/v6.0/Documentation/ABI/testing/sysfs-bus-pci#L344-L355
2023-06-08 04:48:07.359776: I external/org_tensorflow/tensorflow/compiler/xla/stream_executor/cuda/cuda_gpu_executor.cc:996] successful NUMA node read from SysFS had negative value (-1), but there must be at least one NUMA node, so returning NUMA node zero. See more at https://github.com/torvalds/linux/blob/v6.0/Documentation/ABI/testing/sysfs-bus-pci#L344-L355
2023-06-08 04:48:07.362087: I external/org_tensorflow/tensorflow/compiler/xla/stream_executor/cuda/cuda_gpu_executor.cc:996] successful NUMA node read from SysFS had negative value (-1), but there must be at least one NUMA node, so returning NUMA node zero. See more at https://github.com/torvalds/linux/blob/v6.0/Documentation/ABI/testing/sysfs-bus-pci#L344-L355
2023-06-08 04:48:07.364398: I external/org_tensorflow/tensorflow/compiler/xla/stream_executor/cuda/cuda_gpu_executor.cc:996] successful NUMA node read from SysFS had negative value (-1), but there must be at least one NUMA node, so returning NUMA node zero. See more at https://github.com/torvalds/linux/blob/v6.0/Documentation/ABI/testing/sysfs-bus-pci#L344-L355
2023-06-08 04:48:07.366713: I external/org_tensorflow/tensorflow/compiler/xla/stream_executor/cuda/cuda_gpu_executor.cc:996] successful NUMA node read from SysFS had negative value (-1), but there must be at least one NUMA node, so returning NUMA node zero. See more at https://github.com/torvalds/linux/blob/v6.0/Documentation/ABI/testing/sysfs-bus-pci#L344-L355
2023-06-08 04:48:07.482984: I external/org_tensorflow/tensorflow/compiler/xla/stream_executor/cuda/cuda_gpu_executor.cc:996] successful NUMA node read from SysFS had negative value (-1), but there must be at least one NUMA node, so returning NUMA node zero. See more at https://github.com/torvalds/linux/blob/v6.0/Documentation/ABI/testing/sysfs-bus-pci#L344-L355
2023-06-08 04:48:07.485375: I external/org_tensorflow/tensorflow/compiler/xla/stream_executor/cuda/cuda_gpu_executor.cc:996] successful NUMA node read from SysFS had negative value (-1), but there must be at least one NUMA node, so returning NUMA node zero. See more at https://github.com/torvalds/linux/blob/v6.0/Documentation/ABI/testing/sysfs-bus-pci#L344-L355
2023-06-08 04:48:07.487716: I external/org_tensorflow/tensorflow/compiler/xla/stream_executor/cuda/cuda_gpu_executor.cc:996] successful NUMA node read from SysFS had negative value (-1), but there must be at least one NUMA node, so returning NUMA node zero. See more at https://github.com/torvalds/linux/blob/v6.0/Documentation/ABI/testing/sysfs-bus-pci#L344-L355
2023-06-08 04:48:07.490054: I external/org_tensorflow/tensorflow/compiler/xla/stream_executor/cuda/cuda_gpu_executor.cc:996] successful NUMA node read from SysFS had negative value (-1), but there must be at least one NUMA node, so returning NUMA node zero. See more at https://github.com/torvalds/linux/blob/v6.0/Documentation/ABI/testing/sysfs-bus-pci#L344-L355
2023-06-08 04:48:07.492366: I external/org_tensorflow/tensorflow/compiler/xla/stream_executor/cuda/cuda_gpu_executor.cc:996] successful NUMA node read from SysFS had negative value (-1), but there must be at least one NUMA node, so returning NUMA node zero. See more at https://github.com/torvalds/linux/blob/v6.0/Documentation/ABI/testing/sysfs-bus-pci#L344-L355
2023-06-08 04:48:07.494670: I external/org_tensorflow/tensorflow/compiler/xla/stream_executor/cuda/cuda_gpu_executor.cc:996] successful NUMA node read from SysFS had negative value (-1), but there must be at least one NUMA node, so returning NUMA node zero. See more at https://github.com/torvalds/linux/blob/v6.0/Documentation/ABI/testing/sysfs-bus-pci#L344-L355
2023-06-08 04:48:07.496984: I external/org_tensorflow/tensorflow/compiler/xla/stream_executor/cuda/cuda_gpu_executor.cc:996] successful NUMA node read from SysFS had negative value (-1), but there must be at least one NUMA node, so returning NUMA node zero. See more at https://github.com/torvalds/linux/blob/v6.0/Documentation/ABI/testing/sysfs-bus-pci#L344-L355
2023-06-08 04:48:07.499310: I external/org_tensorflow/tensorflow/compiler/xla/stream_executor/cuda/cuda_gpu_executor.cc:996] successful NUMA node read from SysFS had negative value (-1), but there must be at least one NUMA node, so returning NUMA node zero. See more at https://github.com/torvalds/linux/blob/v6.0/Documentation/ABI/testing/sysfs-bus-pci#L344-L355
2023-06-08 04:48:07.501612: I external/org_tensorflow/tensorflow/compiler/xla/stream_executor/cuda/cuda_gpu_executor.cc:996] successful NUMA node read from SysFS had negative value (-1), but there must be at least one NUMA node, so returning NUMA node zero. See more at https://github.com/torvalds/linux/blob/v6.0/Documentation/ABI/testing/sysfs-bus-pci#L344-L355
2023-06-08 04:48:07.504639: I external/org_tensorflow/tensorflow/compiler/xla/stream_executor/cuda/cuda_gpu_executor.cc:996] successful NUMA node read from SysFS had negative value (-1), but there must be at least one NUMA node, so returning NUMA node zero. See more at https://github.com/torvalds/linux/blob/v6.0/Documentation/ABI/testing/sysfs-bus-pci#L344-L355
2023-06-08 04:48:07.506944: I external/org_tensorflow/tensorflow/compiler/xla/stream_executor/cuda/cuda_gpu_executor.cc:996] successful NUMA node read from SysFS had negative value (-1), but there must be at least one NUMA node, so returning NUMA node zero. See more at https://github.com/torvalds/linux/blob/v6.0/Documentation/ABI/testing/sysfs-bus-pci#L344-L355
2023-06-08 04:48:07.509267: I external/org_tensorflow/tensorflow/compiler/xla/stream_executor/cuda/cuda_gpu_executor.cc:996] successful NUMA node read from SysFS had negative value (-1), but there must be at least one NUMA node, so returning NUMA node zero. See more at https://github.com/torvalds/linux/blob/v6.0/Documentation/ABI/testing/sysfs-bus-pci#L344-L355
2023-06-08 04:48:07.511569: I external/org_tensorflow/tensorflow/compiler/xla/stream_executor/cuda/cuda_gpu_executor.cc:996] successful NUMA node read from SysFS had negative value (-1), but there must be at least one NUMA node, so returning NUMA node zero. See more at https://github.com/torvalds/linux/blob/v6.0/Documentation/ABI/testing/sysfs-bus-pci#L344-L355
2023-06-08 04:48:07.513862: I external/org_tensorflow/tensorflow/compiler/xla/stream_executor/cuda/cuda_gpu_executor.cc:996] successful NUMA node read from SysFS had negative value (-1), but there must be at least one NUMA node, so returning NUMA node zero. See more at https://github.com/torvalds/linux/blob/v6.0/Documentation/ABI/testing/sysfs-bus-pci#L344-L355
2023-06-08 04:48:07.516173: I external/org_tensorflow/tensorflow/compiler/xla/stream_executor/cuda/cuda_gpu_executor.cc:996] successful NUMA node read from SysFS had negative value (-1), but there must be at least one NUMA node, so returning NUMA node zero. See more at https://github.com/torvalds/linux/blob/v6.0/Documentation/ABI/testing/sysfs-bus-pci#L344-L355
2023-06-08 04:48:07.518569: I external/org_tensorflow/tensorflow/compiler/xla/stream_executor/cuda/cuda_gpu_executor.cc:996] successful NUMA node read from SysFS had negative value (-1), but there must be at least one NUMA node, so returning NUMA node zero. See more at https://github.com/torvalds/linux/blob/v6.0/Documentation/ABI/testing/sysfs-bus-pci#L344-L355
2023-06-08 04:48:10.029277: I external/org_tensorflow/tensorflow/compiler/xla/stream_executor/cuda/cuda_gpu_executor.cc:996] successful NUMA node read from SysFS had negative value (-1), but there must be at least one NUMA node, so returning NUMA node zero. See more at https://github.com/torvalds/linux/blob/v6.0/Documentation/ABI/testing/sysfs-bus-pci#L344-L355
2023-06-08 04:48:10.031801: I external/org_tensorflow/tensorflow/compiler/xla/stream_executor/cuda/cuda_gpu_executor.cc:996] successful NUMA node read from SysFS had negative value (-1), but there must be at least one NUMA node, so returning NUMA node zero. See more at https://github.com/torvalds/linux/blob/v6.0/Documentation/ABI/testing/sysfs-bus-pci#L344-L355
2023-06-08 04:48:10.034214: I external/org_tensorflow/tensorflow/compiler/xla/stream_executor/cuda/cuda_gpu_executor.cc:996] successful NUMA node read from SysFS had negative value (-1), but there must be at least one NUMA node, so returning NUMA node zero. See more at https://github.com/torvalds/linux/blob/v6.0/Documentation/ABI/testing/sysfs-bus-pci#L344-L355
2023-06-08 04:48:10.036595: I external/org_tensorflow/tensorflow/compiler/xla/stream_executor/cuda/cuda_gpu_executor.cc:996] successful NUMA node read from SysFS had negative value (-1), but there must be at least one NUMA node, so returning NUMA node zero. See more at https://github.com/torvalds/linux/blob/v6.0/Documentation/ABI/testing/sysfs-bus-pci#L344-L355
2023-06-08 04:48:10.038951: I external/org_tensorflow/tensorflow/compiler/xla/stream_executor/cuda/cuda_gpu_executor.cc:996] successful NUMA node read from SysFS had negative value (-1), but there must be at least one NUMA node, so returning NUMA node zero. See more at https://github.com/torvalds/linux/blob/v6.0/Documentation/ABI/testing/sysfs-bus-pci#L344-L355
2023-06-08 04:48:10.041288: I external/org_tensorflow/tensorflow/compiler/xla/stream_executor/cuda/cuda_gpu_executor.cc:996] successful NUMA node read from SysFS had negative value (-1), but there must be at least one NUMA node, so returning NUMA node zero. See more at https://github.com/torvalds/linux/blob/v6.0/Documentation/ABI/testing/sysfs-bus-pci#L344-L355
2023-06-08 04:48:10.043627: I external/org_tensorflow/tensorflow/compiler/xla/stream_executor/cuda/cuda_gpu_executor.cc:996] successful NUMA node read from SysFS had negative value (-1), but there must be at least one NUMA node, so returning NUMA node zero. See more at https://github.com/torvalds/linux/blob/v6.0/Documentation/ABI/testing/sysfs-bus-pci#L344-L355
2023-06-08 04:48:10.045966: I external/org_tensorflow/tensorflow/compiler/xla/stream_executor/cuda/cuda_gpu_executor.cc:996] successful NUMA node read from SysFS had negative value (-1), but there must be at least one NUMA node, so returning NUMA node zero. See more at https://github.com/torvalds/linux/blob/v6.0/Documentation/ABI/testing/sysfs-bus-pci#L344-L355
2023-06-08 04:48:10.048325: I external/org_tensorflow/tensorflow/compiler/xla/stream_executor/cuda/cuda_gpu_executor.cc:996] successful NUMA node read from SysFS had negative value (-1), but there must be at least one NUMA node, so returning NUMA node zero. See more at https://github.com/torvalds/linux/blob/v6.0/Documentation/ABI/testing/sysfs-bus-pci#L344-L355
2023-06-08 04:48:10.050648: I external/org_tensorflow/tensorflow/compiler/xla/stream_executor/cuda/cuda_gpu_executor.cc:996] successful NUMA node read from SysFS had negative value (-1), but there must be at least one NUMA node, so returning NUMA node zero. See more at https://github.com/torvalds/linux/blob/v6.0/Documentation/ABI/testing/sysfs-bus-pci#L344-L355
2023-06-08 04:48:10.052971: I external/org_tensorflow/tensorflow/compiler/xla/stream_executor/cuda/cuda_gpu_executor.cc:996] successful NUMA node read from SysFS had negative value (-1), but there must be at least one NUMA node, so returning NUMA node zero. See more at https://github.com/torvalds/linux/blob/v6.0/Documentation/ABI/testing/sysfs-bus-pci#L344-L355
2023-06-08 04:48:10.055310: I external/org_tensorflow/tensorflow/compiler/xla/stream_executor/cuda/cuda_gpu_executor.cc:996] successful NUMA node read from SysFS had negative value (-1), but there must be at least one NUMA node, so returning NUMA node zero. See more at https://github.com/torvalds/linux/blob/v6.0/Documentation/ABI/testing/sysfs-bus-pci#L344-L355
2023-06-08 04:48:10.057620: I external/org_tensorflow/tensorflow/compiler/xla/stream_executor/cuda/cuda_gpu_executor.cc:996] successful NUMA node read from SysFS had negative value (-1), but there must be at least one NUMA node, so returning NUMA node zero. See more at https://github.com/torvalds/linux/blob/v6.0/Documentation/ABI/testing/sysfs-bus-pci#L344-L355
2023-06-08 04:48:10.059951: I external/org_tensorflow/tensorflow/compiler/xla/stream_executor/cuda/cuda_gpu_executor.cc:996] successful NUMA node read from SysFS had negative value (-1), but there must be at least one NUMA node, so returning NUMA node zero. See more at https://github.com/torvalds/linux/blob/v6.0/Documentation/ABI/testing/sysfs-bus-pci#L344-L355
2023-06-08 04:48:10.062252: I external/org_tensorflow/tensorflow/compiler/xla/stream_executor/cuda/cuda_gpu_executor.cc:996] successful NUMA node read from SysFS had negative value (-1), but there must be at least one NUMA node, so returning NUMA node zero. See more at https://github.com/torvalds/linux/blob/v6.0/Documentation/ABI/testing/sysfs-bus-pci#L344-L355
2023-06-08 04:48:10.064777: I external/org_tensorflow/tensorflow/compiler/xla/stream_executor/cuda/cuda_gpu_executor.cc:996] successful NUMA node read from SysFS had negative value (-1), but there must be at least one NUMA node, so returning NUMA node zero. See more at https://github.com/torvalds/linux/blob/v6.0/Documentation/ABI/testing/sysfs-bus-pci#L344-L355
2023-06-08 04:48:10.067112: I external/org_tensorflow/tensorflow/compiler/xla/stream_executor/cuda/cuda_gpu_executor.cc:996] successful NUMA node read from SysFS had negative value (-1), but there must be at least one NUMA node, so returning NUMA node zero. See more at https://github.com/torvalds/linux/blob/v6.0/Documentation/ABI/testing/sysfs-bus-pci#L344-L355
2023-06-08 04:48:10.069421: I external/org_tensorflow/tensorflow/core/common_runtime/gpu/gpu_device.cc:1635] Created device /job:localhost/replica:0/task:0/device:GPU:0 with 79147 MB memory:  -> device: 0, name: NVIDIA A100-SXM4-80GB, pci bus id: 0000:00:07.0, compute capability: 8.0
2023-06-08 04:48:10.070513: I external/org_tensorflow/tensorflow/compiler/xla/stream_executor/cuda/cuda_gpu_executor.cc:996] successful NUMA node read from SysFS had negative value (-1), but there must be at least one NUMA node, so returning NUMA node zero. See more at https://github.com/torvalds/linux/blob/v6.0/Documentation/ABI/testing/sysfs-bus-pci#L344-L355
2023-06-08 04:48:10.072793: I external/org_tensorflow/tensorflow/core/common_runtime/gpu/gpu_device.cc:1635] Created device /job:localhost/replica:0/task:0/device:GPU:1 with 79149 MB memory:  -> device: 1, name: NVIDIA A100-SXM4-80GB, pci bus id: 0000:00:08.0, compute capability: 8.0
2023-06-08 04:48:10.073344: I external/org_tensorflow/tensorflow/compiler/xla/stream_executor/cuda/cuda_gpu_executor.cc:996] successful NUMA node read from SysFS had negative value (-1), but there must be at least one NUMA node, so returning NUMA node zero. See more at https://github.com/torvalds/linux/blob/v6.0/Documentation/ABI/testing/sysfs-bus-pci#L344-L355
2023-06-08 04:48:10.075628: I external/org_tensorflow/tensorflow/core/common_runtime/gpu/gpu_device.cc:1635] Created device /job:localhost/replica:0/task:0/device:GPU:2 with 79149 MB memory:  -> device: 2, name: NVIDIA A100-SXM4-80GB, pci bus id: 0000:00:09.0, compute capability: 8.0
2023-06-08 04:48:10.076160: I external/org_tensorflow/tensorflow/compiler/xla/stream_executor/cuda/cuda_gpu_executor.cc:996] successful NUMA node read from SysFS had negative value (-1), but there must be at least one NUMA node, so returning NUMA node zero. See more at https://github.com/torvalds/linux/blob/v6.0/Documentation/ABI/testing/sysfs-bus-pci#L344-L355
2023-06-08 04:48:10.078424: I external/org_tensorflow/tensorflow/core/common_runtime/gpu/gpu_device.cc:1635] Created device /job:localhost/replica:0/task:0/device:GPU:3 with 79149 MB memory:  -> device: 3, name: NVIDIA A100-SXM4-80GB, pci bus id: 0000:00:0a.0, compute capability: 8.0
2023-06-08 04:48:10.078975: I external/org_tensorflow/tensorflow/compiler/xla/stream_executor/cuda/cuda_gpu_executor.cc:996] successful NUMA node read from SysFS had negative value (-1), but there must be at least one NUMA node, so returning NUMA node zero. See more at https://github.com/torvalds/linux/blob/v6.0/Documentation/ABI/testing/sysfs-bus-pci#L344-L355
2023-06-08 04:48:10.081243: I external/org_tensorflow/tensorflow/core/common_runtime/gpu/gpu_device.cc:1635] Created device /job:localhost/replica:0/task:0/device:GPU:4 with 79149 MB memory:  -> device: 4, name: NVIDIA A100-SXM4-80GB, pci bus id: 0000:00:0b.0, compute capability: 8.0
2023-06-08 04:48:10.081769: I external/org_tensorflow/tensorflow/compiler/xla/stream_executor/cuda/cuda_gpu_executor.cc:996] successful NUMA node read from SysFS had negative value (-1), but there must be at least one NUMA node, so returning NUMA node zero. See more at https://github.com/torvalds/linux/blob/v6.0/Documentation/ABI/testing/sysfs-bus-pci#L344-L355
2023-06-08 04:48:10.084046: I external/org_tensorflow/tensorflow/core/common_runtime/gpu/gpu_device.cc:1635] Created device /job:localhost/replica:0/task:0/device:GPU:5 with 79149 MB memory:  -> device: 5, name: NVIDIA A100-SXM4-80GB, pci bus id: 0000:00:0c.0, compute capability: 8.0
2023-06-08 04:48:10.084572: I external/org_tensorflow/tensorflow/compiler/xla/stream_executor/cuda/cuda_gpu_executor.cc:996] successful NUMA node read from SysFS had negative value (-1), but there must be at least one NUMA node, so returning NUMA node zero. See more at https://github.com/torvalds/linux/blob/v6.0/Documentation/ABI/testing/sysfs-bus-pci#L344-L355
2023-06-08 04:48:10.086838: I external/org_tensorflow/tensorflow/core/common_runtime/gpu/gpu_device.cc:1635] Created device /job:localhost/replica:0/task:0/device:GPU:6 with 79149 MB memory:  -> device: 6, name: NVIDIA A100-SXM4-80GB, pci bus id: 0000:00:0d.0, compute capability: 8.0
2023-06-08 04:48:10.087349: I external/org_tensorflow/tensorflow/compiler/xla/stream_executor/cuda/cuda_gpu_executor.cc:996] successful NUMA node read from SysFS had negative value (-1), but there must be at least one NUMA node, so returning NUMA node zero. See more at https://github.com/torvalds/linux/blob/v6.0/Documentation/ABI/testing/sysfs-bus-pci#L344-L355
2023-06-08 04:48:10.089604: I external/org_tensorflow/tensorflow/core/common_runtime/gpu/gpu_device.cc:1635] Created device /job:localhost/replica:0/task:0/device:GPU:7 with 79149 MB memory:  -> device: 7, name: NVIDIA A100-SXM4-80GB, pci bus id: 0000:00:0e.0, compute capability: 8.0
2023-06-08 04:48:10.130536: I mlir/disc/tests/mlir_test.cc:467] --- TF Execution uses: 22.278 ms
2023-06-08 04:48:10.130559: I mlir/disc/tests/mlir_test.cc:474] 	output shape #0: [100,13]
2023-06-08 04:48:10.130856: I mlir/disc/tests/mlir_test.cc:467] --- TF Execution uses: 0.289 ms
2023-06-08 04:48:10.130862: I mlir/disc/tests/mlir_test.cc:474] 	output shape #0: [100,13]
2023-06-08 04:48:10.131144: I mlir/disc/tests/mlir_test.cc:467] --- TF Execution uses: 0.277 ms
2023-06-08 04:48:10.131148: I mlir/disc/tests/mlir_test.cc:474] 	output shape #0: [100,13]
2023-06-08 04:48:10.131413: I mlir/disc/tests/mlir_test.cc:467] --- TF Execution uses: 0.26 ms
2023-06-08 04:48:10.131417: I mlir/disc/tests/mlir_test.cc:474] 	output shape #0: [100,13]
2023-06-08 04:48:10.131791: I mlir/disc/tests/mlir_test.cc:467] --- TF Execution uses: 0.369 ms
2023-06-08 04:48:10.131795: I mlir/disc/tests/mlir_test.cc:474] 	output shape #0: [100,13]
2023-06-08 04:48:10.131804: I mlir/disc/tests/mlir_test.cc:484] processing output 0
2023-06-08 04:48:10.133527: I ./mlir/disc/tests/mlir_feature_test.h:37] Unset env setting:
[       OK ] TFMaxOpTest.ColReduceFullyDynamicShape3DF32 (4824 ms)
[----------] 1 test from TFMaxOpTest (4824 ms total)

[----------] Global test environment tear-down
[==========] 1 test from 1 test suite ran. (4824 ms total)
[  PASSED  ] 1 test.
