exec ${PAGER:-/usr/bin/less} "$0" || exit 1
Executing tests from //mlir/disc/tests/tensorflow_ops:max.cpp.test
-----------------------------------------------------------------------------
[==========] Running 1 test from 1 test suite.
[----------] Global test environment set-up.
[----------] 1 test from TFMaxOpTest
[ RUN      ] TFMaxOpTest.ColReduceStaticShape3DF32
2023-06-28 15:08:16.332652: I ./mlir/disc/tests/mlir_feature_test.h:29] Apply env setting:
2023-06-28 15:08:16.332711: I ./mlir/disc/tests/mlir_feature_test.h:31] 	DISC_MEM_INTENSIVE_OPT_EXPERIMENTAL = true
2023-06-28 15:08:16.332715: I ./mlir/disc/tests/mlir_feature_test.h:31] 	DISC_ENABLE_STITCH = true
2023-06-28 15:08:16.332719: I mlir/disc/tests/mlir_feature_test.cc:271] Testing for CUDA backend
2023-06-28 15:08:16.333516: I mlir/disc/tests/mlir_feature_test.cc:145] Original TF code: func.func @main(%arg0: tensor<110x100x13xf32>) -> tensor<100x13xf32> attributes {tf.entry_function = {inputs = "{{INPUTS}}", outputs = "{{OUTPUTS}}", input_placements="{{INPUT_PLACEMENTS}}", output_placements="{{OUTPUT_PLACEMENTS}}"}} {
  %graph = tf_executor.graph {
    %1:2 = tf_executor.island wraps "tf.Const"() {value = dense<[0]> : tensor<1xi32>} : () -> tensor<1xi32>
    %2:2 = tf_executor.island wraps "tf.Max"(%arg0, %1) {keep_dims = false} : (tensor<110x100x13xf32>, tensor<1xi32>) -> tensor<100x13xf32>
    tf_executor.fetch %2 : tensor<100x13xf32>
  }
  return %graph : tensor<100x13xf32>
}
2023-06-28 15:08:16.333542: I mlir/disc/tests/mlir_feature_test.cc:149] New TF code: func.func @main(%arg0: tensor<110x100x13xf32>) -> tensor<100x13xf32> attributes {tf.entry_function = {inputs = "input0", outputs = "output0", input_placements="gpu", output_placements="gpu"}} {
  %graph = tf_executor.graph {
    %1:2 = tf_executor.island wraps "tf.Const"() {value = dense<[0]> : tensor<1xi32>} : () -> tensor<1xi32>
    %2:2 = tf_executor.island wraps "tf.Max"(%arg0, %1) {keep_dims = false} : (tensor<110x100x13xf32>, tensor<1xi32>) -> tensor<100x13xf32>
    tf_executor.fetch %2 : tensor<100x13xf32>
  }
  return %graph : tensor<100x13xf32>
}
2023-06-28 15:08:16.333881: I mlir/disc/tests/mlir_test.cc:233] tf_opt_pat: external/org_tensorflow/tensorflow/compiler/mlir/tf-opt
2023-06-28 15:08:16.333889: I mlir/disc/tests/mlir_test.cc:234] mlir_file_path: /root/.cache/bazel/_bazel_root/54ece412abe75fa85ab728a2c061e33c/execroot/org_disc_compiler/_tmp/b247c1654ecfc81b23b002417f617bea/tempfile-adf59ec6ac82-139e1c75-42725-5ff31f40a0ef9
2023-06-28 15:08:16.333892: I mlir/disc/tests/mlir_test.cc:235] tmp_dir: /root/.cache/bazel/_bazel_root/54ece412abe75fa85ab728a2c061e33c/execroot/org_disc_compiler/_tmp/b247c1654ecfc81b23b002417f617bea
2023-06-28 15:08:16.333895: I mlir/disc/tests/mlir_test.cc:236] test_name: ColReduceStaticShape3DF32_0
2023-06-28 15:08:16.333904: I mlir/disc/tests/mlir_test.cc:284] tf_opt_path: external/org_tensorflow/tensorflow/compiler/mlir/tf-opt

2023-06-28 15:08:16.333910: I mlir/disc/tests/mlir_test.cc:257] program_path: external/org_tensorflow/tensorflow/compiler/mlir/tf-opt

2023-06-28 15:08:16.387234: I mlir/disc/tests/mlir_test.cc:269] Executed: external/org_tensorflow/tensorflow/compiler/mlir/tf-opt --tf-standard-pipeline /root/.cache/bazel/_bazel_root/54ece412abe75fa85ab728a2c061e33c/execroot/org_disc_compiler/_tmp/b247c1654ecfc81b23b002417f617bea/tempfile-adf59ec6ac82-139e1c75-42725-5ff31f40a0ef9 -o /root/.cache/bazel/_bazel_root/54ece412abe75fa85ab728a2c061e33c/execroot/org_disc_compiler/_tmp/b247c1654ecfc81b23b002417f617beaColReduceStaticShape3DF32_0_tf_dialect.mlir 
2023-06-28 15:08:16.387247: I mlir/disc/tests/mlir_test.cc:270] external/org_tensorflow/tensorflow/compiler/mlir/tf-opt: 0
2023-06-28 15:08:16.387250: I mlir/disc/tests/mlir_test.cc:271] -- stdout:

============ END ============

2023-06-28 15:08:16.387253: I mlir/disc/tests/mlir_test.cc:273] -- stderr:
2023-06-28 15:08:16.376335: I external/org_tensorflow/tensorflow/core/platform/cpu_feature_guard.cc:182] This TensorFlow binary is optimized to use available CPU instructions in performance-critical operations.
To enable the following instructions: SSE3 SSE4.1 SSE4.2 AVX AVX2 AVX512F AVX512_VNNI FMA, in other operations, rebuild TensorFlow with the appropriate compiler flags.

============ END ============

2023-06-28 15:08:16.387267: I mlir/disc/tests/mlir_test.cc:275] ret: 0

2023-06-28 15:08:16.387280: I mlir/disc/tests/mlir_test.cc:257] program_path: mlir/disc/disc_compiler_main

2023-06-28 15:08:17.672095: I mlir/disc/tests/mlir_test.cc:269] Executed: mlir/disc/disc_compiler_main --mlir-print-elementsattrs-with-hex-if-larger -1 --mlir-elide-elementsattrs-if-larger 8 /root/.cache/bazel/_bazel_root/54ece412abe75fa85ab728a2c061e33c/execroot/org_disc_compiler/_tmp/b247c1654ecfc81b23b002417f617beaColReduceStaticShape3DF32_0_tf_dialect.mlir /root/.cache/bazel/_bazel_root/54ece412abe75fa85ab728a2c061e33c/execroot/org_disc_compiler/_tmp/b247c1654ecfc81b23b002417f617beaColReduceStaticShape3DF32_0.so 
2023-06-28 15:08:17.672119: I mlir/disc/tests/mlir_test.cc:270] mlir/disc/disc_compiler_main: 0
2023-06-28 15:08:17.672123: I mlir/disc/tests/mlir_test.cc:271] -- stdout:

============ END ============

2023-06-28 15:08:17.672503: I mlir/disc/tests/mlir_test.cc:273] -- stderr:
======== BEGIN Original Module =========
module {
  func.func @main(%arg0: tensor<110x100x13xf32>) -> tensor<100x13xf32> attributes {tf.entry_function = {input_placements = "gpu", inputs = "input0", output_placements = "gpu", outputs = "output0"}} {
    %cst = "tf.Const"() {value = dense<0> : tensor<1xi32>} : () -> tensor<1xi32>
    %0 = "tf.Max"(%arg0, %cst) {keep_dims = false} : (tensor<110x100x13xf32>, tensor<1xi32>) -> tensor<100x13xf32>
    return %0 : tensor<100x13xf32>
  }
}

======= END Original Module ==========
[DISC] Load Input IR takes: 1.909000e-03 s.
[[ INFO ]] Running TF2XLA
2023-06-28 15:08:16.433851: I external/org_tensorflow/tensorflow/core/platform/cpu_feature_guard.cc:182] This TensorFlow binary is optimized to use available CPU instructions in performance-critical operations.
To enable the following instructions: SSE3 SSE4.1 SSE4.2 AVX AVX2 AVX512F AVX512_VNNI FMA, in other operations, rebuild TensorFlow with the appropriate compiler flags.
// -----// IR Dump After SCCP (sccp) //----- //
module {
  func.func @main(%arg0: tensor<110x100x13xf32>) -> tensor<100x13xf32> attributes {tf.entry_function = {input_placements = "gpu", inputs = "input0", output_placements = "gpu", outputs = "output0"}} {
    %cst = "tf.Const"() {value = dense<0> : tensor<1xi32>} : () -> tensor<1xi32>
    %0 = "tf.Max"(%arg0, %cst) {keep_dims = false} : (tensor<110x100x13xf32>, tensor<1xi32>) -> tensor<100x13xf32>
    return %0 : tensor<100x13xf32>
  }
}


// -----// IR Dump After SCCP (sccp) //----- //
module {
  func.func @main(%arg0: tensor<110x100x13xf32>) -> tensor<100x13xf32> attributes {tf.entry_function = {input_placements = "gpu", inputs = "input0", output_placements = "gpu", outputs = "output0"}} {
    %cst = "tf.Const"() {value = dense<0> : tensor<1xi32>} : () -> tensor<1xi32>
    %0 = "tf.Max"(%arg0, %cst) {keep_dims = false} : (tensor<110x100x13xf32>, tensor<1xi32>) -> tensor<100x13xf32>
    return %0 : tensor<100x13xf32>
  }
}


// -----// IR Dump After LegalizeTF (xla-legalize-tf) //----- //
func.func @main(%arg0: tensor<110x100x13xf32>) -> tensor<100x13xf32> attributes {tf.entry_function = {input_placements = "gpu", inputs = "input0", output_placements = "gpu", outputs = "output0"}} {
  %0 = mhlo.constant dense<0> : tensor<1xi32>
  %1 = mhlo.convert %arg0 : tensor<110x100x13xf32>
  %2 = mhlo.constant dense<0xFF800000> : tensor<f32>
  %3 = mhlo.reduce(%1 init: %2) applies mhlo.maximum across dimensions = [0] : (tensor<110x100x13xf32>, tensor<f32>) -> tensor<100x13xf32>
  %4 = mhlo.convert %3 : tensor<100x13xf32>
  return %4 : tensor<100x13xf32>
}

// -----// IR Dump After DiscLowerTfPass (disc-lower-tf) //----- //
func.func @main(%arg0: tensor<110x100x13xf32>) -> tensor<100x13xf32> attributes {tf.entry_function = {input_placements = "gpu", inputs = "input0", output_placements = "gpu", outputs = "output0"}} {
  %0 = mhlo.constant dense<0xFF800000> : tensor<f32>
  %1 = mhlo.reduce(%arg0 init: %0) applies mhlo.maximum across dimensions = [0] : (tensor<110x100x13xf32>, tensor<f32>) -> tensor<100x13xf32>
  return %1 : tensor<100x13xf32>
}

===-------------------------------------------------------------------------===
                         ... Execution time report ...
===-------------------------------------------------------------------------===
  Total Execution Time: 0.0078 seconds

  ----Wall Time----  ----Name----
    0.0000 (  0.6%)  ReviseArgumentsForStaticRankPass
    0.0000 (  0.1%)  FunctionalControlFlowToRegionsPass
    0.0040 ( 51.6%)  Inliner
    0.0000 (  0.3%)    (A) CallGraph
    0.0038 ( 48.7%)  'func.func' Pipeline
    0.0038 ( 48.7%)    Canonicalizer
    0.0001 (  1.0%)  'func.func' Pipeline
    0.0000 (  0.0%)    DropWhileShapeInvariantPass
    0.0000 (  0.0%)    ReplicateTensorListInitOpsPass
    0.0001 (  0.9%)    Canonicalizer
    0.0002 (  2.3%)  SCCP
    0.0000 (  0.2%)  GuaranteeAllFuncsOneUsePass
    0.0000 (  0.0%)    (A) CallGraph
    0.0000 (  0.1%)  TensorFlowShapeInferencePass
    0.0001 (  1.7%)  SCCP
    0.0000 (  0.1%)  TensorListOpsDecompositionPass
    0.0000 (  0.1%)  StackOpsDecompositionPass
    0.0000 (  0.1%)  TensorArrayOpsDecompositionPass
    0.0000 (  0.5%)  'func.func' Pipeline
    0.0000 (  0.5%)    DecomposeResourceOpsPass
    0.0000 (  0.2%)  PromoteResourcesToArgsPass
    0.0000 (  0.1%)  SymbolDCE
    0.0000 (  0.1%)  'func.func' Pipeline
    0.0000 (  0.1%)    SinkConstantsToControlFlowPass
    0.0000 (  0.1%)  TensorFlowShapeInferencePass
    0.0002 (  2.9%)  StablehloLegalizeToHloPass
    0.0000 (  0.6%)  'func.func' Pipeline
    0.0000 (  0.4%)    DiscLowerTfPass
    0.0000 (  0.2%)    LowerQuantizedPass
    0.0000 (  0.2%)  LegalizeTfTypesPass
    0.0009 ( 11.4%)  'func.func' Pipeline
    0.0007 (  9.4%)    LegalizeTF
    0.0001 (  1.8%)    DiscLowerTfPass
    0.0000 (  0.1%)    mlir::mhlo::{anonymous}::AdjustLayout
    0.0000 (  0.2%)  LegalizeTFCollective
    0.0001 (  0.9%)  'func.func' Pipeline
    0.0001 (  0.8%)    Canonicalizer
    0.0000 (  0.1%)  TensorFlowShapeInferencePass
    0.0004 (  4.6%)  'func.func' Pipeline
    0.0004 (  4.6%)    LegalizeTF
    0.0000 (  0.1%)  LegalizeTFCommunicationPass
    0.0000 (  0.5%)  'func.func' Pipeline
    0.0000 (  0.4%)    DiscDynamicSliceConverterPass
    0.0000 (  0.1%)    SinkConstantsToControlFlowPass
   -0.0023 (-29.4%)  Rest
    0.0078 (100.0%)  Total
======== BEGIN After TF2HLO =========
module {
  func.func @main(%arg0: tensor<110x100x13xf32>) -> tensor<100x13xf32> attributes {tf.entry_function = {input_placements = "gpu", inputs = "input0", output_placements = "gpu", outputs = "output0"}} {
    %0 = mhlo.constant dense<0xFF800000> : tensor<f32>
    %1 = mhlo.reduce(%arg0 init: %0) applies mhlo.maximum across dimensions = [0] : (tensor<110x100x13xf32>, tensor<f32>) -> tensor<100x13xf32>
    return %1 : tensor<100x13xf32>
  }
}

======= END After TF2HLO ==========
[DISC] tf2hlo takes: 8.119000e-03 s.
SymbolicDimMgr::save walkRankedTensorValue takes: 1 us
SymbolicDimMgr::save update attributes takes: 0 us
SymbolicDimMgr::updateProductEqualityMap simplifySymbolicDimProductPair takes: 0 us
productSet.size() = 0
SymbolicDimMgr::updateProductEqualityMap propagate graph takes: 1 us
SymbolicDimMgr::updateProductEqualityMap remove multiply takes: 0 us
SymbolicDimMgr::updateProductEqualityMap build toRemove  takes: 0 us
SymbolicDimMgr::updateProductEqualityMap apply toRemove  takes: 0 us
SymbolicDimMgr::save updateProductEqualityMap takes: 11 us
SymbolicDimMgr::save updateFunctionType takes: 1 us
SymbolicDimMgr::save collect symbolicDim ops takes: 1 us
SymbolicDimMgr::save remove symbolicDim ops takes: 0 us
SymbolicDimMgr::save remove unused production takes: 0 us
SymbolicDimMgr::save remove unused production #2 takes: 0 us
SymbolicDimMgr::save canonicalize the name takes: 0 us
SymbolicDimMgr::save replace the name takes: 0 us
SymbolicDimMgr::save updateFunctionType takes: 0 us
// -----// IR Dump After DiscShapeOptimizationPass (disc-shape-optimization) //----- //
module {
  func.func @main(%arg0: tensor<110x100x13xf32>) -> tensor<100x13xf32> attributes {tf.entry_function = {input_placements = "gpu", inputs = "input0", output_placements = "gpu", outputs = "output0"}} {
    %0 = mhlo.constant dense<0xFF800000> : tensor<f32>
    %1 = mhlo.reduce(%arg0 init: %0) applies mhlo.maximum across dimensions = [0] : (tensor<110x100x13xf32>, tensor<f32>) -> tensor<100x13xf32>
    return %1 : tensor<100x13xf32>
  }
  func.func @shape_constraint_graph() {
    return
  }
}


SymbolicDimMgr::save walkRankedTensorValue takes: 0 us
SymbolicDimMgr::save update attributes takes: 0 us
SymbolicDimMgr::updateProductEqualityMap simplifySymbolicDimProductPair takes: 0 us
productSet.size() = 0
SymbolicDimMgr::updateProductEqualityMap propagate graph takes: 1 us
SymbolicDimMgr::updateProductEqualityMap remove multiply takes: 0 us
SymbolicDimMgr::updateProductEqualityMap build toRemove  takes: 0 us
SymbolicDimMgr::updateProductEqualityMap apply toRemove  takes: 0 us
SymbolicDimMgr::save updateProductEqualityMap takes: 12 us
SymbolicDimMgr::save updateFunctionType takes: 1 us
SymbolicDimMgr::save collect symbolicDim ops takes: 1 us
SymbolicDimMgr::save remove symbolicDim ops takes: 0 us
SymbolicDimMgr::save remove unused production takes: 0 us
SymbolicDimMgr::save remove unused production #2 takes: 0 us
SymbolicDimMgr::save canonicalize the name takes: 0 us
SymbolicDimMgr::save replace the name takes: 0 us
SymbolicDimMgr::save updateFunctionType takes: 0 us
// -----// IR Dump After DiscShapeOptimizationPass (disc-shape-optimization) //----- //
module {
  func.func @main(%arg0: tensor<110x100x13xf32>) -> tensor<100x13xf32> attributes {tf.entry_function = {input_placements = "gpu", inputs = "input0", output_placements = "gpu", outputs = "output0"}} {
    %0 = mhlo.constant dense<0xFF800000> : tensor<f32>
    %1 = mhlo.reduce(%arg0 init: %0) applies mhlo.maximum across dimensions = [0] : (tensor<110x100x13xf32>, tensor<f32>) -> tensor<100x13xf32>
    return %1 : tensor<100x13xf32>
  }
  func.func @shape_constraint_graph() {
    return
  }
}


SymbolicDimMgr::save walkRankedTensorValue takes: 0 us
SymbolicDimMgr::save update attributes takes: 0 us
SymbolicDimMgr::updateProductEqualityMap simplifySymbolicDimProductPair takes: 0 us
productSet.size() = 0
SymbolicDimMgr::updateProductEqualityMap propagate graph takes: 1 us
SymbolicDimMgr::updateProductEqualityMap remove multiply takes: 0 us
SymbolicDimMgr::updateProductEqualityMap build toRemove  takes: 0 us
SymbolicDimMgr::updateProductEqualityMap apply toRemove  takes: 0 us
SymbolicDimMgr::save updateProductEqualityMap takes: 13 us
SymbolicDimMgr::save updateFunctionType takes: 0 us
SymbolicDimMgr::save collect symbolicDim ops takes: 1 us
SymbolicDimMgr::save remove symbolicDim ops takes: 0 us
SymbolicDimMgr::save remove unused production takes: 0 us
SymbolicDimMgr::save remove unused production #2 takes: 0 us
SymbolicDimMgr::save canonicalize the name takes: 0 us
SymbolicDimMgr::save replace the name takes: 0 us
SymbolicDimMgr::save updateFunctionType takes: 0 us
// -----// IR Dump After DiscShapeOptimizationPass (disc-shape-optimization) //----- //
module {
  func.func @main(%arg0: tensor<110x100x13xf32>) -> tensor<100x13xf32> attributes {tf.entry_function = {input_placements = "gpu", inputs = "input0", output_placements = "gpu", outputs = "output0"}} {
    %0 = mhlo.constant dense<0xFF800000> : tensor<f32>
    %1 = mhlo.reduce(%arg0 init: %0) applies mhlo.maximum across dimensions = [0] : (tensor<110x100x13xf32>, tensor<f32>) -> tensor<100x13xf32>
    return %1 : tensor<100x13xf32>
  }
  func.func @shape_constraint_graph() {
    return
  }
}


// -----// IR Dump After HloCanonicalizeReductionPass (hlo-canonicalize-reduction) //----- //
func.func @main(%arg0: tensor<110x100x13xf32>) -> tensor<100x13xf32> attributes {tf.entry_function = {input_placements = "gpu", inputs = "input0", output_placements = "gpu", outputs = "output0"}} {
  %0 = mhlo.constant dense<0xFF800000> : tensor<f32>
  %c1_i32 = arith.constant 1 : i32
  %c0 = arith.constant 0 : index
  %dim = tensor.dim %arg0, %c0 : tensor<110x100x13xf32>
  %1 = arith.index_cast %dim : index to i32
  %2 = arith.muli %c1_i32, %1 : i32
  %c1 = arith.constant 1 : index
  %dim_0 = tensor.dim %arg0, %c1 : tensor<110x100x13xf32>
  %3 = arith.index_cast %dim_0 : index to i32
  %4 = arith.muli %c1_i32, %3 : i32
  %c2 = arith.constant 2 : index
  %dim_1 = tensor.dim %arg0, %c2 : tensor<110x100x13xf32>
  %5 = arith.index_cast %dim_1 : index to i32
  %6 = arith.muli %4, %5 : i32
  %from_elements = tensor.from_elements %2, %6 : tensor<2xi32>
  %7 = mhlo.dynamic_reshape %arg0, %from_elements : (tensor<110x100x13xf32>, tensor<2xi32>) -> tensor<?x?xf32>
  %8 = mhlo.reduce(%7 init: %0) applies mhlo.maximum across dimensions = [0] : (tensor<?x?xf32>, tensor<f32>) -> tensor<?xf32>
  %c1_2 = arith.constant 1 : index
  %dim_3 = tensor.dim %arg0, %c1_2 : tensor<110x100x13xf32>
  %9 = arith.index_cast %dim_3 : index to i32
  %c2_4 = arith.constant 2 : index
  %dim_5 = tensor.dim %arg0, %c2_4 : tensor<110x100x13xf32>
  %10 = arith.index_cast %dim_5 : index to i32
  %from_elements_6 = tensor.from_elements %9, %10 : tensor<2xi32>
  %11 = mhlo.dynamic_reshape %8, %from_elements_6 : (tensor<?xf32>, tensor<2xi32>) -> tensor<100x13xf32>
  return %11 : tensor<100x13xf32>
}

SymbolicDimMgr::save walkRankedTensorValue takes: 1 us
SymbolicDimMgr::save update attributes takes: 1 us
SymbolicDimMgr::updateProductEqualityMap simplifySymbolicDimProductPair takes: 2 us
productSet.size() = 0
SymbolicDimMgr::updateProductEqualityMap propagate graph takes: 1 us
SymbolicDimMgr::updateProductEqualityMap remove multiply takes: 0 us
SymbolicDimMgr::updateProductEqualityMap build toRemove  takes: 0 us
SymbolicDimMgr::updateProductEqualityMap apply toRemove  takes: 0 us
SymbolicDimMgr::save updateProductEqualityMap takes: 15 us
SymbolicDimMgr::save updateFunctionType takes: 1 us
SymbolicDimMgr::save collect symbolicDim ops takes: 2 us
SymbolicDimMgr::save remove symbolicDim ops takes: 0 us
SymbolicDimMgr::save remove unused production takes: 0 us
SymbolicDimMgr::save remove unused production #2 takes: 0 us
SymbolicDimMgr::save canonicalize the name takes: 0 us
SymbolicDimMgr::save replace the name takes: 1 us
SymbolicDimMgr::save updateFunctionType takes: 0 us
SymbolicDimMgr::save walkRankedTensorValue takes: 0 us
SymbolicDimMgr::save update attributes takes: 0 us
SymbolicDimMgr::updateProductEqualityMap simplifySymbolicDimProductPair takes: 0 us
productSet.size() = 0
SymbolicDimMgr::updateProductEqualityMap propagate graph takes: 1 us
SymbolicDimMgr::updateProductEqualityMap remove multiply takes: 0 us
SymbolicDimMgr::updateProductEqualityMap build toRemove  takes: 0 us
SymbolicDimMgr::updateProductEqualityMap apply toRemove  takes: 0 us
SymbolicDimMgr::save updateProductEqualityMap takes: 11 us
SymbolicDimMgr::save updateFunctionType takes: 0 us
SymbolicDimMgr::save collect symbolicDim ops takes: 1 us
SymbolicDimMgr::save remove symbolicDim ops takes: 0 us
SymbolicDimMgr::save remove unused production takes: 0 us
SymbolicDimMgr::save remove unused production #2 takes: 0 us
SymbolicDimMgr::save canonicalize the name takes: 0 us
SymbolicDimMgr::save replace the name takes: 0 us
SymbolicDimMgr::save updateFunctionType takes: 0 us
// -----// IR Dump After DiscShapeOptimizationPass (disc-shape-optimization) //----- //
module {
  func.func @main(%arg0: tensor<110x100x13xf32>) -> tensor<100x13xf32> attributes {tf.entry_function = {input_placements = "gpu", inputs = "input0", output_placements = "gpu", outputs = "output0"}} {
    %0 = mhlo.constant dense<0xFF800000> : tensor<f32>
    %1 = mhlo.reshape %arg0 : (tensor<110x100x13xf32>) -> tensor<110x1300xf32>
    %2 = mhlo.reduce(%1 init: %0) applies mhlo.maximum across dimensions = [0] : (tensor<110x1300xf32>, tensor<f32>) -> tensor<1300xf32>
    %3 = mhlo.reshape %2 : (tensor<1300xf32>) -> tensor<100x13xf32>
    return %3 : tensor<100x13xf32>
  }
  func.func @shape_constraint_graph() {
    return
  }
}


// -----// IR Dump After PlaceOpsPass (mhlo-place-ops) //----- //
module {
  func.func @main(%arg0: tensor<110x100x13xf32>) -> tensor<100x13xf32> attributes {tf.entry_function = {input_placements = "gpu", inputs = "input0", output_placements = "gpu", outputs = "output0"}} {
    %0 = mhlo.constant {disc.device = "gpu"} dense<0xFF800000> : tensor<f32>
    %1 = mhlo.reshape %arg0 {disc.device = "gpu"} : (tensor<110x100x13xf32>) -> tensor<110x1300xf32>
    %2 = mhlo.reduce(%1 init: %0) applies mhlo.maximum across dimensions = [0] : (tensor<110x1300xf32>, tensor<f32>) -> tensor<1300xf32>
    %3 = mhlo.reshape %2 {disc.device = "gpu"} : (tensor<1300xf32>) -> tensor<100x13xf32>
    return %3 : tensor<100x13xf32>
  }
  func.func @shape_constraint_graph() {
    return
  }
}


SymbolicDimMgr::save walkRankedTensorValue takes: 0 us
SymbolicDimMgr::save update attributes takes: 0 us
SymbolicDimMgr::updateProductEqualityMap simplifySymbolicDimProductPair takes: 0 us
productSet.size() = 0
SymbolicDimMgr::updateProductEqualityMap propagate graph takes: 1 us
SymbolicDimMgr::updateProductEqualityMap remove multiply takes: 0 us
SymbolicDimMgr::updateProductEqualityMap build toRemove  takes: 0 us
SymbolicDimMgr::updateProductEqualityMap apply toRemove  takes: 0 us
SymbolicDimMgr::save updateProductEqualityMap takes: 11 us
SymbolicDimMgr::save updateFunctionType takes: 1 us
SymbolicDimMgr::save collect symbolicDim ops takes: 1 us
SymbolicDimMgr::save remove symbolicDim ops takes: 0 us
SymbolicDimMgr::save remove unused production takes: 0 us
SymbolicDimMgr::save remove unused production #2 takes: 0 us
SymbolicDimMgr::save canonicalize the name takes: 0 us
SymbolicDimMgr::save replace the name takes: 0 us
SymbolicDimMgr::save updateFunctionType takes: 0 us
// -----// IR Dump After DiscShapeOptimizationPass (disc-shape-optimization) //----- //
module {
  func.func @main(%arg0: tensor<110x100x13xf32>) -> tensor<100x13xf32> attributes {tf.entry_function = {input_placements = "gpu", inputs = "input0", output_placements = "gpu", outputs = "output0"}} {
    %0 = mhlo.constant {disc.device = "gpu"} dense<0xFF800000> : tensor<f32>
    %1 = mhlo.reshape %arg0 {disc.device = "gpu"} : (tensor<110x100x13xf32>) -> tensor<110x1300xf32>
    %2 = mhlo.reduce(%1 init: %0) applies mhlo.maximum across dimensions = [0] : (tensor<110x1300xf32>, tensor<f32>) -> tensor<1300xf32>
    %3 = mhlo.reshape %2 {disc.device = "gpu"} : (tensor<1300xf32>) -> tensor<100x13xf32>
    return %3 : tensor<100x13xf32>
  }
  func.func @shape_constraint_graph() {
    return
  }
}


SymbolicDimMgr::save walkRankedTensorValue takes: 0 us
SymbolicDimMgr::save update attributes takes: 0 us
SymbolicDimMgr::updateProductEqualityMap simplifySymbolicDimProductPair takes: 0 us
productSet.size() = 0
SymbolicDimMgr::updateProductEqualityMap propagate graph takes: 1 us
SymbolicDimMgr::updateProductEqualityMap remove multiply takes: 0 us
SymbolicDimMgr::updateProductEqualityMap build toRemove  takes: 0 us
SymbolicDimMgr::updateProductEqualityMap apply toRemove  takes: 0 us
SymbolicDimMgr::save updateProductEqualityMap takes: 12 us
SymbolicDimMgr::save updateFunctionType takes: 1 us
SymbolicDimMgr::save collect symbolicDim ops takes: 1 us
SymbolicDimMgr::save remove symbolicDim ops takes: 0 us
SymbolicDimMgr::save remove unused production takes: 0 us
SymbolicDimMgr::save remove unused production #2 takes: 0 us
SymbolicDimMgr::save canonicalize the name takes: 0 us
SymbolicDimMgr::save replace the name takes: 0 us
SymbolicDimMgr::save updateFunctionType takes: 0 us
// -----// IR Dump After DiscShapeOptimizationPass (disc-shape-optimization) //----- //
module {
  func.func @main(%arg0: tensor<110x100x13xf32>) -> tensor<100x13xf32> attributes {tf.entry_function = {input_placements = "gpu", inputs = "input0", output_placements = "gpu", outputs = "output0"}} {
    %0 = mhlo.constant {disc.device = "gpu"} dense<0xFF800000> : tensor<f32>
    %1 = mhlo.reshape %arg0 {disc.device = "gpu"} : (tensor<110x100x13xf32>) -> tensor<110x1300xf32>
    %2 = mhlo.reduce(%1 init: %0) applies mhlo.maximum across dimensions = [0] : (tensor<110x1300xf32>, tensor<f32>) -> tensor<1300xf32>
    %3 = mhlo.reshape %2 {disc.device = "gpu"} : (tensor<1300xf32>) -> tensor<100x13xf32>
    return %3 : tensor<100x13xf32>
  }
  func.func @shape_constraint_graph() {
    return
  }
}


SymbolicDimMgr::save walkRankedTensorValue takes: 1 us
SymbolicDimMgr::save update attributes takes: 1 us
SymbolicDimMgr::updateProductEqualityMap simplifySymbolicDimProductPair takes: 0 us
productSet.size() = 0
SymbolicDimMgr::updateProductEqualityMap propagate graph takes: 1 us
SymbolicDimMgr::updateProductEqualityMap remove multiply takes: 0 us
SymbolicDimMgr::updateProductEqualityMap build toRemove  takes: 0 us
SymbolicDimMgr::updateProductEqualityMap apply toRemove  takes: 0 us
SymbolicDimMgr::save updateProductEqualityMap takes: 12 us
SymbolicDimMgr::save updateFunctionType takes: 1 us
SymbolicDimMgr::save collect symbolicDim ops takes: 1 us
SymbolicDimMgr::save remove symbolicDim ops takes: 0 us
SymbolicDimMgr::save remove unused production takes: 0 us
SymbolicDimMgr::save remove unused production #2 takes: 0 us
SymbolicDimMgr::save canonicalize the name takes: 0 us
SymbolicDimMgr::save replace the name takes: 1 us
SymbolicDimMgr::save updateFunctionType takes: 0 us
// -----// IR Dump After DiscShapeOptimizationPass (disc-shape-optimization) //----- //
module {
  func.func @main(%arg0: tensor<110x100x13xf32>) -> tensor<100x13xf32> attributes {tf.entry_function = {input_placements = "gpu", inputs = "input0", output_placements = "gpu", outputs = "output0"}} {
    %0 = mhlo.constant {disc.device = "gpu"} dense<0xFF800000> : tensor<f32>
    %1 = mhlo.reshape %arg0 {disc.device = "gpu"} : (tensor<110x100x13xf32>) -> tensor<110x1300xf32>
    %2 = mhlo.reduce(%1 init: %0) applies mhlo.maximum across dimensions = [0] : (tensor<110x1300xf32>, tensor<f32>) -> tensor<1300xf32>
    %3 = mhlo.reshape %2 {disc.device = "gpu"} : (tensor<1300xf32>) -> tensor<100x13xf32>
    return %3 : tensor<100x13xf32>
  }
  func.func @shape_constraint_graph() {
    return
  }
}


SymbolicDimMgr::save walkRankedTensorValue takes: 0 us
SymbolicDimMgr::save update attributes takes: 0 us
SymbolicDimMgr::updateProductEqualityMap simplifySymbolicDimProductPair takes: 0 us
productSet.size() = 0
SymbolicDimMgr::updateProductEqualityMap propagate graph takes: 1 us
SymbolicDimMgr::updateProductEqualityMap remove multiply takes: 0 us
SymbolicDimMgr::updateProductEqualityMap build toRemove  takes: 0 us
SymbolicDimMgr::updateProductEqualityMap apply toRemove  takes: 0 us
SymbolicDimMgr::save updateProductEqualityMap takes: 13 us
SymbolicDimMgr::save updateFunctionType takes: 1 us
SymbolicDimMgr::save collect symbolicDim ops takes: 1 us
SymbolicDimMgr::save remove symbolicDim ops takes: 0 us
SymbolicDimMgr::save remove unused production takes: 0 us
SymbolicDimMgr::save remove unused production #2 takes: 0 us
SymbolicDimMgr::save canonicalize the name takes: 0 us
SymbolicDimMgr::save replace the name takes: 0 us
SymbolicDimMgr::save updateFunctionType takes: 0 us
// -----// IR Dump After DiscShapeOptimizationPass (disc-shape-optimization) //----- //
module {
  func.func @main(%arg0: tensor<110x100x13xf32>) -> tensor<100x13xf32> attributes {tf.entry_function = {input_placements = "gpu", inputs = "input0", output_placements = "gpu", outputs = "output0"}} {
    %c110 = arith.constant 110 : index
    %c100 = arith.constant 100 : index
    %c13 = arith.constant 13 : index
    %c1300 = arith.constant 1300 : index
    %0 = mhlo.constant {disc.device = "gpu"} dense<0xFF800000> : tensor<f32>
    %1 = "disc_shape.tie_shape"(%arg0, %c110, %c100, %c13) : (tensor<110x100x13xf32>, index, index, index) -> tensor<110x100x13xf32>
    %2 = mhlo.reshape %1 {disc.device = "gpu"} : (tensor<110x100x13xf32>) -> tensor<110x1300xf32>
    %3 = "disc_shape.tie_shape"(%2, %c110, %c1300) : (tensor<110x1300xf32>, index, index) -> tensor<110x1300xf32>
    %4 = mhlo.reduce(%3 init: %0) applies mhlo.maximum across dimensions = [0] : (tensor<110x1300xf32>, tensor<f32>) -> tensor<1300xf32>
    %5 = "disc_shape.tie_shape"(%4, %c1300) : (tensor<1300xf32>, index) -> tensor<1300xf32>
    %6 = mhlo.reshape %5 {disc.device = "gpu"} : (tensor<1300xf32>) -> tensor<100x13xf32>
    %7 = "disc_shape.tie_shape"(%6, %c100, %c13) : (tensor<100x13xf32>, index, index) -> tensor<100x13xf32>
    return %7 : tensor<100x13xf32>
  }
  func.func @shape_constraint_graph() {
    return
  }
}


// -----// IR Dump After Canonicalizer (canonicalize) //----- //
func.func @main(%arg0: tensor<110x100x13xf32>) -> tensor<100x13xf32> attributes {tf.entry_function = {input_placements = "gpu", inputs = "input0", output_placements = "gpu", outputs = "output0"}} {
  %0 = mhlo.constant {disc.device = "gpu"} dense<0xFF800000> : tensor<f32>
  %1 = mhlo.reshape %arg0 {disc.device = "gpu"} : (tensor<110x100x13xf32>) -> tensor<110x1300xf32>
  %2 = mhlo.reduce(%1 init: %0) applies mhlo.maximum across dimensions = [0] : (tensor<110x1300xf32>, tensor<f32>) -> tensor<1300xf32>
  %3 = mhlo.reshape %2 {disc.device = "gpu"} : (tensor<1300xf32>) -> tensor<100x13xf32>
  return %3 : tensor<100x13xf32>
}

// -----// IR Dump After FuncBufferize (func-bufferize) //----- //
module {
  func.func @main(%arg0: memref<110x100x13xf32>) -> memref<100x13xf32> attributes {tf.entry_function = {input_placements = "gpu", inputs = "input0", output_placements = "gpu", outputs = "output0"}} {
    %0 = bufferization.to_tensor %arg0 : memref<110x100x13xf32>
    %1 = mhlo.constant {disc.device = "gpu"} dense<0xFF800000> : tensor<f32>
    %2 = mhlo.reshape %0 {disc.device = "gpu"} : (tensor<110x100x13xf32>) -> tensor<110x1300xf32>
    %3 = mhlo.reduce(%2 init: %1) applies mhlo.maximum across dimensions = [0] : (tensor<110x1300xf32>, tensor<f32>) -> tensor<1300xf32>
    %4 = mhlo.reshape %3 {disc.device = "gpu"} : (tensor<1300xf32>) -> tensor<100x13xf32>
    %5 = bufferization.to_memref %4 : memref<100x13xf32>
    return %5 : memref<100x13xf32>
  }
  func.func @shape_constraint_graph() {
    return
  }
}


// -----// IR Dump After HloLegalizeToLhloPass (hlo-legalize-to-lhlo) //----- //
module {
  func.func @main(%arg0: memref<110x100x13xf32>) -> memref<100x13xf32> attributes {tf.entry_function = {input_placements = "gpu", inputs = "input0", output_placements = "gpu", outputs = "output0"}} {
    %0 = bufferization.to_tensor %arg0 : memref<110x100x13xf32>
    %1 = bufferization.to_memref %0 : memref<110x100x13xf32>
    %alloc = memref.alloc() : memref<f32>
    "lmhlo.constant"(%alloc) {disc.device = "gpu", value = dense<0xFF800000> : tensor<f32>} : (memref<f32>) -> ()
    %alloc_0 = memref.alloc() : memref<110x1300xf32>
    "lmhlo.reshape"(%1, %alloc_0) {disc.device = "gpu"} : (memref<110x100x13xf32>, memref<110x1300xf32>) -> ()
    %alloc_1 = memref.alloc() : memref<1300xf32>
    "lmhlo.reduce"(%alloc_0, %alloc, %alloc_1) ({
    ^bb0(%arg1: memref<f32>, %arg2: memref<f32>, %arg3: memref<f32>):
      %alloc_3 = memref.alloc() : memref<f32>
      "lmhlo.maximum"(%arg1, %arg2, %alloc_3) {disc.device = "gpu"} : (memref<f32>, memref<f32>, memref<f32>) -> ()
      "lmhlo.copy"(%alloc_3, %arg3) : (memref<f32>, memref<f32>) -> ()
      "lmhlo.terminator"() : () -> ()
    }) {dimensions = dense<0> : tensor<1xi64>, disc.device = "gpu"} : (memref<110x1300xf32>, memref<f32>, memref<1300xf32>) -> ()
    %alloc_2 = memref.alloc() : memref<100x13xf32>
    "lmhlo.reshape"(%alloc_1, %alloc_2) {disc.device = "gpu"} : (memref<1300xf32>, memref<100x13xf32>) -> ()
    %2 = bufferization.to_tensor %alloc_2 : memref<100x13xf32>
    %3 = bufferization.to_memref %2 : memref<100x13xf32>
    return %3 : memref<100x13xf32>
  }
  func.func @shape_constraint_graph() {
    return
  }
}


// -----// IR Dump After Canonicalizer (canonicalize) //----- //
func.func @main(%arg0: memref<110x100x13xf32>) -> memref<100x13xf32> attributes {tf.entry_function = {input_placements = "gpu", inputs = "input0", output_placements = "gpu", outputs = "output0"}} {
  %alloc = memref.alloc() : memref<f32>
  "lmhlo.constant"(%alloc) {disc.device = "gpu", value = dense<0xFF800000> : tensor<f32>} : (memref<f32>) -> ()
  %alloc_0 = memref.alloc() : memref<110x1300xf32>
  "lmhlo.reshape"(%arg0, %alloc_0) {disc.device = "gpu"} : (memref<110x100x13xf32>, memref<110x1300xf32>) -> ()
  %alloc_1 = memref.alloc() : memref<1300xf32>
  "lmhlo.reduce"(%alloc_0, %alloc, %alloc_1) ({
  ^bb0(%arg1: memref<f32>, %arg2: memref<f32>, %arg3: memref<f32>):
    "lmhlo.maximum"(%arg1, %arg2, %arg3) {disc.device = "gpu"} : (memref<f32>, memref<f32>, memref<f32>) -> ()
    "lmhlo.terminator"() : () -> ()
  }) {dimensions = dense<0> : tensor<1xi64>, disc.device = "gpu"} : (memref<110x1300xf32>, memref<f32>, memref<1300xf32>) -> ()
  %alloc_2 = memref.alloc() : memref<100x13xf32>
  "lmhlo.reshape"(%alloc_1, %alloc_2) {disc.device = "gpu"} : (memref<1300xf32>, memref<100x13xf32>) -> ()
  return %alloc_2 : memref<100x13xf32>
}

// -----// IR Dump After DiscAssignMemorySpacePass (disc-assign-memory-space) //----- //
module {
  func.func @main(%arg0: memref<110x100x13xf32, "gpu">) -> memref<100x13xf32, "gpu"> attributes {tf.entry_function = {input_placements = "gpu", inputs = "input0", output_placements = "gpu", outputs = "output0"}} {
    %alloc = memref.alloc() : memref<f32, "gpu">
    "lmhlo.constant"(%alloc) {disc.device = "gpu", value = dense<0xFF800000> : tensor<f32>} : (memref<f32, "gpu">) -> ()
    %alloc_0 = memref.alloc() : memref<110x1300xf32, "gpu">
    "lmhlo.reshape"(%arg0, %alloc_0) {disc.device = "gpu"} : (memref<110x100x13xf32, "gpu">, memref<110x1300xf32, "gpu">) -> ()
    %alloc_1 = memref.alloc() : memref<1300xf32, "gpu">
    "lmhlo.reduce"(%alloc_0, %alloc, %alloc_1) ({
    ^bb0(%arg1: memref<f32>, %arg2: memref<f32>, %arg3: memref<f32>):
      "lmhlo.maximum"(%arg1, %arg2, %arg3) {disc.device = "gpu"} : (memref<f32>, memref<f32>, memref<f32>) -> ()
      "lmhlo.terminator"() : () -> ()
    }) {dimensions = dense<0> : tensor<1xi64>, disc.device = "gpu"} : (memref<110x1300xf32, "gpu">, memref<f32, "gpu">, memref<1300xf32, "gpu">) -> ()
    %alloc_2 = memref.alloc() : memref<100x13xf32, "gpu">
    "lmhlo.reshape"(%alloc_1, %alloc_2) {disc.device = "gpu"} : (memref<1300xf32, "gpu">, memref<100x13xf32, "gpu">) -> ()
    return %alloc_2 : memref<100x13xf32, "gpu">
  }
  func.func @shape_constraint_graph() {
    return
  }
}


SymbolicDimMgr::save walkRankedTensorValue takes: 0 us
SymbolicDimMgr::save update attributes takes: 0 us
SymbolicDimMgr::save updateProductEqualityMap takes: 0 us
SymbolicDimMgr::save updateFunctionType takes: 1 us
SymbolicDimMgr::save collect symbolicDim ops takes: 1 us
SymbolicDimMgr::save remove symbolicDim ops takes: 0 us
SymbolicDimMgr::save remove unused production takes: 0 us
SymbolicDimMgr::save remove unused production #2 takes: 0 us
SymbolicDimMgr::save canonicalize the name takes: 0 us
SymbolicDimMgr::save replace the name takes: 1 us
SymbolicDimMgr::save updateFunctionType takes: 0 us
// -----// IR Dump After DiscFusionPass (disc-fusion) //----- //
func.func @main(%arg0: memref<110x100x13xf32, "gpu">) -> memref<100x13xf32, "gpu"> attributes {tf.entry_function = {input_placements = "gpu", inputs = "input0", output_placements = "gpu", outputs = "output0"}} {
  %alloc = memref.alloc() : memref<f32, "gpu">
  %alloc_0 = memref.alloc() : memref<110x1300xf32, "gpu">
  %alloc_1 = memref.alloc() : memref<1300xf32, "gpu">
  "lmhlo.fusion"() ({
    "lmhlo.constant"(%alloc) {disc.device = "gpu", value = dense<0xFF800000> : tensor<f32>} : (memref<f32, "gpu">) -> ()
    "lmhlo.reshape"(%arg0, %alloc_0) {disc.device = "gpu"} : (memref<110x100x13xf32, "gpu">, memref<110x1300xf32, "gpu">) -> ()
    "lmhlo.reduce"(%alloc_0, %alloc, %alloc_1) ({
    ^bb0(%arg1: memref<f32>, %arg2: memref<f32>, %arg3: memref<f32>):
      "lmhlo.maximum"(%arg1, %arg2, %arg3) {disc.device = "gpu"} : (memref<f32>, memref<f32>, memref<f32>) -> ()
      "lmhlo.terminator"() : () -> ()
    }) {dimensions = dense<0> : tensor<1xi64>, disc.device = "gpu"} : (memref<110x1300xf32, "gpu">, memref<f32, "gpu">, memref<1300xf32, "gpu">) -> ()
    "lmhlo.terminator"() : () -> ()
  }) {disc.device = "gpu", disc.fusion.name = "main_kColReduction_reduce__3_1_0", disc.fusion_type = "kColReduction"} : () -> ()
  %alloc_2 = memref.alloc() : memref<100x13xf32, "gpu">
  "lmhlo.reshape"(%alloc_1, %alloc_2) {disc.device = "gpu"} : (memref<1300xf32, "gpu">, memref<100x13xf32, "gpu">) -> ()
  return %alloc_2 : memref<100x13xf32, "gpu">
}

SymbolicDimMgr::save walkRankedTensorValue takes: 0 us
SymbolicDimMgr::save update attributes takes: 1 us
SymbolicDimMgr::save updateProductEqualityMap takes: 0 us
SymbolicDimMgr::save updateFunctionType takes: 1 us
SymbolicDimMgr::save collect symbolicDim ops takes: 1 us
SymbolicDimMgr::save remove symbolicDim ops takes: 0 us
SymbolicDimMgr::save remove unused production takes: 0 us
SymbolicDimMgr::save remove unused production #2 takes: 0 us
SymbolicDimMgr::save canonicalize the name takes: 0 us
SymbolicDimMgr::save replace the name takes: 1 us
SymbolicDimMgr::save updateFunctionType takes: 0 us
// -----// IR Dump After DiscSpecializeFusionWithSpeculationPass (disc-specialize-fusion-with-speculation) //----- //
func.func @main(%arg0: memref<110x100x13xf32, "gpu">) -> memref<100x13xf32, "gpu"> attributes {tf.entry_function = {input_placements = "gpu", inputs = "input0", output_placements = "gpu", outputs = "output0"}} {
  %alloc = memref.alloc() : memref<f32, "gpu">
  %alloc_0 = memref.alloc() : memref<110x1300xf32, "gpu">
  %alloc_1 = memref.alloc() : memref<1300xf32, "gpu">
  %c0 = arith.constant 0 : index
  %dim = memref.dim %alloc_0, %c0 : memref<110x1300xf32, "gpu">
  %c1 = arith.constant 1 : index
  %dim_2 = memref.dim %alloc_0, %c1 : memref<110x1300xf32, "gpu">
  %0 = arith.muli %dim, %dim_2 : index
  %c256 = arith.constant 256 : index
  %1 = arith.ceildivsi %0, %c256 : index
  %c108 = arith.constant 108 : index
  %2 = arith.cmpi sgt, %1, %c108 : index
  scf.if %2 {
    "lmhlo.fusion"() ({
      "lmhlo.constant"(%alloc) {disc.device = "gpu", value = dense<0xFF800000> : tensor<f32>} : (memref<f32, "gpu">) -> ()
      "lmhlo.reshape"(%arg0, %alloc_0) {disc.device = "gpu"} : (memref<110x100x13xf32, "gpu">, memref<110x1300xf32, "gpu">) -> ()
      "lmhlo.reduce"(%alloc_0, %alloc, %alloc_1) ({
      ^bb0(%arg1: memref<f32>, %arg2: memref<f32>, %arg3: memref<f32>):
        "lmhlo.maximum"(%arg1, %arg2, %arg3) {disc.device = "gpu"} : (memref<f32>, memref<f32>, memref<f32>) -> ()
        "lmhlo.terminator"() : () -> ()
      }) {dimensions = dense<0> : tensor<1xi64>, disc.device = "gpu"} : (memref<110x1300xf32, "gpu">, memref<f32, "gpu">, memref<1300xf32, "gpu">) -> ()
      "lmhlo.terminator"() : () -> ()
    }) {disc.device = "gpu", disc.fusion.name = "main_kColReduction_reduce__3_1_0", disc.fusion.tag = "8w32h", disc.fusion_type = "kColReduction", disc_col_reduction_schedule_hint = 1 : i32, disc_thread_per_block_hint = 256 : i32} : () -> ()
  } else {
    "lmhlo.fusion"() ({
      "lmhlo.constant"(%alloc) {disc.device = "gpu", value = dense<0xFF800000> : tensor<f32>} : (memref<f32, "gpu">) -> ()
      "lmhlo.reshape"(%arg0, %alloc_0) {disc.device = "gpu"} : (memref<110x100x13xf32, "gpu">, memref<110x1300xf32, "gpu">) -> ()
      "lmhlo.reduce"(%alloc_0, %alloc, %alloc_1) ({
      ^bb0(%arg1: memref<f32>, %arg2: memref<f32>, %arg3: memref<f32>):
        "lmhlo.maximum"(%arg1, %arg2, %arg3) {disc.device = "gpu"} : (memref<f32>, memref<f32>, memref<f32>) -> ()
        "lmhlo.terminator"() : () -> ()
      }) {dimensions = dense<0> : tensor<1xi64>, disc.device = "gpu"} : (memref<110x1300xf32, "gpu">, memref<f32, "gpu">, memref<1300xf32, "gpu">) -> ()
      "lmhlo.terminator"() : () -> ()
    }) {disc.device = "gpu", disc.fusion.name = "main_kColReduction_reduce__3_1_0", disc.fusion.tag = "8w16h", disc.fusion_type = "kColReduction", disc_col_reduction_schedule_hint = 2 : i32, disc_thread_per_block_hint = 128 : i32} : () -> ()
  }
  %alloc_3 = memref.alloc() : memref<100x13xf32, "gpu">
  "lmhlo.reshape"(%alloc_1, %alloc_3) {disc.device = "gpu"} : (memref<1300xf32, "gpu">, memref<100x13xf32, "gpu">) -> ()
  return %alloc_3 : memref<100x13xf32, "gpu">
}

// -----// IR Dump After Canonicalizer (canonicalize) //----- //
func.func @main(%arg0: memref<110x100x13xf32, "gpu">) -> memref<100x13xf32, "gpu"> attributes {tf.entry_function = {input_placements = "gpu", inputs = "input0", output_placements = "gpu", outputs = "output0"}} {
  %alloc = memref.alloc() : memref<f32, "gpu">
  %alloc_0 = memref.alloc() : memref<110x1300xf32, "gpu">
  %alloc_1 = memref.alloc() : memref<1300xf32, "gpu">
  "lmhlo.fusion"() ({
    "lmhlo.constant"(%alloc) {disc.device = "gpu", value = dense<0xFF800000> : tensor<f32>} : (memref<f32, "gpu">) -> ()
    "lmhlo.reshape"(%arg0, %alloc_0) {disc.device = "gpu"} : (memref<110x100x13xf32, "gpu">, memref<110x1300xf32, "gpu">) -> ()
    "lmhlo.reduce"(%alloc_0, %alloc, %alloc_1) ({
    ^bb0(%arg1: memref<f32>, %arg2: memref<f32>, %arg3: memref<f32>):
      "lmhlo.maximum"(%arg1, %arg2, %arg3) {disc.device = "gpu"} : (memref<f32>, memref<f32>, memref<f32>) -> ()
      "lmhlo.terminator"() : () -> ()
    }) {dimensions = dense<0> : tensor<1xi64>, disc.device = "gpu"} : (memref<110x1300xf32, "gpu">, memref<f32, "gpu">, memref<1300xf32, "gpu">) -> ()
    "lmhlo.terminator"() : () -> ()
  }) {disc.device = "gpu", disc.fusion.name = "main_kColReduction_reduce__3_1_0", disc.fusion.tag = "8w32h", disc.fusion_type = "kColReduction", disc_col_reduction_schedule_hint = 1 : i32, disc_thread_per_block_hint = 256 : i32} : () -> ()
  %alloc_2 = memref.alloc() : memref<100x13xf32, "gpu">
  "lmhlo.reshape"(%alloc_1, %alloc_2) {disc.device = "gpu"} : (memref<1300xf32, "gpu">, memref<100x13xf32, "gpu">) -> ()
  return %alloc_2 : memref<100x13xf32, "gpu">
}

// -----// IR Dump After BufferDeallocation (buffer-deallocation) //----- //
func.func @main(%arg0: memref<110x100x13xf32, "gpu">) -> memref<100x13xf32, "gpu"> attributes {tf.entry_function = {input_placements = "gpu", inputs = "input0", output_placements = "gpu", outputs = "output0"}} {
  %alloc = memref.alloc() : memref<f32, "gpu">
  %alloc_0 = memref.alloc() : memref<110x1300xf32, "gpu">
  %alloc_1 = memref.alloc() : memref<1300xf32, "gpu">
  "lmhlo.fusion"() ({
    "lmhlo.constant"(%alloc) {disc.device = "gpu", value = dense<0xFF800000> : tensor<f32>} : (memref<f32, "gpu">) -> ()
    "lmhlo.reshape"(%arg0, %alloc_0) {disc.device = "gpu"} : (memref<110x100x13xf32, "gpu">, memref<110x1300xf32, "gpu">) -> ()
    "lmhlo.reduce"(%alloc_0, %alloc, %alloc_1) ({
    ^bb0(%arg1: memref<f32>, %arg2: memref<f32>, %arg3: memref<f32>):
      "lmhlo.maximum"(%arg1, %arg2, %arg3) {disc.device = "gpu"} : (memref<f32>, memref<f32>, memref<f32>) -> ()
      "lmhlo.terminator"() : () -> ()
    }) {dimensions = dense<0> : tensor<1xi64>, disc.device = "gpu"} : (memref<110x1300xf32, "gpu">, memref<f32, "gpu">, memref<1300xf32, "gpu">) -> ()
    "lmhlo.terminator"() : () -> ()
  }) {disc.device = "gpu", disc.fusion.name = "main_kColReduction_reduce__3_1_0", disc.fusion.tag = "8w32h", disc.fusion_type = "kColReduction", disc_col_reduction_schedule_hint = 1 : i32, disc_thread_per_block_hint = 256 : i32} : () -> ()
  memref.dealloc %alloc_0 : memref<110x1300xf32, "gpu">
  memref.dealloc %alloc : memref<f32, "gpu">
  %alloc_2 = memref.alloc() : memref<100x13xf32, "gpu">
  "lmhlo.reshape"(%alloc_1, %alloc_2) {disc.device = "gpu"} : (memref<1300xf32, "gpu">, memref<100x13xf32, "gpu">) -> ()
  memref.dealloc %alloc_1 : memref<1300xf32, "gpu">
  return %alloc_2 : memref<100x13xf32, "gpu">
}

// -----// IR Dump After RalInjectExecutionContextPass (disc-ral-inject-execution-context) //----- //
module {
  func.func @main(%arg0: !disc_ral.context) attributes {tf.entry_function = {input_placements = "gpu", inputs = "input0", output_placements = "gpu", outputs = "output0"}} {
    %c0 = arith.constant 0 : index
    %0 = "disc_ral.recv_input"(%arg0, %c0) : (!disc_ral.context, index) -> memref<110x100x13xf32, "gpu">
    %alloc = memref.alloc() : memref<f32, "gpu">
    %alloc_0 = memref.alloc() : memref<110x1300xf32, "gpu">
    %alloc_1 = memref.alloc() : memref<1300xf32, "gpu">
    "lmhlo.fusion"() ({
      "lmhlo.constant"(%alloc) {disc.device = "gpu", value = dense<0xFF800000> : tensor<f32>} : (memref<f32, "gpu">) -> ()
      "lmhlo.reshape"(%0, %alloc_0) {disc.device = "gpu"} : (memref<110x100x13xf32, "gpu">, memref<110x1300xf32, "gpu">) -> ()
      "lmhlo.reduce"(%alloc_0, %alloc, %alloc_1) ({
      ^bb0(%arg1: memref<f32>, %arg2: memref<f32>, %arg3: memref<f32>):
        "lmhlo.maximum"(%arg1, %arg2, %arg3) {disc.device = "gpu"} : (memref<f32>, memref<f32>, memref<f32>) -> ()
        "lmhlo.terminator"() : () -> ()
      }) {dimensions = dense<0> : tensor<1xi64>, disc.device = "gpu"} : (memref<110x1300xf32, "gpu">, memref<f32, "gpu">, memref<1300xf32, "gpu">) -> ()
      "lmhlo.terminator"() : () -> ()
    }) {disc.device = "gpu", disc.fusion.name = "main_kColReduction_reduce__3_1_0", disc.fusion.tag = "8w32h", disc.fusion_type = "kColReduction", disc_col_reduction_schedule_hint = 1 : i32, disc_thread_per_block_hint = 256 : i32} : () -> ()
    memref.dealloc %alloc_0 : memref<110x1300xf32, "gpu">
    memref.dealloc %alloc : memref<f32, "gpu">
    %alloc_2 = memref.alloc() : memref<100x13xf32, "gpu">
    "lmhlo.reshape"(%alloc_1, %alloc_2) {disc.device = "gpu"} : (memref<1300xf32, "gpu">, memref<100x13xf32, "gpu">) -> ()
    memref.dealloc %alloc_1 : memref<1300xf32, "gpu">
    %c0_3 = arith.constant 0 : index
    "disc_ral.send_output"(%arg0, %c0_3, %alloc_2) : (!disc_ral.context, index, memref<100x13xf32, "gpu">) -> ()
    return
  }
  func.func @shape_constraint_graph() {
    return
  }
}


// -----// IR Dump After DiscLowerToLibraryCallPass (disc-lower-to-library-call) //----- //
func.func @main(%arg0: !disc_ral.context) attributes {tf.entry_function = {input_placements = "gpu", inputs = "input0", output_placements = "gpu", outputs = "output0"}} {
  %0 = llvm.mlir.constant(0 : i32) : i32
  %c0 = arith.constant 0 : index
  %c100 = arith.constant 100 : index
  %c1 = arith.constant 1 : index
  %c13 = arith.constant 13 : index
  %1 = "disc_ral.dispatch"(%arg0, %c0) {backend_config = "", call_target_name = "ral_recv_input", device = "cpu", has_side_effect = false} : (!disc_ral.context, index) -> memref<110x100x13xf32, "gpu">
  %alloc = memref.alloc() : memref<f32, "gpu">
  %alloc_0 = memref.alloc() : memref<110x1300xf32, "gpu">
  %alloc_1 = memref.alloc() : memref<1300xf32, "gpu">
  "lmhlo.fusion"() ({
    "lmhlo.constant"(%alloc) {disc.device = "gpu", value = dense<0xFF800000> : tensor<f32>} : (memref<f32, "gpu">) -> ()
    "lmhlo.reshape"(%1, %alloc_0) {disc.device = "gpu"} : (memref<110x100x13xf32, "gpu">, memref<110x1300xf32, "gpu">) -> ()
    "lmhlo.reduce"(%alloc_0, %alloc, %alloc_1) ({
    ^bb0(%arg1: memref<f32>, %arg2: memref<f32>, %arg3: memref<f32>):
      "lmhlo.maximum"(%arg1, %arg2, %arg3) {disc.device = "gpu"} : (memref<f32>, memref<f32>, memref<f32>) -> ()
      "lmhlo.terminator"() : () -> ()
    }) {dimensions = dense<0> : tensor<1xi64>, disc.device = "gpu"} : (memref<110x1300xf32, "gpu">, memref<f32, "gpu">, memref<1300xf32, "gpu">) -> ()
    "lmhlo.terminator"() : () -> ()
  }) {disc.device = "gpu", disc.fusion.name = "main_kColReduction_reduce__3_1_0", disc.fusion.tag = "8w32h", disc.fusion_type = "kColReduction", disc_col_reduction_schedule_hint = 1 : i32, disc_thread_per_block_hint = 256 : i32} : () -> ()
  memref.dealloc %alloc_0 : memref<110x1300xf32, "gpu">
  memref.dealloc %alloc : memref<f32, "gpu">
  %2 = llvm.inttoptr %0 : i32 to !llvm.ptr<i8>
  %alloca = memref.alloca() : memref<2xindex, "cpu">
  memref.store %c100, %alloca[%c0] : memref<2xindex, "cpu">
  memref.store %c13, %alloca[%c1] : memref<2xindex, "cpu">
  %3 = "disc_ral.dispatch"(%arg0, %2, %alloc_1, %alloca) {backend_config = "", call_target_name = "inc_ref", device = "gpu", has_side_effect = false} : (!disc_ral.context, !llvm.ptr<i8>, memref<1300xf32, "gpu">, memref<2xindex, "cpu">) -> memref<100x13xf32, "gpu">
  %reinterpret_cast = memref.reinterpret_cast %3 to offset: [0], sizes: [100, 13], strides: [13, 1] : memref<100x13xf32, "gpu"> to memref<100x13xf32, "gpu">
  memref.dealloc %alloc_1 : memref<1300xf32, "gpu">
  "disc_ral.dispatch"(%arg0, %c0, %reinterpret_cast) {backend_config = "", call_target_name = "ral_send_output", device = "cpu", has_side_effect = false} : (!disc_ral.context, index, memref<100x13xf32, "gpu">) -> ()
  return
}

kColReduction <main_kColReduction_reduce__3_1_0___8w32h>, use_new: 0 schedule_hint: 1
SymbolicDimMgr::save walkRankedTensorValue takes: 2 us
SymbolicDimMgr::save update attributes takes: 2 us
SymbolicDimMgr::save updateProductEqualityMap takes: 0 us
SymbolicDimMgr::save updateFunctionType takes: 2 us
SymbolicDimMgr::save collect symbolicDim ops takes: 4 us
SymbolicDimMgr::save remove symbolicDim ops takes: 0 us
SymbolicDimMgr::save remove unused production takes: 0 us
SymbolicDimMgr::save remove unused production #2 takes: 0 us
SymbolicDimMgr::save canonicalize the name takes: 0 us
SymbolicDimMgr::save replace the name takes: 3 us
SymbolicDimMgr::save updateFunctionType takes: 1 us
// -----// IR Dump After DiscLhloLegalizeRootsToParallelLoopsPass (disc-lhlo-legalize-roots-to-parallel-loops) //----- //
func.func @main(%arg0: !disc_ral.context) attributes {tf.entry_function = {input_placements = "gpu", inputs = "input0", output_placements = "gpu", outputs = "output0"}} {
  %c110 = arith.constant 110 : index
  %c41 = arith.constant 41 : index
  %c2 = arith.constant 2 : index
  %c4 = arith.constant 4 : index
  %c256 = arith.constant 256 : index
  %c64 = arith.constant 64 : index
  %c8 = arith.constant 8 : index
  %c32 = arith.constant 32 : index
  %c1300 = arith.constant 1300 : index
  %0 = llvm.mlir.constant(0 : i32) : i32
  %c0 = arith.constant 0 : index
  %c100 = arith.constant 100 : index
  %c1 = arith.constant 1 : index
  %c13 = arith.constant 13 : index
  %1 = "disc_ral.dispatch"(%arg0, %c0) {backend_config = "", call_target_name = "ral_recv_input", device = "cpu", has_side_effect = false} : (!disc_ral.context, index) -> memref<110x100x13xf32, "gpu">
  %alloc = memref.alloc() : memref<f32, "gpu">
  %alloc_0 = memref.alloc() : memref<110x1300xf32, "gpu">
  %alloc_1 = memref.alloc() : memref<1300xf32, "gpu">
  "lmhlo.fusion"() ({
    "lmhlo.constant"(%alloc) {disc.device = "gpu", value = dense<0xFF800000> : tensor<f32>} : (memref<f32, "gpu">) -> ()
    "lmhlo.reshape"(%1, %alloc_0) {disc.device = "gpu"} : (memref<110x100x13xf32, "gpu">, memref<110x1300xf32, "gpu">) -> ()
    scf.parallel (%arg1) = (%c0) to (%c1300) step (%c1) {
      %4 = "disc_shape.delinearize"(%arg1, %c1300) : (index, index) -> index
      %5 = memref.load %alloc[] : memref<f32, "gpu">
      memref.store %5, %alloc_1[%4] : memref<1300xf32, "gpu">
      scf.yield
    }
    scf.parallel (%arg1, %arg2) = (%c0, %c0) to (%c41, %c256) step (%c1, %c1) {
      %4 = memref.load %alloc[] : memref<f32, "gpu">
      %5 = arith.divui %arg1, %c41 : index
      %6 = arith.remui %arg1, %c41 : index
      %7 = arith.divui %arg2, %c32 : index
      %8 = arith.remui %arg2, %c32 : index
      %9 = arith.muli %8, %c8 : index
      %10 = arith.addi %7, %9 : index
      %11 = arith.muli %6, %c32 : index
      %12 = arith.addi %8, %11 : index
      %alloc_2 = memref.alloc() : memref<256xf32, #gpu.address_space<workgroup>>
      %13 = arith.cmpi ult, %12, %c1300 : index
      %14 = scf.if %13 -> (f32) {
        %19 = scf.for %arg3 = %c0 to %c64 step %c1 iter_args(%arg4 = %4) -> (f32) {
          %20 = arith.muli %5, %c8 : index
          %21 = arith.addi %7, %20 : index
          %22 = arith.muli %21, %c64 : index
          %23 = arith.addi %arg3, %22 : index
          %24 = arith.cmpi slt, %23, %c110 : index
          %25 = scf.if %24 -> (f32) {
            %26 = memref.load %alloc_0[%23, %12] : memref<110x1300xf32, "gpu">
            %27 = arith.maxf %arg4, %26 : f32
            scf.yield %27 : f32
          } else {
            scf.yield %arg4 : f32
          }
          scf.yield %25 : f32
        }
        scf.yield %19 : f32
      } else {
        scf.yield %4 : f32
      }
      memref.store %14, %alloc_2[%10] : memref<256xf32, #gpu.address_space<workgroup>>
      gpu.barrier
      %15 = arith.cmpi slt, %7, %c4 : index
      scf.if %15 {
        %19 = arith.addi %10, %c4 : index
        %20 = memref.load %alloc_2[%10] : memref<256xf32, #gpu.address_space<workgroup>>
        %21 = memref.load %alloc_2[%19] : memref<256xf32, #gpu.address_space<workgroup>>
        %22 = arith.maxf %20, %21 : f32
        memref.store %22, %alloc_2[%10] : memref<256xf32, #gpu.address_space<workgroup>>
      }
      gpu.barrier
      %16 = arith.cmpi slt, %7, %c2 : index
      scf.if %16 {
        %19 = arith.addi %10, %c2 : index
        %20 = memref.load %alloc_2[%10] : memref<256xf32, #gpu.address_space<workgroup>>
        %21 = memref.load %alloc_2[%19] : memref<256xf32, #gpu.address_space<workgroup>>
        %22 = arith.maxf %20, %21 : f32
        memref.store %22, %alloc_2[%10] : memref<256xf32, #gpu.address_space<workgroup>>
      }
      gpu.barrier
      %17 = arith.cmpi eq, %7, %c0 : index
      %18 = arith.andi %17, %13 : i1
      scf.if %18 {
        %19 = arith.addi %10, %c1 : index
        %20 = memref.load %alloc_2[%10] : memref<256xf32, #gpu.address_space<workgroup>>
        %21 = memref.load %alloc_2[%19] : memref<256xf32, #gpu.address_space<workgroup>>
        %22 = arith.maxf %20, %21 : f32
        %23 = memref.atomic_rmw maxf %22, %alloc_1[%12] : (f32, memref<1300xf32, "gpu">) -> f32
      }
      scf.yield
    }
    "lmhlo.terminator"() : () -> ()
  }) {disc.device = "gpu", disc.fusion.name = "main_kColReduction_reduce__3_1_0", disc.fusion.tag = "8w32h", disc.fusion_type = "kColReduction", disc_col_reduction_schedule_hint = 1 : i32, disc_thread_per_block_hint = 256 : i32} : () -> ()
  memref.dealloc %alloc_0 : memref<110x1300xf32, "gpu">
  memref.dealloc %alloc : memref<f32, "gpu">
  %2 = llvm.inttoptr %0 : i32 to !llvm.ptr<i8>
  %alloca = memref.alloca() : memref<2xindex, "cpu">
  memref.store %c100, %alloca[%c0] : memref<2xindex, "cpu">
  memref.store %c13, %alloca[%c1] : memref<2xindex, "cpu">
  %3 = "disc_ral.dispatch"(%arg0, %2, %alloc_1, %alloca) {backend_config = "", call_target_name = "inc_ref", device = "gpu", has_side_effect = false} : (!disc_ral.context, !llvm.ptr<i8>, memref<1300xf32, "gpu">, memref<2xindex, "cpu">) -> memref<100x13xf32, "gpu">
  %reinterpret_cast = memref.reinterpret_cast %3 to offset: [0], sizes: [100, 13], strides: [13, 1] : memref<100x13xf32, "gpu"> to memref<100x13xf32, "gpu">
  memref.dealloc %alloc_1 : memref<1300xf32, "gpu">
  "disc_ral.dispatch"(%arg0, %c0, %reinterpret_cast) {backend_config = "", call_target_name = "ral_send_output", device = "cpu", has_side_effect = false} : (!disc_ral.context, index, memref<100x13xf32, "gpu">) -> ()
  return
}

// -----// IR Dump After ExpandOps (memref-expand) //----- //
func.func @main(%arg0: !disc_ral.context) attributes {tf.entry_function = {input_placements = "gpu", inputs = "input0", output_placements = "gpu", outputs = "output0"}} {
  %c110 = arith.constant 110 : index
  %c41 = arith.constant 41 : index
  %c2 = arith.constant 2 : index
  %c4 = arith.constant 4 : index
  %c256 = arith.constant 256 : index
  %c64 = arith.constant 64 : index
  %c8 = arith.constant 8 : index
  %c32 = arith.constant 32 : index
  %c1300 = arith.constant 1300 : index
  %0 = llvm.mlir.constant(0 : i32) : i32
  %c0 = arith.constant 0 : index
  %c100 = arith.constant 100 : index
  %c1 = arith.constant 1 : index
  %c13 = arith.constant 13 : index
  %1 = "disc_ral.dispatch"(%arg0, %c0) {backend_config = "", call_target_name = "ral_recv_input", device = "cpu", has_side_effect = false} : (!disc_ral.context, index) -> memref<110x100x13xf32, "gpu">
  %alloc = memref.alloc() : memref<f32, "gpu">
  %alloc_0 = memref.alloc() : memref<110x1300xf32, "gpu">
  %alloc_1 = memref.alloc() : memref<1300xf32, "gpu">
  "lmhlo.fusion"() ({
    "lmhlo.constant"(%alloc) {disc.device = "gpu", value = dense<0xFF800000> : tensor<f32>} : (memref<f32, "gpu">) -> ()
    "lmhlo.reshape"(%1, %alloc_0) {disc.device = "gpu"} : (memref<110x100x13xf32, "gpu">, memref<110x1300xf32, "gpu">) -> ()
    scf.parallel (%arg1) = (%c0) to (%c1300) step (%c1) {
      %4 = "disc_shape.delinearize"(%arg1, %c1300) : (index, index) -> index
      %5 = memref.load %alloc[] : memref<f32, "gpu">
      memref.store %5, %alloc_1[%4] : memref<1300xf32, "gpu">
      scf.yield
    }
    scf.parallel (%arg1, %arg2) = (%c0, %c0) to (%c41, %c256) step (%c1, %c1) {
      %4 = memref.load %alloc[] : memref<f32, "gpu">
      %5 = arith.divui %arg1, %c41 : index
      %6 = arith.remui %arg1, %c41 : index
      %7 = arith.divui %arg2, %c32 : index
      %8 = arith.remui %arg2, %c32 : index
      %9 = arith.muli %8, %c8 : index
      %10 = arith.addi %7, %9 : index
      %11 = arith.muli %6, %c32 : index
      %12 = arith.addi %8, %11 : index
      %alloc_2 = memref.alloc() : memref<256xf32, #gpu.address_space<workgroup>>
      %13 = arith.cmpi ult, %12, %c1300 : index
      %14 = scf.if %13 -> (f32) {
        %19 = scf.for %arg3 = %c0 to %c64 step %c1 iter_args(%arg4 = %4) -> (f32) {
          %20 = arith.muli %5, %c8 : index
          %21 = arith.addi %7, %20 : index
          %22 = arith.muli %21, %c64 : index
          %23 = arith.addi %arg3, %22 : index
          %24 = arith.cmpi slt, %23, %c110 : index
          %25 = scf.if %24 -> (f32) {
            %26 = memref.load %alloc_0[%23, %12] : memref<110x1300xf32, "gpu">
            %27 = arith.maxf %arg4, %26 : f32
            scf.yield %27 : f32
          } else {
            scf.yield %arg4 : f32
          }
          scf.yield %25 : f32
        }
        scf.yield %19 : f32
      } else {
        scf.yield %4 : f32
      }
      memref.store %14, %alloc_2[%10] : memref<256xf32, #gpu.address_space<workgroup>>
      gpu.barrier
      %15 = arith.cmpi slt, %7, %c4 : index
      scf.if %15 {
        %19 = arith.addi %10, %c4 : index
        %20 = memref.load %alloc_2[%10] : memref<256xf32, #gpu.address_space<workgroup>>
        %21 = memref.load %alloc_2[%19] : memref<256xf32, #gpu.address_space<workgroup>>
        %22 = arith.maxf %20, %21 : f32
        memref.store %22, %alloc_2[%10] : memref<256xf32, #gpu.address_space<workgroup>>
      }
      gpu.barrier
      %16 = arith.cmpi slt, %7, %c2 : index
      scf.if %16 {
        %19 = arith.addi %10, %c2 : index
        %20 = memref.load %alloc_2[%10] : memref<256xf32, #gpu.address_space<workgroup>>
        %21 = memref.load %alloc_2[%19] : memref<256xf32, #gpu.address_space<workgroup>>
        %22 = arith.maxf %20, %21 : f32
        memref.store %22, %alloc_2[%10] : memref<256xf32, #gpu.address_space<workgroup>>
      }
      gpu.barrier
      %17 = arith.cmpi eq, %7, %c0 : index
      %18 = arith.andi %17, %13 : i1
      scf.if %18 {
        %19 = arith.addi %10, %c1 : index
        %20 = memref.load %alloc_2[%10] : memref<256xf32, #gpu.address_space<workgroup>>
        %21 = memref.load %alloc_2[%19] : memref<256xf32, #gpu.address_space<workgroup>>
        %22 = arith.maxf %20, %21 : f32
        %23 = memref.generic_atomic_rmw %alloc_1[%12] : memref<1300xf32, "gpu"> {
        ^bb0(%arg3: f32):
          %24 = arith.cmpf ogt, %arg3, %22 : f32
          %25 = arith.select %24, %arg3, %22 : f32
          memref.atomic_yield %25 : f32
        }
      }
      scf.yield
    }
    "lmhlo.terminator"() : () -> ()
  }) {disc.device = "gpu", disc.fusion.name = "main_kColReduction_reduce__3_1_0", disc.fusion.tag = "8w32h", disc.fusion_type = "kColReduction", disc_col_reduction_schedule_hint = 1 : i32, disc_thread_per_block_hint = 256 : i32} : () -> ()
  memref.dealloc %alloc_0 : memref<110x1300xf32, "gpu">
  memref.dealloc %alloc : memref<f32, "gpu">
  %2 = llvm.inttoptr %0 : i32 to !llvm.ptr<i8>
  %alloca = memref.alloca() : memref<2xindex, "cpu">
  memref.store %c100, %alloca[%c0] : memref<2xindex, "cpu">
  memref.store %c13, %alloca[%c1] : memref<2xindex, "cpu">
  %3 = "disc_ral.dispatch"(%arg0, %2, %alloc_1, %alloca) {backend_config = "", call_target_name = "inc_ref", device = "gpu", has_side_effect = false} : (!disc_ral.context, !llvm.ptr<i8>, memref<1300xf32, "gpu">, memref<2xindex, "cpu">) -> memref<100x13xf32, "gpu">
  %reinterpret_cast = memref.reinterpret_cast %3 to offset: [0], sizes: [100, 13], strides: [13, 1] : memref<100x13xf32, "gpu"> to memref<100x13xf32, "gpu">
  memref.dealloc %alloc_1 : memref<1300xf32, "gpu">
  "disc_ral.dispatch"(%arg0, %c0, %reinterpret_cast) {backend_config = "", call_target_name = "ral_send_output", device = "cpu", has_side_effect = false} : (!disc_ral.context, index, memref<100x13xf32, "gpu">) -> ()
  return
}

// -----// IR Dump After InputInlineFusionPass (disc-input-inline-fusion) //----- //
func.func @main(%arg0: !disc_ral.context) attributes {tf.entry_function = {input_placements = "gpu", inputs = "input0", output_placements = "gpu", outputs = "output0"}} {
  %cst = arith.constant 0xFF800000 : f32
  %c110 = arith.constant 110 : index
  %c41 = arith.constant 41 : index
  %c2 = arith.constant 2 : index
  %c4 = arith.constant 4 : index
  %c256 = arith.constant 256 : index
  %c64 = arith.constant 64 : index
  %c8 = arith.constant 8 : index
  %c32 = arith.constant 32 : index
  %c1300 = arith.constant 1300 : index
  %0 = llvm.mlir.constant(0 : i32) : i32
  %c0 = arith.constant 0 : index
  %c100 = arith.constant 100 : index
  %c1 = arith.constant 1 : index
  %c13 = arith.constant 13 : index
  %1 = "disc_ral.dispatch"(%arg0, %c0) {backend_config = "", call_target_name = "ral_recv_input", device = "cpu", has_side_effect = false} : (!disc_ral.context, index) -> memref<110x100x13xf32, "gpu">
  %alloc = memref.alloc() : memref<f32, "gpu">
  %alloc_0 = memref.alloc() : memref<110x1300xf32, "gpu">
  %alloc_1 = memref.alloc() : memref<1300xf32, "gpu">
  "lmhlo.fusion"() ({
    scf.parallel (%arg1) = (%c0) to (%c1300) step (%c1) {
      %4 = "disc_shape.delinearize"(%arg1, %c1300) : (index, index) -> index
      memref.store %cst, %alloc_1[%4] : memref<1300xf32, "gpu">
      scf.yield
    }
    scf.parallel (%arg1, %arg2) = (%c0, %c0) to (%c41, %c256) step (%c1, %c1) {
      %4 = arith.divui %arg1, %c41 : index
      %5 = arith.remui %arg1, %c41 : index
      %6 = arith.divui %arg2, %c32 : index
      %7 = arith.remui %arg2, %c32 : index
      %8 = arith.muli %7, %c8 : index
      %9 = arith.addi %6, %8 : index
      %10 = arith.muli %5, %c32 : index
      %11 = arith.addi %7, %10 : index
      %alloc_2 = memref.alloc() : memref<256xf32, #gpu.address_space<workgroup>>
      %12 = arith.cmpi ult, %11, %c1300 : index
      %13 = scf.if %12 -> (f32) {
        %18 = scf.for %arg3 = %c0 to %c64 step %c1 iter_args(%arg4 = %cst) -> (f32) {
          %19 = arith.muli %4, %c8 : index
          %20 = arith.addi %6, %19 : index
          %21 = arith.muli %20, %c64 : index
          %22 = arith.addi %arg3, %21 : index
          %23 = arith.cmpi slt, %22, %c110 : index
          %24 = scf.if %23 -> (f32) {
            %25 = "disc_shape.linearize"(%22, %11, %c110, %c1300) {operand_segment_sizes = array<i32: 2, 2>} : (index, index, index, index) -> index
            %26:3 = "disc_shape.delinearize"(%25, %c110, %c100, %c13) : (index, index, index, index) -> (index, index, index)
            %27 = memref.load %1[%26#0, %26#1, %26#2] : memref<110x100x13xf32, "gpu">
            %28 = arith.maxf %arg4, %27 : f32
            scf.yield %28 : f32
          } else {
            scf.yield %arg4 : f32
          }
          scf.yield %24 : f32
        }
        scf.yield %18 : f32
      } else {
        scf.yield %cst : f32
      }
      memref.store %13, %alloc_2[%9] : memref<256xf32, #gpu.address_space<workgroup>>
      gpu.barrier
      %14 = arith.cmpi slt, %6, %c4 : index
      scf.if %14 {
        %18 = arith.addi %9, %c4 : index
        %19 = memref.load %alloc_2[%9] : memref<256xf32, #gpu.address_space<workgroup>>
        %20 = memref.load %alloc_2[%18] : memref<256xf32, #gpu.address_space<workgroup>>
        %21 = arith.maxf %19, %20 : f32
        memref.store %21, %alloc_2[%9] : memref<256xf32, #gpu.address_space<workgroup>>
      }
      gpu.barrier
      %15 = arith.cmpi slt, %6, %c2 : index
      scf.if %15 {
        %18 = arith.addi %9, %c2 : index
        %19 = memref.load %alloc_2[%9] : memref<256xf32, #gpu.address_space<workgroup>>
        %20 = memref.load %alloc_2[%18] : memref<256xf32, #gpu.address_space<workgroup>>
        %21 = arith.maxf %19, %20 : f32
        memref.store %21, %alloc_2[%9] : memref<256xf32, #gpu.address_space<workgroup>>
      }
      gpu.barrier
      %16 = arith.cmpi eq, %6, %c0 : index
      %17 = arith.andi %16, %12 : i1
      scf.if %17 {
        %18 = arith.addi %9, %c1 : index
        %19 = memref.load %alloc_2[%9] : memref<256xf32, #gpu.address_space<workgroup>>
        %20 = memref.load %alloc_2[%18] : memref<256xf32, #gpu.address_space<workgroup>>
        %21 = arith.maxf %19, %20 : f32
        %22 = memref.generic_atomic_rmw %alloc_1[%11] : memref<1300xf32, "gpu"> {
        ^bb0(%arg3: f32):
          %23 = arith.cmpf ogt, %arg3, %21 : f32
          %24 = arith.select %23, %arg3, %21 : f32
          memref.atomic_yield %24 : f32
        }
      }
      scf.yield
    }
    "lmhlo.terminator"() : () -> ()
  }) {disc.device = "gpu", disc.fusion.name = "main_kColReduction_reduce__3_1_0", disc.fusion.tag = "8w32h", disc.fusion_type = "kColReduction", disc_col_reduction_schedule_hint = 1 : i32, disc_thread_per_block_hint = 256 : i32} : () -> ()
  memref.dealloc %alloc_0 : memref<110x1300xf32, "gpu">
  memref.dealloc %alloc : memref<f32, "gpu">
  %2 = llvm.inttoptr %0 : i32 to !llvm.ptr<i8>
  %alloca = memref.alloca() : memref<2xindex, "cpu">
  memref.store %c100, %alloca[%c0] : memref<2xindex, "cpu">
  memref.store %c13, %alloca[%c1] : memref<2xindex, "cpu">
  %3 = "disc_ral.dispatch"(%arg0, %2, %alloc_1, %alloca) {backend_config = "", call_target_name = "inc_ref", device = "gpu", has_side_effect = false} : (!disc_ral.context, !llvm.ptr<i8>, memref<1300xf32, "gpu">, memref<2xindex, "cpu">) -> memref<100x13xf32, "gpu">
  %reinterpret_cast = memref.reinterpret_cast %3 to offset: [0], sizes: [100, 13], strides: [13, 1] : memref<100x13xf32, "gpu"> to memref<100x13xf32, "gpu">
  memref.dealloc %alloc_1 : memref<1300xf32, "gpu">
  "disc_ral.dispatch"(%arg0, %c0, %reinterpret_cast) {backend_config = "", call_target_name = "ral_send_output", device = "cpu", has_side_effect = false} : (!disc_ral.context, index, memref<100x13xf32, "gpu">) -> ()
  return
}

// -----// IR Dump After ArithExpandOps (arith-expand) //----- //
func.func @main(%arg0: !disc_ral.context) attributes {tf.entry_function = {input_placements = "gpu", inputs = "input0", output_placements = "gpu", outputs = "output0"}} {
  %cst = arith.constant 0xFF800000 : f32
  %c110 = arith.constant 110 : index
  %c41 = arith.constant 41 : index
  %c2 = arith.constant 2 : index
  %c4 = arith.constant 4 : index
  %c256 = arith.constant 256 : index
  %c64 = arith.constant 64 : index
  %c8 = arith.constant 8 : index
  %c32 = arith.constant 32 : index
  %c1300 = arith.constant 1300 : index
  %0 = llvm.mlir.constant(0 : i32) : i32
  %c0 = arith.constant 0 : index
  %c100 = arith.constant 100 : index
  %c1 = arith.constant 1 : index
  %c13 = arith.constant 13 : index
  %1 = "disc_ral.dispatch"(%arg0, %c0) {backend_config = "", call_target_name = "ral_recv_input", device = "cpu", has_side_effect = false} : (!disc_ral.context, index) -> memref<110x100x13xf32, "gpu">
  %alloc = memref.alloc() : memref<f32, "gpu">
  %alloc_0 = memref.alloc() : memref<110x1300xf32, "gpu">
  %alloc_1 = memref.alloc() : memref<1300xf32, "gpu">
  "lmhlo.fusion"() ({
    scf.parallel (%arg1) = (%c0) to (%c1300) step (%c1) {
      %4 = "disc_shape.delinearize"(%arg1, %c1300) : (index, index) -> index
      memref.store %cst, %alloc_1[%4] : memref<1300xf32, "gpu">
      scf.yield
    }
    scf.parallel (%arg1, %arg2) = (%c0, %c0) to (%c41, %c256) step (%c1, %c1) {
      %4 = arith.divui %arg1, %c41 : index
      %5 = arith.remui %arg1, %c41 : index
      %6 = arith.divui %arg2, %c32 : index
      %7 = arith.remui %arg2, %c32 : index
      %8 = arith.muli %7, %c8 : index
      %9 = arith.addi %6, %8 : index
      %10 = arith.muli %5, %c32 : index
      %11 = arith.addi %7, %10 : index
      %alloc_2 = memref.alloc() : memref<256xf32, #gpu.address_space<workgroup>>
      %12 = arith.cmpi ult, %11, %c1300 : index
      %13 = scf.if %12 -> (f32) {
        %18 = scf.for %arg3 = %c0 to %c64 step %c1 iter_args(%arg4 = %cst) -> (f32) {
          %19 = arith.muli %4, %c8 : index
          %20 = arith.addi %6, %19 : index
          %21 = arith.muli %20, %c64 : index
          %22 = arith.addi %arg3, %21 : index
          %23 = arith.cmpi slt, %22, %c110 : index
          %24 = scf.if %23 -> (f32) {
            %25 = "disc_shape.linearize"(%22, %11, %c110, %c1300) {operand_segment_sizes = array<i32: 2, 2>} : (index, index, index, index) -> index
            %26:3 = "disc_shape.delinearize"(%25, %c110, %c100, %c13) : (index, index, index, index) -> (index, index, index)
            %27 = memref.load %1[%26#0, %26#1, %26#2] : memref<110x100x13xf32, "gpu">
            %28 = arith.cmpf ugt, %arg4, %27 : f32
            %29 = arith.select %28, %arg4, %27 : f32
            %30 = arith.cmpf uno, %27, %27 : f32
            %31 = arith.select %30, %27, %29 : f32
            scf.yield %31 : f32
          } else {
            scf.yield %arg4 : f32
          }
          scf.yield %24 : f32
        }
        scf.yield %18 : f32
      } else {
        scf.yield %cst : f32
      }
      memref.store %13, %alloc_2[%9] : memref<256xf32, #gpu.address_space<workgroup>>
      gpu.barrier
      %14 = arith.cmpi slt, %6, %c4 : index
      scf.if %14 {
        %18 = arith.addi %9, %c4 : index
        %19 = memref.load %alloc_2[%9] : memref<256xf32, #gpu.address_space<workgroup>>
        %20 = memref.load %alloc_2[%18] : memref<256xf32, #gpu.address_space<workgroup>>
        %21 = arith.cmpf ugt, %19, %20 : f32
        %22 = arith.select %21, %19, %20 : f32
        %23 = arith.cmpf uno, %20, %20 : f32
        %24 = arith.select %23, %20, %22 : f32
        memref.store %24, %alloc_2[%9] : memref<256xf32, #gpu.address_space<workgroup>>
      }
      gpu.barrier
      %15 = arith.cmpi slt, %6, %c2 : index
      scf.if %15 {
        %18 = arith.addi %9, %c2 : index
        %19 = memref.load %alloc_2[%9] : memref<256xf32, #gpu.address_space<workgroup>>
        %20 = memref.load %alloc_2[%18] : memref<256xf32, #gpu.address_space<workgroup>>
        %21 = arith.cmpf ugt, %19, %20 : f32
        %22 = arith.select %21, %19, %20 : f32
        %23 = arith.cmpf uno, %20, %20 : f32
        %24 = arith.select %23, %20, %22 : f32
        memref.store %24, %alloc_2[%9] : memref<256xf32, #gpu.address_space<workgroup>>
      }
      gpu.barrier
      %16 = arith.cmpi eq, %6, %c0 : index
      %17 = arith.andi %16, %12 : i1
      scf.if %17 {
        %18 = arith.addi %9, %c1 : index
        %19 = memref.load %alloc_2[%9] : memref<256xf32, #gpu.address_space<workgroup>>
        %20 = memref.load %alloc_2[%18] : memref<256xf32, #gpu.address_space<workgroup>>
        %21 = arith.cmpf ugt, %19, %20 : f32
        %22 = arith.select %21, %19, %20 : f32
        %23 = arith.cmpf uno, %20, %20 : f32
        %24 = arith.select %23, %20, %22 : f32
        %25 = memref.generic_atomic_rmw %alloc_1[%11] : memref<1300xf32, "gpu"> {
        ^bb0(%arg3: f32):
          %26 = arith.cmpf ogt, %arg3, %24 : f32
          %27 = arith.select %26, %arg3, %24 : f32
          memref.atomic_yield %27 : f32
        }
      }
      scf.yield
    }
    "lmhlo.terminator"() : () -> ()
  }) {disc.device = "gpu", disc.fusion.name = "main_kColReduction_reduce__3_1_0", disc.fusion.tag = "8w32h", disc.fusion_type = "kColReduction", disc_col_reduction_schedule_hint = 1 : i32, disc_thread_per_block_hint = 256 : i32} : () -> ()
  memref.dealloc %alloc_0 : memref<110x1300xf32, "gpu">
  memref.dealloc %alloc : memref<f32, "gpu">
  %2 = llvm.inttoptr %0 : i32 to !llvm.ptr<i8>
  %alloca = memref.alloca() : memref<2xindex, "cpu">
  memref.store %c100, %alloca[%c0] : memref<2xindex, "cpu">
  memref.store %c13, %alloca[%c1] : memref<2xindex, "cpu">
  %3 = "disc_ral.dispatch"(%arg0, %2, %alloc_1, %alloca) {backend_config = "", call_target_name = "inc_ref", device = "gpu", has_side_effect = false} : (!disc_ral.context, !llvm.ptr<i8>, memref<1300xf32, "gpu">, memref<2xindex, "cpu">) -> memref<100x13xf32, "gpu">
  %reinterpret_cast = memref.reinterpret_cast %3 to offset: [0], sizes: [100, 13], strides: [13, 1] : memref<100x13xf32, "gpu"> to memref<100x13xf32, "gpu">
  memref.dealloc %alloc_1 : memref<1300xf32, "gpu">
  "disc_ral.dispatch"(%arg0, %c0, %reinterpret_cast) {backend_config = "", call_target_name = "ral_send_output", device = "cpu", has_side_effect = false} : (!disc_ral.context, index, memref<100x13xf32, "gpu">) -> ()
  return
}

// -----// IR Dump After DiscFlattenMemrefAccessPass (disc-flatten-memref-access) //----- //
func.func @main(%arg0: !disc_ral.context) attributes {tf.entry_function = {input_placements = "gpu", inputs = "input0", output_placements = "gpu", outputs = "output0"}} {
  %cst = arith.constant 0xFF800000 : f32
  %c110 = arith.constant 110 : index
  %c41 = arith.constant 41 : index
  %c2 = arith.constant 2 : index
  %c4 = arith.constant 4 : index
  %c256 = arith.constant 256 : index
  %c64 = arith.constant 64 : index
  %c8 = arith.constant 8 : index
  %c32 = arith.constant 32 : index
  %c1300 = arith.constant 1300 : index
  %0 = llvm.mlir.constant(0 : i32) : i32
  %c0 = arith.constant 0 : index
  %c100 = arith.constant 100 : index
  %c1 = arith.constant 1 : index
  %c13 = arith.constant 13 : index
  %1 = "disc_ral.dispatch"(%arg0, %c0) {backend_config = "", call_target_name = "ral_recv_input", device = "cpu", has_side_effect = false} : (!disc_ral.context, index) -> memref<110x100x13xf32, "gpu">
  %alloc = memref.alloc() : memref<f32, "gpu">
  %alloc_0 = memref.alloc() : memref<110x1300xf32, "gpu">
  %alloc_1 = memref.alloc() : memref<1300xf32, "gpu">
  "lmhlo.fusion"() ({
    scf.parallel (%arg1) = (%c0) to (%c1300) step (%c1) {
      %4 = "disc_shape.delinearize"(%arg1, %c1300) : (index, index) -> index
      %c1300_2 = arith.constant 1300 : index
      %5 = "disc_shape.linearize"(%4, %c1300_2) {operand_segment_sizes = array<i32: 1, 1>} : (index, index) -> index
      %reinterpret_cast_3 = memref.reinterpret_cast %alloc_1 to offset: [0], sizes: [1300], strides: [1] : memref<1300xf32, "gpu"> to memref<1300xf32, "gpu">
      memref.store %cst, %reinterpret_cast_3[%5] : memref<1300xf32, "gpu">
      scf.yield
    }
    scf.parallel (%arg1, %arg2) = (%c0, %c0) to (%c41, %c256) step (%c1, %c1) {
      %4 = arith.divui %arg1, %c41 : index
      %5 = arith.remui %arg1, %c41 : index
      %6 = arith.divui %arg2, %c32 : index
      %7 = arith.remui %arg2, %c32 : index
      %8 = arith.muli %7, %c8 : index
      %9 = arith.addi %6, %8 : index
      %10 = arith.muli %5, %c32 : index
      %11 = arith.addi %7, %10 : index
      %alloc_2 = memref.alloc() : memref<256xf32, #gpu.address_space<workgroup>>
      %12 = arith.cmpi ult, %11, %c1300 : index
      %13 = scf.if %12 -> (f32) {
        %19 = scf.for %arg3 = %c0 to %c64 step %c1 iter_args(%arg4 = %cst) -> (f32) {
          %20 = arith.muli %4, %c8 : index
          %21 = arith.addi %6, %20 : index
          %22 = arith.muli %21, %c64 : index
          %23 = arith.addi %arg3, %22 : index
          %24 = arith.cmpi slt, %23, %c110 : index
          %25 = scf.if %24 -> (f32) {
            %26 = "disc_shape.linearize"(%23, %11, %c110, %c1300) {operand_segment_sizes = array<i32: 2, 2>} : (index, index, index, index) -> index
            %27:3 = "disc_shape.delinearize"(%26, %c110, %c100, %c13) : (index, index, index, index) -> (index, index, index)
            %c110_5 = arith.constant 110 : index
            %c100_6 = arith.constant 100 : index
            %c13_7 = arith.constant 13 : index
            %28 = "disc_shape.linearize"(%27#0, %27#1, %27#2, %c110_5, %c100_6, %c13_7) {operand_segment_sizes = array<i32: 3, 3>} : (index, index, index, index, index, index) -> index
            %reinterpret_cast_8 = memref.reinterpret_cast %1 to offset: [0], sizes: [143000], strides: [1] : memref<110x100x13xf32, "gpu"> to memref<143000xf32, "gpu">
            %29 = memref.load %reinterpret_cast_8[%28] : memref<143000xf32, "gpu">
            %30 = arith.cmpf ugt, %arg4, %29 : f32
            %31 = arith.select %30, %arg4, %29 : f32
            %32 = arith.cmpf uno, %29, %29 : f32
            %33 = arith.select %32, %29, %31 : f32
            scf.yield %33 : f32
          } else {
            scf.yield %arg4 : f32
          }
          scf.yield %25 : f32
        }
        scf.yield %19 : f32
      } else {
        scf.yield %cst : f32
      }
      %c256_3 = arith.constant 256 : index
      %14 = "disc_shape.linearize"(%9, %c256_3) {operand_segment_sizes = array<i32: 1, 1>} : (index, index) -> index
      %reinterpret_cast_4 = memref.reinterpret_cast %alloc_2 to offset: [0], sizes: [256], strides: [1] : memref<256xf32, #gpu.address_space<workgroup>> to memref<256xf32, #gpu.address_space<workgroup>>
      memref.store %13, %reinterpret_cast_4[%14] : memref<256xf32, #gpu.address_space<workgroup>>
      gpu.barrier
      %15 = arith.cmpi slt, %6, %c4 : index
      scf.if %15 {
        %19 = arith.addi %9, %c4 : index
        %c256_5 = arith.constant 256 : index
        %20 = "disc_shape.linearize"(%9, %c256_5) {operand_segment_sizes = array<i32: 1, 1>} : (index, index) -> index
        %reinterpret_cast_6 = memref.reinterpret_cast %alloc_2 to offset: [0], sizes: [256], strides: [1] : memref<256xf32, #gpu.address_space<workgroup>> to memref<256xf32, #gpu.address_space<workgroup>>
        %21 = memref.load %reinterpret_cast_6[%20] : memref<256xf32, #gpu.address_space<workgroup>>
        %c256_7 = arith.constant 256 : index
        %22 = "disc_shape.linearize"(%19, %c256_7) {operand_segment_sizes = array<i32: 1, 1>} : (index, index) -> index
        %reinterpret_cast_8 = memref.reinterpret_cast %alloc_2 to offset: [0], sizes: [256], strides: [1] : memref<256xf32, #gpu.address_space<workgroup>> to memref<256xf32, #gpu.address_space<workgroup>>
        %23 = memref.load %reinterpret_cast_8[%22] : memref<256xf32, #gpu.address_space<workgroup>>
        %24 = arith.cmpf ugt, %21, %23 : f32
        %25 = arith.select %24, %21, %23 : f32
        %26 = arith.cmpf uno, %23, %23 : f32
        %27 = arith.select %26, %23, %25 : f32
        %c256_9 = arith.constant 256 : index
        %28 = "disc_shape.linearize"(%9, %c256_9) {operand_segment_sizes = array<i32: 1, 1>} : (index, index) -> index
        %reinterpret_cast_10 = memref.reinterpret_cast %alloc_2 to offset: [0], sizes: [256], strides: [1] : memref<256xf32, #gpu.address_space<workgroup>> to memref<256xf32, #gpu.address_space<workgroup>>
        memref.store %27, %reinterpret_cast_10[%28] : memref<256xf32, #gpu.address_space<workgroup>>
      }
      gpu.barrier
      %16 = arith.cmpi slt, %6, %c2 : index
      scf.if %16 {
        %19 = arith.addi %9, %c2 : index
        %c256_5 = arith.constant 256 : index
        %20 = "disc_shape.linearize"(%9, %c256_5) {operand_segment_sizes = array<i32: 1, 1>} : (index, index) -> index
        %reinterpret_cast_6 = memref.reinterpret_cast %alloc_2 to offset: [0], sizes: [256], strides: [1] : memref<256xf32, #gpu.address_space<workgroup>> to memref<256xf32, #gpu.address_space<workgroup>>
        %21 = memref.load %reinterpret_cast_6[%20] : memref<256xf32, #gpu.address_space<workgroup>>
        %c256_7 = arith.constant 256 : index
        %22 = "disc_shape.linearize"(%19, %c256_7) {operand_segment_sizes = array<i32: 1, 1>} : (index, index) -> index
        %reinterpret_cast_8 = memref.reinterpret_cast %alloc_2 to offset: [0], sizes: [256], strides: [1] : memref<256xf32, #gpu.address_space<workgroup>> to memref<256xf32, #gpu.address_space<workgroup>>
        %23 = memref.load %reinterpret_cast_8[%22] : memref<256xf32, #gpu.address_space<workgroup>>
        %24 = arith.cmpf ugt, %21, %23 : f32
        %25 = arith.select %24, %21, %23 : f32
        %26 = arith.cmpf uno, %23, %23 : f32
        %27 = arith.select %26, %23, %25 : f32
        %c256_9 = arith.constant 256 : index
        %28 = "disc_shape.linearize"(%9, %c256_9) {operand_segment_sizes = array<i32: 1, 1>} : (index, index) -> index
        %reinterpret_cast_10 = memref.reinterpret_cast %alloc_2 to offset: [0], sizes: [256], strides: [1] : memref<256xf32, #gpu.address_space<workgroup>> to memref<256xf32, #gpu.address_space<workgroup>>
        memref.store %27, %reinterpret_cast_10[%28] : memref<256xf32, #gpu.address_space<workgroup>>
      }
      gpu.barrier
      %17 = arith.cmpi eq, %6, %c0 : index
      %18 = arith.andi %17, %12 : i1
      scf.if %18 {
        %19 = arith.addi %9, %c1 : index
        %c256_5 = arith.constant 256 : index
        %20 = "disc_shape.linearize"(%9, %c256_5) {operand_segment_sizes = array<i32: 1, 1>} : (index, index) -> index
        %reinterpret_cast_6 = memref.reinterpret_cast %alloc_2 to offset: [0], sizes: [256], strides: [1] : memref<256xf32, #gpu.address_space<workgroup>> to memref<256xf32, #gpu.address_space<workgroup>>
        %21 = memref.load %reinterpret_cast_6[%20] : memref<256xf32, #gpu.address_space<workgroup>>
        %c256_7 = arith.constant 256 : index
        %22 = "disc_shape.linearize"(%19, %c256_7) {operand_segment_sizes = array<i32: 1, 1>} : (index, index) -> index
        %reinterpret_cast_8 = memref.reinterpret_cast %alloc_2 to offset: [0], sizes: [256], strides: [1] : memref<256xf32, #gpu.address_space<workgroup>> to memref<256xf32, #gpu.address_space<workgroup>>
        %23 = memref.load %reinterpret_cast_8[%22] : memref<256xf32, #gpu.address_space<workgroup>>
        %24 = arith.cmpf ugt, %21, %23 : f32
        %25 = arith.select %24, %21, %23 : f32
        %26 = arith.cmpf uno, %23, %23 : f32
        %27 = arith.select %26, %23, %25 : f32
        %28 = memref.generic_atomic_rmw %alloc_1[%11] : memref<1300xf32, "gpu"> {
        ^bb0(%arg3: f32):
          %29 = arith.cmpf ogt, %arg3, %27 : f32
          %30 = arith.select %29, %arg3, %27 : f32
          memref.atomic_yield %30 : f32
        }
      }
      scf.yield
    }
    "lmhlo.terminator"() : () -> ()
  }) {disc.device = "gpu", disc.fusion.name = "main_kColReduction_reduce__3_1_0", disc.fusion.tag = "8w32h", disc.fusion_type = "kColReduction", disc_col_reduction_schedule_hint = 1 : i32, disc_thread_per_block_hint = 256 : i32} : () -> ()
  memref.dealloc %alloc_0 : memref<110x1300xf32, "gpu">
  memref.dealloc %alloc : memref<f32, "gpu">
  %2 = llvm.inttoptr %0 : i32 to !llvm.ptr<i8>
  %alloca = memref.alloca() : memref<2xindex, "cpu">
  memref.store %c100, %alloca[%c0] : memref<2xindex, "cpu">
  memref.store %c13, %alloca[%c1] : memref<2xindex, "cpu">
  %3 = "disc_ral.dispatch"(%arg0, %2, %alloc_1, %alloca) {backend_config = "", call_target_name = "inc_ref", device = "gpu", has_side_effect = false} : (!disc_ral.context, !llvm.ptr<i8>, memref<1300xf32, "gpu">, memref<2xindex, "cpu">) -> memref<100x13xf32, "gpu">
  %reinterpret_cast = memref.reinterpret_cast %3 to offset: [0], sizes: [100, 13], strides: [13, 1] : memref<100x13xf32, "gpu"> to memref<100x13xf32, "gpu">
  memref.dealloc %alloc_1 : memref<1300xf32, "gpu">
  "disc_ral.dispatch"(%arg0, %c0, %reinterpret_cast) {backend_config = "", call_target_name = "ral_send_output", device = "cpu", has_side_effect = false} : (!disc_ral.context, index, memref<100x13xf32, "gpu">) -> ()
  return
}

// -----// IR Dump After Canonicalizer (disc-canonicalize) //----- //
func.func @main(%arg0: !disc_ral.context) attributes {tf.entry_function = {input_placements = "gpu", inputs = "input0", output_placements = "gpu", outputs = "output0"}} {
  %cst = arith.constant 0xFF800000 : f32
  %c110 = arith.constant 110 : index
  %c41 = arith.constant 41 : index
  %c2 = arith.constant 2 : index
  %c4 = arith.constant 4 : index
  %c256 = arith.constant 256 : index
  %c64 = arith.constant 64 : index
  %c8 = arith.constant 8 : index
  %c32 = arith.constant 32 : index
  %c1300 = arith.constant 1300 : index
  %0 = llvm.mlir.constant(0 : i32) : i32
  %c0 = arith.constant 0 : index
  %c100 = arith.constant 100 : index
  %c1 = arith.constant 1 : index
  %c13 = arith.constant 13 : index
  %1 = "disc_ral.dispatch"(%arg0, %c0) {backend_config = "", call_target_name = "ral_recv_input", device = "cpu", has_side_effect = false} : (!disc_ral.context, index) -> memref<110x100x13xf32, "gpu">
  %alloc = memref.alloc() : memref<1300xf32, "gpu">
  "lmhlo.fusion"() ({
    scf.parallel (%arg1) = (%c0) to (%c1300) step (%c1) {
      %reinterpret_cast_0 = memref.reinterpret_cast %alloc to offset: [0], sizes: [1300], strides: [1] : memref<1300xf32, "gpu"> to memref<1300xf32, "gpu">
      memref.store %cst, %reinterpret_cast_0[%arg1] : memref<1300xf32, "gpu">
      scf.yield
    }
    scf.parallel (%arg1, %arg2) = (%c0, %c0) to (%c41, %c256) step (%c1, %c1) {
      %4 = arith.divui %arg1, %c41 : index
      %5 = arith.remui %arg1, %c41 : index
      %6 = arith.divui %arg2, %c32 : index
      %7 = arith.remui %arg2, %c32 : index
      %8 = arith.muli %7, %c8 : index
      %9 = arith.addi %6, %8 : index
      %10 = arith.muli %5, %c32 : index
      %11 = arith.addi %7, %10 : index
      %alloc_0 = memref.alloc() : memref<256xf32, #gpu.address_space<workgroup>>
      %12 = arith.cmpi ult, %11, %c1300 : index
      %13 = scf.if %12 -> (f32) {
        %19 = scf.for %arg3 = %c0 to %c64 step %c1 iter_args(%arg4 = %cst) -> (f32) {
          %20 = arith.muli %4, %c8 : index
          %21 = arith.addi %6, %20 : index
          %22 = arith.muli %21, %c64 : index
          %23 = arith.addi %arg3, %22 : index
          %24 = arith.cmpi slt, %23, %c110 : index
          %25 = scf.if %24 -> (f32) {
            %26 = "disc_shape.linearize"(%23, %11, %c110, %c1300) {operand_segment_sizes = array<i32: 2, 2>} : (index, index, index, index) -> index
            %reinterpret_cast_2 = memref.reinterpret_cast %1 to offset: [0], sizes: [143000], strides: [1] : memref<110x100x13xf32, "gpu"> to memref<143000xf32, "gpu">
            %27 = memref.load %reinterpret_cast_2[%26] : memref<143000xf32, "gpu">
            %28 = arith.cmpf ugt, %arg4, %27 : f32
            %29 = arith.select %28, %arg4, %27 : f32
            %30 = arith.cmpf uno, %27, %27 : f32
            %31 = arith.select %30, %27, %29 : f32
            scf.yield %31 : f32
          } else {
            scf.yield %arg4 : f32
          }
          scf.yield %25 : f32
        }
        scf.yield %19 : f32
      } else {
        scf.yield %cst : f32
      }
      %14 = "disc_shape.linearize"(%9, %c256) {operand_segment_sizes = array<i32: 1, 1>} : (index, index) -> index
      %reinterpret_cast_1 = memref.reinterpret_cast %alloc_0 to offset: [0], sizes: [256], strides: [1] : memref<256xf32, #gpu.address_space<workgroup>> to memref<256xf32, #gpu.address_space<workgroup>>
      memref.store %13, %reinterpret_cast_1[%14] : memref<256xf32, #gpu.address_space<workgroup>>
      gpu.barrier
      %15 = arith.cmpi slt, %6, %c4 : index
      scf.if %15 {
        %19 = arith.addi %9, %c4 : index
        %20 = "disc_shape.linearize"(%9, %c256) {operand_segment_sizes = array<i32: 1, 1>} : (index, index) -> index
        %reinterpret_cast_2 = memref.reinterpret_cast %alloc_0 to offset: [0], sizes: [256], strides: [1] : memref<256xf32, #gpu.address_space<workgroup>> to memref<256xf32, #gpu.address_space<workgroup>>
        %21 = memref.load %reinterpret_cast_2[%20] : memref<256xf32, #gpu.address_space<workgroup>>
        %22 = "disc_shape.linearize"(%19, %c256) {operand_segment_sizes = array<i32: 1, 1>} : (index, index) -> index
        %reinterpret_cast_3 = memref.reinterpret_cast %alloc_0 to offset: [0], sizes: [256], strides: [1] : memref<256xf32, #gpu.address_space<workgroup>> to memref<256xf32, #gpu.address_space<workgroup>>
        %23 = memref.load %reinterpret_cast_3[%22] : memref<256xf32, #gpu.address_space<workgroup>>
        %24 = arith.cmpf ugt, %21, %23 : f32
        %25 = arith.select %24, %21, %23 : f32
        %26 = arith.cmpf uno, %23, %23 : f32
        %27 = arith.select %26, %23, %25 : f32
        %28 = "disc_shape.linearize"(%9, %c256) {operand_segment_sizes = array<i32: 1, 1>} : (index, index) -> index
        %reinterpret_cast_4 = memref.reinterpret_cast %alloc_0 to offset: [0], sizes: [256], strides: [1] : memref<256xf32, #gpu.address_space<workgroup>> to memref<256xf32, #gpu.address_space<workgroup>>
        memref.store %27, %reinterpret_cast_4[%28] : memref<256xf32, #gpu.address_space<workgroup>>
      }
      gpu.barrier
      %16 = arith.cmpi slt, %6, %c2 : index
      scf.if %16 {
        %19 = arith.addi %9, %c2 : index
        %20 = "disc_shape.linearize"(%9, %c256) {operand_segment_sizes = array<i32: 1, 1>} : (index, index) -> index
        %reinterpret_cast_2 = memref.reinterpret_cast %alloc_0 to offset: [0], sizes: [256], strides: [1] : memref<256xf32, #gpu.address_space<workgroup>> to memref<256xf32, #gpu.address_space<workgroup>>
        %21 = memref.load %reinterpret_cast_2[%20] : memref<256xf32, #gpu.address_space<workgroup>>
        %22 = "disc_shape.linearize"(%19, %c256) {operand_segment_sizes = array<i32: 1, 1>} : (index, index) -> index
        %reinterpret_cast_3 = memref.reinterpret_cast %alloc_0 to offset: [0], sizes: [256], strides: [1] : memref<256xf32, #gpu.address_space<workgroup>> to memref<256xf32, #gpu.address_space<workgroup>>
        %23 = memref.load %reinterpret_cast_3[%22] : memref<256xf32, #gpu.address_space<workgroup>>
        %24 = arith.cmpf ugt, %21, %23 : f32
        %25 = arith.select %24, %21, %23 : f32
        %26 = arith.cmpf uno, %23, %23 : f32
        %27 = arith.select %26, %23, %25 : f32
        %28 = "disc_shape.linearize"(%9, %c256) {operand_segment_sizes = array<i32: 1, 1>} : (index, index) -> index
        %reinterpret_cast_4 = memref.reinterpret_cast %alloc_0 to offset: [0], sizes: [256], strides: [1] : memref<256xf32, #gpu.address_space<workgroup>> to memref<256xf32, #gpu.address_space<workgroup>>
        memref.store %27, %reinterpret_cast_4[%28] : memref<256xf32, #gpu.address_space<workgroup>>
      }
      gpu.barrier
      %17 = arith.cmpi eq, %6, %c0 : index
      %18 = arith.andi %17, %12 : i1
      scf.if %18 {
        %19 = arith.addi %9, %c1 : index
        %20 = "disc_shape.linearize"(%9, %c256) {operand_segment_sizes = array<i32: 1, 1>} : (index, index) -> index
        %reinterpret_cast_2 = memref.reinterpret_cast %alloc_0 to offset: [0], sizes: [256], strides: [1] : memref<256xf32, #gpu.address_space<workgroup>> to memref<256xf32, #gpu.address_space<workgroup>>
        %21 = memref.load %reinterpret_cast_2[%20] : memref<256xf32, #gpu.address_space<workgroup>>
        %22 = "disc_shape.linearize"(%19, %c256) {operand_segment_sizes = array<i32: 1, 1>} : (index, index) -> index
        %reinterpret_cast_3 = memref.reinterpret_cast %alloc_0 to offset: [0], sizes: [256], strides: [1] : memref<256xf32, #gpu.address_space<workgroup>> to memref<256xf32, #gpu.address_space<workgroup>>
        %23 = memref.load %reinterpret_cast_3[%22] : memref<256xf32, #gpu.address_space<workgroup>>
        %24 = arith.cmpf ugt, %21, %23 : f32
        %25 = arith.select %24, %21, %23 : f32
        %26 = arith.cmpf uno, %23, %23 : f32
        %27 = arith.select %26, %23, %25 : f32
        %28 = memref.generic_atomic_rmw %alloc[%11] : memref<1300xf32, "gpu"> {
        ^bb0(%arg3: f32):
          %29 = arith.cmpf ogt, %arg3, %27 : f32
          %30 = arith.select %29, %arg3, %27 : f32
          memref.atomic_yield %30 : f32
        }
      }
      scf.yield
    }
    "lmhlo.terminator"() : () -> ()
  }) {disc.device = "gpu", disc.fusion.name = "main_kColReduction_reduce__3_1_0", disc.fusion.tag = "8w32h", disc.fusion_type = "kColReduction", disc_col_reduction_schedule_hint = 1 : i32, disc_thread_per_block_hint = 256 : i32} : () -> ()
  %2 = llvm.inttoptr %0 : i32 to !llvm.ptr<i8>
  %alloca = memref.alloca() : memref<2xindex, "cpu">
  memref.store %c100, %alloca[%c0] : memref<2xindex, "cpu">
  memref.store %c13, %alloca[%c1] : memref<2xindex, "cpu">
  %3 = "disc_ral.dispatch"(%arg0, %2, %alloc, %alloca) {backend_config = "", call_target_name = "inc_ref", device = "gpu", has_side_effect = false} : (!disc_ral.context, !llvm.ptr<i8>, memref<1300xf32, "gpu">, memref<2xindex, "cpu">) -> memref<100x13xf32, "gpu">
  %reinterpret_cast = memref.reinterpret_cast %3 to offset: [0], sizes: [100, 13], strides: [13, 1] : memref<100x13xf32, "gpu"> to memref<100x13xf32, "gpu">
  memref.dealloc %alloc : memref<1300xf32, "gpu">
  "disc_ral.dispatch"(%arg0, %c0, %reinterpret_cast) {backend_config = "", call_target_name = "ral_send_output", device = "cpu", has_side_effect = false} : (!disc_ral.context, index, memref<100x13xf32, "gpu">) -> ()
  return
}

// -----// IR Dump After CSE (cse) //----- //
func.func @main(%arg0: !disc_ral.context) attributes {tf.entry_function = {input_placements = "gpu", inputs = "input0", output_placements = "gpu", outputs = "output0"}} {
  %cst = arith.constant 0xFF800000 : f32
  %c110 = arith.constant 110 : index
  %c41 = arith.constant 41 : index
  %c2 = arith.constant 2 : index
  %c4 = arith.constant 4 : index
  %c256 = arith.constant 256 : index
  %c64 = arith.constant 64 : index
  %c8 = arith.constant 8 : index
  %c32 = arith.constant 32 : index
  %c1300 = arith.constant 1300 : index
  %0 = llvm.mlir.constant(0 : i32) : i32
  %c0 = arith.constant 0 : index
  %c100 = arith.constant 100 : index
  %c1 = arith.constant 1 : index
  %c13 = arith.constant 13 : index
  %1 = "disc_ral.dispatch"(%arg0, %c0) {backend_config = "", call_target_name = "ral_recv_input", device = "cpu", has_side_effect = false} : (!disc_ral.context, index) -> memref<110x100x13xf32, "gpu">
  %alloc = memref.alloc() : memref<1300xf32, "gpu">
  "lmhlo.fusion"() ({
    scf.parallel (%arg1) = (%c0) to (%c1300) step (%c1) {
      %reinterpret_cast_0 = memref.reinterpret_cast %alloc to offset: [0], sizes: [1300], strides: [1] : memref<1300xf32, "gpu"> to memref<1300xf32, "gpu">
      memref.store %cst, %reinterpret_cast_0[%arg1] : memref<1300xf32, "gpu">
      scf.yield
    }
    scf.parallel (%arg1, %arg2) = (%c0, %c0) to (%c41, %c256) step (%c1, %c1) {
      %4 = arith.divui %arg1, %c41 : index
      %5 = arith.remui %arg1, %c41 : index
      %6 = arith.divui %arg2, %c32 : index
      %7 = arith.remui %arg2, %c32 : index
      %8 = arith.muli %7, %c8 : index
      %9 = arith.addi %6, %8 : index
      %10 = arith.muli %5, %c32 : index
      %11 = arith.addi %7, %10 : index
      %alloc_0 = memref.alloc() : memref<256xf32, #gpu.address_space<workgroup>>
      %12 = arith.cmpi ult, %11, %c1300 : index
      %13 = scf.if %12 -> (f32) {
        %19 = scf.for %arg3 = %c0 to %c64 step %c1 iter_args(%arg4 = %cst) -> (f32) {
          %20 = arith.muli %4, %c8 : index
          %21 = arith.addi %6, %20 : index
          %22 = arith.muli %21, %c64 : index
          %23 = arith.addi %arg3, %22 : index
          %24 = arith.cmpi slt, %23, %c110 : index
          %25 = scf.if %24 -> (f32) {
            %26 = "disc_shape.linearize"(%23, %11, %c110, %c1300) {operand_segment_sizes = array<i32: 2, 2>} : (index, index, index, index) -> index
            %reinterpret_cast_2 = memref.reinterpret_cast %1 to offset: [0], sizes: [143000], strides: [1] : memref<110x100x13xf32, "gpu"> to memref<143000xf32, "gpu">
            %27 = memref.load %reinterpret_cast_2[%26] : memref<143000xf32, "gpu">
            %28 = arith.cmpf ugt, %arg4, %27 : f32
            %29 = arith.select %28, %arg4, %27 : f32
            %30 = arith.cmpf uno, %27, %27 : f32
            %31 = arith.select %30, %27, %29 : f32
            scf.yield %31 : f32
          } else {
            scf.yield %arg4 : f32
          }
          scf.yield %25 : f32
        }
        scf.yield %19 : f32
      } else {
        scf.yield %cst : f32
      }
      %14 = "disc_shape.linearize"(%9, %c256) {operand_segment_sizes = array<i32: 1, 1>} : (index, index) -> index
      %reinterpret_cast_1 = memref.reinterpret_cast %alloc_0 to offset: [0], sizes: [256], strides: [1] : memref<256xf32, #gpu.address_space<workgroup>> to memref<256xf32, #gpu.address_space<workgroup>>
      memref.store %13, %reinterpret_cast_1[%14] : memref<256xf32, #gpu.address_space<workgroup>>
      gpu.barrier
      %15 = arith.cmpi slt, %6, %c4 : index
      scf.if %15 {
        %19 = arith.addi %9, %c4 : index
        %20 = memref.load %reinterpret_cast_1[%14] : memref<256xf32, #gpu.address_space<workgroup>>
        %21 = "disc_shape.linearize"(%19, %c256) {operand_segment_sizes = array<i32: 1, 1>} : (index, index) -> index
        %22 = memref.load %reinterpret_cast_1[%21] : memref<256xf32, #gpu.address_space<workgroup>>
        %23 = arith.cmpf ugt, %20, %22 : f32
        %24 = arith.select %23, %20, %22 : f32
        %25 = arith.cmpf uno, %22, %22 : f32
        %26 = arith.select %25, %22, %24 : f32
        memref.store %26, %reinterpret_cast_1[%14] : memref<256xf32, #gpu.address_space<workgroup>>
      }
      gpu.barrier
      %16 = arith.cmpi slt, %6, %c2 : index
      scf.if %16 {
        %19 = arith.addi %9, %c2 : index
        %20 = memref.load %reinterpret_cast_1[%14] : memref<256xf32, #gpu.address_space<workgroup>>
        %21 = "disc_shape.linearize"(%19, %c256) {operand_segment_sizes = array<i32: 1, 1>} : (index, index) -> index
        %22 = memref.load %reinterpret_cast_1[%21] : memref<256xf32, #gpu.address_space<workgroup>>
        %23 = arith.cmpf ugt, %20, %22 : f32
        %24 = arith.select %23, %20, %22 : f32
        %25 = arith.cmpf uno, %22, %22 : f32
        %26 = arith.select %25, %22, %24 : f32
        memref.store %26, %reinterpret_cast_1[%14] : memref<256xf32, #gpu.address_space<workgroup>>
      }
      gpu.barrier
      %17 = arith.cmpi eq, %6, %c0 : index
      %18 = arith.andi %17, %12 : i1
      scf.if %18 {
        %19 = arith.addi %9, %c1 : index
        %20 = memref.load %reinterpret_cast_1[%14] : memref<256xf32, #gpu.address_space<workgroup>>
        %21 = "disc_shape.linearize"(%19, %c256) {operand_segment_sizes = array<i32: 1, 1>} : (index, index) -> index
        %22 = memref.load %reinterpret_cast_1[%21] : memref<256xf32, #gpu.address_space<workgroup>>
        %23 = arith.cmpf ugt, %20, %22 : f32
        %24 = arith.select %23, %20, %22 : f32
        %25 = arith.cmpf uno, %22, %22 : f32
        %26 = arith.select %25, %22, %24 : f32
        %27 = memref.generic_atomic_rmw %alloc[%11] : memref<1300xf32, "gpu"> {
        ^bb0(%arg3: f32):
          %28 = arith.cmpf ogt, %arg3, %26 : f32
          %29 = arith.select %28, %arg3, %26 : f32
          memref.atomic_yield %29 : f32
        }
      }
      scf.yield
    }
    "lmhlo.terminator"() : () -> ()
  }) {disc.device = "gpu", disc.fusion.name = "main_kColReduction_reduce__3_1_0", disc.fusion.tag = "8w32h", disc.fusion_type = "kColReduction", disc_col_reduction_schedule_hint = 1 : i32, disc_thread_per_block_hint = 256 : i32} : () -> ()
  %2 = llvm.inttoptr %0 : i32 to !llvm.ptr<i8>
  %alloca = memref.alloca() : memref<2xindex, "cpu">
  memref.store %c100, %alloca[%c0] : memref<2xindex, "cpu">
  memref.store %c13, %alloca[%c1] : memref<2xindex, "cpu">
  %3 = "disc_ral.dispatch"(%arg0, %2, %alloc, %alloca) {backend_config = "", call_target_name = "inc_ref", device = "gpu", has_side_effect = false} : (!disc_ral.context, !llvm.ptr<i8>, memref<1300xf32, "gpu">, memref<2xindex, "cpu">) -> memref<100x13xf32, "gpu">
  %reinterpret_cast = memref.reinterpret_cast %3 to offset: [0], sizes: [100, 13], strides: [13, 1] : memref<100x13xf32, "gpu"> to memref<100x13xf32, "gpu">
  memref.dealloc %alloc : memref<1300xf32, "gpu">
  "disc_ral.dispatch"(%arg0, %c0, %reinterpret_cast) {backend_config = "", call_target_name = "ral_send_output", device = "cpu", has_side_effect = false} : (!disc_ral.context, index, memref<100x13xf32, "gpu">) -> ()
  return
}

// -----// IR Dump After ConvertShapeToStandardPass (disc-convert-shape-to-std) //----- //
func.func @main(%arg0: !disc_ral.context) attributes {tf.entry_function = {input_placements = "gpu", inputs = "input0", output_placements = "gpu", outputs = "output0"}} {
  %cst = arith.constant 0xFF800000 : f32
  %c110 = arith.constant 110 : index
  %c41 = arith.constant 41 : index
  %c2 = arith.constant 2 : index
  %c4 = arith.constant 4 : index
  %c256 = arith.constant 256 : index
  %c64 = arith.constant 64 : index
  %c8 = arith.constant 8 : index
  %c32 = arith.constant 32 : index
  %c1300 = arith.constant 1300 : index
  %0 = llvm.mlir.constant(0 : i32) : i32
  %c0 = arith.constant 0 : index
  %c100 = arith.constant 100 : index
  %c1 = arith.constant 1 : index
  %c13 = arith.constant 13 : index
  %1 = "disc_ral.dispatch"(%arg0, %c0) {backend_config = "", call_target_name = "ral_recv_input", device = "cpu", has_side_effect = false} : (!disc_ral.context, index) -> memref<110x100x13xf32, "gpu">
  %alloc = memref.alloc() : memref<1300xf32, "gpu">
  "lmhlo.fusion"() ({
    scf.parallel (%arg1) = (%c0) to (%c1300) step (%c1) {
      %reinterpret_cast_0 = memref.reinterpret_cast %alloc to offset: [0], sizes: [1300], strides: [1] : memref<1300xf32, "gpu"> to memref<1300xf32, "gpu">
      memref.store %cst, %reinterpret_cast_0[%arg1] : memref<1300xf32, "gpu">
      scf.yield
    }
    scf.parallel (%arg1, %arg2) = (%c0, %c0) to (%c41, %c256) step (%c1, %c1) {
      %4 = arith.divui %arg1, %c41 : index
      %5 = arith.remui %arg1, %c41 : index
      %6 = arith.divui %arg2, %c32 : index
      %7 = arith.remui %arg2, %c32 : index
      %8 = arith.muli %7, %c8 : index
      %9 = arith.addi %6, %8 : index
      %10 = arith.muli %5, %c32 : index
      %11 = arith.addi %7, %10 : index
      %alloc_0 = memref.alloc() : memref<256xf32, #gpu.address_space<workgroup>>
      %12 = arith.cmpi ult, %11, %c1300 : index
      %13 = scf.if %12 -> (f32) {
        %18 = scf.for %arg3 = %c0 to %c64 step %c1 iter_args(%arg4 = %cst) -> (f32) {
          %19 = arith.muli %4, %c8 : index
          %20 = arith.addi %6, %19 : index
          %21 = arith.muli %20, %c64 : index
          %22 = arith.addi %arg3, %21 : index
          %23 = arith.cmpi slt, %22, %c110 : index
          %24 = scf.if %23 -> (f32) {
            %c0_3 = arith.constant 0 : index
            %25 = arith.muli %22, %c1300 : index
            %26 = arith.addi %25, %11 : index
            %reinterpret_cast_4 = memref.reinterpret_cast %1 to offset: [0], sizes: [143000], strides: [1] : memref<110x100x13xf32, "gpu"> to memref<143000xf32, "gpu">
            %27 = memref.load %reinterpret_cast_4[%26] : memref<143000xf32, "gpu">
            %28 = arith.cmpf ugt, %arg4, %27 : f32
            %29 = arith.select %28, %arg4, %27 : f32
            %30 = arith.cmpf uno, %27, %27 : f32
            %31 = arith.select %30, %27, %29 : f32
            scf.yield %31 : f32
          } else {
            scf.yield %arg4 : f32
          }
          scf.yield %24 : f32
        }
        scf.yield %18 : f32
      } else {
        scf.yield %cst : f32
      }
      %c0_1 = arith.constant 0 : index
      %reinterpret_cast_2 = memref.reinterpret_cast %alloc_0 to offset: [0], sizes: [256], strides: [1] : memref<256xf32, #gpu.address_space<workgroup>> to memref<256xf32, #gpu.address_space<workgroup>>
      memref.store %13, %reinterpret_cast_2[%9] : memref<256xf32, #gpu.address_space<workgroup>>
      gpu.barrier
      %14 = arith.cmpi slt, %6, %c4 : index
      scf.if %14 {
        %18 = arith.addi %9, %c4 : index
        %19 = memref.load %reinterpret_cast_2[%9] : memref<256xf32, #gpu.address_space<workgroup>>
        %c0_3 = arith.constant 0 : index
        %20 = memref.load %reinterpret_cast_2[%18] : memref<256xf32, #gpu.address_space<workgroup>>
        %21 = arith.cmpf ugt, %19, %20 : f32
        %22 = arith.select %21, %19, %20 : f32
        %23 = arith.cmpf uno, %20, %20 : f32
        %24 = arith.select %23, %20, %22 : f32
        memref.store %24, %reinterpret_cast_2[%9] : memref<256xf32, #gpu.address_space<workgroup>>
      }
      gpu.barrier
      %15 = arith.cmpi slt, %6, %c2 : index
      scf.if %15 {
        %18 = arith.addi %9, %c2 : index
        %19 = memref.load %reinterpret_cast_2[%9] : memref<256xf32, #gpu.address_space<workgroup>>
        %c0_3 = arith.constant 0 : index
        %20 = memref.load %reinterpret_cast_2[%18] : memref<256xf32, #gpu.address_space<workgroup>>
        %21 = arith.cmpf ugt, %19, %20 : f32
        %22 = arith.select %21, %19, %20 : f32
        %23 = arith.cmpf uno, %20, %20 : f32
        %24 = arith.select %23, %20, %22 : f32
        memref.store %24, %reinterpret_cast_2[%9] : memref<256xf32, #gpu.address_space<workgroup>>
      }
      gpu.barrier
      %16 = arith.cmpi eq, %6, %c0 : index
      %17 = arith.andi %16, %12 : i1
      scf.if %17 {
        %18 = arith.addi %9, %c1 : index
        %19 = memref.load %reinterpret_cast_2[%9] : memref<256xf32, #gpu.address_space<workgroup>>
        %c0_3 = arith.constant 0 : index
        %20 = memref.load %reinterpret_cast_2[%18] : memref<256xf32, #gpu.address_space<workgroup>>
        %21 = arith.cmpf ugt, %19, %20 : f32
        %22 = arith.select %21, %19, %20 : f32
        %23 = arith.cmpf uno, %20, %20 : f32
        %24 = arith.select %23, %20, %22 : f32
        %25 = memref.generic_atomic_rmw %alloc[%11] : memref<1300xf32, "gpu"> {
        ^bb0(%arg3: f32):
          %26 = arith.cmpf ogt, %arg3, %24 : f32
          %27 = arith.select %26, %arg3, %24 : f32
          memref.atomic_yield %27 : f32
        }
      }
      scf.yield
    }
    "lmhlo.terminator"() : () -> ()
  }) {disc.device = "gpu", disc.fusion.name = "main_kColReduction_reduce__3_1_0", disc.fusion.tag = "8w32h", disc.fusion_type = "kColReduction", disc_col_reduction_schedule_hint = 1 : i32, disc_thread_per_block_hint = 256 : i32} : () -> ()
  %2 = llvm.inttoptr %0 : i32 to !llvm.ptr<i8>
  %alloca = memref.alloca() : memref<2xindex, "cpu">
  memref.store %c100, %alloca[%c0] : memref<2xindex, "cpu">
  memref.store %c13, %alloca[%c1] : memref<2xindex, "cpu">
  %3 = "disc_ral.dispatch"(%arg0, %2, %alloc, %alloca) {backend_config = "", call_target_name = "inc_ref", device = "gpu", has_side_effect = false} : (!disc_ral.context, !llvm.ptr<i8>, memref<1300xf32, "gpu">, memref<2xindex, "cpu">) -> memref<100x13xf32, "gpu">
  %reinterpret_cast = memref.reinterpret_cast %3 to offset: [0], sizes: [100, 13], strides: [13, 1] : memref<100x13xf32, "gpu"> to memref<100x13xf32, "gpu">
  memref.dealloc %alloc : memref<1300xf32, "gpu">
  "disc_ral.dispatch"(%arg0, %c0, %reinterpret_cast) {backend_config = "", call_target_name = "ral_send_output", device = "cpu", has_side_effect = false} : (!disc_ral.context, index, memref<100x13xf32, "gpu">) -> ()
  return
}

// -----// IR Dump After Canonicalizer (disc-canonicalize) //----- //
func.func @main(%arg0: !disc_ral.context) attributes {tf.entry_function = {input_placements = "gpu", inputs = "input0", output_placements = "gpu", outputs = "output0"}} {
  %cst = arith.constant 0xFF800000 : f32
  %c110 = arith.constant 110 : index
  %c41 = arith.constant 41 : index
  %c2 = arith.constant 2 : index
  %c4 = arith.constant 4 : index
  %c256 = arith.constant 256 : index
  %c64 = arith.constant 64 : index
  %c8 = arith.constant 8 : index
  %c32 = arith.constant 32 : index
  %c1300 = arith.constant 1300 : index
  %0 = llvm.mlir.constant(0 : i32) : i32
  %c0 = arith.constant 0 : index
  %c100 = arith.constant 100 : index
  %c1 = arith.constant 1 : index
  %c13 = arith.constant 13 : index
  %1 = "disc_ral.dispatch"(%arg0, %c0) {backend_config = "", call_target_name = "ral_recv_input", device = "cpu", has_side_effect = false} : (!disc_ral.context, index) -> memref<110x100x13xf32, "gpu">
  %alloc = memref.alloc() : memref<1300xf32, "gpu">
  "lmhlo.fusion"() ({
    scf.parallel (%arg1) = (%c0) to (%c1300) step (%c1) {
      %reinterpret_cast_0 = memref.reinterpret_cast %alloc to offset: [0], sizes: [1300], strides: [1] : memref<1300xf32, "gpu"> to memref<1300xf32, "gpu">
      memref.store %cst, %reinterpret_cast_0[%arg1] : memref<1300xf32, "gpu">
      scf.yield
    }
    scf.parallel (%arg1, %arg2) = (%c0, %c0) to (%c41, %c256) step (%c1, %c1) {
      %4 = arith.divui %arg1, %c41 : index
      %5 = arith.remui %arg1, %c41 : index
      %6 = arith.divui %arg2, %c32 : index
      %7 = arith.remui %arg2, %c32 : index
      %8 = arith.muli %7, %c8 : index
      %9 = arith.addi %6, %8 : index
      %10 = arith.muli %5, %c32 : index
      %11 = arith.addi %7, %10 : index
      %alloc_0 = memref.alloc() : memref<256xf32, #gpu.address_space<workgroup>>
      %12 = arith.cmpi ult, %11, %c1300 : index
      %13 = scf.if %12 -> (f32) {
        %18 = scf.for %arg3 = %c0 to %c64 step %c1 iter_args(%arg4 = %cst) -> (f32) {
          %19 = arith.muli %4, %c8 : index
          %20 = arith.addi %6, %19 : index
          %21 = arith.muli %20, %c64 : index
          %22 = arith.addi %arg3, %21 : index
          %23 = arith.cmpi slt, %22, %c110 : index
          %24 = scf.if %23 -> (f32) {
            %25 = arith.muli %22, %c1300 : index
            %26 = arith.addi %25, %11 : index
            %reinterpret_cast_2 = memref.reinterpret_cast %1 to offset: [0], sizes: [143000], strides: [1] : memref<110x100x13xf32, "gpu"> to memref<143000xf32, "gpu">
            %27 = memref.load %reinterpret_cast_2[%26] : memref<143000xf32, "gpu">
            %28 = arith.cmpf ugt, %arg4, %27 : f32
            %29 = arith.select %28, %arg4, %27 : f32
            %30 = arith.cmpf uno, %27, %27 : f32
            %31 = arith.select %30, %27, %29 : f32
            scf.yield %31 : f32
          } else {
            scf.yield %arg4 : f32
          }
          scf.yield %24 : f32
        }
        scf.yield %18 : f32
      } else {
        scf.yield %cst : f32
      }
      %reinterpret_cast_1 = memref.reinterpret_cast %alloc_0 to offset: [0], sizes: [256], strides: [1] : memref<256xf32, #gpu.address_space<workgroup>> to memref<256xf32, #gpu.address_space<workgroup>>
      memref.store %13, %reinterpret_cast_1[%9] : memref<256xf32, #gpu.address_space<workgroup>>
      gpu.barrier
      %14 = arith.cmpi slt, %6, %c4 : index
      scf.if %14 {
        %18 = arith.addi %9, %c4 : index
        %19 = memref.load %reinterpret_cast_1[%9] : memref<256xf32, #gpu.address_space<workgroup>>
        %20 = memref.load %reinterpret_cast_1[%18] : memref<256xf32, #gpu.address_space<workgroup>>
        %21 = arith.cmpf ugt, %19, %20 : f32
        %22 = arith.select %21, %19, %20 : f32
        %23 = arith.cmpf uno, %20, %20 : f32
        %24 = arith.select %23, %20, %22 : f32
        memref.store %24, %reinterpret_cast_1[%9] : memref<256xf32, #gpu.address_space<workgroup>>
      }
      gpu.barrier
      %15 = arith.cmpi slt, %6, %c2 : index
      scf.if %15 {
        %18 = arith.addi %9, %c2 : index
        %19 = memref.load %reinterpret_cast_1[%9] : memref<256xf32, #gpu.address_space<workgroup>>
        %20 = memref.load %reinterpret_cast_1[%18] : memref<256xf32, #gpu.address_space<workgroup>>
        %21 = arith.cmpf ugt, %19, %20 : f32
        %22 = arith.select %21, %19, %20 : f32
        %23 = arith.cmpf uno, %20, %20 : f32
        %24 = arith.select %23, %20, %22 : f32
        memref.store %24, %reinterpret_cast_1[%9] : memref<256xf32, #gpu.address_space<workgroup>>
      }
      gpu.barrier
      %16 = arith.cmpi eq, %6, %c0 : index
      %17 = arith.andi %16, %12 : i1
      scf.if %17 {
        %18 = arith.addi %9, %c1 : index
        %19 = memref.load %reinterpret_cast_1[%9] : memref<256xf32, #gpu.address_space<workgroup>>
        %20 = memref.load %reinterpret_cast_1[%18] : memref<256xf32, #gpu.address_space<workgroup>>
        %21 = arith.cmpf ugt, %19, %20 : f32
        %22 = arith.select %21, %19, %20 : f32
        %23 = arith.cmpf uno, %20, %20 : f32
        %24 = arith.select %23, %20, %22 : f32
        %25 = memref.generic_atomic_rmw %alloc[%11] : memref<1300xf32, "gpu"> {
        ^bb0(%arg3: f32):
          %26 = arith.cmpf ogt, %arg3, %24 : f32
          %27 = arith.select %26, %arg3, %24 : f32
          memref.atomic_yield %27 : f32
        }
      }
      scf.yield
    }
    "lmhlo.terminator"() : () -> ()
  }) {disc.device = "gpu", disc.fusion.name = "main_kColReduction_reduce__3_1_0", disc.fusion.tag = "8w32h", disc.fusion_type = "kColReduction", disc_col_reduction_schedule_hint = 1 : i32, disc_thread_per_block_hint = 256 : i32} : () -> ()
  %2 = llvm.inttoptr %0 : i32 to !llvm.ptr<i8>
  %alloca = memref.alloca() : memref<2xindex, "cpu">
  memref.store %c100, %alloca[%c0] : memref<2xindex, "cpu">
  memref.store %c13, %alloca[%c1] : memref<2xindex, "cpu">
  %3 = "disc_ral.dispatch"(%arg0, %2, %alloc, %alloca) {backend_config = "", call_target_name = "inc_ref", device = "gpu", has_side_effect = false} : (!disc_ral.context, !llvm.ptr<i8>, memref<1300xf32, "gpu">, memref<2xindex, "cpu">) -> memref<100x13xf32, "gpu">
  %reinterpret_cast = memref.reinterpret_cast %3 to offset: [0], sizes: [100, 13], strides: [13, 1] : memref<100x13xf32, "gpu"> to memref<100x13xf32, "gpu">
  memref.dealloc %alloc : memref<1300xf32, "gpu">
  "disc_ral.dispatch"(%arg0, %c0, %reinterpret_cast) {backend_config = "", call_target_name = "ral_send_output", device = "cpu", has_side_effect = false} : (!disc_ral.context, index, memref<100x13xf32, "gpu">) -> ()
  return
}

// -----// IR Dump After ParallelLoopCollapsing (disc-parallel-loop-collapsing) //----- //
func.func @main(%arg0: !disc_ral.context) attributes {tf.entry_function = {input_placements = "gpu", inputs = "input0", output_placements = "gpu", outputs = "output0"}} {
  %cst = arith.constant 0xFF800000 : f32
  %c110 = arith.constant 110 : index
  %c41 = arith.constant 41 : index
  %c2 = arith.constant 2 : index
  %c4 = arith.constant 4 : index
  %c256 = arith.constant 256 : index
  %c64 = arith.constant 64 : index
  %c8 = arith.constant 8 : index
  %c32 = arith.constant 32 : index
  %c1300 = arith.constant 1300 : index
  %0 = llvm.mlir.constant(0 : i32) : i32
  %c0 = arith.constant 0 : index
  %c100 = arith.constant 100 : index
  %c1 = arith.constant 1 : index
  %c13 = arith.constant 13 : index
  %1 = "disc_ral.dispatch"(%arg0, %c0) {backend_config = "", call_target_name = "ral_recv_input", device = "cpu", has_side_effect = false} : (!disc_ral.context, index) -> memref<110x100x13xf32, "gpu">
  %alloc = memref.alloc() : memref<1300xf32, "gpu">
  "lmhlo.fusion"() ({
    scf.parallel (%arg1) = (%c0) to (%c1300) step (%c1) {
      %reinterpret_cast_3 = memref.reinterpret_cast %alloc to offset: [0], sizes: [1300], strides: [1] : memref<1300xf32, "gpu"> to memref<1300xf32, "gpu">
      memref.store %cst, %reinterpret_cast_3[%arg1] : memref<1300xf32, "gpu">
      scf.yield
    }
    %c0_0 = arith.constant 0 : index
    %c1_1 = arith.constant 1 : index
    %c1_2 = arith.constant 1 : index
    %4 = arith.muli %c1_2, %c41 : index
    %5 = arith.muli %4, %c256 : index
    scf.parallel (%arg1) = (%c0_0) to (%5) step (%c1_1) {
      %6 = arith.remsi %arg1, %c256 : index
      %7 = arith.divsi %arg1, %c256 : index
      %8 = arith.divui %7, %c41 : index
      %9 = arith.remui %7, %c41 : index
      %10 = arith.divui %6, %c32 : index
      %11 = arith.remui %6, %c32 : index
      %12 = arith.muli %11, %c8 : index
      %13 = arith.addi %10, %12 : index
      %14 = arith.muli %9, %c32 : index
      %15 = arith.addi %11, %14 : index
      %alloc_3 = memref.alloc() : memref<256xf32, #gpu.address_space<workgroup>>
      %16 = arith.cmpi ult, %15, %c1300 : index
      %17 = scf.if %16 -> (f32) {
        %22 = scf.for %arg2 = %c0 to %c64 step %c1 iter_args(%arg3 = %cst) -> (f32) {
          %23 = arith.muli %8, %c8 : index
          %24 = arith.addi %10, %23 : index
          %25 = arith.muli %24, %c64 : index
          %26 = arith.addi %arg2, %25 : index
          %27 = arith.cmpi slt, %26, %c110 : index
          %28 = scf.if %27 -> (f32) {
            %29 = arith.muli %26, %c1300 : index
            %30 = arith.addi %29, %15 : index
            %reinterpret_cast_5 = memref.reinterpret_cast %1 to offset: [0], sizes: [143000], strides: [1] : memref<110x100x13xf32, "gpu"> to memref<143000xf32, "gpu">
            %31 = memref.load %reinterpret_cast_5[%30] : memref<143000xf32, "gpu">
            %32 = arith.cmpf ugt, %arg3, %31 : f32
            %33 = arith.select %32, %arg3, %31 : f32
            %34 = arith.cmpf uno, %31, %31 : f32
            %35 = arith.select %34, %31, %33 : f32
            scf.yield %35 : f32
          } else {
            scf.yield %arg3 : f32
          }
          scf.yield %28 : f32
        }
        scf.yield %22 : f32
      } else {
        scf.yield %cst : f32
      }
      %reinterpret_cast_4 = memref.reinterpret_cast %alloc_3 to offset: [0], sizes: [256], strides: [1] : memref<256xf32, #gpu.address_space<workgroup>> to memref<256xf32, #gpu.address_space<workgroup>>
      memref.store %17, %reinterpret_cast_4[%13] : memref<256xf32, #gpu.address_space<workgroup>>
      gpu.barrier
      %18 = arith.cmpi slt, %10, %c4 : index
      scf.if %18 {
        %22 = arith.addi %13, %c4 : index
        %23 = memref.load %reinterpret_cast_4[%13] : memref<256xf32, #gpu.address_space<workgroup>>
        %24 = memref.load %reinterpret_cast_4[%22] : memref<256xf32, #gpu.address_space<workgroup>>
        %25 = arith.cmpf ugt, %23, %24 : f32
        %26 = arith.select %25, %23, %24 : f32
        %27 = arith.cmpf uno, %24, %24 : f32
        %28 = arith.select %27, %24, %26 : f32
        memref.store %28, %reinterpret_cast_4[%13] : memref<256xf32, #gpu.address_space<workgroup>>
      }
      gpu.barrier
      %19 = arith.cmpi slt, %10, %c2 : index
      scf.if %19 {
        %22 = arith.addi %13, %c2 : index
        %23 = memref.load %reinterpret_cast_4[%13] : memref<256xf32, #gpu.address_space<workgroup>>
        %24 = memref.load %reinterpret_cast_4[%22] : memref<256xf32, #gpu.address_space<workgroup>>
        %25 = arith.cmpf ugt, %23, %24 : f32
        %26 = arith.select %25, %23, %24 : f32
        %27 = arith.cmpf uno, %24, %24 : f32
        %28 = arith.select %27, %24, %26 : f32
        memref.store %28, %reinterpret_cast_4[%13] : memref<256xf32, #gpu.address_space<workgroup>>
      }
      gpu.barrier
      %20 = arith.cmpi eq, %10, %c0 : index
      %21 = arith.andi %20, %16 : i1
      scf.if %21 {
        %22 = arith.addi %13, %c1 : index
        %23 = memref.load %reinterpret_cast_4[%13] : memref<256xf32, #gpu.address_space<workgroup>>
        %24 = memref.load %reinterpret_cast_4[%22] : memref<256xf32, #gpu.address_space<workgroup>>
        %25 = arith.cmpf ugt, %23, %24 : f32
        %26 = arith.select %25, %23, %24 : f32
        %27 = arith.cmpf uno, %24, %24 : f32
        %28 = arith.select %27, %24, %26 : f32
        %29 = memref.generic_atomic_rmw %alloc[%15] : memref<1300xf32, "gpu"> {
        ^bb0(%arg2: f32):
          %30 = arith.cmpf ogt, %arg2, %28 : f32
          %31 = arith.select %30, %arg2, %28 : f32
          memref.atomic_yield %31 : f32
        }
      }
      scf.yield
    }
    "lmhlo.terminator"() : () -> ()
  }) {disc.device = "gpu", disc.fusion.name = "main_kColReduction_reduce__3_1_0", disc.fusion.tag = "8w32h", disc.fusion_type = "kColReduction", disc_col_reduction_schedule_hint = 1 : i32, disc_thread_per_block_hint = 256 : i32} : () -> ()
  %2 = llvm.inttoptr %0 : i32 to !llvm.ptr<i8>
  %alloca = memref.alloca() : memref<2xindex, "cpu">
  memref.store %c100, %alloca[%c0] : memref<2xindex, "cpu">
  memref.store %c13, %alloca[%c1] : memref<2xindex, "cpu">
  %3 = "disc_ral.dispatch"(%arg0, %2, %alloc, %alloca) {backend_config = "", call_target_name = "inc_ref", device = "gpu", has_side_effect = false} : (!disc_ral.context, !llvm.ptr<i8>, memref<1300xf32, "gpu">, memref<2xindex, "cpu">) -> memref<100x13xf32, "gpu">
  %reinterpret_cast = memref.reinterpret_cast %3 to offset: [0], sizes: [100, 13], strides: [13, 1] : memref<100x13xf32, "gpu"> to memref<100x13xf32, "gpu">
  memref.dealloc %alloc : memref<1300xf32, "gpu">
  "disc_ral.dispatch"(%arg0, %c0, %reinterpret_cast) {backend_config = "", call_target_name = "ral_send_output", device = "cpu", has_side_effect = false} : (!disc_ral.context, index, memref<100x13xf32, "gpu">) -> ()
  return
}

// -----// IR Dump After SCFParallelLoopTiling (disc-parallel-loop-tiling) //----- //
func.func @main(%arg0: !disc_ral.context) attributes {tf.entry_function = {input_placements = "gpu", inputs = "input0", output_placements = "gpu", outputs = "output0"}} {
  %cst = arith.constant 0xFF800000 : f32
  %c110 = arith.constant 110 : index
  %c41 = arith.constant 41 : index
  %c2 = arith.constant 2 : index
  %c4 = arith.constant 4 : index
  %c256 = arith.constant 256 : index
  %c64 = arith.constant 64 : index
  %c8 = arith.constant 8 : index
  %c32 = arith.constant 32 : index
  %c1300 = arith.constant 1300 : index
  %0 = llvm.mlir.constant(0 : i32) : i32
  %c0 = arith.constant 0 : index
  %c100 = arith.constant 100 : index
  %c1 = arith.constant 1 : index
  %c13 = arith.constant 13 : index
  %1 = "disc_ral.dispatch"(%arg0, %c0) {backend_config = "", call_target_name = "ral_recv_input", device = "cpu", has_side_effect = false} : (!disc_ral.context, index) -> memref<110x100x13xf32, "gpu">
  %alloc = memref.alloc() : memref<1300xf32, "gpu">
  "lmhlo.fusion"() ({
    %c0_0 = arith.constant 0 : index
    %c256_1 = arith.constant 256 : index
    %4 = arith.muli %c1, %c256_1 : index
    scf.parallel (%arg1) = (%c0) to (%c1300) step (%4) {
      scf.parallel (%arg2) = (%c0_0) to (%4) step (%c1) {
        %8 = arith.addi %arg2, %arg1 : index
        %true = arith.constant true
        %9 = arith.muli %arg2, %c1 : index
        %10 = arith.addi %9, %arg1 : index
        %11 = arith.cmpi ult, %10, %c1300 : index
        %12 = arith.andi %true, %11 : i1
        scf.if %12 {
          %reinterpret_cast_7 = memref.reinterpret_cast %alloc to offset: [0], sizes: [1300], strides: [1] : memref<1300xf32, "gpu"> to memref<1300xf32, "gpu">
          memref.store %cst, %reinterpret_cast_7[%8] : memref<1300xf32, "gpu">
        }
        scf.yield
      }
      scf.yield
    }
    %c0_2 = arith.constant 0 : index
    %c1_3 = arith.constant 1 : index
    %c1_4 = arith.constant 1 : index
    %5 = arith.muli %c1_4, %c41 : index
    %6 = arith.muli %5, %c256 : index
    %c0_5 = arith.constant 0 : index
    %c256_6 = arith.constant 256 : index
    %7 = arith.muli %c1_3, %c256_6 : index
    scf.parallel (%arg1) = (%c0_2) to (%6) step (%7) {
      scf.parallel (%arg2) = (%c0_5) to (%7) step (%c1_3) {
        %8 = arith.addi %arg2, %arg1 : index
        %true = arith.constant true
        %9 = arith.muli %arg2, %c1_3 : index
        %10 = arith.addi %9, %arg1 : index
        %11 = arith.cmpi ult, %10, %6 : index
        %12 = arith.andi %true, %11 : i1
        scf.if %12 {
          %13 = arith.remsi %8, %c256 : index
          %14 = arith.divsi %8, %c256 : index
          %15 = arith.divui %14, %c41 : index
          %16 = arith.remui %14, %c41 : index
          %17 = arith.divui %13, %c32 : index
          %18 = arith.remui %13, %c32 : index
          %19 = arith.muli %18, %c8 : index
          %20 = arith.addi %17, %19 : index
          %21 = arith.muli %16, %c32 : index
          %22 = arith.addi %18, %21 : index
          %alloc_7 = memref.alloc() : memref<256xf32, #gpu.address_space<workgroup>>
          %23 = arith.cmpi ult, %22, %c1300 : index
          %24 = scf.if %23 -> (f32) {
            %29 = scf.for %arg3 = %c0 to %c64 step %c1 iter_args(%arg4 = %cst) -> (f32) {
              %30 = arith.muli %15, %c8 : index
              %31 = arith.addi %17, %30 : index
              %32 = arith.muli %31, %c64 : index
              %33 = arith.addi %arg3, %32 : index
              %34 = arith.cmpi slt, %33, %c110 : index
              %35 = scf.if %34 -> (f32) {
                %36 = arith.muli %33, %c1300 : index
                %37 = arith.addi %36, %22 : index
                %reinterpret_cast_9 = memref.reinterpret_cast %1 to offset: [0], sizes: [143000], strides: [1] : memref<110x100x13xf32, "gpu"> to memref<143000xf32, "gpu">
                %38 = memref.load %reinterpret_cast_9[%37] : memref<143000xf32, "gpu">
                %39 = arith.cmpf ugt, %arg4, %38 : f32
                %40 = arith.select %39, %arg4, %38 : f32
                %41 = arith.cmpf uno, %38, %38 : f32
                %42 = arith.select %41, %38, %40 : f32
                scf.yield %42 : f32
              } else {
                scf.yield %arg4 : f32
              }
              scf.yield %35 : f32
            }
            scf.yield %29 : f32
          } else {
            scf.yield %cst : f32
          }
          %reinterpret_cast_8 = memref.reinterpret_cast %alloc_7 to offset: [0], sizes: [256], strides: [1] : memref<256xf32, #gpu.address_space<workgroup>> to memref<256xf32, #gpu.address_space<workgroup>>
          memref.store %24, %reinterpret_cast_8[%20] : memref<256xf32, #gpu.address_space<workgroup>>
          gpu.barrier
          %25 = arith.cmpi slt, %17, %c4 : index
          scf.if %25 {
            %29 = arith.addi %20, %c4 : index
            %30 = memref.load %reinterpret_cast_8[%20] : memref<256xf32, #gpu.address_space<workgroup>>
            %31 = memref.load %reinterpret_cast_8[%29] : memref<256xf32, #gpu.address_space<workgroup>>
            %32 = arith.cmpf ugt, %30, %31 : f32
            %33 = arith.select %32, %30, %31 : f32
            %34 = arith.cmpf uno, %31, %31 : f32
            %35 = arith.select %34, %31, %33 : f32
            memref.store %35, %reinterpret_cast_8[%20] : memref<256xf32, #gpu.address_space<workgroup>>
          }
          gpu.barrier
          %26 = arith.cmpi slt, %17, %c2 : index
          scf.if %26 {
            %29 = arith.addi %20, %c2 : index
            %30 = memref.load %reinterpret_cast_8[%20] : memref<256xf32, #gpu.address_space<workgroup>>
            %31 = memref.load %reinterpret_cast_8[%29] : memref<256xf32, #gpu.address_space<workgroup>>
            %32 = arith.cmpf ugt, %30, %31 : f32
            %33 = arith.select %32, %30, %31 : f32
            %34 = arith.cmpf uno, %31, %31 : f32
            %35 = arith.select %34, %31, %33 : f32
            memref.store %35, %reinterpret_cast_8[%20] : memref<256xf32, #gpu.address_space<workgroup>>
          }
          gpu.barrier
          %27 = arith.cmpi eq, %17, %c0 : index
          %28 = arith.andi %27, %23 : i1
          scf.if %28 {
            %29 = arith.addi %20, %c1 : index
            %30 = memref.load %reinterpret_cast_8[%20] : memref<256xf32, #gpu.address_space<workgroup>>
            %31 = memref.load %reinterpret_cast_8[%29] : memref<256xf32, #gpu.address_space<workgroup>>
            %32 = arith.cmpf ugt, %30, %31 : f32
            %33 = arith.select %32, %30, %31 : f32
            %34 = arith.cmpf uno, %31, %31 : f32
            %35 = arith.select %34, %31, %33 : f32
            %36 = memref.generic_atomic_rmw %alloc[%22] : memref<1300xf32, "gpu"> {
            ^bb0(%arg3: f32):
              %37 = arith.cmpf ogt, %arg3, %35 : f32
              %38 = arith.select %37, %arg3, %35 : f32
              memref.atomic_yield %38 : f32
            }
          }
        }
        scf.yield
      }
      scf.yield
    }
    "lmhlo.terminator"() : () -> ()
  }) {disc.device = "gpu", disc.fusion.name = "main_kColReduction_reduce__3_1_0", disc.fusion.tag = "8w32h", disc.fusion_type = "kColReduction", disc_col_reduction_schedule_hint = 1 : i32, disc_thread_per_block_hint = 256 : i32} : () -> ()
  %2 = llvm.inttoptr %0 : i32 to !llvm.ptr<i8>
  %alloca = memref.alloca() : memref<2xindex, "cpu">
  memref.store %c100, %alloca[%c0] : memref<2xindex, "cpu">
  memref.store %c13, %alloca[%c1] : memref<2xindex, "cpu">
  %3 = "disc_ral.dispatch"(%arg0, %2, %alloc, %alloca) {backend_config = "", call_target_name = "inc_ref", device = "gpu", has_side_effect = false} : (!disc_ral.context, !llvm.ptr<i8>, memref<1300xf32, "gpu">, memref<2xindex, "cpu">) -> memref<100x13xf32, "gpu">
  %reinterpret_cast = memref.reinterpret_cast %3 to offset: [0], sizes: [100, 13], strides: [13, 1] : memref<100x13xf32, "gpu"> to memref<100x13xf32, "gpu">
  memref.dealloc %alloc : memref<1300xf32, "gpu">
  "disc_ral.dispatch"(%arg0, %c0, %reinterpret_cast) {backend_config = "", call_target_name = "ral_send_output", device = "cpu", has_side_effect = false} : (!disc_ral.context, index, memref<100x13xf32, "gpu">) -> ()
  return
}

// -----// IR Dump After GpuMapParallelLoopsPass (gpu-map-parallel-loops) //----- //
func.func @main(%arg0: !disc_ral.context) attributes {tf.entry_function = {input_placements = "gpu", inputs = "input0", output_placements = "gpu", outputs = "output0"}} {
  %cst = arith.constant 0xFF800000 : f32
  %c110 = arith.constant 110 : index
  %c41 = arith.constant 41 : index
  %c2 = arith.constant 2 : index
  %c4 = arith.constant 4 : index
  %c256 = arith.constant 256 : index
  %c64 = arith.constant 64 : index
  %c8 = arith.constant 8 : index
  %c32 = arith.constant 32 : index
  %c1300 = arith.constant 1300 : index
  %0 = llvm.mlir.constant(0 : i32) : i32
  %c0 = arith.constant 0 : index
  %c100 = arith.constant 100 : index
  %c1 = arith.constant 1 : index
  %c13 = arith.constant 13 : index
  %1 = "disc_ral.dispatch"(%arg0, %c0) {backend_config = "", call_target_name = "ral_recv_input", device = "cpu", has_side_effect = false} : (!disc_ral.context, index) -> memref<110x100x13xf32, "gpu">
  %alloc = memref.alloc() : memref<1300xf32, "gpu">
  "lmhlo.fusion"() ({
    %c0_0 = arith.constant 0 : index
    %c256_1 = arith.constant 256 : index
    %4 = arith.muli %c1, %c256_1 : index
    scf.parallel (%arg1) = (%c0) to (%c1300) step (%4) {
      scf.parallel (%arg2) = (%c0_0) to (%4) step (%c1) {
        %8 = arith.addi %arg2, %arg1 : index
        %true = arith.constant true
        %9 = arith.muli %arg2, %c1 : index
        %10 = arith.addi %9, %arg1 : index
        %11 = arith.cmpi ult, %10, %c1300 : index
        %12 = arith.andi %true, %11 : i1
        scf.if %12 {
          %reinterpret_cast_7 = memref.reinterpret_cast %alloc to offset: [0], sizes: [1300], strides: [1] : memref<1300xf32, "gpu"> to memref<1300xf32, "gpu">
          memref.store %cst, %reinterpret_cast_7[%8] : memref<1300xf32, "gpu">
        }
        scf.yield
      } {mapping = [#gpu.loop_dim_map<processor = thread_x, map = (d0) -> (d0), bound = (d0) -> (d0)>]}
      scf.yield
    } {mapping = [#gpu.loop_dim_map<processor = block_x, map = (d0) -> (d0), bound = (d0) -> (d0)>]}
    %c0_2 = arith.constant 0 : index
    %c1_3 = arith.constant 1 : index
    %c1_4 = arith.constant 1 : index
    %5 = arith.muli %c1_4, %c41 : index
    %6 = arith.muli %5, %c256 : index
    %c0_5 = arith.constant 0 : index
    %c256_6 = arith.constant 256 : index
    %7 = arith.muli %c1_3, %c256_6 : index
    scf.parallel (%arg1) = (%c0_2) to (%6) step (%7) {
      scf.parallel (%arg2) = (%c0_5) to (%7) step (%c1_3) {
        %8 = arith.addi %arg2, %arg1 : index
        %true = arith.constant true
        %9 = arith.muli %arg2, %c1_3 : index
        %10 = arith.addi %9, %arg1 : index
        %11 = arith.cmpi ult, %10, %6 : index
        %12 = arith.andi %true, %11 : i1
        scf.if %12 {
          %13 = arith.remsi %8, %c256 : index
          %14 = arith.divsi %8, %c256 : index
          %15 = arith.divui %14, %c41 : index
          %16 = arith.remui %14, %c41 : index
          %17 = arith.divui %13, %c32 : index
          %18 = arith.remui %13, %c32 : index
          %19 = arith.muli %18, %c8 : index
          %20 = arith.addi %17, %19 : index
          %21 = arith.muli %16, %c32 : index
          %22 = arith.addi %18, %21 : index
          %alloc_7 = memref.alloc() : memref<256xf32, #gpu.address_space<workgroup>>
          %23 = arith.cmpi ult, %22, %c1300 : index
          %24 = scf.if %23 -> (f32) {
            %29 = scf.for %arg3 = %c0 to %c64 step %c1 iter_args(%arg4 = %cst) -> (f32) {
              %30 = arith.muli %15, %c8 : index
              %31 = arith.addi %17, %30 : index
              %32 = arith.muli %31, %c64 : index
              %33 = arith.addi %arg3, %32 : index
              %34 = arith.cmpi slt, %33, %c110 : index
              %35 = scf.if %34 -> (f32) {
                %36 = arith.muli %33, %c1300 : index
                %37 = arith.addi %36, %22 : index
                %reinterpret_cast_9 = memref.reinterpret_cast %1 to offset: [0], sizes: [143000], strides: [1] : memref<110x100x13xf32, "gpu"> to memref<143000xf32, "gpu">
                %38 = memref.load %reinterpret_cast_9[%37] : memref<143000xf32, "gpu">
                %39 = arith.cmpf ugt, %arg4, %38 : f32
                %40 = arith.select %39, %arg4, %38 : f32
                %41 = arith.cmpf uno, %38, %38 : f32
                %42 = arith.select %41, %38, %40 : f32
                scf.yield %42 : f32
              } else {
                scf.yield %arg4 : f32
              }
              scf.yield %35 : f32
            }
            scf.yield %29 : f32
          } else {
            scf.yield %cst : f32
          }
          %reinterpret_cast_8 = memref.reinterpret_cast %alloc_7 to offset: [0], sizes: [256], strides: [1] : memref<256xf32, #gpu.address_space<workgroup>> to memref<256xf32, #gpu.address_space<workgroup>>
          memref.store %24, %reinterpret_cast_8[%20] : memref<256xf32, #gpu.address_space<workgroup>>
          gpu.barrier
          %25 = arith.cmpi slt, %17, %c4 : index
          scf.if %25 {
            %29 = arith.addi %20, %c4 : index
            %30 = memref.load %reinterpret_cast_8[%20] : memref<256xf32, #gpu.address_space<workgroup>>
            %31 = memref.load %reinterpret_cast_8[%29] : memref<256xf32, #gpu.address_space<workgroup>>
            %32 = arith.cmpf ugt, %30, %31 : f32
            %33 = arith.select %32, %30, %31 : f32
            %34 = arith.cmpf uno, %31, %31 : f32
            %35 = arith.select %34, %31, %33 : f32
            memref.store %35, %reinterpret_cast_8[%20] : memref<256xf32, #gpu.address_space<workgroup>>
          }
          gpu.barrier
          %26 = arith.cmpi slt, %17, %c2 : index
          scf.if %26 {
            %29 = arith.addi %20, %c2 : index
            %30 = memref.load %reinterpret_cast_8[%20] : memref<256xf32, #gpu.address_space<workgroup>>
            %31 = memref.load %reinterpret_cast_8[%29] : memref<256xf32, #gpu.address_space<workgroup>>
            %32 = arith.cmpf ugt, %30, %31 : f32
            %33 = arith.select %32, %30, %31 : f32
            %34 = arith.cmpf uno, %31, %31 : f32
            %35 = arith.select %34, %31, %33 : f32
            memref.store %35, %reinterpret_cast_8[%20] : memref<256xf32, #gpu.address_space<workgroup>>
          }
          gpu.barrier
          %27 = arith.cmpi eq, %17, %c0 : index
          %28 = arith.andi %27, %23 : i1
          scf.if %28 {
            %29 = arith.addi %20, %c1 : index
            %30 = memref.load %reinterpret_cast_8[%20] : memref<256xf32, #gpu.address_space<workgroup>>
            %31 = memref.load %reinterpret_cast_8[%29] : memref<256xf32, #gpu.address_space<workgroup>>
            %32 = arith.cmpf ugt, %30, %31 : f32
            %33 = arith.select %32, %30, %31 : f32
            %34 = arith.cmpf uno, %31, %31 : f32
            %35 = arith.select %34, %31, %33 : f32
            %36 = memref.generic_atomic_rmw %alloc[%22] : memref<1300xf32, "gpu"> {
            ^bb0(%arg3: f32):
              %37 = arith.cmpf ogt, %arg3, %35 : f32
              %38 = arith.select %37, %arg3, %35 : f32
              memref.atomic_yield %38 : f32
            }
          }
        }
        scf.yield
      } {mapping = [#gpu.loop_dim_map<processor = thread_x, map = (d0) -> (d0), bound = (d0) -> (d0)>]}
      scf.yield
    } {mapping = [#gpu.loop_dim_map<processor = block_x, map = (d0) -> (d0), bound = (d0) -> (d0)>]}
    "lmhlo.terminator"() : () -> ()
  }) {disc.device = "gpu", disc.fusion.name = "main_kColReduction_reduce__3_1_0", disc.fusion.tag = "8w32h", disc.fusion_type = "kColReduction", disc_col_reduction_schedule_hint = 1 : i32, disc_thread_per_block_hint = 256 : i32} : () -> ()
  %2 = llvm.inttoptr %0 : i32 to !llvm.ptr<i8>
  %alloca = memref.alloca() : memref<2xindex, "cpu">
  memref.store %c100, %alloca[%c0] : memref<2xindex, "cpu">
  memref.store %c13, %alloca[%c1] : memref<2xindex, "cpu">
  %3 = "disc_ral.dispatch"(%arg0, %2, %alloc, %alloca) {backend_config = "", call_target_name = "inc_ref", device = "gpu", has_side_effect = false} : (!disc_ral.context, !llvm.ptr<i8>, memref<1300xf32, "gpu">, memref<2xindex, "cpu">) -> memref<100x13xf32, "gpu">
  %reinterpret_cast = memref.reinterpret_cast %3 to offset: [0], sizes: [100, 13], strides: [13, 1] : memref<100x13xf32, "gpu"> to memref<100x13xf32, "gpu">
  memref.dealloc %alloc : memref<1300xf32, "gpu">
  "disc_ral.dispatch"(%arg0, %c0, %reinterpret_cast) {backend_config = "", call_target_name = "ral_send_output", device = "cpu", has_side_effect = false} : (!disc_ral.context, index, memref<100x13xf32, "gpu">) -> ()
  return
}

// -----// IR Dump After ConvertParallelLoopToGpu (convert-parallel-loops-to-gpu) //----- //
func.func @main(%arg0: !disc_ral.context) attributes {tf.entry_function = {input_placements = "gpu", inputs = "input0", output_placements = "gpu", outputs = "output0"}} {
  %cst = arith.constant 0xFF800000 : f32
  %c110 = arith.constant 110 : index
  %c41 = arith.constant 41 : index
  %c2 = arith.constant 2 : index
  %c4 = arith.constant 4 : index
  %c256 = arith.constant 256 : index
  %c64 = arith.constant 64 : index
  %c8 = arith.constant 8 : index
  %c32 = arith.constant 32 : index
  %c1300 = arith.constant 1300 : index
  %0 = llvm.mlir.constant(0 : i32) : i32
  %c0 = arith.constant 0 : index
  %c100 = arith.constant 100 : index
  %c1 = arith.constant 1 : index
  %c13 = arith.constant 13 : index
  %1 = "disc_ral.dispatch"(%arg0, %c0) {backend_config = "", call_target_name = "ral_recv_input", device = "cpu", has_side_effect = false} : (!disc_ral.context, index) -> memref<110x100x13xf32, "gpu">
  %alloc = memref.alloc() : memref<1300xf32, "gpu">
  "lmhlo.fusion"() ({
    %c0_0 = arith.constant 0 : index
    %c256_1 = arith.constant 256 : index
    %4 = arith.muli %c1, %c256_1 : index
    %c1_2 = arith.constant 1 : index
    %5 = affine.apply affine_map<(d0)[s0, s1] -> ((d0 - s0) ceildiv s1)>(%c1300)[%c0, %4]
    %6 = affine.apply affine_map<(d0)[s0, s1] -> ((d0 - s0) ceildiv s1)>(%4)[%c0_0, %c1]
    gpu.launch blocks(%arg1, %arg2, %arg3) in (%arg7 = %5, %arg8 = %c1_2, %arg9 = %c1_2) threads(%arg4, %arg5, %arg6) in (%arg10 = %6, %arg11 = %c1_2, %arg12 = %c1_2) {
      %12 = affine.apply affine_map<(d0)[s0, s1] -> (d0 * s0 + s1)>(%arg1)[%4, %c0]
      %13 = affine.apply affine_map<(d0)[s0, s1] -> (d0 * s0 + s1)>(%arg4)[%c1, %c0_0]
      %14 = arith.addi %13, %12 : index
      %true = arith.constant true
      %15 = arith.muli %13, %c1 : index
      %16 = arith.addi %15, %12 : index
      %17 = arith.cmpi ult, %16, %c1300 : index
      %18 = arith.andi %true, %17 : i1
      scf.if %18 {
        %reinterpret_cast_9 = memref.reinterpret_cast %alloc to offset: [0], sizes: [1300], strides: [1] : memref<1300xf32, "gpu"> to memref<1300xf32, "gpu">
        memref.store %cst, %reinterpret_cast_9[%14] : memref<1300xf32, "gpu">
      }
      gpu.terminator
    } {SCFToGPU_visited}
    %c0_3 = arith.constant 0 : index
    %c1_4 = arith.constant 1 : index
    %c1_5 = arith.constant 1 : index
    %7 = arith.muli %c1_5, %c41 : index
    %8 = arith.muli %7, %c256 : index
    %c0_6 = arith.constant 0 : index
    %c256_7 = arith.constant 256 : index
    %9 = arith.muli %c1_4, %c256_7 : index
    %c1_8 = arith.constant 1 : index
    %10 = affine.apply affine_map<(d0)[s0, s1] -> ((d0 - s0) ceildiv s1)>(%8)[%c0_3, %9]
    %11 = affine.apply affine_map<(d0)[s0, s1] -> ((d0 - s0) ceildiv s1)>(%9)[%c0_6, %c1_4]
    gpu.launch blocks(%arg1, %arg2, %arg3) in (%arg7 = %10, %arg8 = %c1_8, %arg9 = %c1_8) threads(%arg4, %arg5, %arg6) in (%arg10 = %11, %arg11 = %c1_8, %arg12 = %c1_8) {
      %12 = affine.apply affine_map<(d0)[s0, s1] -> (d0 * s0 + s1)>(%arg1)[%9, %c0_3]
      %13 = affine.apply affine_map<(d0)[s0, s1] -> (d0 * s0 + s1)>(%arg4)[%c1_4, %c0_6]
      %14 = arith.addi %13, %12 : index
      %true = arith.constant true
      %15 = arith.muli %13, %c1_4 : index
      %16 = arith.addi %15, %12 : index
      %17 = arith.cmpi ult, %16, %8 : index
      %18 = arith.andi %true, %17 : i1
      scf.if %18 {
        %19 = arith.remsi %14, %c256 : index
        %20 = arith.divsi %14, %c256 : index
        %21 = arith.divui %20, %c41 : index
        %22 = arith.remui %20, %c41 : index
        %23 = arith.divui %19, %c32 : index
        %24 = arith.remui %19, %c32 : index
        %25 = arith.muli %24, %c8 : index
        %26 = arith.addi %23, %25 : index
        %27 = arith.muli %22, %c32 : index
        %28 = arith.addi %24, %27 : index
        %alloc_9 = memref.alloc() : memref<256xf32, #gpu.address_space<workgroup>>
        %29 = arith.cmpi ult, %28, %c1300 : index
        %30 = scf.if %29 -> (f32) {
          %35 = scf.for %arg13 = %c0 to %c64 step %c1 iter_args(%arg14 = %cst) -> (f32) {
            %36 = arith.muli %21, %c8 : index
            %37 = arith.addi %23, %36 : index
            %38 = arith.muli %37, %c64 : index
            %39 = arith.addi %arg13, %38 : index
            %40 = arith.cmpi slt, %39, %c110 : index
            %41 = scf.if %40 -> (f32) {
              %42 = arith.muli %39, %c1300 : index
              %43 = arith.addi %42, %28 : index
              %reinterpret_cast_11 = memref.reinterpret_cast %1 to offset: [0], sizes: [143000], strides: [1] : memref<110x100x13xf32, "gpu"> to memref<143000xf32, "gpu">
              %44 = memref.load %reinterpret_cast_11[%43] : memref<143000xf32, "gpu">
              %45 = arith.cmpf ugt, %arg14, %44 : f32
              %46 = arith.select %45, %arg14, %44 : f32
              %47 = arith.cmpf uno, %44, %44 : f32
              %48 = arith.select %47, %44, %46 : f32
              scf.yield %48 : f32
            } else {
              scf.yield %arg14 : f32
            }
            scf.yield %41 : f32
          }
          scf.yield %35 : f32
        } else {
          scf.yield %cst : f32
        }
        %reinterpret_cast_10 = memref.reinterpret_cast %alloc_9 to offset: [0], sizes: [256], strides: [1] : memref<256xf32, #gpu.address_space<workgroup>> to memref<256xf32, #gpu.address_space<workgroup>>
        memref.store %30, %reinterpret_cast_10[%26] : memref<256xf32, #gpu.address_space<workgroup>>
        gpu.barrier
        %31 = arith.cmpi slt, %23, %c4 : index
        scf.if %31 {
          %35 = arith.addi %26, %c4 : index
          %36 = memref.load %reinterpret_cast_10[%26] : memref<256xf32, #gpu.address_space<workgroup>>
          %37 = memref.load %reinterpret_cast_10[%35] : memref<256xf32, #gpu.address_space<workgroup>>
          %38 = arith.cmpf ugt, %36, %37 : f32
          %39 = arith.select %38, %36, %37 : f32
          %40 = arith.cmpf uno, %37, %37 : f32
          %41 = arith.select %40, %37, %39 : f32
          memref.store %41, %reinterpret_cast_10[%26] : memref<256xf32, #gpu.address_space<workgroup>>
        }
        gpu.barrier
        %32 = arith.cmpi slt, %23, %c2 : index
        scf.if %32 {
          %35 = arith.addi %26, %c2 : index
          %36 = memref.load %reinterpret_cast_10[%26] : memref<256xf32, #gpu.address_space<workgroup>>
          %37 = memref.load %reinterpret_cast_10[%35] : memref<256xf32, #gpu.address_space<workgroup>>
          %38 = arith.cmpf ugt, %36, %37 : f32
          %39 = arith.select %38, %36, %37 : f32
          %40 = arith.cmpf uno, %37, %37 : f32
          %41 = arith.select %40, %37, %39 : f32
          memref.store %41, %reinterpret_cast_10[%26] : memref<256xf32, #gpu.address_space<workgroup>>
        }
        gpu.barrier
        %33 = arith.cmpi eq, %23, %c0 : index
        %34 = arith.andi %33, %29 : i1
        scf.if %34 {
          %35 = arith.addi %26, %c1 : index
          %36 = memref.load %reinterpret_cast_10[%26] : memref<256xf32, #gpu.address_space<workgroup>>
          %37 = memref.load %reinterpret_cast_10[%35] : memref<256xf32, #gpu.address_space<workgroup>>
          %38 = arith.cmpf ugt, %36, %37 : f32
          %39 = arith.select %38, %36, %37 : f32
          %40 = arith.cmpf uno, %37, %37 : f32
          %41 = arith.select %40, %37, %39 : f32
          %42 = memref.generic_atomic_rmw %alloc[%28] : memref<1300xf32, "gpu"> {
          ^bb0(%arg13: f32):
            %43 = arith.cmpf ogt, %arg13, %41 : f32
            %44 = arith.select %43, %arg13, %41 : f32
            memref.atomic_yield %44 : f32
          }
        }
      }
      gpu.terminator
    } {SCFToGPU_visited}
    "lmhlo.terminator"() : () -> ()
  }) {disc.device = "gpu", disc.fusion.name = "main_kColReduction_reduce__3_1_0", disc.fusion.tag = "8w32h", disc.fusion_type = "kColReduction", disc_col_reduction_schedule_hint = 1 : i32, disc_thread_per_block_hint = 256 : i32} : () -> ()
  %2 = llvm.inttoptr %0 : i32 to !llvm.ptr<i8>
  %alloca = memref.alloca() : memref<2xindex, "cpu">
  memref.store %c100, %alloca[%c0] : memref<2xindex, "cpu">
  memref.store %c13, %alloca[%c1] : memref<2xindex, "cpu">
  %3 = "disc_ral.dispatch"(%arg0, %2, %alloc, %alloca) {backend_config = "", call_target_name = "inc_ref", device = "gpu", has_side_effect = false} : (!disc_ral.context, !llvm.ptr<i8>, memref<1300xf32, "gpu">, memref<2xindex, "cpu">) -> memref<100x13xf32, "gpu">
  %reinterpret_cast = memref.reinterpret_cast %3 to offset: [0], sizes: [100, 13], strides: [13, 1] : memref<100x13xf32, "gpu"> to memref<100x13xf32, "gpu">
  memref.dealloc %alloc : memref<1300xf32, "gpu">
  "disc_ral.dispatch"(%arg0, %c0, %reinterpret_cast) {backend_config = "", call_target_name = "ral_send_output", device = "cpu", has_side_effect = false} : (!disc_ral.context, index, memref<100x13xf32, "gpu">) -> ()
  return
}

// -----// IR Dump After GpuLaunchSinkIndexComputations (gpu-launch-sink-index-computations) //----- //
#map = affine_map<(d0)[s0, s1] -> ((d0 - s0) ceildiv s1)>
#map1 = affine_map<(d0)[s0, s1] -> (d0 * s0 + s1)>
module {
  func.func @main(%arg0: !disc_ral.context) attributes {tf.entry_function = {input_placements = "gpu", inputs = "input0", output_placements = "gpu", outputs = "output0"}} {
    %cst = arith.constant 0xFF800000 : f32
    %c110 = arith.constant 110 : index
    %c41 = arith.constant 41 : index
    %c2 = arith.constant 2 : index
    %c4 = arith.constant 4 : index
    %c256 = arith.constant 256 : index
    %c64 = arith.constant 64 : index
    %c8 = arith.constant 8 : index
    %c32 = arith.constant 32 : index
    %c1300 = arith.constant 1300 : index
    %0 = llvm.mlir.constant(0 : i32) : i32
    %c0 = arith.constant 0 : index
    %c100 = arith.constant 100 : index
    %c1 = arith.constant 1 : index
    %c13 = arith.constant 13 : index
    %1 = "disc_ral.dispatch"(%arg0, %c0) {backend_config = "", call_target_name = "ral_recv_input", device = "cpu", has_side_effect = false} : (!disc_ral.context, index) -> memref<110x100x13xf32, "gpu">
    %alloc = memref.alloc() : memref<1300xf32, "gpu">
    "lmhlo.fusion"() ({
      %c0_0 = arith.constant 0 : index
      %c256_1 = arith.constant 256 : index
      %4 = arith.muli %c1, %c256_1 : index
      %c1_2 = arith.constant 1 : index
      %5 = affine.apply #map(%c1300)[%c0, %4]
      %6 = affine.apply #map(%4)[%c0_0, %c1]
      gpu.launch blocks(%arg1, %arg2, %arg3) in (%arg7 = %5, %arg8 = %c1_2, %arg9 = %c1_2) threads(%arg4, %arg5, %arg6) in (%arg10 = %6, %arg11 = %c1_2, %arg12 = %c1_2) {
        %c0_9 = arith.constant 0 : index
        %c1_10 = arith.constant 1 : index
        %c0_11 = arith.constant 0 : index
        %c1300_12 = arith.constant 1300 : index
        %cst_13 = arith.constant 0xFF800000 : f32
        %12 = affine.apply #map1(%arg1)[%4, %c0_9]
        %13 = affine.apply #map1(%arg4)[%c1_10, %c0_11]
        %14 = arith.addi %13, %12 : index
        %true = arith.constant true
        %15 = arith.muli %13, %c1_10 : index
        %16 = arith.addi %15, %12 : index
        %17 = arith.cmpi ult, %16, %c1300_12 : index
        %18 = arith.andi %true, %17 : i1
        scf.if %18 {
          %reinterpret_cast_14 = memref.reinterpret_cast %alloc to offset: [0], sizes: [1300], strides: [1] : memref<1300xf32, "gpu"> to memref<1300xf32, "gpu">
          memref.store %cst_13, %reinterpret_cast_14[%14] : memref<1300xf32, "gpu">
        }
        gpu.terminator
      } {SCFToGPU_visited}
      %c0_3 = arith.constant 0 : index
      %c1_4 = arith.constant 1 : index
      %c1_5 = arith.constant 1 : index
      %7 = arith.muli %c1_5, %c41 : index
      %8 = arith.muli %7, %c256 : index
      %c0_6 = arith.constant 0 : index
      %c256_7 = arith.constant 256 : index
      %9 = arith.muli %c1_4, %c256_7 : index
      %c1_8 = arith.constant 1 : index
      %10 = affine.apply #map(%8)[%c0_3, %9]
      %11 = affine.apply #map(%9)[%c0_6, %c1_4]
      gpu.launch blocks(%arg1, %arg2, %arg3) in (%arg7 = %10, %arg8 = %c1_8, %arg9 = %c1_8) threads(%arg4, %arg5, %arg6) in (%arg10 = %11, %arg11 = %c1_8, %arg12 = %c1_8) {
…
  store i64 %192, ptr %208, align 4
  %209 = getelementptr ptr, ptr %197, i32 5
  store ptr %208, ptr %209, align 8
  %210 = getelementptr %.8, ptr %196, i32 0, i32 6
  store i64 %193, ptr %210, align 4
  %211 = getelementptr ptr, ptr %197, i32 6
  store ptr %210, ptr %211, align 8
  %212 = getelementptr %.8, ptr %196, i32 0, i32 7
  store i64 %194, ptr %212, align 4
  %213 = getelementptr ptr, ptr %197, i32 7
  store ptr %212, ptr %213, align 8
  %214 = getelementptr %.8, ptr %196, i32 0, i32 8
  store i64 %195, ptr %214, align 4
  %215 = getelementptr ptr, ptr %197, i32 8
  store ptr %214, ptr %215, align 8
  call void @disc_ral_call(ptr %0, ptr @ral_send_output___cpu___pvoid_i64_m2df32___void, ptr %197)
  ret void
}

host default target triple: x86_64-unknown-linux-gnu
host cpu name: icelake-server
host cpu features: -avx512pf,-tsxldtrk,+cx16,+sahf,-tbm,+avx512ifma,+sha,+crc32,-fma4,+vpclmulqdq,+prfchw,+bmi2,-cldemote,+fsgsbase,-avx512bf16,-amx-tile,-raoint,-uintr,+gfni,+popcnt,-ptwrite,+aes,+avx512bitalg,-movdiri,-widekl,+xsaves,-avx512er,-avxvnni,-avx512fp16,+avx512vnni,-amx-bf16,-avxvnniint8,+avx512vpopcntdq,-pconfig,+clwb,-cmpccxadd,+avx512f,+xsavec,-clzero,-pku,-amx-fp16,+mmx,-lwp,+rdpid,-xop,+rdseed,-waitpkg,-prefetchi,-kl,-movdir64b,-sse4a,+avx512bw,-avxneconvert,+clflushopt,+xsave,+avx512vbmi2,+64bit,+avx512vl,-serialize,-hreset,+invpcid,+avx512cd,+avx,+vaes,-amx-int8,+cx8,+fma,-rtm,+bmi,-enqcmd,+rdrnd,-mwaitx,+sse4.1,+sse4.2,+avx2,+fxsr,+wbnoinvd,+sse,+lzcnt,+pclmul,-rdpru,-avxifma,+f16c,+ssse3,-sgx,-prefetchwt1,+cmov,+avx512vbmi,-shstk,+movbe,-avx512vp2intersect,+xsaveopt,+avx512dq,+sse2,+adx,+sse3
after optimize llvm module:
; ModuleID = 'LLVMDialectModule'
source_filename = "LLVMDialectModule"
target datalayout = "e-m:e-p270:32:32-p271:32:32-p272:64:64-i64:64-f80:128-n8:16:32:64-S128"
target triple = "x86_64-unknown-linux-gnu"

%0 = type { ptr, i64, { ptr, ptr, i64, [3 x i64], [3 x i64] } }
%.1 = type { ptr, i64, ptr }
%.2 = type { i64, ptr }
%.3 = type { ptr, ptr, i64, ptr, i64, i64, i64, i64, i64, i64, i32, ptr, i32, ptr }
%.4 = type { i64, i64, ptr, ptr }
%.5 = type { ptr, ptr, i64, ptr, i64, i64, i64, i64, i64, i64, i32, ptr, i32, ptr }
%.6 = type { ptr, ptr, ptr, ptr, i64, i64, i64, ptr, ptr, i64, i64, i64, { ptr, ptr, i64, [2 x i64], [2 x i64] } }
%.7 = type { ptr, ptr }
%.8 = type { ptr, i64, ptr, ptr, i64, i64, i64, i64, i64 }

@ral_send_output___cpu___pvoid_i64_m2df32___void = internal constant [48 x i8] c"ral_send_output___cpu___pvoid_i64_m2df32___void\00"
@dealloc___gpu___pvoid_pvoid___void = internal constant [35 x i8] c"dealloc___gpu___pvoid_pvoid___void\00"
@inc_ref___gpu___pvoid_pvoid_m1df32_m1di64___m2df32 = internal constant [51 x i8] c"inc_ref___gpu___pvoid_pvoid_m1df32_m1di64___m2df32\00"
@main_kernel_0_main_kColReduction_reduce__3_1_0___8w32h_1_kernel_name = internal constant [43 x i8] c"main_kColReduction_reduce__3_1_0___8w32h_1\00"
@main_kernel_0_blob_gpu.binary = internal constant [2280 x i8] c"P\EDU\BA\01\00\10\00\D8\08\00\00\00\00\00\00\02\00\01\01@\00\00\00\98\08\00\00\00\00\00\00\91\08\00\00\00\00\00\00\07\00\01\00P\00\00\00\00\00\00\00\00\00\00\00\11 \00\00\00\00\00\00\00\00\00\00\00\00\00\00\A8\14\00\00\00\00\00\00\A2\7FELF\02\01\013\07\00\01\00g\02\00\BE\00q\00\01\00\22\14\00\01\00\11\11\06\00\F5\0E\00P\05P\00@\008\00\03\00@\00\0C\00\01\00\00.shstrtab\00.\08\00'ym\08\00\F0\1B_shndx\00.nv.info\00.text.main_kColReduction_r\0A\00\F5\03e__3_1_0___8w32h_1:\00\0F4\00\1Doshared6\00\1AOrela\A0\00\1F?rel\D5\00\22\9Fconstant09\00\1A\B2debug_frame{\00\09\11\00!nv\14\00\11aE\00\0F\9E\01 \0F\8A\00\17\0F\C9\01\F4\8F$____wg_3\00\17\00\0C\00/24\02\02'o_param\09\02\1C\0F\01\00\05\8C]\00\00\00\03\00\0A\00\01\00\11\C2\18\00,\0B\00\01\00 \9C\01\18\00,\09\00\01\00\11\DC\18\00,\04\00\01\00\11\FA\18\00,\07\00\01\00f2\00\00\00\12\10x\00!\80\08\07\00v\00\FF\FF\FF\FF(\00\0C\00\00\01\00@\03\00\04|\08\00\D1\0F\0C\81\80\80(\00\08\FF\81\80(\08\0B\00\06(\00/0\00\01\00\03\13pX\00\10\04\9B\00\10\04\CD\04\02E\002\04\D4\01\18\00C/\08\00\06\DF\04\22\04#\0C\00\00\01\00'\04\12\0C\00\17\11\0C\00!7\04 \05\F1\08\015\00\00\04\0A\08\00\03\00\00\00`\01\18\00\03\19\18\00\04\17\0C$\00u\03\00\10\00\00\F0!\10\009\02\00\08\10\00\10\01(\01%\F0\11\10\00\01\01\00\F2\0A\F0\11\00\03\1B\FF\00\04\1C\0C\00P\00\00\00\B0\06\00\00\B0\07\00\00\04\1ET\01#K\00\01\00\B1\02\02\08\10\0A/\22\00\00\00\08\10\00#\00\08\08\00\13\10\08\00\13\18\08\00\13 \08\00\13(\08\00\130\08\00\228\08\84\00\13\00\08\00\13\08\08\00\13\10\08\00\13\18\08\00\13 \08\00\13(\08\00\130\08\00\02@\00\13\02@\00\13\02@\00\13\02@\00\13\02@\00\13\02@\00\13\02@\00\13\02@\00\13\02@\00\00Z\06b,\00\00\00H\00\01\005\02\00\00d\01\0F\01\00\FF\DA@$v\01\FF\7F\04\B2\FF\00\8E\07\00\C4\0F\00\19y\00\01\00\10%\BB\02a\0E\00\19y\03\00\01\00\10!-\00\F0\04\0E\00$z\00\00\00X\00\00\03\02\8E\07\00\CA\1F\00\0C\10\00\C5Y\00\00p`\F0\03\00\DA\0F\00M\9B\04\B0\80\03\00\EA\0F\00\19x\03\FF\1F\0F\00\F1\00\14\01\00\00\E2\0F\00\B9z\04\00\00F\00\00\F3\04\93\E2\0F\00Ey\00\00\C0\040\00\B1\E2\0F\00$t\05\FF\00\00\80\FF\90\00a\E2\0F\00\11r\03\81\00`\FF@\8F\07\00\C8P\00 \04\FF\C1\02\10\03P\00q\E4\0F\00\12x\03\03\81\04\F1\00\C0\8E\07\00\C6\0F\00'x\02\04}\0C\CE\C7@\00P\C8\0F\00$x4\03B\00\00\03\0AP\00P\19x\07\FF\05\F0\020\16\01\00 \00@\12x\08\00\A0\00\01@\00\D4\E2\0F\04$x\03\07\D7\FF\FF\FF\04\020\00\11\060\00\22\00\16p\00P\0Cx\00\00\7F\D8\04\22@\F4\B0\00@x\03\03 \06\04\000\00\10\E4\10\00\11\02\91\03\22\06\02\90\00`\0Cx\00\03\13\050\00\13\F20\00C\02\02\04\00p\01\96\D8\0F\00G\19\00\00\B0\030\01\95$x\0A\06\00E\01\00\FFP\00%\06\07P\00\10\E4\A0\00t\05\07\E0\22\0A\00\0A \00Dr\07\FF\FFP\00\010\00 \09\04\90\00\14\05 \00\08P\01\10\C4 \00 \04\08\10\01\16\09`\00$\06@@\00\11\CA\B0\00 \06m\E0\00!B\FC\D0\01@$\E8\08\040\00\14\070\005\E4\09\FF\C0\00\93\C8\0F\00%\E6\08\08\00ZP\00p\CA\0F\00\81\E9\0C\08 \00\C0\00\19\1E\0C\00\A2\00\00\10x\0A\06@\000\FF\E0\FF@\00f\04\10x\0D\06\02\10\00\00p\00\12\0Ap\00#\F8\03\10\00\12\0D\10\00\11\F6\10\001\1Cx\00\01\00\F1\04p\F0\F0\03\00\D2\0F\00\10\C8\0A\04\14\05\00\00\07\E0\FF\A0\01:$\C4\0B\90\000\C6\0A\0A\90\00\14\0B\90\005\C9\0E\0A\90\00\94\E2\02\00\10\B8\08\04(\0A@\00G\1F\00$\B4\D0\000\E2\0F\00\A0\00\14\03\A0\00W\C6\0F\00%\B6\E0\00f\CC\0F\00\81\B9\08\E0\00q\22\0F\00\0B\E2\00\0CF\06\A4\80\FA\03\00\C8O\00\1C\E8\00\B0\001\02\00\E4 \00\11\05 \00!\C0\FAP\01A\08\82\0C\0CP\02:\00\80\06\F0\00\02 \00g\10\D8\0D\04<\0F\E0\00'\D4\0A\E0\00`/\00%\D6\0A\0D\90\00\14\0A\90\00&\D9\0A\E0\00a\A2\0E\00$\E2\05\10\02\13\0C\D0\00Q\0B\C2\00\0E\0Eo\00i\FC\03\00\E4\8F\08P\01\00`\01\14\C8\10\00\11p\10\00A\0B\C2\00\050\00#\C0\FC\B0\00\22\0E\0E\B0\00\11\00\B0\01#\0B\B2q\06\00P\00R\C6\0F\01$\C2p\00\13\0Ep\00\0D`\00\1B\B8`\001\B2\00\05@\00\12\C0\F0\01c\10x\07\07P\14p\01\10\D6p\00#\08\08p\00\10\06\C0\01\22$\B2`\00\1F\08`\00\04W\10x\06\06\04P\02A\0B\D2\00\0A\D6\08\10\80`\00aO\08\0B\D2\00\05\10\00\13\C0P\02$\D8\00\90\00\13\02\80\01\10\07p\03BpR\F8\03\80\00\22\0A\0A\80\00!\80\05\80\00\12\D2\80\00\13\0A\80\00`GI\00\00\D0\FCq\04\11\83\B0\03\14A0\05\03\C0\03A\88s\00\02@\00\00\9E\07f\E8\0F\00\1D{\00\01\00\93\EC\0F\00\84\A9\07\02\00\10 \00*\22\0E\D0\00\11\C4\90\00\01\90\041pD\F2 \05T\84\A9\04\02\00P\00qb\0E\00\0B\A2\00\07\CE\09\10\80\D0\00u\1F\08\0B\A2\00\04\07P\01T/\00\1C\A8\00P\00\13\01\E0\00 \00?\10\00#@\F6\E0\00!\07\070\02\00`\01\1B\E4P\01\8F\C6\0F\00\88\A3\00\02\07\C0\00\09!\B9\05O\09\22\00\08 \06+\84\B9\A0\001\B2\00\05\00\01`\80\F4\03\00\C4\1F\10\00(\04\05\A0\00\06\10\02\12\01`\027\05\05\04\F0\01/\88\B3@\01\0B9M\19\00p\019$t\04\C0\03!\84y\CB\08\02@\00\C3\E6\0F\00%v\04\03\00\\\00\00\04\00\05f\84y\03\02\00\04\C0\00E\81y\06\04@\03bb\03\00\0Br\00q\06\22\80\F0`\011r\00\00\10\00#\C0\F2@\01\02\1F\00@\00\00\80\04\90\031\0Br\000\040\00@\F0\E0\05(\0EF\10\02b\E6\0F\00\08r\07 \00\00\01\00p\CC\0F\00\A9s\07\04h\09\C0\07\E1\1E\00\00\A4\0E\00\0Cr\00\07\10\00 pR@\00QO\00$r\06p\02\14\07 \06V\09\00\00\90\FFp\02\1BMp\02TGy\00\00\F0 \00f\C0\0F\00\18y\00\01\00\0F\10\00\90\0F\01\00-#\01\00\A0\01\0B\01\00\22@\00\01\00=\9E\01\000\00\08\01\00\1F\0B@\00\04\13\DE)\00?\09\02\00@\00\0A\13\13<\0B\0C\01\00\13\E8U\00\03\8F\03\01$\00\13\05w\02\00\01\00\22\18\00\01\00.q\01T\00\00\01\00\11\90\95\02O\00\00p\00\80\00\0B\1F)'\00\03\02m\00\00v\0C\01\06\00\06\E4\00*\04\00\01\00\1Fc@\00\04\130@\00\17x@\00\1F\0A@\00\00!\8F\01D\01\0D@\00\13\A8@\00*\D8\00\01\00\1B\08\08\00?~\01\00\CE\0E\00\01\1E\07\01\01\00&\10\00\80\00\17\048\00\04\18\00\138@\01\0C\84\01\13\90@\00\17x1\01\0F\C0\00\01\132T\01\15\06R\00\0A\10\0F&\80\08\80\00j\06\00\00\11\80\00\01\00\13\97\94\00+\03\00\01\00\03\B0\13/\00\04\80\00\0B\14\06\AB\01/\14\00\01\00\02\1B\A8\08\00\17\08\08\02\17\05\E8\00\0C\01\009p\0A\00\08\00\088\00\18\06\A0\00\0F\01\00\05\03\A9\00\80\08\00\00\00\00\00\00\00\00\00\00\00\00\00\00"
@ral_kernel_launch___gpu___pvoid_ppvoid_i64_pvoid_i64_i64_i64_i64_i64_i64_i32_pvoid_i32_ppvoid___void = internal constant [101 x i8] c"ral_kernel_launch___gpu___pvoid_ppvoid_i64_pvoid_i64_i64_i64_i64_i64_i64_i32_pvoid_i32_ppvoid___void\00"
@main_kernel_main_kColReduction_reduce__3_1_0___8w32h_kernel_name = internal constant [41 x i8] c"main_kColReduction_reduce__3_1_0___8w32h\00"
@main_kernel_blob_gpu.binary = internal constant [1096 x i8] c"P\EDU\BA\01\00\10\008\04\00\00\00\00\00\00\02\00\01\01@\00\00\00\F8\03\00\00\00\00\00\00\F3\03\00\00\00\00\00\00\07\00\01\00P\00\00\00\00\00\00\00\00\00\00\00\11 \00\00\00\00\00\00\00\00\00\00\00\00\00\00\E8\0B\00\00\00\00\00\00\A2\7FELF\02\01\013\07\00\01\00f\02\00\BE\00q\00\01\00!@\0B\07\001\00\80\08\07\00\F5\0E\00P\05P\00@\008\00\03\00@\00\0B\00\01\00\00.shstrtab\00.\08\00'ym\08\00\F0\1B_shndx\00.nv.info\00.text.main_kColReduction_r\0A\00\F5\01e__3_1_0___8w32h8\00\0F2\00\1Boshared4\00\1B\9Fconstant07\00\18\FA\01debug_frame\00.rel\11\00!nv\14\00\11aC\00\0F+\01 \0F\88\00\15\0FT\01\BAo_param[\01\1C\0F\01\00\06\8C[\00\00\00\03\00\0A\00\01\00\11\F0\18\00,\09\00\01\00 .\01\18\00,\04\00\01\00\11L\18\00,\07\00\01\00f2\00\00\00\12\10`\00!\80\01\07\00v\00\FF\FF\FF\FF(\00\0C\00\00\01\00@\03\00\04|\08\00\D1\0F\0C\81\80\80(\00\08\FF\81\80(\08\0B\00\06(\00/0\00\01\00\03\13pX\00\10\04\9B\00R\04\14\00\00\00E\00\01\0B\00\00\13\00p/\08\00\05\00\00\00\A7\03\22\04#\0C\00\00\01\00'\04\12\0C\00\17\11\0C\00!7\04\E8\03\F1\08\015\00\00\04\0A\08\00\02\00\00\00`\01\10\00\03\19\10\00\04\17\0C$\00\10\01N\00%\F0!\10\00\01\01\00\F2\02\F0\11\00\03\1B\FF\00\04\1C\08\00P\00\00\00\B0\00\01\00#K\00\01\00s\02\02\08\10\0A/\22\8B\00\00\07\00\03\08\00\13\10\08\00\13\18\08\00\13 \08\00\13(\08\00\130\08\00\228\08|\00\13\00\08\00\13\08\08\00\13\10\08\00\13\18\08\00\13 \08\00\13(\08\00\130\08\00\02@\00\13\02@\00\13\02@\00\13\02@\00\13\02@\00\13\02@\00\13\02@\00\13\02@\00\13\02@\00\A2\00\00\00\14,\00\00\00H\00\01\00\00 \01/\05\00\01\00\FF\C0A\02z\01\00\1F\04\B1\0F\00\00\00\C4\0F\00\19y\02\00\01\00\10%\9B\02Q\0E\00\19y\03\0F\00\F5\1A\00!\00\00\00$\0E\00$z\02\02\00X\00\00\03\02\8E\07\00\CA\1F\00\0Cx\00\02\13\05\00\00p@\F0\03\00\DA\0F\00MS\04\A0\80\03\00\EA\0F\005t\03\FF\B3\03\10\FF\C0\03P\E2\0F\00\02xF\02B\80\FF\00\0F\10\00r\B9z\04\00\00F\00\84\00\90\D0\0F\00%v\02\02\00Zl\04\00`\00`\0F\00\86y\00\022\00@\04\19\10\0C0\009My\00`\00PGy\00\00\F09\04\A6\FF\83\03\00\C0\0F\00\18y\00\01\00\0F\10\00\90\0F\01\00-\00W\01.\03\00\01\00\22@\00\01\00=+\01\000\00\08\01\00\1F\0B@\00\04\13k)\00\1F[@\00\0C\13\13\1C\04\0C\01\00\13\C8\15\00&\90\00@\04#\04\00\95\04\00\06\05\12\00\01\00\1F\FET\00\00\00\01\00\13X\95\00/p\00\80\00\0B\1F)'\00\03#\00\C8@\00\04P\06\04\E4\00*\04\00\01\00\1Fa@\00\04\13\F81\00&L\00@\00\1F\0A@\00\00!\1C\01D\01\0D@\00\13H)\00*\D8\00\01\00\1B\08\08\00?\0B\01\00\86\07\00Q\00\00 \05\00\01\00&\10\00\80\00\17\048\00\04\18\00\13\C7\14\01\0C\84\01*0\058\07\1F\00\C0\00\04\132@\00+\06\00\01\00\1A\07\D0\07\12\03\00\06:\08\80\00\01\00\13\06\18\06\04(\0B\0C\01\00*\A8\00\08\00\04\F8\00\13\018\00\04\A8\00\0C\01\009P\03\00\08\00\088\00/\06\00\01\00\17\80\08\00\00\00\00\00\00\00\00\00\00\00\00"
@alloc___gpu___pvoid_i64___pvoid = internal constant [32 x i8] c"alloc___gpu___pvoid_i64___pvoid\00"
@ral_recv_input___cpu___pvoid_i64___m3df32 = internal constant [42 x i8] c"ral_recv_input___cpu___pvoid_i64___m3df32\00"

define void @disc_ral_call(ptr nocapture readonly %0, ptr %1, ptr %2) local_unnamed_addr {
entry:
  %3 = load ptr, ptr %0, align 8
  %4 = getelementptr ptr, ptr %0, i64 1
  %5 = load ptr, ptr %4, align 8
  %6 = load ptr, ptr %2, align 8
  store ptr %3, ptr %6, align 8
  tail call void %5(ptr %3, ptr %1, ptr nonnull %2)
  ret void
}

define void @main(ptr %0) local_unnamed_addr {
  %2 = alloca %0, align 8
  %3 = alloca [3 x ptr], align 8
  store ptr %2, ptr %3, align 8
  %4 = getelementptr inbounds %0, ptr %2, i64 0, i32 1
  store i64 0, ptr %4, align 8
  %5 = getelementptr inbounds ptr, ptr %3, i64 1
  store ptr %4, ptr %5, align 8
  %6 = getelementptr inbounds %0, ptr %2, i64 0, i32 2
  %7 = getelementptr inbounds ptr, ptr %3, i64 2
  store ptr %6, ptr %7, align 8
  %8 = load ptr, ptr %0, align 8
  %9 = getelementptr ptr, ptr %0, i64 1
  %10 = load ptr, ptr %9, align 8
  store ptr %8, ptr %2, align 8
  call void %10(ptr %8, ptr nonnull @ral_recv_input___cpu___pvoid_i64___m3df32, ptr nonnull %3)
  %.fca.1.gep4 = getelementptr inbounds %0, ptr %2, i64 0, i32 2, i32 1
  %.fca.1.load5 = load ptr, ptr %.fca.1.gep4, align 8
  %11 = alloca %.1, align 8
  %12 = alloca [3 x ptr], align 8
  store ptr %11, ptr %12, align 8
  %13 = getelementptr inbounds %.1, ptr %11, i64 0, i32 1
  store i64 5200, ptr %13, align 8
  %14 = getelementptr inbounds ptr, ptr %12, i64 1
  store ptr %13, ptr %14, align 8
  %15 = getelementptr inbounds %.1, ptr %11, i64 0, i32 2
  %16 = getelementptr inbounds ptr, ptr %12, i64 2
  store ptr %15, ptr %16, align 8
  %17 = load ptr, ptr %0, align 8
  %18 = load ptr, ptr %9, align 8
  store ptr %17, ptr %11, align 8
  call void %18(ptr %17, ptr nonnull @alloc___gpu___pvoid_i64___pvoid, ptr nonnull %12)
  %19 = load ptr, ptr %15, align 8
  %20 = alloca ptr, align 8
  store ptr @main_kernel_blob_gpu.binary, ptr %20, align 8
  %21 = alloca %.2, align 8
  %22 = alloca [2 x ptr], align 8
  store i64 256, ptr %21, align 8
  store ptr %21, ptr %22, align 8
  %23 = getelementptr inbounds %.2, ptr %21, i64 0, i32 1
  store ptr %19, ptr %23, align 8
  %24 = getelementptr inbounds ptr, ptr %22, i64 1
  store ptr %23, ptr %24, align 8
  %25 = alloca %.3, align 8
  %26 = alloca [14 x ptr], align 8
  store ptr %25, ptr %26, align 8
  %27 = getelementptr inbounds %.3, ptr %25, i64 0, i32 1
  store ptr %20, ptr %27, align 8
  %28 = getelementptr inbounds ptr, ptr %26, i64 1
  store ptr %27, ptr %28, align 8
  %29 = getelementptr inbounds %.3, ptr %25, i64 0, i32 2
  store i64 1, ptr %29, align 8
  %30 = getelementptr inbounds ptr, ptr %26, i64 2
  store ptr %29, ptr %30, align 8
  %31 = getelementptr inbounds %.3, ptr %25, i64 0, i32 3
  store ptr @main_kernel_main_kColReduction_reduce__3_1_0___8w32h_kernel_name, ptr %31, align 8
  %32 = getelementptr inbounds ptr, ptr %26, i64 3
  store ptr %31, ptr %32, align 8
  %33 = getelementptr inbounds %.3, ptr %25, i64 0, i32 4
  store i64 6, ptr %33, align 8
  %34 = getelementptr inbounds ptr, ptr %26, i64 4
  store ptr %33, ptr %34, align 8
  %35 = getelementptr inbounds %.3, ptr %25, i64 0, i32 5
  store i64 1, ptr %35, align 8
  %36 = getelementptr inbounds ptr, ptr %26, i64 5
  store ptr %35, ptr %36, align 8
  %37 = getelementptr inbounds %.3, ptr %25, i64 0, i32 6
  store i64 1, ptr %37, align 8
  %38 = getelementptr inbounds ptr, ptr %26, i64 6
  store ptr %37, ptr %38, align 8
  %39 = getelementptr inbounds %.3, ptr %25, i64 0, i32 7
  store i64 256, ptr %39, align 8
  %40 = getelementptr inbounds ptr, ptr %26, i64 7
  store ptr %39, ptr %40, align 8
  %41 = getelementptr inbounds %.3, ptr %25, i64 0, i32 8
  store i64 1, ptr %41, align 8
  %42 = getelementptr inbounds ptr, ptr %26, i64 8
  store ptr %41, ptr %42, align 8
  %43 = getelementptr inbounds %.3, ptr %25, i64 0, i32 9
  store i64 1, ptr %43, align 8
  %44 = getelementptr inbounds ptr, ptr %26, i64 9
  store ptr %43, ptr %44, align 8
  %45 = getelementptr inbounds %.3, ptr %25, i64 0, i32 10
  store i32 0, ptr %45, align 8
  %46 = getelementptr inbounds ptr, ptr %26, i64 10
  store ptr %45, ptr %46, align 8
  %47 = getelementptr inbounds %.3, ptr %25, i64 0, i32 11
  store ptr null, ptr %47, align 8
  %48 = getelementptr inbounds ptr, ptr %26, i64 11
  store ptr %47, ptr %48, align 8
  %49 = getelementptr inbounds %.3, ptr %25, i64 0, i32 12
  store i32 2, ptr %49, align 8
  %50 = getelementptr inbounds ptr, ptr %26, i64 12
  store ptr %49, ptr %50, align 8
  %51 = getelementptr inbounds %.3, ptr %25, i64 0, i32 13
  store ptr %22, ptr %51, align 8
  %52 = getelementptr inbounds ptr, ptr %26, i64 13
  store ptr %51, ptr %52, align 8
  %53 = load ptr, ptr %0, align 8
  %54 = load ptr, ptr %9, align 8
  store ptr %53, ptr %25, align 8
  call void %54(ptr %53, ptr nonnull @ral_kernel_launch___gpu___pvoid_ppvoid_i64_pvoid_i64_i64_i64_i64_i64_i64_i32_pvoid_i32_ppvoid___void, ptr nonnull %26)
  %55 = alloca ptr, align 8
  store ptr @main_kernel_0_blob_gpu.binary, ptr %55, align 8
  %56 = alloca %.4, align 8
  %57 = alloca [4 x ptr], align 8
  store i64 256, ptr %56, align 8
  store ptr %56, ptr %57, align 8
  %58 = getelementptr inbounds %.4, ptr %56, i64 0, i32 1
  store i64 10496, ptr %58, align 8
  %59 = getelementptr inbounds ptr, ptr %57, i64 1
  store ptr %58, ptr %59, align 8
  %60 = getelementptr inbounds %.4, ptr %56, i64 0, i32 2
  store ptr %.fca.1.load5, ptr %60, align 8
  %61 = getelementptr inbounds ptr, ptr %57, i64 2
  store ptr %60, ptr %61, align 8
  %62 = getelementptr inbounds %.4, ptr %56, i64 0, i32 3
  store ptr %19, ptr %62, align 8
  %63 = getelementptr inbounds ptr, ptr %57, i64 3
  store ptr %62, ptr %63, align 8
  %64 = alloca %.5, align 8
  %65 = alloca [14 x ptr], align 8
  store ptr %64, ptr %65, align 8
  %66 = getelementptr inbounds %.5, ptr %64, i64 0, i32 1
  store ptr %55, ptr %66, align 8
  %67 = getelementptr inbounds ptr, ptr %65, i64 1
  store ptr %66, ptr %67, align 8
  %68 = getelementptr inbounds %.5, ptr %64, i64 0, i32 2
  store i64 1, ptr %68, align 8
  %69 = getelementptr inbounds ptr, ptr %65, i64 2
  store ptr %68, ptr %69, align 8
  %70 = getelementptr inbounds %.5, ptr %64, i64 0, i32 3
  store ptr @main_kernel_0_main_kColReduction_reduce__3_1_0___8w32h_1_kernel_name, ptr %70, align 8
  %71 = getelementptr inbounds ptr, ptr %65, i64 3
  store ptr %70, ptr %71, align 8
  %72 = getelementptr inbounds %.5, ptr %64, i64 0, i32 4
  store i64 41, ptr %72, align 8
  %73 = getelementptr inbounds ptr, ptr %65, i64 4
  store ptr %72, ptr %73, align 8
  %74 = getelementptr inbounds %.5, ptr %64, i64 0, i32 5
  store i64 1, ptr %74, align 8
  %75 = getelementptr inbounds ptr, ptr %65, i64 5
  store ptr %74, ptr %75, align 8
  %76 = getelementptr inbounds %.5, ptr %64, i64 0, i32 6
  store i64 1, ptr %76, align 8
  %77 = getelementptr inbounds ptr, ptr %65, i64 6
  store ptr %76, ptr %77, align 8
  %78 = getelementptr inbounds %.5, ptr %64, i64 0, i32 7
  store i64 256, ptr %78, align 8
  %79 = getelementptr inbounds ptr, ptr %65, i64 7
  store ptr %78, ptr %79, align 8
  %80 = getelementptr inbounds %.5, ptr %64, i64 0, i32 8
  store i64 1, ptr %80, align 8
  %81 = getelementptr inbounds ptr, ptr %65, i64 8
  store ptr %80, ptr %81, align 8
  %82 = getelementptr inbounds %.5, ptr %64, i64 0, i32 9
  store i64 1, ptr %82, align 8
  %83 = getelementptr inbounds ptr, ptr %65, i64 9
  store ptr %82, ptr %83, align 8
  %84 = getelementptr inbounds %.5, ptr %64, i64 0, i32 10
  store i32 0, ptr %84, align 8
  %85 = getelementptr inbounds ptr, ptr %65, i64 10
  store ptr %84, ptr %85, align 8
  %86 = getelementptr inbounds %.5, ptr %64, i64 0, i32 11
  store ptr null, ptr %86, align 8
  %87 = getelementptr inbounds ptr, ptr %65, i64 11
  store ptr %86, ptr %87, align 8
  %88 = getelementptr inbounds %.5, ptr %64, i64 0, i32 12
  store i32 4, ptr %88, align 8
  %89 = getelementptr inbounds ptr, ptr %65, i64 12
  store ptr %88, ptr %89, align 8
  %90 = getelementptr inbounds %.5, ptr %64, i64 0, i32 13
  store ptr %57, ptr %90, align 8
  %91 = getelementptr inbounds ptr, ptr %65, i64 13
  store ptr %90, ptr %91, align 8
  %92 = load ptr, ptr %0, align 8
  %93 = load ptr, ptr %9, align 8
  store ptr %92, ptr %64, align 8
  call void %93(ptr %92, ptr nonnull @ral_kernel_launch___gpu___pvoid_ppvoid_i64_pvoid_i64_i64_i64_i64_i64_i64_i32_pvoid_i32_ppvoid___void, ptr nonnull %65)
  %94 = alloca [16 x i64], align 8
  store i64 100, ptr %94, align 8
  %95 = getelementptr inbounds i64, ptr %94, i64 1
  store i64 13, ptr %95, align 8
  %96 = alloca %.6, align 8
  %97 = alloca [13 x ptr], align 8
  store ptr %96, ptr %97, align 8
  %98 = getelementptr inbounds %.6, ptr %96, i64 0, i32 1
  store ptr null, ptr %98, align 8
  %99 = getelementptr inbounds ptr, ptr %97, i64 1
  store ptr %98, ptr %99, align 8
  %100 = getelementptr inbounds %.6, ptr %96, i64 0, i32 2
  store ptr %19, ptr %100, align 8
  %101 = getelementptr inbounds ptr, ptr %97, i64 2
  store ptr %100, ptr %101, align 8
  %102 = getelementptr inbounds %.6, ptr %96, i64 0, i32 3
  store ptr %19, ptr %102, align 8
  %103 = getelementptr inbounds ptr, ptr %97, i64 3
  store ptr %102, ptr %103, align 8
  %104 = getelementptr inbounds %.6, ptr %96, i64 0, i32 4
  store i64 0, ptr %104, align 8
  %105 = getelementptr inbounds ptr, ptr %97, i64 4
  store ptr %104, ptr %105, align 8
  %106 = getelementptr inbounds %.6, ptr %96, i64 0, i32 5
  store i64 1300, ptr %106, align 8
  %107 = getelementptr inbounds ptr, ptr %97, i64 5
  store ptr %106, ptr %107, align 8
  %108 = getelementptr inbounds %.6, ptr %96, i64 0, i32 6
  store i64 1, ptr %108, align 8
  %109 = getelementptr inbounds ptr, ptr %97, i64 6
  store ptr %108, ptr %109, align 8
  %110 = getelementptr inbounds %.6, ptr %96, i64 0, i32 7
  store ptr %94, ptr %110, align 8
  %111 = getelementptr inbounds ptr, ptr %97, i64 7
  store ptr %110, ptr %111, align 8
  %112 = getelementptr inbounds %.6, ptr %96, i64 0, i32 8
  store ptr %94, ptr %112, align 8
  %113 = getelementptr inbounds ptr, ptr %97, i64 8
  store ptr %112, ptr %113, align 8
  %114 = getelementptr inbounds %.6, ptr %96, i64 0, i32 9
  store i64 0, ptr %114, align 8
  %115 = getelementptr inbounds ptr, ptr %97, i64 9
  store ptr %114, ptr %115, align 8
  %116 = getelementptr inbounds %.6, ptr %96, i64 0, i32 10
  store i64 2, ptr %116, align 8
  %117 = getelementptr inbounds ptr, ptr %97, i64 10
  store ptr %116, ptr %117, align 8
  %118 = getelementptr inbounds %.6, ptr %96, i64 0, i32 11
  store i64 1, ptr %118, align 8
  %119 = getelementptr inbounds ptr, ptr %97, i64 11
  store ptr %118, ptr %119, align 8
  %120 = getelementptr inbounds %.6, ptr %96, i64 0, i32 12
  %121 = getelementptr inbounds ptr, ptr %97, i64 12
  store ptr %120, ptr %121, align 8
  %122 = load ptr, ptr %0, align 8
  %123 = load ptr, ptr %9, align 8
  store ptr %122, ptr %96, align 8
  call void %123(ptr %122, ptr nonnull @inc_ref___gpu___pvoid_pvoid_m1df32_m1di64___m2df32, ptr nonnull %97)
  %.fca.0.load = load ptr, ptr %120, align 8
  %.fca.1.gep = getelementptr inbounds %.6, ptr %96, i64 0, i32 12, i32 1
  %.fca.1.load = load ptr, ptr %.fca.1.gep, align 8
  %124 = alloca %.7, align 8
  %125 = alloca [2 x ptr], align 8
  store ptr %124, ptr %125, align 8
  %126 = getelementptr inbounds %.7, ptr %124, i64 0, i32 1
  store ptr %19, ptr %126, align 8
  %127 = getelementptr inbounds ptr, ptr %125, i64 1
  store ptr %126, ptr %127, align 8
  %128 = load ptr, ptr %0, align 8
  %129 = load ptr, ptr %9, align 8
  store ptr %128, ptr %124, align 8
  call void %129(ptr %128, ptr nonnull @dealloc___gpu___pvoid_pvoid___void, ptr nonnull %125)
  %130 = alloca %.8, align 8
  %131 = alloca [9 x ptr], align 8
  store ptr %130, ptr %131, align 8
  %132 = getelementptr inbounds %.8, ptr %130, i64 0, i32 1
  store i64 0, ptr %132, align 8
  %133 = getelementptr inbounds ptr, ptr %131, i64 1
  store ptr %132, ptr %133, align 8
  %134 = getelementptr inbounds %.8, ptr %130, i64 0, i32 2
  store ptr %.fca.0.load, ptr %134, align 8
  %135 = getelementptr inbounds ptr, ptr %131, i64 2
  store ptr %134, ptr %135, align 8
  %136 = getelementptr inbounds %.8, ptr %130, i64 0, i32 3
  store ptr %.fca.1.load, ptr %136, align 8
  %137 = getelementptr inbounds ptr, ptr %131, i64 3
  store ptr %136, ptr %137, align 8
  %138 = getelementptr inbounds %.8, ptr %130, i64 0, i32 4
  store i64 0, ptr %138, align 8
  %139 = getelementptr inbounds ptr, ptr %131, i64 4
  store ptr %138, ptr %139, align 8
  %140 = getelementptr inbounds %.8, ptr %130, i64 0, i32 5
  store i64 100, ptr %140, align 8
  %141 = getelementptr inbounds ptr, ptr %131, i64 5
  store ptr %140, ptr %141, align 8
  %142 = getelementptr inbounds %.8, ptr %130, i64 0, i32 6
  store i64 13, ptr %142, align 8
  %143 = getelementptr inbounds ptr, ptr %131, i64 6
  store ptr %142, ptr %143, align 8
  %144 = getelementptr inbounds %.8, ptr %130, i64 0, i32 7
  store i64 13, ptr %144, align 8
  %145 = getelementptr inbounds ptr, ptr %131, i64 7
  store ptr %144, ptr %145, align 8
  %146 = getelementptr inbounds %.8, ptr %130, i64 0, i32 8
  store i64 1, ptr %146, align 8
  %147 = getelementptr inbounds ptr, ptr %131, i64 8
  store ptr %146, ptr %147, align 8
  %148 = load ptr, ptr %0, align 8
  %149 = load ptr, ptr %9, align 8
  store ptr %148, ptr %130, align 8
  call void %149(ptr %148, ptr nonnull @ral_send_output___cpu___pvoid_i64_m2df32___void, ptr nonnull %131)
  ret void
}

[DISC] LowerLLVMToBinary takes: 1.413400e-02 s.
object file to shared library command: gcc --shared -o /root/.cache/bazel/_bazel_root/54ece412abe75fa85ab728a2c061e33c/execroot/org_disc_compiler/_tmp/b247c1654ecfc81b23b002417f617beaColReduceStaticShape3DF32_0.so /root/.cache/bazel/_bazel_root/54ece412abe75fa85ab728a2c061e33c/execroot/org_disc_compiler/_tmp/b247c1654ecfc81b23b002417f617beaColReduceStaticShape3DF32_0.so.o
save shared lib file to : /root/.cache/bazel/_bazel_root/54ece412abe75fa85ab728a2c061e33c/execroot/org_disc_compiler/_tmp/b247c1654ecfc81b23b002417f617beaColReduceStaticShape3DF32_0.so
[DISC] BinaryStrToSharedLibrary takes: 9.410000e-03 s.
[DISC] LowerHLOToSharedLibrary takes: 1.004949e+00 s.

============ END ============

2023-06-28 15:08:17.673046: I mlir/disc/tests/mlir_test.cc:275] ret: 0

2023-06-28 15:08:17.673098: I mlir/disc/tests/mlir_test.cc:241] run compiled program

2023-06-28 15:08:18.429139: I external/org_tensorflow/tensorflow/compiler/xla/stream_executor/cuda/cuda_gpu_executor.cc:996] successful NUMA node read from SysFS had negative value (-1), but there must be at least one NUMA node, so returning NUMA node zero. See more at https://github.com/torvalds/linux/blob/v6.0/Documentation/ABI/testing/sysfs-bus-pci#L344-L355
2023-06-28 15:08:18.431897: I mlir/disc/tests/mlir_test.cc:932] --- MLIR Execution uses: 2.848 ms
2023-06-28 15:08:18.431980: I mlir/disc/tests/mlir_test.cc:183] out buffer = 0x7f74e328bc00
2023-06-28 15:08:18.431988: I mlir/disc/tests/mlir_test.cc:184] out shape:
2023-06-28 15:08:18.431991: I mlir/disc/tests/mlir_test.cc:186]   dim #0: 100
2023-06-28 15:08:18.431993: I mlir/disc/tests/mlir_test.cc:186]   dim #1: 13
2023-06-28 15:08:18.432040: I mlir/disc/tests/mlir_test.cc:244] run golden tf

2023-06-28 15:08:18.432048: I mlir/disc/tests/mlir_test.cc:257] program_path: external/org_tensorflow/tensorflow/compiler/mlir/tf-mlir-translate

2023-06-28 15:08:18.485964: I mlir/disc/tests/mlir_test.cc:269] Executed: external/org_tensorflow/tensorflow/compiler/mlir/tf-mlir-translate -mlir-to-graphdef /root/.cache/bazel/_bazel_root/54ece412abe75fa85ab728a2c061e33c/execroot/org_disc_compiler/_tmp/b247c1654ecfc81b23b002417f617bea/tempfile-adf59ec6ac82-139e1c75-42725-5ff31f40a0ef9 -o /root/.cache/bazel/_bazel_root/54ece412abe75fa85ab728a2c061e33c/execroot/org_disc_compiler/_tmp/b247c1654ecfc81b23b002417f617beaColReduceStaticShape3DF32_0.pbtxt 
2023-06-28 15:08:18.485974: I mlir/disc/tests/mlir_test.cc:270] external/org_tensorflow/tensorflow/compiler/mlir/tf-mlir-translate: 0
2023-06-28 15:08:18.485977: I mlir/disc/tests/mlir_test.cc:271] -- stdout:

============ END ============

2023-06-28 15:08:18.485980: I mlir/disc/tests/mlir_test.cc:273] -- stderr:

============ END ============

2023-06-28 15:08:18.485983: I mlir/disc/tests/mlir_test.cc:275] ret: 0

2023-06-28 15:08:18.485990: I mlir/disc/tests/mlir_test.cc:391] graphdef_path: /root/.cache/bazel/_bazel_root/54ece412abe75fa85ab728a2c061e33c/execroot/org_disc_compiler/_tmp/b247c1654ecfc81b23b002417f617beaColReduceStaticShape3DF32_0.pbtxt
2023-06-28 15:08:18.487254: I external/org_tensorflow/tensorflow/core/platform/cpu_feature_guard.cc:182] This TensorFlow binary is optimized to use available CPU instructions in performance-critical operations.
To enable the following instructions: SSE3 SSE4.1 SSE4.2 AVX AVX2 AVX512F AVX512_VNNI FMA, in other operations, rebuild TensorFlow with the appropriate compiler flags.
2023-06-28 15:08:19.303111: I external/org_tensorflow/tensorflow/compiler/xla/stream_executor/cuda/cuda_gpu_executor.cc:996] successful NUMA node read from SysFS had negative value (-1), but there must be at least one NUMA node, so returning NUMA node zero. See more at https://github.com/torvalds/linux/blob/v6.0/Documentation/ABI/testing/sysfs-bus-pci#L344-L355
2023-06-28 15:08:19.305564: I external/org_tensorflow/tensorflow/compiler/xla/stream_executor/cuda/cuda_gpu_executor.cc:996] successful NUMA node read from SysFS had negative value (-1), but there must be at least one NUMA node, so returning NUMA node zero. See more at https://github.com/torvalds/linux/blob/v6.0/Documentation/ABI/testing/sysfs-bus-pci#L344-L355
2023-06-28 15:08:19.307946: I external/org_tensorflow/tensorflow/compiler/xla/stream_executor/cuda/cuda_gpu_executor.cc:996] successful NUMA node read from SysFS had negative value (-1), but there must be at least one NUMA node, so returning NUMA node zero. See more at https://github.com/torvalds/linux/blob/v6.0/Documentation/ABI/testing/sysfs-bus-pci#L344-L355
2023-06-28 15:08:19.310537: I external/org_tensorflow/tensorflow/compiler/xla/stream_executor/cuda/cuda_gpu_executor.cc:996] successful NUMA node read from SysFS had negative value (-1), but there must be at least one NUMA node, so returning NUMA node zero. See more at https://github.com/torvalds/linux/blob/v6.0/Documentation/ABI/testing/sysfs-bus-pci#L344-L355
2023-06-28 15:08:19.312868: I external/org_tensorflow/tensorflow/compiler/xla/stream_executor/cuda/cuda_gpu_executor.cc:996] successful NUMA node read from SysFS had negative value (-1), but there must be at least one NUMA node, so returning NUMA node zero. See more at https://github.com/torvalds/linux/blob/v6.0/Documentation/ABI/testing/sysfs-bus-pci#L344-L355
2023-06-28 15:08:19.315196: I external/org_tensorflow/tensorflow/compiler/xla/stream_executor/cuda/cuda_gpu_executor.cc:996] successful NUMA node read from SysFS had negative value (-1), but there must be at least one NUMA node, so returning NUMA node zero. See more at https://github.com/torvalds/linux/blob/v6.0/Documentation/ABI/testing/sysfs-bus-pci#L344-L355
2023-06-28 15:08:19.317534: I external/org_tensorflow/tensorflow/compiler/xla/stream_executor/cuda/cuda_gpu_executor.cc:996] successful NUMA node read from SysFS had negative value (-1), but there must be at least one NUMA node, so returning NUMA node zero. See more at https://github.com/torvalds/linux/blob/v6.0/Documentation/ABI/testing/sysfs-bus-pci#L344-L355
2023-06-28 15:08:19.319860: I external/org_tensorflow/tensorflow/compiler/xla/stream_executor/cuda/cuda_gpu_executor.cc:996] successful NUMA node read from SysFS had negative value (-1), but there must be at least one NUMA node, so returning NUMA node zero. See more at https://github.com/torvalds/linux/blob/v6.0/Documentation/ABI/testing/sysfs-bus-pci#L344-L355
2023-06-28 15:08:19.424523: I external/org_tensorflow/tensorflow/compiler/xla/stream_executor/cuda/cuda_gpu_executor.cc:996] successful NUMA node read from SysFS had negative value (-1), but there must be at least one NUMA node, so returning NUMA node zero. See more at https://github.com/torvalds/linux/blob/v6.0/Documentation/ABI/testing/sysfs-bus-pci#L344-L355
2023-06-28 15:08:19.426917: I external/org_tensorflow/tensorflow/compiler/xla/stream_executor/cuda/cuda_gpu_executor.cc:996] successful NUMA node read from SysFS had negative value (-1), but there must be at least one NUMA node, so returning NUMA node zero. See more at https://github.com/torvalds/linux/blob/v6.0/Documentation/ABI/testing/sysfs-bus-pci#L344-L355
2023-06-28 15:08:19.429284: I external/org_tensorflow/tensorflow/compiler/xla/stream_executor/cuda/cuda_gpu_executor.cc:996] successful NUMA node read from SysFS had negative value (-1), but there must be at least one NUMA node, so returning NUMA node zero. See more at https://github.com/torvalds/linux/blob/v6.0/Documentation/ABI/testing/sysfs-bus-pci#L344-L355
2023-06-28 15:08:19.431616: I external/org_tensorflow/tensorflow/compiler/xla/stream_executor/cuda/cuda_gpu_executor.cc:996] successful NUMA node read from SysFS had negative value (-1), but there must be at least one NUMA node, so returning NUMA node zero. See more at https://github.com/torvalds/linux/blob/v6.0/Documentation/ABI/testing/sysfs-bus-pci#L344-L355
2023-06-28 15:08:19.433949: I external/org_tensorflow/tensorflow/compiler/xla/stream_executor/cuda/cuda_gpu_executor.cc:996] successful NUMA node read from SysFS had negative value (-1), but there must be at least one NUMA node, so returning NUMA node zero. See more at https://github.com/torvalds/linux/blob/v6.0/Documentation/ABI/testing/sysfs-bus-pci#L344-L355
2023-06-28 15:08:19.436266: I external/org_tensorflow/tensorflow/compiler/xla/stream_executor/cuda/cuda_gpu_executor.cc:996] successful NUMA node read from SysFS had negative value (-1), but there must be at least one NUMA node, so returning NUMA node zero. See more at https://github.com/torvalds/linux/blob/v6.0/Documentation/ABI/testing/sysfs-bus-pci#L344-L355
2023-06-28 15:08:19.438604: I external/org_tensorflow/tensorflow/compiler/xla/stream_executor/cuda/cuda_gpu_executor.cc:996] successful NUMA node read from SysFS had negative value (-1), but there must be at least one NUMA node, so returning NUMA node zero. See more at https://github.com/torvalds/linux/blob/v6.0/Documentation/ABI/testing/sysfs-bus-pci#L344-L355
2023-06-28 15:08:19.440923: I external/org_tensorflow/tensorflow/compiler/xla/stream_executor/cuda/cuda_gpu_executor.cc:996] successful NUMA node read from SysFS had negative value (-1), but there must be at least one NUMA node, so returning NUMA node zero. See more at https://github.com/torvalds/linux/blob/v6.0/Documentation/ABI/testing/sysfs-bus-pci#L344-L355
2023-06-28 15:08:19.443246: I external/org_tensorflow/tensorflow/compiler/xla/stream_executor/cuda/cuda_gpu_executor.cc:996] successful NUMA node read from SysFS had negative value (-1), but there must be at least one NUMA node, so returning NUMA node zero. See more at https://github.com/torvalds/linux/blob/v6.0/Documentation/ABI/testing/sysfs-bus-pci#L344-L355
2023-06-28 15:08:19.445577: I external/org_tensorflow/tensorflow/compiler/xla/stream_executor/cuda/cuda_gpu_executor.cc:996] successful NUMA node read from SysFS had negative value (-1), but there must be at least one NUMA node, so returning NUMA node zero. See more at https://github.com/torvalds/linux/blob/v6.0/Documentation/ABI/testing/sysfs-bus-pci#L344-L355
2023-06-28 15:08:19.447903: I external/org_tensorflow/tensorflow/compiler/xla/stream_executor/cuda/cuda_gpu_executor.cc:996] successful NUMA node read from SysFS had negative value (-1), but there must be at least one NUMA node, so returning NUMA node zero. See more at https://github.com/torvalds/linux/blob/v6.0/Documentation/ABI/testing/sysfs-bus-pci#L344-L355
2023-06-28 15:08:19.450224: I external/org_tensorflow/tensorflow/compiler/xla/stream_executor/cuda/cuda_gpu_executor.cc:996] successful NUMA node read from SysFS had negative value (-1), but there must be at least one NUMA node, so returning NUMA node zero. See more at https://github.com/torvalds/linux/blob/v6.0/Documentation/ABI/testing/sysfs-bus-pci#L344-L355
2023-06-28 15:08:19.452544: I external/org_tensorflow/tensorflow/compiler/xla/stream_executor/cuda/cuda_gpu_executor.cc:996] successful NUMA node read from SysFS had negative value (-1), but there must be at least one NUMA node, so returning NUMA node zero. See more at https://github.com/torvalds/linux/blob/v6.0/Documentation/ABI/testing/sysfs-bus-pci#L344-L355
2023-06-28 15:08:19.454864: I external/org_tensorflow/tensorflow/compiler/xla/stream_executor/cuda/cuda_gpu_executor.cc:996] successful NUMA node read from SysFS had negative value (-1), but there must be at least one NUMA node, so returning NUMA node zero. See more at https://github.com/torvalds/linux/blob/v6.0/Documentation/ABI/testing/sysfs-bus-pci#L344-L355
2023-06-28 15:08:19.457172: I external/org_tensorflow/tensorflow/compiler/xla/stream_executor/cuda/cuda_gpu_executor.cc:996] successful NUMA node read from SysFS had negative value (-1), but there must be at least one NUMA node, so returning NUMA node zero. See more at https://github.com/torvalds/linux/blob/v6.0/Documentation/ABI/testing/sysfs-bus-pci#L344-L355
2023-06-28 15:08:19.459493: I external/org_tensorflow/tensorflow/compiler/xla/stream_executor/cuda/cuda_gpu_executor.cc:996] successful NUMA node read from SysFS had negative value (-1), but there must be at least one NUMA node, so returning NUMA node zero. See more at https://github.com/torvalds/linux/blob/v6.0/Documentation/ABI/testing/sysfs-bus-pci#L344-L355
2023-06-28 15:08:21.991524: I external/org_tensorflow/tensorflow/compiler/xla/stream_executor/cuda/cuda_gpu_executor.cc:996] successful NUMA node read from SysFS had negative value (-1), but there must be at least one NUMA node, so returning NUMA node zero. See more at https://github.com/torvalds/linux/blob/v6.0/Documentation/ABI/testing/sysfs-bus-pci#L344-L355
2023-06-28 15:08:21.994044: I external/org_tensorflow/tensorflow/compiler/xla/stream_executor/cuda/cuda_gpu_executor.cc:996] successful NUMA node read from SysFS had negative value (-1), but there must be at least one NUMA node, so returning NUMA node zero. See more at https://github.com/torvalds/linux/blob/v6.0/Documentation/ABI/testing/sysfs-bus-pci#L344-L355
2023-06-28 15:08:21.996479: I external/org_tensorflow/tensorflow/compiler/xla/stream_executor/cuda/cuda_gpu_executor.cc:996] successful NUMA node read from SysFS had negative value (-1), but there must be at least one NUMA node, so returning NUMA node zero. See more at https://github.com/torvalds/linux/blob/v6.0/Documentation/ABI/testing/sysfs-bus-pci#L344-L355
2023-06-28 15:08:21.998853: I external/org_tensorflow/tensorflow/compiler/xla/stream_executor/cuda/cuda_gpu_executor.cc:996] successful NUMA node read from SysFS had negative value (-1), but there must be at least one NUMA node, so returning NUMA node zero. See more at https://github.com/torvalds/linux/blob/v6.0/Documentation/ABI/testing/sysfs-bus-pci#L344-L355
2023-06-28 15:08:22.001206: I external/org_tensorflow/tensorflow/compiler/xla/stream_executor/cuda/cuda_gpu_executor.cc:996] successful NUMA node read from SysFS had negative value (-1), but there must be at least one NUMA node, so returning NUMA node zero. See more at https://github.com/torvalds/linux/blob/v6.0/Documentation/ABI/testing/sysfs-bus-pci#L344-L355
2023-06-28 15:08:22.003570: I external/org_tensorflow/tensorflow/compiler/xla/stream_executor/cuda/cuda_gpu_executor.cc:996] successful NUMA node read from SysFS had negative value (-1), but there must be at least one NUMA node, so returning NUMA node zero. See more at https://github.com/torvalds/linux/blob/v6.0/Documentation/ABI/testing/sysfs-bus-pci#L344-L355
2023-06-28 15:08:22.005933: I external/org_tensorflow/tensorflow/compiler/xla/stream_executor/cuda/cuda_gpu_executor.cc:996] successful NUMA node read from SysFS had negative value (-1), but there must be at least one NUMA node, so returning NUMA node zero. See more at https://github.com/torvalds/linux/blob/v6.0/Documentation/ABI/testing/sysfs-bus-pci#L344-L355
2023-06-28 15:08:22.008286: I external/org_tensorflow/tensorflow/compiler/xla/stream_executor/cuda/cuda_gpu_executor.cc:996] successful NUMA node read from SysFS had negative value (-1), but there must be at least one NUMA node, so returning NUMA node zero. See more at https://github.com/torvalds/linux/blob/v6.0/Documentation/ABI/testing/sysfs-bus-pci#L344-L355
2023-06-28 15:08:22.010683: I external/org_tensorflow/tensorflow/compiler/xla/stream_executor/cuda/cuda_gpu_executor.cc:996] successful NUMA node read from SysFS had negative value (-1), but there must be at least one NUMA node, so returning NUMA node zero. See more at https://github.com/torvalds/linux/blob/v6.0/Documentation/ABI/testing/sysfs-bus-pci#L344-L355
2023-06-28 15:08:22.013023: I external/org_tensorflow/tensorflow/compiler/xla/stream_executor/cuda/cuda_gpu_executor.cc:996] successful NUMA node read from SysFS had negative value (-1), but there must be at least one NUMA node, so returning NUMA node zero. See more at https://github.com/torvalds/linux/blob/v6.0/Documentation/ABI/testing/sysfs-bus-pci#L344-L355
2023-06-28 15:08:22.015369: I external/org_tensorflow/tensorflow/compiler/xla/stream_executor/cuda/cuda_gpu_executor.cc:996] successful NUMA node read from SysFS had negative value (-1), but there must be at least one NUMA node, so returning NUMA node zero. See more at https://github.com/torvalds/linux/blob/v6.0/Documentation/ABI/testing/sysfs-bus-pci#L344-L355
2023-06-28 15:08:22.017696: I external/org_tensorflow/tensorflow/compiler/xla/stream_executor/cuda/cuda_gpu_executor.cc:996] successful NUMA node read from SysFS had negative value (-1), but there must be at least one NUMA node, so returning NUMA node zero. See more at https://github.com/torvalds/linux/blob/v6.0/Documentation/ABI/testing/sysfs-bus-pci#L344-L355
2023-06-28 15:08:22.020017: I external/org_tensorflow/tensorflow/compiler/xla/stream_executor/cuda/cuda_gpu_executor.cc:996] successful NUMA node read from SysFS had negative value (-1), but there must be at least one NUMA node, so returning NUMA node zero. See more at https://github.com/torvalds/linux/blob/v6.0/Documentation/ABI/testing/sysfs-bus-pci#L344-L355
2023-06-28 15:08:22.022359: I external/org_tensorflow/tensorflow/compiler/xla/stream_executor/cuda/cuda_gpu_executor.cc:996] successful NUMA node read from SysFS had negative value (-1), but there must be at least one NUMA node, so returning NUMA node zero. See more at https://github.com/torvalds/linux/blob/v6.0/Documentation/ABI/testing/sysfs-bus-pci#L344-L355
2023-06-28 15:08:22.024681: I external/org_tensorflow/tensorflow/compiler/xla/stream_executor/cuda/cuda_gpu_executor.cc:996] successful NUMA node read from SysFS had negative value (-1), but there must be at least one NUMA node, so returning NUMA node zero. See more at https://github.com/torvalds/linux/blob/v6.0/Documentation/ABI/testing/sysfs-bus-pci#L344-L355
2023-06-28 15:08:22.027008: I external/org_tensorflow/tensorflow/compiler/xla/stream_executor/cuda/cuda_gpu_executor.cc:996] successful NUMA node read from SysFS had negative value (-1), but there must be at least one NUMA node, so returning NUMA node zero. See more at https://github.com/torvalds/linux/blob/v6.0/Documentation/ABI/testing/sysfs-bus-pci#L344-L355
2023-06-28 15:08:22.029336: I external/org_tensorflow/tensorflow/compiler/xla/stream_executor/cuda/cuda_gpu_executor.cc:996] successful NUMA node read from SysFS had negative value (-1), but there must be at least one NUMA node, so returning NUMA node zero. See more at https://github.com/torvalds/linux/blob/v6.0/Documentation/ABI/testing/sysfs-bus-pci#L344-L355
2023-06-28 15:08:22.031665: I external/org_tensorflow/tensorflow/core/common_runtime/gpu/gpu_device.cc:1635] Created device /job:localhost/replica:0/task:0/device:GPU:0 with 79147 MB memory:  -> device: 0, name: NVIDIA A100-SXM4-80GB, pci bus id: 0000:00:08.0, compute capability: 8.0
2023-06-28 15:08:22.033303: I external/org_tensorflow/tensorflow/compiler/xla/stream_executor/cuda/cuda_gpu_executor.cc:996] successful NUMA node read from SysFS had negative value (-1), but there must be at least one NUMA node, so returning NUMA node zero. See more at https://github.com/torvalds/linux/blob/v6.0/Documentation/ABI/testing/sysfs-bus-pci#L344-L355
2023-06-28 15:08:22.035609: I external/org_tensorflow/tensorflow/core/common_runtime/gpu/gpu_device.cc:1635] Created device /job:localhost/replica:0/task:0/device:GPU:1 with 79149 MB memory:  -> device: 1, name: NVIDIA A100-SXM4-80GB, pci bus id: 0000:00:09.0, compute capability: 8.0
2023-06-28 15:08:22.036148: I external/org_tensorflow/tensorflow/compiler/xla/stream_executor/cuda/cuda_gpu_executor.cc:996] successful NUMA node read from SysFS had negative value (-1), but there must be at least one NUMA node, so returning NUMA node zero. See more at https://github.com/torvalds/linux/blob/v6.0/Documentation/ABI/testing/sysfs-bus-pci#L344-L355
2023-06-28 15:08:22.038432: I external/org_tensorflow/tensorflow/core/common_runtime/gpu/gpu_device.cc:1635] Created device /job:localhost/replica:0/task:0/device:GPU:2 with 79149 MB memory:  -> device: 2, name: NVIDIA A100-SXM4-80GB, pci bus id: 0000:00:0a.0, compute capability: 8.0
2023-06-28 15:08:22.038962: I external/org_tensorflow/tensorflow/compiler/xla/stream_executor/cuda/cuda_gpu_executor.cc:996] successful NUMA node read from SysFS had negative value (-1), but there must be at least one NUMA node, so returning NUMA node zero. See more at https://github.com/torvalds/linux/blob/v6.0/Documentation/ABI/testing/sysfs-bus-pci#L344-L355
2023-06-28 15:08:22.041229: I external/org_tensorflow/tensorflow/core/common_runtime/gpu/gpu_device.cc:1635] Created device /job:localhost/replica:0/task:0/device:GPU:3 with 79149 MB memory:  -> device: 3, name: NVIDIA A100-SXM4-80GB, pci bus id: 0000:00:0b.0, compute capability: 8.0
2023-06-28 15:08:22.044574: I external/org_tensorflow/tensorflow/compiler/xla/stream_executor/cuda/cuda_gpu_executor.cc:996] successful NUMA node read from SysFS had negative value (-1), but there must be at least one NUMA node, so returning NUMA node zero. See more at https://github.com/torvalds/linux/blob/v6.0/Documentation/ABI/testing/sysfs-bus-pci#L344-L355
2023-06-28 15:08:22.046876: I external/org_tensorflow/tensorflow/core/common_runtime/gpu/gpu_device.cc:1635] Created device /job:localhost/replica:0/task:0/device:GPU:4 with 79149 MB memory:  -> device: 4, name: NVIDIA A100-SXM4-80GB, pci bus id: 0000:00:0c.0, compute capability: 8.0
2023-06-28 15:08:22.047475: I external/org_tensorflow/tensorflow/compiler/xla/stream_executor/cuda/cuda_gpu_executor.cc:996] successful NUMA node read from SysFS had negative value (-1), but there must be at least one NUMA node, so returning NUMA node zero. See more at https://github.com/torvalds/linux/blob/v6.0/Documentation/ABI/testing/sysfs-bus-pci#L344-L355
2023-06-28 15:08:22.049761: I external/org_tensorflow/tensorflow/core/common_runtime/gpu/gpu_device.cc:1635] Created device /job:localhost/replica:0/task:0/device:GPU:5 with 79149 MB memory:  -> device: 5, name: NVIDIA A100-SXM4-80GB, pci bus id: 0000:00:0d.0, compute capability: 8.0
2023-06-28 15:08:22.050341: I external/org_tensorflow/tensorflow/compiler/xla/stream_executor/cuda/cuda_gpu_executor.cc:996] successful NUMA node read from SysFS had negative value (-1), but there must be at least one NUMA node, so returning NUMA node zero. See more at https://github.com/torvalds/linux/blob/v6.0/Documentation/ABI/testing/sysfs-bus-pci#L344-L355
2023-06-28 15:08:22.052609: I external/org_tensorflow/tensorflow/core/common_runtime/gpu/gpu_device.cc:1635] Created device /job:localhost/replica:0/task:0/device:GPU:6 with 79149 MB memory:  -> device: 6, name: NVIDIA A100-SXM4-80GB, pci bus id: 0000:00:0e.0, compute capability: 8.0
2023-06-28 15:08:22.053172: I external/org_tensorflow/tensorflow/compiler/xla/stream_executor/cuda/cuda_gpu_executor.cc:996] successful NUMA node read from SysFS had negative value (-1), but there must be at least one NUMA node, so returning NUMA node zero. See more at https://github.com/torvalds/linux/blob/v6.0/Documentation/ABI/testing/sysfs-bus-pci#L344-L355
2023-06-28 15:08:22.055459: I external/org_tensorflow/tensorflow/core/common_runtime/gpu/gpu_device.cc:1635] Created device /job:localhost/replica:0/task:0/device:GPU:7 with 79149 MB memory:  -> device: 7, name: NVIDIA A100-SXM4-80GB, pci bus id: 0000:00:0f.0, compute capability: 8.0
2023-06-28 15:08:22.096737: I mlir/disc/tests/mlir_test.cc:467] --- TF Execution uses: 22.557 ms
2023-06-28 15:08:22.096760: I mlir/disc/tests/mlir_test.cc:474] 	output shape #0: [100,13]
2023-06-28 15:08:22.097113: I mlir/disc/tests/mlir_test.cc:467] --- TF Execution uses: 0.344 ms
2023-06-28 15:08:22.097117: I mlir/disc/tests/mlir_test.cc:474] 	output shape #0: [100,13]
2023-06-28 15:08:22.097488: I mlir/disc/tests/mlir_test.cc:467] --- TF Execution uses: 0.366 ms
2023-06-28 15:08:22.097493: I mlir/disc/tests/mlir_test.cc:474] 	output shape #0: [100,13]
2023-06-28 15:08:22.097762: I mlir/disc/tests/mlir_test.cc:467] --- TF Execution uses: 0.265 ms
2023-06-28 15:08:22.097766: I mlir/disc/tests/mlir_test.cc:474] 	output shape #0: [100,13]
2023-06-28 15:08:22.097989: I mlir/disc/tests/mlir_test.cc:467] --- TF Execution uses: 0.218 ms
2023-06-28 15:08:22.097993: I mlir/disc/tests/mlir_test.cc:474] 	output shape #0: [100,13]
2023-06-28 15:08:22.098002: I mlir/disc/tests/mlir_test.cc:484] processing output 0
2023-06-28 15:08:22.100146: I ./mlir/disc/tests/mlir_feature_test.h:37] Unset env setting:
[       OK ] TFMaxOpTest.ColReduceStaticShape3DF32 (5768 ms)
[----------] 1 test from TFMaxOpTest (5768 ms total)

[----------] Global test environment tear-down
[==========] 1 test from 1 test suite ran. (5768 ms total)
[  PASSED  ] 1 test.
