2023-05-09 02:51:10.341360: I external/org_tensorflow/tensorflow/core/util/port.cc:110] oneDNN custom operations are on. You may see slightly different numerical results due to floating-point round-off errors from different computation orders. To turn them off, set the environment variable `TF_ENABLE_ONEDNN_OPTS=0`.
======== BEGIN Original Module =========
module {
  func.func @main(%arg0: tensor<8192x2560xf32>, %arg1: tensor<8192x2560xf32>) -> tensor<?xf32> attributes {tf.entry_function = {input_placements = "gpu,gpu", inputs = "arg0_1.1_,arg1_1.1_", output_placements = "gpu", outputs = "sum_1.1"}} {
    %0 = mhlo.constant dense<0.000000e+00> : tensor<f32>
    %1 = chlo.broadcast_subtract %arg0, %arg1 : (tensor<8192x2560xf32>, tensor<8192x2560xf32>) -> tensor<?x?xf32>
    %2 = chlo.broadcast_multiply %1, %arg0 : (tensor<?x?xf32>, tensor<8192x2560xf32>) -> tensor<?x?xf32>
    %3 = mhlo.reduce(%2 init: %0) applies mhlo.add across dimensions = [0] : (tensor<?x?xf32>, tensor<f32>) -> tensor<?xf32>
    return %3 : tensor<?xf32>
  }
}

======= END Original Module ==========
[DISC] Load Input IR takes: 3.252000e-03 s.
[[ INFO ]] Running TF2XLA
// -----// IR Dump After SCCP (sccp) //----- //
module {
  func.func @main(%arg0: tensor<8192x2560xf32>, %arg1: tensor<8192x2560xf32>) -> tensor<?xf32> attributes {tf.entry_function = {input_placements = "gpu,gpu", inputs = "arg0_1.1_,arg1_1.1_", output_placements = "gpu", outputs = "sum_1.1"}} {
    %0 = mhlo.constant dense<0.000000e+00> : tensor<f32>
    %1 = chlo.broadcast_subtract %arg0, %arg1 : (tensor<8192x2560xf32>, tensor<8192x2560xf32>) -> tensor<?x?xf32>
    %2 = chlo.broadcast_multiply %1, %arg0 : (tensor<?x?xf32>, tensor<8192x2560xf32>) -> tensor<?x?xf32>
    %3 = mhlo.reduce(%2 init: %0) applies mhlo.add across dimensions = [0] : (tensor<?x?xf32>, tensor<f32>) -> tensor<?xf32>
    return %3 : tensor<?xf32>
  }
}


// -----// IR Dump After SCCP (sccp) //----- //
module {
  func.func @main(%arg0: tensor<8192x2560xf32>, %arg1: tensor<8192x2560xf32>) -> tensor<?xf32> attributes {tf.entry_function = {input_placements = "gpu,gpu", inputs = "arg0_1.1_,arg1_1.1_", output_placements = "gpu", outputs = "sum_1.1"}} {
    %0 = mhlo.constant dense<0.000000e+00> : tensor<f32>
    %1 = chlo.broadcast_subtract %arg0, %arg1 : (tensor<8192x2560xf32>, tensor<8192x2560xf32>) -> tensor<?x?xf32>
    %2 = chlo.broadcast_multiply %1, %arg0 : (tensor<?x?xf32>, tensor<8192x2560xf32>) -> tensor<?x?xf32>
    %3 = mhlo.reduce(%2 init: %0) applies mhlo.add across dimensions = [0] : (tensor<?x?xf32>, tensor<f32>) -> tensor<?xf32>
    return %3 : tensor<?xf32>
  }
}


// -----// IR Dump After LegalizeTF (xla-legalize-tf) //----- //
func.func @main(%arg0: tensor<8192x2560xf32>, %arg1: tensor<8192x2560xf32>) -> tensor<?xf32> attributes {tf.entry_function = {input_placements = "gpu,gpu", inputs = "arg0_1.1_,arg1_1.1_", output_placements = "gpu", outputs = "sum_1.1"}} {
  %0 = mhlo.constant dense<0.000000e+00> : tensor<f32>
  %1 = mhlo.subtract %arg0, %arg1 : (tensor<8192x2560xf32>, tensor<8192x2560xf32>) -> tensor<?x?xf32>
  %2 = shape.shape_of %1 : tensor<?x?xf32> -> tensor<2xindex>
  %3 = shape.shape_of %arg0 : tensor<8192x2560xf32> -> tensor<2xindex>
  %4 = shape.cstr_broadcastable %2, %3 : tensor<2xindex>, tensor<2xindex>
  %5 = shape.assuming %4 -> (tensor<?x?xf32>) {
    %7 = shape.shape_of %1 : tensor<?x?xf32> -> tensor<2xindex>
    %8 = shape.const_shape [8192, 2560] : tensor<2xindex>
    %9 = shape.broadcast %7, %8 : tensor<2xindex>, tensor<2xindex> -> tensor<2xindex>
    %10 = "mhlo.dynamic_broadcast_in_dim"(%1, %9) {broadcast_dimensions = dense<[0, 1]> : tensor<2xi64>} : (tensor<?x?xf32>, tensor<2xindex>) -> tensor<?x?xf32>
    %11 = "mhlo.dynamic_broadcast_in_dim"(%arg0, %9) {broadcast_dimensions = dense<[0, 1]> : tensor<2xi64>} : (tensor<8192x2560xf32>, tensor<2xindex>) -> tensor<?x?xf32>
    %12 = mhlo.multiply %10, %11 : tensor<?x?xf32>
    shape.assuming_yield %12 : tensor<?x?xf32>
  }
  %6 = mhlo.reduce(%5 init: %0) applies mhlo.add across dimensions = [0] : (tensor<?x?xf32>, tensor<f32>) -> tensor<?xf32>
  return %6 : tensor<?xf32>
}

// -----// IR Dump After DiscLowerTfPass (disc-lower-tf) //----- //
func.func @main(%arg0: tensor<8192x2560xf32>, %arg1: tensor<8192x2560xf32>) -> tensor<?xf32> attributes {tf.entry_function = {input_placements = "gpu,gpu", inputs = "arg0_1.1_,arg1_1.1_", output_placements = "gpu", outputs = "sum_1.1"}} {
  %0 = shape.const_shape [8192, 2560] : tensor<2xindex>
  %1 = mhlo.constant dense<0.000000e+00> : tensor<f32>
  %2 = mhlo.subtract %arg0, %arg1 : (tensor<8192x2560xf32>, tensor<8192x2560xf32>) -> tensor<?x?xf32>
  %3 = shape.shape_of %2 : tensor<?x?xf32> -> tensor<2xindex>
  %4 = shape.cstr_broadcastable %3, %0 : tensor<2xindex>, tensor<2xindex>
  %5 = shape.assuming %4 -> (tensor<?x?xf32>) {
    %7 = shape.shape_of %2 : tensor<?x?xf32> -> tensor<2xindex>
    %8 = shape.broadcast %7, %0 : tensor<2xindex>, tensor<2xindex> -> tensor<2xindex>
    %9 = "mhlo.dynamic_broadcast_in_dim"(%2, %8) {broadcast_dimensions = dense<[0, 1]> : tensor<2xi64>} : (tensor<?x?xf32>, tensor<2xindex>) -> tensor<?x?xf32>
    %10 = "mhlo.dynamic_broadcast_in_dim"(%arg0, %8) {broadcast_dimensions = dense<[0, 1]> : tensor<2xi64>} : (tensor<8192x2560xf32>, tensor<2xindex>) -> tensor<?x?xf32>
    %11 = mhlo.multiply %9, %10 : tensor<?x?xf32>
    shape.assuming_yield %11 : tensor<?x?xf32>
  }
  %6 = mhlo.reduce(%5 init: %1) applies mhlo.add across dimensions = [0] : (tensor<?x?xf32>, tensor<f32>) -> tensor<?xf32>
  return %6 : tensor<?xf32>
}

// -----// IR Dump After SinkConstantsToControlFlowPass (mhlo-sink-constants-to-control-flow) //----- //
func.func @main(%arg0: tensor<8192x2560xf32>, %arg1: tensor<8192x2560xf32>) -> tensor<?xf32> attributes {tf.entry_function = {input_placements = "gpu,gpu", inputs = "arg0_1.1_,arg1_1.1_", output_placements = "gpu", outputs = "sum_1.1"}} {
  %0 = shape.const_shape [8192, 2560] : tensor<2xindex>
  %1 = mhlo.constant dense<0.000000e+00> : tensor<f32>
  %2 = mhlo.subtract %arg0, %arg1 : (tensor<8192x2560xf32>, tensor<8192x2560xf32>) -> tensor<?x?xf32>
  %3 = shape.shape_of %2 : tensor<?x?xf32> -> tensor<2xindex>
  %4 = shape.cstr_broadcastable %3, %0 : tensor<2xindex>, tensor<2xindex>
  %5 = shape.assuming %4 -> (tensor<?x?xf32>) {
    %7 = shape.const_shape [8192, 2560] : tensor<2xindex>
    %8 = shape.shape_of %2 : tensor<?x?xf32> -> tensor<2xindex>
    %9 = shape.broadcast %8, %7 : tensor<2xindex>, tensor<2xindex> -> tensor<2xindex>
    %10 = "mhlo.dynamic_broadcast_in_dim"(%2, %9) {broadcast_dimensions = dense<[0, 1]> : tensor<2xi64>} : (tensor<?x?xf32>, tensor<2xindex>) -> tensor<?x?xf32>
    %11 = "mhlo.dynamic_broadcast_in_dim"(%arg0, %9) {broadcast_dimensions = dense<[0, 1]> : tensor<2xi64>} : (tensor<8192x2560xf32>, tensor<2xindex>) -> tensor<?x?xf32>
    %12 = mhlo.multiply %10, %11 : tensor<?x?xf32>
    shape.assuming_yield %12 : tensor<?x?xf32>
  }
  %6 = mhlo.reduce(%5 init: %1) applies mhlo.add across dimensions = [0] : (tensor<?x?xf32>, tensor<f32>) -> tensor<?xf32>
  return %6 : tensor<?xf32>
}

===-------------------------------------------------------------------------===
                         ... Execution time report ...
===-------------------------------------------------------------------------===
  Total Execution Time: 0.0063 seconds

  ----Wall Time----  ----Name----
    0.0000 (  0.7%)  ReviseArgumentsForStaticRankPass
    0.0000 (  0.2%)  FunctionalControlFlowToRegionsPass
    0.0004 (  6.5%)  Inliner
    0.0000 (  0.2%)    (A) CallGraph
    0.0002 (  3.0%)  'func.func' Pipeline
    0.0002 (  3.0%)    Canonicalizer
    0.0001 (  1.3%)  'func.func' Pipeline
    0.0000 (  0.1%)    DropWhileShapeInvariantPass
    0.0000 (  0.1%)    ReplicateTensorListInitOpsPass
    0.0001 (  1.0%)    Canonicalizer
    0.0004 (  6.2%)  SCCP
    0.0000 (  0.4%)  GuaranteeAllFuncsOneUsePass
    0.0000 (  0.0%)    (A) CallGraph
    0.0000 (  0.2%)  TensorFlowShapeInferencePass
    0.0003 (  5.3%)  SCCP
    0.0000 (  0.3%)  TensorListOpsDecompositionPass
    0.0000 (  0.2%)  StackOpsDecompositionPass
    0.0000 (  0.2%)  TensorArrayOpsDecompositionPass
    0.0001 (  1.0%)  'func.func' Pipeline
    0.0001 (  0.9%)    DecomposeResourceOpsPass
    0.0000 (  0.4%)  PromoteResourcesToArgsPass
    0.0000 (  0.3%)  SymbolDCE
    0.0000 (  0.2%)  'func.func' Pipeline
    0.0000 (  0.2%)    SinkConstantsToControlFlowPass
    0.0000 (  0.2%)  TensorFlowShapeInferencePass
    0.0002 (  3.8%)  StablehloLegalizeToHloPass
    0.0001 (  1.3%)  'func.func' Pipeline
    0.0001 (  0.9%)    DiscLowerTfPass
    0.0000 (  0.4%)    LowerQuantizedPass
    0.0000 (  0.3%)  LegalizeTfTypesPass
    0.0022 ( 35.3%)  'func.func' Pipeline
    0.0013 ( 20.4%)    LegalizeTF
    0.0009 ( 14.4%)    DiscLowerTfPass
    0.0000 (  0.4%)    mlir::mhlo::{anonymous}::AdjustLayout
    0.0000 (  0.8%)  LegalizeTFCollective
    0.0001 (  1.5%)  'func.func' Pipeline
    0.0001 (  1.5%)    Canonicalizer
    0.0000 (  0.3%)  TensorFlowShapeInferencePass
    0.0004 (  6.1%)  'func.func' Pipeline
    0.0004 (  6.1%)    LegalizeTF
    0.0000 (  0.3%)  LegalizeTFCommunicationPass
    0.0007 ( 11.3%)  'func.func' Pipeline
    0.0000 (  0.8%)    DiscDynamicSliceConverterPass
    0.0007 ( 10.5%)    SinkConstantsToControlFlowPass
    0.0008 ( 12.0%)  Rest
    0.0063 (100.0%)  Total
======== BEGIN After TF2HLO =========
module {
  func.func @main(%arg0: tensor<8192x2560xf32>, %arg1: tensor<8192x2560xf32>) -> tensor<?xf32> attributes {tf.entry_function = {input_placements = "gpu,gpu", inputs = "arg0_1.1_,arg1_1.1_", output_placements = "gpu", outputs = "sum_1.1"}} {
    %0 = shape.const_shape [8192, 2560] : tensor<2xindex>
    %1 = mhlo.constant dense<0.000000e+00> : tensor<f32>
    %2 = mhlo.subtract %arg0, %arg1 : (tensor<8192x2560xf32>, tensor<8192x2560xf32>) -> tensor<?x?xf32>
    %3 = shape.shape_of %2 : tensor<?x?xf32> -> tensor<2xindex>
    %4 = shape.cstr_broadcastable %3, %0 : tensor<2xindex>, tensor<2xindex>
    %5 = shape.assuming %4 -> (tensor<?x?xf32>) {
      %7 = shape.const_shape [8192, 2560] : tensor<2xindex>
      %8 = shape.shape_of %2 : tensor<?x?xf32> -> tensor<2xindex>
      %9 = shape.broadcast %8, %7 : tensor<2xindex>, tensor<2xindex> -> tensor<2xindex>
      %10 = "mhlo.dynamic_broadcast_in_dim"(%2, %9) {broadcast_dimensions = dense<[0, 1]> : tensor<2xi64>} : (tensor<?x?xf32>, tensor<2xindex>) -> tensor<?x?xf32>
      %11 = "mhlo.dynamic_broadcast_in_dim"(%arg0, %9) {broadcast_dimensions = dense<[0, 1]> : tensor<2xi64>} : (tensor<8192x2560xf32>, tensor<2xindex>) -> tensor<?x?xf32>
      %12 = mhlo.multiply %10, %11 : tensor<?x?xf32>
      shape.assuming_yield %12 : tensor<?x?xf32>
    }
    %6 = mhlo.reduce(%5 init: %1) applies mhlo.add across dimensions = [0] : (tensor<?x?xf32>, tensor<f32>) -> tensor<?xf32>
    return %6 : tensor<?xf32>
  }
}

======= END After TF2HLO ==========
[DISC] tf2hlo takes: 7.260000e-03 s.
2023-05-09 02:51:10.785792: I external/org_disc_compiler/mlir/disc/transforms/disc_gpu_kernel_to_blob.cc:98] Multiple GPU compute capability compilation is enabled. The AOT compiled binary is functional on sm_60, sm_70, sm_75, sm_80 and sm_86. While the optimal performance can be achived only on currently GPU generation that BladeDISC executes on.
// -----// IR Dump After Canonicalizer (canonicalize) //----- //
func.func @main(%arg0: tensor<8192x2560xf32>, %arg1: tensor<8192x2560xf32>) -> tensor<?xf32> attributes {tf.entry_function = {input_placements = "gpu,gpu", inputs = "arg0_1.1_,arg1_1.1_", output_placements = "gpu", outputs = "sum_1.1"}} {
  %0 = shape.const_shape [8192, 2560] : tensor<2xindex>
  %1 = mhlo.constant dense<0.000000e+00> : tensor<f32>
  %2 = mhlo.subtract %arg0, %arg1 : (tensor<8192x2560xf32>, tensor<8192x2560xf32>) -> tensor<?x?xf32>
  %3 = shape.shape_of %2 : tensor<?x?xf32> -> tensor<2xindex>
  %4 = shape.cstr_broadcastable %3, %0 : tensor<2xindex>, tensor<2xindex>
  %5 = shape.assuming %4 -> (tensor<?x?xf32>) {
    %7 = shape.shape_of %2 : tensor<?x?xf32> -> tensor<2xindex>
    %8 = shape.broadcast %7, %0 : tensor<2xindex>, tensor<2xindex> -> tensor<2xindex>
    %9 = "mhlo.dynamic_broadcast_in_dim"(%2, %8) {broadcast_dimensions = dense<[0, 1]> : tensor<2xi64>} : (tensor<?x?xf32>, tensor<2xindex>) -> tensor<?x?xf32>
    %10 = "mhlo.dynamic_broadcast_in_dim"(%arg0, %8) {broadcast_dimensions = dense<[0, 1]> : tensor<2xi64>} : (tensor<8192x2560xf32>, tensor<2xindex>) -> tensor<?x?xf32>
    %11 = mhlo.multiply %9, %10 : tensor<?x?xf32>
    shape.assuming_yield %11 : tensor<?x?xf32>
  }
  %6 = mhlo.reduce(%5 init: %1) applies mhlo.add across dimensions = [0] : (tensor<?x?xf32>, tensor<f32>) -> tensor<?xf32>
  return %6 : tensor<?xf32>
}

// -----// IR Dump After Inliner (inline) //----- //
module {
  func.func @main(%arg0: tensor<8192x2560xf32>, %arg1: tensor<8192x2560xf32>) -> tensor<?xf32> attributes {tf.entry_function = {input_placements = "gpu,gpu", inputs = "arg0_1.1_,arg1_1.1_", output_placements = "gpu", outputs = "sum_1.1"}} {
    %0 = shape.const_shape [8192, 2560] : tensor<2xindex>
    %1 = mhlo.constant dense<0.000000e+00> : tensor<f32>
    %2 = mhlo.subtract %arg0, %arg1 : (tensor<8192x2560xf32>, tensor<8192x2560xf32>) -> tensor<?x?xf32>
    %3 = shape.shape_of %2 : tensor<?x?xf32> -> tensor<2xindex>
    %4 = shape.cstr_broadcastable %3, %0 : tensor<2xindex>, tensor<2xindex>
    %5 = shape.assuming %4 -> (tensor<?x?xf32>) {
      %7 = shape.shape_of %2 : tensor<?x?xf32> -> tensor<2xindex>
      %8 = shape.broadcast %7, %0 : tensor<2xindex>, tensor<2xindex> -> tensor<2xindex>
      %9 = "mhlo.dynamic_broadcast_in_dim"(%2, %8) {broadcast_dimensions = dense<[0, 1]> : tensor<2xi64>} : (tensor<?x?xf32>, tensor<2xindex>) -> tensor<?x?xf32>
      %10 = "mhlo.dynamic_broadcast_in_dim"(%arg0, %8) {broadcast_dimensions = dense<[0, 1]> : tensor<2xi64>} : (tensor<8192x2560xf32>, tensor<2xindex>) -> tensor<?x?xf32>
      %11 = mhlo.multiply %9, %10 : tensor<?x?xf32>
      shape.assuming_yield %11 : tensor<?x?xf32>
    }
    %6 = mhlo.reduce(%5 init: %1) applies mhlo.add across dimensions = [0] : (tensor<?x?xf32>, tensor<f32>) -> tensor<?xf32>
    return %6 : tensor<?xf32>
  }
}


// -----// IR Dump After RemoveShapeConstraintsPass (disc-remove-shape-constraint) //----- //
func.func @main(%arg0: tensor<8192x2560xf32>, %arg1: tensor<8192x2560xf32>) -> tensor<?xf32> attributes {tf.entry_function = {input_placements = "gpu,gpu", inputs = "arg0_1.1_,arg1_1.1_", output_placements = "gpu", outputs = "sum_1.1"}} {
  %0 = shape.const_witness true
  %1 = shape.const_shape [8192, 2560] : tensor<2xindex>
  %2 = mhlo.constant dense<0.000000e+00> : tensor<f32>
  %3 = mhlo.subtract %arg0, %arg1 : (tensor<8192x2560xf32>, tensor<8192x2560xf32>) -> tensor<?x?xf32>
  %4 = shape.assuming %0 -> (tensor<?x?xf32>) {
    %6 = shape.shape_of %3 : tensor<?x?xf32> -> tensor<2xindex>
    %7 = shape.broadcast %6, %1 : tensor<2xindex>, tensor<2xindex> -> tensor<2xindex>
    %8 = "mhlo.dynamic_broadcast_in_dim"(%3, %7) {broadcast_dimensions = dense<[0, 1]> : tensor<2xi64>} : (tensor<?x?xf32>, tensor<2xindex>) -> tensor<?x?xf32>
    %9 = "mhlo.dynamic_broadcast_in_dim"(%arg0, %7) {broadcast_dimensions = dense<[0, 1]> : tensor<2xi64>} : (tensor<8192x2560xf32>, tensor<2xindex>) -> tensor<?x?xf32>
    %10 = mhlo.multiply %8, %9 : tensor<?x?xf32>
    shape.assuming_yield %10 : tensor<?x?xf32>
  }
  %5 = mhlo.reduce(%4 init: %2) applies mhlo.add across dimensions = [0] : (tensor<?x?xf32>, tensor<f32>) -> tensor<?xf32>
  return %5 : tensor<?xf32>
}

// -----// IR Dump After Canonicalizer (canonicalize) //----- //
func.func @main(%arg0: tensor<8192x2560xf32>, %arg1: tensor<8192x2560xf32>) -> tensor<?xf32> attributes {tf.entry_function = {input_placements = "gpu,gpu", inputs = "arg0_1.1_,arg1_1.1_", output_placements = "gpu", outputs = "sum_1.1"}} {
  %0 = shape.const_shape [8192, 2560] : tensor<2xindex>
  %1 = mhlo.constant dense<0.000000e+00> : tensor<f32>
  %2 = mhlo.subtract %arg0, %arg1 : (tensor<8192x2560xf32>, tensor<8192x2560xf32>) -> tensor<?x?xf32>
  %3 = shape.shape_of %2 : tensor<?x?xf32> -> tensor<2xindex>
  %4 = shape.broadcast %3, %0 : tensor<2xindex>, tensor<2xindex> -> tensor<2xindex>
  %5 = "mhlo.dynamic_broadcast_in_dim"(%2, %4) {broadcast_dimensions = dense<[0, 1]> : tensor<2xi64>} : (tensor<?x?xf32>, tensor<2xindex>) -> tensor<?x?xf32>
  %6 = "mhlo.dynamic_broadcast_in_dim"(%arg0, %4) {broadcast_dimensions = dense<[0, 1]> : tensor<2xi64>} : (tensor<8192x2560xf32>, tensor<2xindex>) -> tensor<?x?xf32>
  %7 = mhlo.multiply %5, %6 : tensor<?x?xf32>
  %8 = mhlo.reduce(%7 init: %1) applies mhlo.add across dimensions = [0] : (tensor<?x?xf32>, tensor<f32>) -> tensor<?xf32>
  return %8 : tensor<?xf32>
}

// -----// IR Dump After ConvertShapeToStandardPass (disc-convert-shape-to-std) //----- //
func.func @main(%arg0: tensor<8192x2560xf32>, %arg1: tensor<8192x2560xf32>) -> tensor<?xf32> attributes {tf.entry_function = {input_placements = "gpu,gpu", inputs = "arg0_1.1_,arg1_1.1_", output_placements = "gpu", outputs = "sum_1.1"}} {
  %c8192 = arith.constant 8192 : index
  %c2560 = arith.constant 2560 : index
  %from_elements = tensor.from_elements %c8192, %c2560 : tensor<2xindex>
  %cast = tensor.cast %from_elements : tensor<2xindex> to tensor<2xindex>
  %0 = mhlo.constant dense<0.000000e+00> : tensor<f32>
  %1 = mhlo.subtract %arg0, %arg1 : (tensor<8192x2560xf32>, tensor<8192x2560xf32>) -> tensor<?x?xf32>
  %c0 = arith.constant 0 : index
  %dim = tensor.dim %1, %c0 : tensor<?x?xf32>
  %c1 = arith.constant 1 : index
  %dim_0 = tensor.dim %1, %c1 : tensor<?x?xf32>
  %from_elements_1 = tensor.from_elements %dim, %dim_0 : tensor<2xindex>
  %c0_2 = arith.constant 0 : index
  %c1_3 = arith.constant 1 : index
  %c0_4 = arith.constant 0 : index
  %extracted = tensor.extract %from_elements_1[%c0_4] : tensor<2xindex>
  %2 = arith.cmpi eq, %extracted, %c1_3 : index
  %3 = arith.select %2, %c1_3, %extracted : index
  %c0_5 = arith.constant 0 : index
  %extracted_6 = tensor.extract %cast[%c0_5] : tensor<2xindex>
  %4 = arith.cmpi eq, %extracted_6, %c1_3 : index
  %5 = arith.select %4, %3, %extracted_6 : index
  %c1_7 = arith.constant 1 : index
  %c1_8 = arith.constant 1 : index
  %extracted_9 = tensor.extract %from_elements_1[%c1_8] : tensor<2xindex>
  %6 = arith.cmpi eq, %extracted_9, %c1_7 : index
  %7 = arith.select %6, %c1_7, %extracted_9 : index
  %c1_10 = arith.constant 1 : index
  %extracted_11 = tensor.extract %cast[%c1_10] : tensor<2xindex>
  %8 = arith.cmpi eq, %extracted_11, %c1_7 : index
  %9 = arith.select %8, %7, %extracted_11 : index
  %from_elements_12 = tensor.from_elements %5, %9 : tensor<2xindex>
  %10 = "mhlo.dynamic_broadcast_in_dim"(%1, %from_elements_12) {broadcast_dimensions = dense<[0, 1]> : tensor<2xi64>} : (tensor<?x?xf32>, tensor<2xindex>) -> tensor<?x?xf32>
  %11 = "mhlo.dynamic_broadcast_in_dim"(%arg0, %from_elements_12) {broadcast_dimensions = dense<[0, 1]> : tensor<2xi64>} : (tensor<8192x2560xf32>, tensor<2xindex>) -> tensor<?x?xf32>
  %12 = mhlo.multiply %10, %11 : tensor<?x?xf32>
  %13 = mhlo.reduce(%12 init: %0) applies mhlo.add across dimensions = [0] : (tensor<?x?xf32>, tensor<f32>) -> tensor<?xf32>
  return %13 : tensor<?xf32>
}

SymbolicDimMgr::save walkRankedTensorValue takes: 2 us
SymbolicDimMgr::save update attributes takes: 1 us
SymbolicDimMgr::updateProductEqualityMap simplifySymbolicDimProductPair takes: 0 us
productSet.size() = 0
SymbolicDimMgr::updateProductEqualityMap propagate graph takes: 3 us
SymbolicDimMgr::updateProductEqualityMap remove multiply takes: 0 us
SymbolicDimMgr::updateProductEqualityMap build toRemove  takes: 0 us
SymbolicDimMgr::updateProductEqualityMap apply toRemove  takes: 0 us
SymbolicDimMgr::save updateProductEqualityMap takes: 26 us
SymbolicDimMgr::save updateFunctionType takes: 1 us
SymbolicDimMgr::save collect symbolicDim ops takes: 2 us
SymbolicDimMgr::save remove symbolicDim ops takes: 1 us
SymbolicDimMgr::save remove unused production takes: 0 us
SymbolicDimMgr::save remove unused production #2 takes: 0 us
SymbolicDimMgr::save canonicalize the name takes: 0 us
SymbolicDimMgr::save replace the name takes: 1 us
SymbolicDimMgr::save updateFunctionType takes: 0 us
SymbolicDimMgr::save walkRankedTensorValue takes: 0 us
SymbolicDimMgr::save update attributes takes: 0 us
SymbolicDimMgr::updateProductEqualityMap simplifySymbolicDimProductPair takes: 0 us
productSet.size() = 0
SymbolicDimMgr::updateProductEqualityMap propagate graph takes: 3 us
SymbolicDimMgr::updateProductEqualityMap remove multiply takes: 0 us
SymbolicDimMgr::updateProductEqualityMap build toRemove  takes: 0 us
SymbolicDimMgr::updateProductEqualityMap apply toRemove  takes: 0 us
SymbolicDimMgr::save updateProductEqualityMap takes: 29 us
SymbolicDimMgr::save updateFunctionType takes: 1 us
SymbolicDimMgr::save collect symbolicDim ops takes: 1 us
SymbolicDimMgr::save remove symbolicDim ops takes: 0 us
SymbolicDimMgr::save remove unused production takes: 0 us
SymbolicDimMgr::save remove unused production #2 takes: 0 us
SymbolicDimMgr::save canonicalize the name takes: 0 us
SymbolicDimMgr::save replace the name takes: 0 us
SymbolicDimMgr::save updateFunctionType takes: 0 us
// -----// IR Dump After DiscShapeOptimizationPass (disc-shape-optimization) //----- //
module {
  func.func @main(%arg0: tensor<8192x2560xf32>, %arg1: tensor<8192x2560xf32>) -> tensor<2560xf32> attributes {tf.entry_function = {input_placements = "gpu,gpu", inputs = "arg0_1.1_,arg1_1.1_", output_placements = "gpu", outputs = "sum_1.1"}} {
    %0 = mhlo.constant dense<0.000000e+00> : tensor<f32>
    %1 = mhlo.subtract %arg0, %arg1 : tensor<8192x2560xf32>
    %2 = mhlo.multiply %1, %arg0 : tensor<8192x2560xf32>
    %3 = mhlo.reduce(%2 init: %0) applies mhlo.add across dimensions = [0] : (tensor<8192x2560xf32>, tensor<f32>) -> tensor<2560xf32>
    return %3 : tensor<2560xf32>
  }
  func.func @shape_constraint_graph() {
    return
  }
}


SymbolicDimMgr::save walkRankedTensorValue takes: 0 us
SymbolicDimMgr::save update attributes takes: 0 us
SymbolicDimMgr::updateProductEqualityMap simplifySymbolicDimProductPair takes: 0 us
productSet.size() = 0
SymbolicDimMgr::updateProductEqualityMap propagate graph takes: 3 us
SymbolicDimMgr::updateProductEqualityMap remove multiply takes: 0 us
SymbolicDimMgr::updateProductEqualityMap build toRemove  takes: 0 us
SymbolicDimMgr::updateProductEqualityMap apply toRemove  takes: 0 us
SymbolicDimMgr::save updateProductEqualityMap takes: 24 us
SymbolicDimMgr::save updateFunctionType takes: 1 us
SymbolicDimMgr::save collect symbolicDim ops takes: 1 us
SymbolicDimMgr::save remove symbolicDim ops takes: 0 us
SymbolicDimMgr::save remove unused production takes: 0 us
SymbolicDimMgr::save remove unused production #2 takes: 0 us
SymbolicDimMgr::save canonicalize the name takes: 0 us
SymbolicDimMgr::save replace the name takes: 0 us
SymbolicDimMgr::save updateFunctionType takes: 0 us
// -----// IR Dump After DiscShapeOptimizationPass (disc-shape-optimization) //----- //
module {
  func.func @main(%arg0: tensor<8192x2560xf32>, %arg1: tensor<8192x2560xf32>) -> tensor<2560xf32> attributes {tf.entry_function = {input_placements = "gpu,gpu", inputs = "arg0_1.1_,arg1_1.1_", output_placements = "gpu", outputs = "sum_1.1"}} {
    %0 = mhlo.constant dense<0.000000e+00> : tensor<f32>
    %1 = mhlo.subtract %arg0, %arg1 : tensor<8192x2560xf32>
    %2 = mhlo.multiply %1, %arg0 : tensor<8192x2560xf32>
    %3 = mhlo.reduce(%2 init: %0) applies mhlo.add across dimensions = [0] : (tensor<8192x2560xf32>, tensor<f32>) -> tensor<2560xf32>
    return %3 : tensor<2560xf32>
  }
  func.func @shape_constraint_graph() {
    return
  }
}


SymbolicDimMgr::save walkRankedTensorValue takes: 0 us
SymbolicDimMgr::save update attributes takes: 0 us
SymbolicDimMgr::updateProductEqualityMap simplifySymbolicDimProductPair takes: 0 us
productSet.size() = 0
SymbolicDimMgr::updateProductEqualityMap propagate graph takes: 3 us
SymbolicDimMgr::updateProductEqualityMap remove multiply takes: 0 us
SymbolicDimMgr::updateProductEqualityMap build toRemove  takes: 0 us
SymbolicDimMgr::updateProductEqualityMap apply toRemove  takes: 0 us
SymbolicDimMgr::save updateProductEqualityMap takes: 24 us
SymbolicDimMgr::save updateFunctionType takes: 1 us
SymbolicDimMgr::save collect symbolicDim ops takes: 1 us
SymbolicDimMgr::save remove symbolicDim ops takes: 0 us
SymbolicDimMgr::save remove unused production takes: 0 us
SymbolicDimMgr::save remove unused production #2 takes: 0 us
SymbolicDimMgr::save canonicalize the name takes: 0 us
SymbolicDimMgr::save replace the name takes: 1 us
SymbolicDimMgr::save updateFunctionType takes: 0 us
// -----// IR Dump After DiscShapeOptimizationPass (disc-shape-optimization) //----- //
module {
  func.func @main(%arg0: tensor<8192x2560xf32>, %arg1: tensor<8192x2560xf32>) -> tensor<2560xf32> attributes {tf.entry_function = {input_placements = "gpu,gpu", inputs = "arg0_1.1_,arg1_1.1_", output_placements = "gpu", outputs = "sum_1.1"}} {
    %0 = mhlo.constant dense<0.000000e+00> : tensor<f32>
    %1 = mhlo.subtract %arg0, %arg1 : tensor<8192x2560xf32>
    %2 = mhlo.multiply %1, %arg0 : tensor<8192x2560xf32>
    %3 = mhlo.reduce(%2 init: %0) applies mhlo.add across dimensions = [0] : (tensor<8192x2560xf32>, tensor<f32>) -> tensor<2560xf32>
    return %3 : tensor<2560xf32>
  }
  func.func @shape_constraint_graph() {
    return
  }
}


SymbolicDimMgr::save walkRankedTensorValue takes: 0 us
SymbolicDimMgr::save update attributes takes: 0 us
SymbolicDimMgr::updateProductEqualityMap simplifySymbolicDimProductPair takes: 0 us
productSet.size() = 0
SymbolicDimMgr::updateProductEqualityMap propagate graph takes: 3 us
SymbolicDimMgr::updateProductEqualityMap remove multiply takes: 0 us
SymbolicDimMgr::updateProductEqualityMap build toRemove  takes: 0 us
SymbolicDimMgr::updateProductEqualityMap apply toRemove  takes: 0 us
SymbolicDimMgr::save updateProductEqualityMap takes: 155 us
SymbolicDimMgr::save updateFunctionType takes: 2 us
SymbolicDimMgr::save collect symbolicDim ops takes: 1 us
SymbolicDimMgr::save remove symbolicDim ops takes: 0 us
SymbolicDimMgr::save remove unused production takes: 0 us
SymbolicDimMgr::save remove unused production #2 takes: 0 us
SymbolicDimMgr::save canonicalize the name takes: 0 us
SymbolicDimMgr::save replace the name takes: 0 us
SymbolicDimMgr::save updateFunctionType takes: 0 us
// -----// IR Dump After DiscShapeOptimizationPass (disc-shape-optimization) //----- //
module {
  func.func @main(%arg0: tensor<8192x2560xf32>, %arg1: tensor<8192x2560xf32>) -> tensor<2560xf32> attributes {tf.entry_function = {input_placements = "gpu,gpu", inputs = "arg0_1.1_,arg1_1.1_", output_placements = "gpu", outputs = "sum_1.1"}} {
    %0 = mhlo.constant dense<0.000000e+00> : tensor<f32>
    %1 = mhlo.subtract %arg0, %arg1 : tensor<8192x2560xf32>
    %2 = mhlo.multiply %1, %arg0 : tensor<8192x2560xf32>
    %3 = mhlo.reduce(%2 init: %0) applies mhlo.add across dimensions = [0] : (tensor<8192x2560xf32>, tensor<f32>) -> tensor<2560xf32>
    return %3 : tensor<2560xf32>
  }
  func.func @shape_constraint_graph() {
    return
  }
}


// -----// IR Dump After PlaceOpsPass (mhlo-place-ops) //----- //
module {
  func.func @main(%arg0: tensor<8192x2560xf32>, %arg1: tensor<8192x2560xf32>) -> tensor<2560xf32> attributes {tf.entry_function = {input_placements = "gpu,gpu", inputs = "arg0_1.1_,arg1_1.1_", output_placements = "gpu", outputs = "sum_1.1"}} {
    %0 = mhlo.constant {disc.device = "gpu"} dense<0.000000e+00> : tensor<f32>
    %1 = mhlo.subtract %arg0, %arg1 {disc.device = "gpu"} : tensor<8192x2560xf32>
    %2 = mhlo.multiply %1, %arg0 {disc.device = "gpu"} : tensor<8192x2560xf32>
    %3 = mhlo.reduce(%2 init: %0) applies mhlo.add across dimensions = [0] : (tensor<8192x2560xf32>, tensor<f32>) -> tensor<2560xf32>
    return %3 : tensor<2560xf32>
  }
  func.func @shape_constraint_graph() {
    return
  }
}


SymbolicDimMgr::save walkRankedTensorValue takes: 0 us
SymbolicDimMgr::save update attributes takes: 1 us
SymbolicDimMgr::updateProductEqualityMap simplifySymbolicDimProductPair takes: 0 us
productSet.size() = 0
SymbolicDimMgr::updateProductEqualityMap propagate graph takes: 3 us
SymbolicDimMgr::updateProductEqualityMap remove multiply takes: 0 us
SymbolicDimMgr::updateProductEqualityMap build toRemove  takes: 0 us
SymbolicDimMgr::updateProductEqualityMap apply toRemove  takes: 0 us
SymbolicDimMgr::save updateProductEqualityMap takes: 24 us
SymbolicDimMgr::save updateFunctionType takes: 1 us
SymbolicDimMgr::save collect symbolicDim ops takes: 1 us
SymbolicDimMgr::save remove symbolicDim ops takes: 0 us
SymbolicDimMgr::save remove unused production takes: 0 us
SymbolicDimMgr::save remove unused production #2 takes: 0 us
SymbolicDimMgr::save canonicalize the name takes: 0 us
SymbolicDimMgr::save replace the name takes: 0 us
SymbolicDimMgr::save updateFunctionType takes: 0 us
// -----// IR Dump After DiscShapeOptimizationPass (disc-shape-optimization) //----- //
module {
  func.func @main(%arg0: tensor<8192x2560xf32>, %arg1: tensor<8192x2560xf32>) -> tensor<2560xf32> attributes {tf.entry_function = {input_placements = "gpu,gpu", inputs = "arg0_1.1_,arg1_1.1_", output_placements = "gpu", outputs = "sum_1.1"}} {
    %0 = mhlo.constant {disc.device = "gpu"} dense<0.000000e+00> : tensor<f32>
    %1 = mhlo.subtract %arg0, %arg1 {disc.device = "gpu"} : tensor<8192x2560xf32>
    %2 = mhlo.multiply %1, %arg0 {disc.device = "gpu"} : tensor<8192x2560xf32>
    %3 = mhlo.reduce(%2 init: %0) applies mhlo.add across dimensions = [0] : (tensor<8192x2560xf32>, tensor<f32>) -> tensor<2560xf32>
    return %3 : tensor<2560xf32>
  }
  func.func @shape_constraint_graph() {
    return
  }
}


SymbolicDimMgr::save walkRankedTensorValue takes: 0 us
SymbolicDimMgr::save update attributes takes: 0 us
SymbolicDimMgr::updateProductEqualityMap simplifySymbolicDimProductPair takes: 0 us
productSet.size() = 0
SymbolicDimMgr::updateProductEqualityMap propagate graph takes: 3 us
SymbolicDimMgr::updateProductEqualityMap remove multiply takes: 0 us
SymbolicDimMgr::updateProductEqualityMap build toRemove  takes: 0 us
SymbolicDimMgr::updateProductEqualityMap apply toRemove  takes: 0 us
SymbolicDimMgr::save updateProductEqualityMap takes: 27 us
SymbolicDimMgr::save updateFunctionType takes: 1 us
SymbolicDimMgr::save collect symbolicDim ops takes: 1 us
SymbolicDimMgr::save remove symbolicDim ops takes: 0 us
SymbolicDimMgr::save remove unused production takes: 0 us
SymbolicDimMgr::save remove unused production #2 takes: 0 us
SymbolicDimMgr::save canonicalize the name takes: 0 us
SymbolicDimMgr::save replace the name takes: 0 us
SymbolicDimMgr::save updateFunctionType takes: 0 us
// -----// IR Dump After DiscShapeOptimizationPass (disc-shape-optimization) //----- //
module {
  func.func @main(%arg0: tensor<8192x2560xf32>, %arg1: tensor<8192x2560xf32>) -> tensor<2560xf32> attributes {tf.entry_function = {input_placements = "gpu,gpu", inputs = "arg0_1.1_,arg1_1.1_", output_placements = "gpu", outputs = "sum_1.1"}} {
    %0 = mhlo.constant {disc.device = "gpu"} dense<0.000000e+00> : tensor<f32>
    %1 = mhlo.subtract %arg0, %arg1 {disc.device = "gpu"} : tensor<8192x2560xf32>
    %2 = mhlo.multiply %1, %arg0 {disc.device = "gpu"} : tensor<8192x2560xf32>
    %3 = mhlo.reduce(%2 init: %0) applies mhlo.add across dimensions = [0] : (tensor<8192x2560xf32>, tensor<f32>) -> tensor<2560xf32>
    return %3 : tensor<2560xf32>
  }
  func.func @shape_constraint_graph() {
    return
  }
}


SymbolicDimMgr::save walkRankedTensorValue takes: 0 us
SymbolicDimMgr::save update attributes takes: 0 us
SymbolicDimMgr::updateProductEqualityMap simplifySymbolicDimProductPair takes: 0 us
productSet.size() = 0
SymbolicDimMgr::updateProductEqualityMap propagate graph takes: 3 us
SymbolicDimMgr::updateProductEqualityMap remove multiply takes: 0 us
SymbolicDimMgr::updateProductEqualityMap build toRemove  takes: 0 us
SymbolicDimMgr::updateProductEqualityMap apply toRemove  takes: 0 us
SymbolicDimMgr::save updateProductEqualityMap takes: 24 us
SymbolicDimMgr::save updateFunctionType takes: 1 us
SymbolicDimMgr::save collect symbolicDim ops takes: 1 us
SymbolicDimMgr::save remove symbolicDim ops takes: 0 us
SymbolicDimMgr::save remove unused production takes: 0 us
SymbolicDimMgr::save remove unused production #2 takes: 0 us
SymbolicDimMgr::save canonicalize the name takes: 0 us
SymbolicDimMgr::save replace the name takes: 0 us
SymbolicDimMgr::save updateFunctionType takes: 0 us
// -----// IR Dump After DiscShapeOptimizationPass (disc-shape-optimization) //----- //
module {
  func.func @main(%arg0: tensor<8192x2560xf32>, %arg1: tensor<8192x2560xf32>) -> tensor<2560xf32> attributes {tf.entry_function = {input_placements = "gpu,gpu", inputs = "arg0_1.1_,arg1_1.1_", output_placements = "gpu", outputs = "sum_1.1"}} {
    %0 = mhlo.constant {disc.device = "gpu"} dense<0.000000e+00> : tensor<f32>
    %1 = mhlo.subtract %arg0, %arg1 {disc.device = "gpu"} : tensor<8192x2560xf32>
    %2 = mhlo.multiply %1, %arg0 {disc.device = "gpu"} : tensor<8192x2560xf32>
    %3 = mhlo.reduce(%2 init: %0) applies mhlo.add across dimensions = [0] : (tensor<8192x2560xf32>, tensor<f32>) -> tensor<2560xf32>
    return %3 : tensor<2560xf32>
  }
  func.func @shape_constraint_graph() {
    return
  }
}


SymbolicDimMgr::save walkRankedTensorValue takes: 0 us
SymbolicDimMgr::save update attributes takes: 0 us
SymbolicDimMgr::updateProductEqualityMap simplifySymbolicDimProductPair takes: 0 us
productSet.size() = 0
SymbolicDimMgr::updateProductEqualityMap propagate graph takes: 3 us
SymbolicDimMgr::updateProductEqualityMap remove multiply takes: 0 us
SymbolicDimMgr::updateProductEqualityMap build toRemove  takes: 0 us
SymbolicDimMgr::updateProductEqualityMap apply toRemove  takes: 0 us
SymbolicDimMgr::save updateProductEqualityMap takes: 24 us
SymbolicDimMgr::save updateFunctionType takes: 1 us
SymbolicDimMgr::save collect symbolicDim ops takes: 1 us
SymbolicDimMgr::save remove symbolicDim ops takes: 0 us
SymbolicDimMgr::save remove unused production takes: 0 us
SymbolicDimMgr::save remove unused production #2 takes: 0 us
SymbolicDimMgr::save canonicalize the name takes: 0 us
SymbolicDimMgr::save replace the name takes: 0 us
SymbolicDimMgr::save updateFunctionType takes: 0 us
// -----// IR Dump After DiscShapeOptimizationPass (disc-shape-optimization) //----- //
module {
  func.func @main(%arg0: tensor<8192x2560xf32>, %arg1: tensor<8192x2560xf32>) -> tensor<2560xf32> attributes {tf.entry_function = {input_placements = "gpu,gpu", inputs = "arg0_1.1_,arg1_1.1_", output_placements = "gpu", outputs = "sum_1.1"}} {
    %c8192 = arith.constant 8192 : index
    %c2560 = arith.constant 2560 : index
    %0 = mhlo.constant {disc.device = "gpu"} dense<0.000000e+00> : tensor<f32>
    %1 = "disc_shape.tie_shape"(%arg0, %c8192, %c2560) : (tensor<8192x2560xf32>, index, index) -> tensor<8192x2560xf32>
    %2 = "disc_shape.tie_shape"(%arg1, %c8192, %c2560) : (tensor<8192x2560xf32>, index, index) -> tensor<8192x2560xf32>
    %3 = mhlo.subtract %1, %2 {disc.device = "gpu"} : tensor<8192x2560xf32>
    %4 = "disc_shape.tie_shape"(%3, %c8192, %c2560) : (tensor<8192x2560xf32>, index, index) -> tensor<8192x2560xf32>
    %5 = mhlo.multiply %4, %1 {disc.device = "gpu"} : tensor<8192x2560xf32>
    %6 = "disc_shape.tie_shape"(%5, %c8192, %c2560) : (tensor<8192x2560xf32>, index, index) -> tensor<8192x2560xf32>
    %7 = mhlo.reduce(%6 init: %0) applies mhlo.add across dimensions = [0] : (tensor<8192x2560xf32>, tensor<f32>) -> tensor<2560xf32>
    %8 = "disc_shape.tie_shape"(%7, %c2560) : (tensor<2560xf32>, index) -> tensor<2560xf32>
    return %8 : tensor<2560xf32>
  }
  func.func @shape_constraint_graph() {
    return
  }
}


// -----// IR Dump After Canonicalizer (canonicalize) //----- //
func.func @main(%arg0: tensor<8192x2560xf32>, %arg1: tensor<8192x2560xf32>) -> tensor<2560xf32> attributes {tf.entry_function = {input_placements = "gpu,gpu", inputs = "arg0_1.1_,arg1_1.1_", output_placements = "gpu", outputs = "sum_1.1"}} {
  %0 = mhlo.constant {disc.device = "gpu"} dense<0.000000e+00> : tensor<f32>
  %1 = mhlo.subtract %arg0, %arg1 {disc.device = "gpu"} : tensor<8192x2560xf32>
  %2 = mhlo.multiply %1, %arg0 {disc.device = "gpu"} : tensor<8192x2560xf32>
  %3 = mhlo.reduce(%2 init: %0) applies mhlo.add across dimensions = [0] : (tensor<8192x2560xf32>, tensor<f32>) -> tensor<2560xf32>
  return %3 : tensor<2560xf32>
}

// -----// IR Dump After FuncBufferize (func-bufferize) //----- //
module {
  func.func @main(%arg0: memref<8192x2560xf32>, %arg1: memref<8192x2560xf32>) -> memref<2560xf32> attributes {tf.entry_function = {input_placements = "gpu,gpu", inputs = "arg0_1.1_,arg1_1.1_", output_placements = "gpu", outputs = "sum_1.1"}} {
    %0 = bufferization.to_tensor %arg1 : memref<8192x2560xf32>
    %1 = bufferization.to_tensor %arg0 : memref<8192x2560xf32>
    %2 = mhlo.constant {disc.device = "gpu"} dense<0.000000e+00> : tensor<f32>
    %3 = mhlo.subtract %1, %0 {disc.device = "gpu"} : tensor<8192x2560xf32>
    %4 = mhlo.multiply %3, %1 {disc.device = "gpu"} : tensor<8192x2560xf32>
    %5 = mhlo.reduce(%4 init: %2) applies mhlo.add across dimensions = [0] : (tensor<8192x2560xf32>, tensor<f32>) -> tensor<2560xf32>
    %6 = bufferization.to_memref %5 : memref<2560xf32>
    return %6 : memref<2560xf32>
  }
  func.func @shape_constraint_graph() {
    return
  }
}


// -----// IR Dump After HloLegalizeToLhloPass (hlo-legalize-to-lhlo) //----- //
module {
  func.func @main(%arg0: memref<8192x2560xf32>, %arg1: memref<8192x2560xf32>) -> memref<2560xf32> attributes {tf.entry_function = {input_placements = "gpu,gpu", inputs = "arg0_1.1_,arg1_1.1_", output_placements = "gpu", outputs = "sum_1.1"}} {
    %0 = bufferization.to_tensor %arg1 : memref<8192x2560xf32>
    %1 = bufferization.to_memref %0 : memref<8192x2560xf32>
    %2 = bufferization.to_tensor %arg0 : memref<8192x2560xf32>
    %3 = bufferization.to_memref %2 : memref<8192x2560xf32>
    %alloc = memref.alloc() : memref<f32>
    "lmhlo.constant"(%alloc) {disc.device = "gpu", value = dense<0.000000e+00> : tensor<f32>} : (memref<f32>) -> ()
    %alloc_0 = memref.alloc() : memref<8192x2560xf32>
    "lmhlo.subtract"(%3, %1, %alloc_0) {disc.device = "gpu"} : (memref<8192x2560xf32>, memref<8192x2560xf32>, memref<8192x2560xf32>) -> ()
    %alloc_1 = memref.alloc() : memref<8192x2560xf32>
    "lmhlo.multiply"(%alloc_0, %3, %alloc_1) {disc.device = "gpu"} : (memref<8192x2560xf32>, memref<8192x2560xf32>, memref<8192x2560xf32>) -> ()
    %alloc_2 = memref.alloc() : memref<2560xf32>
    "lmhlo.reduce"(%alloc_1, %alloc, %alloc_2) ({
    ^bb0(%arg2: memref<f32>, %arg3: memref<f32>, %arg4: memref<f32>):
      %alloc_3 = memref.alloc() : memref<f32>
      "lmhlo.add"(%arg2, %arg3, %alloc_3) {disc.device = "gpu"} : (memref<f32>, memref<f32>, memref<f32>) -> ()
      "lmhlo.copy"(%alloc_3, %arg4) : (memref<f32>, memref<f32>) -> ()
      "lmhlo.terminator"() : () -> ()
    }) {dimensions = dense<0> : tensor<1xi64>, disc.device = "gpu"} : (memref<8192x2560xf32>, memref<f32>, memref<2560xf32>) -> ()
    %4 = bufferization.to_tensor %alloc_2 : memref<2560xf32>
    %5 = bufferization.to_memref %4 : memref<2560xf32>
    return %5 : memref<2560xf32>
  }
  func.func @shape_constraint_graph() {
    return
  }
}


// -----// IR Dump After Canonicalizer (canonicalize) //----- //
func.func @main(%arg0: memref<8192x2560xf32>, %arg1: memref<8192x2560xf32>) -> memref<2560xf32> attributes {tf.entry_function = {input_placements = "gpu,gpu", inputs = "arg0_1.1_,arg1_1.1_", output_placements = "gpu", outputs = "sum_1.1"}} {
  %alloc = memref.alloc() : memref<f32>
  "lmhlo.constant"(%alloc) {disc.device = "gpu", value = dense<0.000000e+00> : tensor<f32>} : (memref<f32>) -> ()
  %alloc_0 = memref.alloc() : memref<8192x2560xf32>
  "lmhlo.subtract"(%arg0, %arg1, %alloc_0) {disc.device = "gpu"} : (memref<8192x2560xf32>, memref<8192x2560xf32>, memref<8192x2560xf32>) -> ()
  %alloc_1 = memref.alloc() : memref<8192x2560xf32>
  "lmhlo.multiply"(%alloc_0, %arg0, %alloc_1) {disc.device = "gpu"} : (memref<8192x2560xf32>, memref<8192x2560xf32>, memref<8192x2560xf32>) -> ()
  %alloc_2 = memref.alloc() : memref<2560xf32>
  "lmhlo.reduce"(%alloc_1, %alloc, %alloc_2) ({
  ^bb0(%arg2: memref<f32>, %arg3: memref<f32>, %arg4: memref<f32>):
    "lmhlo.add"(%arg2, %arg3, %arg4) {disc.device = "gpu"} : (memref<f32>, memref<f32>, memref<f32>) -> ()
    "lmhlo.terminator"() : () -> ()
  }) {dimensions = dense<0> : tensor<1xi64>, disc.device = "gpu"} : (memref<8192x2560xf32>, memref<f32>, memref<2560xf32>) -> ()
  return %alloc_2 : memref<2560xf32>
}

// -----// IR Dump After DiscAssignMemorySpacePass (disc-assign-memory-space) //----- //
module {
  func.func @main(%arg0: memref<8192x2560xf32, "gpu">, %arg1: memref<8192x2560xf32, "gpu">) -> memref<2560xf32, "gpu"> attributes {tf.entry_function = {input_placements = "gpu,gpu", inputs = "arg0_1.1_,arg1_1.1_", output_placements = "gpu", outputs = "sum_1.1"}} {
    %alloc = memref.alloc() : memref<f32, "gpu">
    "lmhlo.constant"(%alloc) {disc.device = "gpu", value = dense<0.000000e+00> : tensor<f32>} : (memref<f32, "gpu">) -> ()
    %alloc_0 = memref.alloc() : memref<8192x2560xf32, "gpu">
    "lmhlo.subtract"(%arg0, %arg1, %alloc_0) {disc.device = "gpu"} : (memref<8192x2560xf32, "gpu">, memref<8192x2560xf32, "gpu">, memref<8192x2560xf32, "gpu">) -> ()
    %alloc_1 = memref.alloc() : memref<8192x2560xf32, "gpu">
    "lmhlo.multiply"(%alloc_0, %arg0, %alloc_1) {disc.device = "gpu"} : (memref<8192x2560xf32, "gpu">, memref<8192x2560xf32, "gpu">, memref<8192x2560xf32, "gpu">) -> ()
    %alloc_2 = memref.alloc() : memref<2560xf32, "gpu">
    "lmhlo.reduce"(%alloc_1, %alloc, %alloc_2) ({
    ^bb0(%arg2: memref<f32>, %arg3: memref<f32>, %arg4: memref<f32>):
      "lmhlo.add"(%arg2, %arg3, %arg4) {disc.device = "gpu"} : (memref<f32>, memref<f32>, memref<f32>) -> ()
      "lmhlo.terminator"() : () -> ()
    }) {dimensions = dense<0> : tensor<1xi64>, disc.device = "gpu"} : (memref<8192x2560xf32, "gpu">, memref<f32, "gpu">, memref<2560xf32, "gpu">) -> ()
    return %alloc_2 : memref<2560xf32, "gpu">
  }
  func.func @shape_constraint_graph() {
    return
  }
}


SymbolicDimMgr::save walkRankedTensorValue takes: 0 us
SymbolicDimMgr::save update attributes takes: 0 us
SymbolicDimMgr::save updateProductEqualityMap takes: 0 us
SymbolicDimMgr::save updateFunctionType takes: 2 us
SymbolicDimMgr::save collect symbolicDim ops takes: 1 us
SymbolicDimMgr::save remove symbolicDim ops takes: 0 us
SymbolicDimMgr::save remove unused production takes: 0 us
SymbolicDimMgr::save remove unused production #2 takes: 0 us
SymbolicDimMgr::save canonicalize the name takes: 0 us
SymbolicDimMgr::save replace the name takes: 1 us
SymbolicDimMgr::save updateFunctionType takes: 0 us
// -----// IR Dump After DiscFusionPass (disc-fusion) //----- //
func.func @main(%arg0: memref<8192x2560xf32, "gpu">, %arg1: memref<8192x2560xf32, "gpu">) -> memref<2560xf32, "gpu"> attributes {tf.entry_function = {input_placements = "gpu,gpu", inputs = "arg0_1.1_,arg1_1.1_", output_placements = "gpu", outputs = "sum_1.1"}} {
  %alloc = memref.alloc() : memref<f32, "gpu">
  %alloc_0 = memref.alloc() : memref<8192x2560xf32, "gpu">
  %alloc_1 = memref.alloc() : memref<8192x2560xf32, "gpu">
  %alloc_2 = memref.alloc() : memref<2560xf32, "gpu">
  "lmhlo.fusion"() ({
    "lmhlo.constant"(%alloc) {disc.device = "gpu", value = dense<0.000000e+00> : tensor<f32>} : (memref<f32, "gpu">) -> ()
    "lmhlo.subtract"(%arg0, %arg1, %alloc_0) {disc.device = "gpu"} : (memref<8192x2560xf32, "gpu">, memref<8192x2560xf32, "gpu">, memref<8192x2560xf32, "gpu">) -> ()
    "lmhlo.multiply"(%alloc_0, %arg0, %alloc_1) {disc.device = "gpu"} : (memref<8192x2560xf32, "gpu">, memref<8192x2560xf32, "gpu">, memref<8192x2560xf32, "gpu">) -> ()
    "lmhlo.reduce"(%alloc_1, %alloc, %alloc_2) ({
    ^bb0(%arg2: memref<f32>, %arg3: memref<f32>, %arg4: memref<f32>):
      "lmhlo.add"(%arg2, %arg3, %arg4) {disc.device = "gpu"} : (memref<f32>, memref<f32>, memref<f32>) -> ()
      "lmhlo.terminator"() : () -> ()
    }) {dimensions = dense<0> : tensor<1xi64>, disc.device = "gpu"} : (memref<8192x2560xf32, "gpu">, memref<f32, "gpu">, memref<2560xf32, "gpu">) -> ()
    "lmhlo.terminator"() : () -> ()
  }) {disc.device = "gpu", disc.fusion.name = "main_kColReduction_reduce__4_1_0", disc.fusion_type = "kColReduction"} : () -> ()
  return %alloc_2 : memref<2560xf32, "gpu">
}

SymbolicDimMgr::save walkRankedTensorValue takes: 1 us
SymbolicDimMgr::save update attributes takes: 1 us
SymbolicDimMgr::save updateProductEqualityMap takes: 0 us
SymbolicDimMgr::save updateFunctionType takes: 1 us
SymbolicDimMgr::save collect symbolicDim ops takes: 1 us
SymbolicDimMgr::save remove symbolicDim ops takes: 0 us
SymbolicDimMgr::save remove unused production takes: 0 us
SymbolicDimMgr::save remove unused production #2 takes: 0 us
SymbolicDimMgr::save canonicalize the name takes: 0 us
SymbolicDimMgr::save replace the name takes: 1 us
SymbolicDimMgr::save updateFunctionType takes: 0 us
// -----// IR Dump After DiscSpecializeFusionWithSpeculationPass (disc-specialize-fusion-with-speculation) //----- //
func.func @main(%arg0: memref<8192x2560xf32, "gpu">, %arg1: memref<8192x2560xf32, "gpu">) -> memref<2560xf32, "gpu"> attributes {tf.entry_function = {input_placements = "gpu,gpu", inputs = "arg0_1.1_,arg1_1.1_", output_placements = "gpu", outputs = "sum_1.1"}} {
  %alloc = memref.alloc() : memref<f32, "gpu">
  %alloc_0 = memref.alloc() : memref<8192x2560xf32, "gpu">
  %alloc_1 = memref.alloc() : memref<8192x2560xf32, "gpu">
  %alloc_2 = memref.alloc() : memref<2560xf32, "gpu">
  %c0 = arith.constant 0 : index
  %dim = memref.dim %alloc_1, %c0 : memref<8192x2560xf32, "gpu">
  %c1 = arith.constant 1 : index
  %dim_3 = memref.dim %alloc_1, %c1 : memref<8192x2560xf32, "gpu">
  %0 = arith.muli %dim, %dim_3 : index
  %c256 = arith.constant 256 : index
  %1 = arith.ceildivsi %0, %c256 : index
  %c108 = arith.constant 108 : index
  %2 = arith.cmpi sgt, %1, %c108 : index
  scf.if %2 {
    "lmhlo.fusion"() ({
      "lmhlo.constant"(%alloc) {disc.device = "gpu", value = dense<0.000000e+00> : tensor<f32>} : (memref<f32, "gpu">) -> ()
      "lmhlo.subtract"(%arg0, %arg1, %alloc_0) {disc.device = "gpu"} : (memref<8192x2560xf32, "gpu">, memref<8192x2560xf32, "gpu">, memref<8192x2560xf32, "gpu">) -> ()
      "lmhlo.multiply"(%alloc_0, %arg0, %alloc_1) {disc.device = "gpu"} : (memref<8192x2560xf32, "gpu">, memref<8192x2560xf32, "gpu">, memref<8192x2560xf32, "gpu">) -> ()
      "lmhlo.reduce"(%alloc_1, %alloc, %alloc_2) ({
      ^bb0(%arg2: memref<f32>, %arg3: memref<f32>, %arg4: memref<f32>):
        "lmhlo.add"(%arg2, %arg3, %arg4) {disc.device = "gpu"} : (memref<f32>, memref<f32>, memref<f32>) -> ()
        "lmhlo.terminator"() : () -> ()
      }) {dimensions = dense<0> : tensor<1xi64>, disc.device = "gpu"} : (memref<8192x2560xf32, "gpu">, memref<f32, "gpu">, memref<2560xf32, "gpu">) -> ()
      "lmhlo.terminator"() : () -> ()
    }) {disc.device = "gpu", disc.fusion.name = "main_kColReduction_reduce__4_1_0", disc.fusion.tag = "8w32h", disc.fusion_type = "kColReduction", disc_col_reduction_schedule_hint = 1 : i32, disc_thread_per_block_hint = 256 : i32} : () -> ()
  } else {
    "lmhlo.fusion"() ({
      "lmhlo.constant"(%alloc) {disc.device = "gpu", value = dense<0.000000e+00> : tensor<f32>} : (memref<f32, "gpu">) -> ()
      "lmhlo.subtract"(%arg0, %arg1, %alloc_0) {disc.device = "gpu"} : (memref<8192x2560xf32, "gpu">, memref<8192x2560xf32, "gpu">, memref<8192x2560xf32, "gpu">) -> ()
      "lmhlo.multiply"(%alloc_0, %arg0, %alloc_1) {disc.device = "gpu"} : (memref<8192x2560xf32, "gpu">, memref<8192x2560xf32, "gpu">, memref<8192x2560xf32, "gpu">) -> ()
      "lmhlo.reduce"(%alloc_1, %alloc, %alloc_2) ({
      ^bb0(%arg2: memref<f32>, %arg3: memref<f32>, %arg4: memref<f32>):
        "lmhlo.add"(%arg2, %arg3, %arg4) {disc.device = "gpu"} : (memref<f32>, memref<f32>, memref<f32>) -> ()
        "lmhlo.terminator"() : () -> ()
      }) {dimensions = dense<0> : tensor<1xi64>, disc.device = "gpu"} : (memref<8192x2560xf32, "gpu">, memref<f32, "gpu">, memref<2560xf32, "gpu">) -> ()
      "lmhlo.terminator"() : () -> ()
    }) {disc.device = "gpu", disc.fusion.name = "main_kColReduction_reduce__4_1_0", disc.fusion.tag = "8w16h", disc.fusion_type = "kColReduction", disc_col_reduction_schedule_hint = 2 : i32, disc_thread_per_block_hint = 128 : i32} : () -> ()
  }
  return %alloc_2 : memref<2560xf32, "gpu">
}

// -----// IR Dump After Canonicalizer (canonicalize) //----- //
func.func @main(%arg0: memref<8192x2560xf32, "gpu">, %arg1: memref<8192x2560xf32, "gpu">) -> memref<2560xf32, "gpu"> attributes {tf.entry_function = {input_placements = "gpu,gpu", inputs = "arg0_1.1_,arg1_1.1_", output_placements = "gpu", outputs = "sum_1.1"}} {
  %alloc = memref.alloc() : memref<f32, "gpu">
  %alloc_0 = memref.alloc() : memref<8192x2560xf32, "gpu">
  %alloc_1 = memref.alloc() : memref<8192x2560xf32, "gpu">
  %alloc_2 = memref.alloc() : memref<2560xf32, "gpu">
  "lmhlo.fusion"() ({
    "lmhlo.constant"(%alloc) {disc.device = "gpu", value = dense<0.000000e+00> : tensor<f32>} : (memref<f32, "gpu">) -> ()
    "lmhlo.subtract"(%arg0, %arg1, %alloc_0) {disc.device = "gpu"} : (memref<8192x2560xf32, "gpu">, memref<8192x2560xf32, "gpu">, memref<8192x2560xf32, "gpu">) -> ()
    "lmhlo.multiply"(%alloc_0, %arg0, %alloc_1) {disc.device = "gpu"} : (memref<8192x2560xf32, "gpu">, memref<8192x2560xf32, "gpu">, memref<8192x2560xf32, "gpu">) -> ()
    "lmhlo.reduce"(%alloc_1, %alloc, %alloc_2) ({
    ^bb0(%arg2: memref<f32>, %arg3: memref<f32>, %arg4: memref<f32>):
      "lmhlo.add"(%arg2, %arg3, %arg4) {disc.device = "gpu"} : (memref<f32>, memref<f32>, memref<f32>) -> ()
      "lmhlo.terminator"() : () -> ()
    }) {dimensions = dense<0> : tensor<1xi64>, disc.device = "gpu"} : (memref<8192x2560xf32, "gpu">, memref<f32, "gpu">, memref<2560xf32, "gpu">) -> ()
    "lmhlo.terminator"() : () -> ()
  }) {disc.device = "gpu", disc.fusion.name = "main_kColReduction_reduce__4_1_0", disc.fusion.tag = "8w32h", disc.fusion_type = "kColReduction", disc_col_reduction_schedule_hint = 1 : i32, disc_thread_per_block_hint = 256 : i32} : () -> ()
  return %alloc_2 : memref<2560xf32, "gpu">
}

// -----// IR Dump After BufferDeallocation (buffer-deallocation) //----- //
func.func @main(%arg0: memref<8192x2560xf32, "gpu">, %arg1: memref<8192x2560xf32, "gpu">) -> memref<2560xf32, "gpu"> attributes {tf.entry_function = {input_placements = "gpu,gpu", inputs = "arg0_1.1_,arg1_1.1_", output_placements = "gpu", outputs = "sum_1.1"}} {
  %alloc = memref.alloc() : memref<f32, "gpu">
  %alloc_0 = memref.alloc() : memref<8192x2560xf32, "gpu">
  %alloc_1 = memref.alloc() : memref<8192x2560xf32, "gpu">
  %alloc_2 = memref.alloc() : memref<2560xf32, "gpu">
  "lmhlo.fusion"() ({
    "lmhlo.constant"(%alloc) {disc.device = "gpu", value = dense<0.000000e+00> : tensor<f32>} : (memref<f32, "gpu">) -> ()
    "lmhlo.subtract"(%arg0, %arg1, %alloc_0) {disc.device = "gpu"} : (memref<8192x2560xf32, "gpu">, memref<8192x2560xf32, "gpu">, memref<8192x2560xf32, "gpu">) -> ()
    "lmhlo.multiply"(%alloc_0, %arg0, %alloc_1) {disc.device = "gpu"} : (memref<8192x2560xf32, "gpu">, memref<8192x2560xf32, "gpu">, memref<8192x2560xf32, "gpu">) -> ()
    "lmhlo.reduce"(%alloc_1, %alloc, %alloc_2) ({
    ^bb0(%arg2: memref<f32>, %arg3: memref<f32>, %arg4: memref<f32>):
      "lmhlo.add"(%arg2, %arg3, %arg4) {disc.device = "gpu"} : (memref<f32>, memref<f32>, memref<f32>) -> ()
      "lmhlo.terminator"() : () -> ()
    }) {dimensions = dense<0> : tensor<1xi64>, disc.device = "gpu"} : (memref<8192x2560xf32, "gpu">, memref<f32, "gpu">, memref<2560xf32, "gpu">) -> ()
    "lmhlo.terminator"() : () -> ()
  }) {disc.device = "gpu", disc.fusion.name = "main_kColReduction_reduce__4_1_0", disc.fusion.tag = "8w32h", disc.fusion_type = "kColReduction", disc_col_reduction_schedule_hint = 1 : i32, disc_thread_per_block_hint = 256 : i32} : () -> ()
  memref.dealloc %alloc_1 : memref<8192x2560xf32, "gpu">
  memref.dealloc %alloc_0 : memref<8192x2560xf32, "gpu">
  memref.dealloc %alloc : memref<f32, "gpu">
  return %alloc_2 : memref<2560xf32, "gpu">
}

// -----// IR Dump After RalInjectExecutionContextPass (disc-ral-inject-execution-context) //----- //
module {
  func.func @main(%arg0: !disc_ral.context) attributes {tf.entry_function = {input_placements = "gpu,gpu", inputs = "arg0_1.1_,arg1_1.1_", output_placements = "gpu", outputs = "sum_1.1"}} {
    %c0 = arith.constant 0 : index
    %0 = "disc_ral.recv_input"(%arg0, %c0) : (!disc_ral.context, index) -> memref<8192x2560xf32, "gpu">
    %c1 = arith.constant 1 : index
    %1 = "disc_ral.recv_input"(%arg0, %c1) : (!disc_ral.context, index) -> memref<8192x2560xf32, "gpu">
    %alloc = memref.alloc() : memref<f32, "gpu">
    %alloc_0 = memref.alloc() : memref<8192x2560xf32, "gpu">
    %alloc_1 = memref.alloc() : memref<8192x2560xf32, "gpu">
    %alloc_2 = memref.alloc() : memref<2560xf32, "gpu">
    "lmhlo.fusion"() ({
      "lmhlo.constant"(%alloc) {disc.device = "gpu", value = dense<0.000000e+00> : tensor<f32>} : (memref<f32, "gpu">) -> ()
      "lmhlo.subtract"(%0, %1, %alloc_0) {disc.device = "gpu"} : (memref<8192x2560xf32, "gpu">, memref<8192x2560xf32, "gpu">, memref<8192x2560xf32, "gpu">) -> ()
      "lmhlo.multiply"(%alloc_0, %0, %alloc_1) {disc.device = "gpu"} : (memref<8192x2560xf32, "gpu">, memref<8192x2560xf32, "gpu">, memref<8192x2560xf32, "gpu">) -> ()
      "lmhlo.reduce"(%alloc_1, %alloc, %alloc_2) ({
      ^bb0(%arg1: memref<f32>, %arg2: memref<f32>, %arg3: memref<f32>):
        "lmhlo.add"(%arg1, %arg2, %arg3) {disc.device = "gpu"} : (memref<f32>, memref<f32>, memref<f32>) -> ()
        "lmhlo.terminator"() : () -> ()
      }) {dimensions = dense<0> : tensor<1xi64>, disc.device = "gpu"} : (memref<8192x2560xf32, "gpu">, memref<f32, "gpu">, memref<2560xf32, "gpu">) -> ()
      "lmhlo.terminator"() : () -> ()
    }) {disc.device = "gpu", disc.fusion.name = "main_kColReduction_reduce__4_1_0", disc.fusion.tag = "8w32h", disc.fusion_type = "kColReduction", disc_col_reduction_schedule_hint = 1 : i32, disc_thread_per_block_hint = 256 : i32} : () -> ()
    memref.dealloc %alloc_1 : memref<8192x2560xf32, "gpu">
    memref.dealloc %alloc_0 : memref<8192x2560xf32, "gpu">
    memref.dealloc %alloc : memref<f32, "gpu">
    %c0_3 = arith.constant 0 : index
    "disc_ral.send_output"(%arg0, %c0_3, %alloc_2) : (!disc_ral.context, index, memref<2560xf32, "gpu">) -> ()
    return
  }
  func.func @shape_constraint_graph() {
    return
  }
}


// -----// IR Dump After DiscLowerToLibraryCallPass (disc-lower-to-library-call) //----- //
func.func @main(%arg0: !disc_ral.context) attributes {tf.entry_function = {input_placements = "gpu,gpu", inputs = "arg0_1.1_,arg1_1.1_", output_placements = "gpu", outputs = "sum_1.1"}} {
  %c1 = arith.constant 1 : index
  %c0 = arith.constant 0 : index
  %0 = "disc_ral.dispatch"(%arg0, %c0) {backend_config = "", call_target_name = "ral_recv_input", device = "cpu", has_side_effect = false} : (!disc_ral.context, index) -> memref<8192x2560xf32, "gpu">
  %1 = "disc_ral.dispatch"(%arg0, %c1) {backend_config = "", call_target_name = "ral_recv_input", device = "cpu", has_side_effect = false} : (!disc_ral.context, index) -> memref<8192x2560xf32, "gpu">
  %alloc = memref.alloc() : memref<f32, "gpu">
  %alloc_0 = memref.alloc() : memref<8192x2560xf32, "gpu">
  %alloc_1 = memref.alloc() : memref<8192x2560xf32, "gpu">
  %alloc_2 = memref.alloc() : memref<2560xf32, "gpu">
  "lmhlo.fusion"() ({
    "lmhlo.constant"(%alloc) {disc.device = "gpu", value = dense<0.000000e+00> : tensor<f32>} : (memref<f32, "gpu">) -> ()
    "lmhlo.subtract"(%0, %1, %alloc_0) {disc.device = "gpu"} : (memref<8192x2560xf32, "gpu">, memref<8192x2560xf32, "gpu">, memref<8192x2560xf32, "gpu">) -> ()
    "lmhlo.multiply"(%alloc_0, %0, %alloc_1) {disc.device = "gpu"} : (memref<8192x2560xf32, "gpu">, memref<8192x2560xf32, "gpu">, memref<8192x2560xf32, "gpu">) -> ()
    "lmhlo.reduce"(%alloc_1, %alloc, %alloc_2) ({
    ^bb0(%arg1: memref<f32>, %arg2: memref<f32>, %arg3: memref<f32>):
      "lmhlo.add"(%arg1, %arg2, %arg3) {disc.device = "gpu"} : (memref<f32>, memref<f32>, memref<f32>) -> ()
      "lmhlo.terminator"() : () -> ()
    }) {dimensions = dense<0> : tensor<1xi64>, disc.device = "gpu"} : (memref<8192x2560xf32, "gpu">, memref<f32, "gpu">, memref<2560xf32, "gpu">) -> ()
    "lmhlo.terminator"() : () -> ()
  }) {disc.device = "gpu", disc.fusion.name = "main_kColReduction_reduce__4_1_0", disc.fusion.tag = "8w32h", disc.fusion_type = "kColReduction", disc_col_reduction_schedule_hint = 1 : i32, disc_thread_per_block_hint = 256 : i32} : () -> ()
  memref.dealloc %alloc_1 : memref<8192x2560xf32, "gpu">
  memref.dealloc %alloc_0 : memref<8192x2560xf32, "gpu">
  memref.dealloc %alloc : memref<f32, "gpu">
  "disc_ral.dispatch"(%arg0, %c0, %alloc_2) {backend_config = "", call_target_name = "ral_send_output", device = "cpu", has_side_effect = false} : (!disc_ral.context, index, memref<2560xf32, "gpu">) -> ()
  return
}

kColReduction <main_kColReduction_reduce__4_1_0___8w32h>, use_new: 0 schedule_hint: 1
SymbolicDimMgr::save walkRankedTensorValue takes: 2 us
SymbolicDimMgr::save update attributes takes: 3 us
SymbolicDimMgr::save updateProductEqualityMap takes: 0 us
SymbolicDimMgr::save updateFunctionType takes: 3 us
SymbolicDimMgr::save collect symbolicDim ops takes: 4 us
SymbolicDimMgr::save remove symbolicDim ops takes: 0 us
SymbolicDimMgr::save remove unused production takes: 0 us
SymbolicDimMgr::save remove unused production #2 takes: 0 us
SymbolicDimMgr::save canonicalize the name takes: 0 us
SymbolicDimMgr::save replace the name takes: 3 us
SymbolicDimMgr::save updateFunctionType takes: 1 us
// -----// IR Dump After DiscLhloLegalizeRootsToParallelLoopsPass (disc-lhlo-legalize-roots-to-parallel-loops) //----- //
func.func @main(%arg0: !disc_ral.context) attributes {tf.entry_function = {input_placements = "gpu,gpu", inputs = "arg0_1.1_,arg1_1.1_", output_placements = "gpu", outputs = "sum_1.1"}} {
  %c81920 = arith.constant 81920 : index
  %c8192 = arith.constant 8192 : index
  %c320 = arith.constant 320 : index
  %c128 = arith.constant 128 : index
  %c64 = arith.constant 64 : index
  %c2 = arith.constant 2 : index
  %c4 = arith.constant 4 : index
  %c16 = arith.constant 16 : index
  %c32 = arith.constant 32 : index
  %c8 = arith.constant 8 : index
  %c256 = arith.constant 256 : index
  %c2560 = arith.constant 2560 : index
  %c1 = arith.constant 1 : index
  %c0 = arith.constant 0 : index
  %0 = "disc_ral.dispatch"(%arg0, %c0) {backend_config = "", call_target_name = "ral_recv_input", device = "cpu", has_side_effect = false} : (!disc_ral.context, index) -> memref<8192x2560xf32, "gpu">
  %1 = "disc_ral.dispatch"(%arg0, %c1) {backend_config = "", call_target_name = "ral_recv_input", device = "cpu", has_side_effect = false} : (!disc_ral.context, index) -> memref<8192x2560xf32, "gpu">
  %alloc = memref.alloc() : memref<f32, "gpu">
  %alloc_0 = memref.alloc() : memref<8192x2560xf32, "gpu">
  %alloc_1 = memref.alloc() : memref<8192x2560xf32, "gpu">
  %alloc_2 = memref.alloc() : memref<2560xf32, "gpu">
  "lmhlo.fusion"() ({
    "lmhlo.constant"(%alloc) {disc.device = "gpu", value = dense<0.000000e+00> : tensor<f32>} : (memref<f32, "gpu">) -> ()
    "lmhlo.subtract"(%0, %1, %alloc_0) {disc.device = "gpu"} : (memref<8192x2560xf32, "gpu">, memref<8192x2560xf32, "gpu">, memref<8192x2560xf32, "gpu">) -> ()
    "lmhlo.multiply"(%alloc_0, %0, %alloc_1) {disc.device = "gpu"} : (memref<8192x2560xf32, "gpu">, memref<8192x2560xf32, "gpu">, memref<8192x2560xf32, "gpu">) -> ()
    scf.parallel (%arg1) = (%c0) to (%c2560) step (%c1) {
      %2 = "disc_shape.delinearize"(%arg1, %c2560) : (index, index) -> index
      %3 = memref.load %alloc[] : memref<f32, "gpu">
      memref.store %3, %alloc_2[%2] : memref<2560xf32, "gpu">
      scf.yield
    }
    scf.parallel (%arg1, %arg2) = (%c0, %c0) to (%c81920, %c256) step (%c1, %c1) {
      %2 = memref.load %alloc[] : memref<f32, "gpu">
      %3 = arith.divui %arg2, %c8 : index
      %4 = arith.remui %arg2, %c8 : index
      %5 = arith.divui %arg1, %c320 : index
      %6 = arith.remui %arg1, %c320 : index
      %7 = arith.muli %5, %c32 : index
      %8 = arith.addi %7, %3 : index
      %9 = arith.muli %6, %c8 : index
      %10 = arith.addi %9, %4 : index
      %alloc_3 = memref.alloc() : memref<256xf32, #gpu.address_space<workgroup>>
      %11 = arith.cmpi ult, %8, %c8192 : index
      %12 = arith.cmpi ult, %10, %c2560 : index
      %13 = arith.andi %11, %12 : i1
      scf.if %13 {
        %32 = memref.load %alloc_1[%8, %10] : memref<8192x2560xf32, "gpu">
        %33 = arith.addf %32, %2 : f32
        memref.store %33, %alloc_3[%arg2] : memref<256xf32, #gpu.address_space<workgroup>>
      } else {
        memref.store %2, %alloc_3[%arg2] : memref<256xf32, #gpu.address_space<workgroup>>
      }
      gpu.barrier
      %14 = arith.cmpi ult, %3, %c16 : index
      %15 = arith.addi %8, %c16 : index
      %16 = arith.cmpi ult, %15, %c8192 : index
      %17 = arith.andi %14, %16 : i1
      scf.if %17 {
        %32 = arith.addi %arg2, %c128 : index
        %33 = memref.load %alloc_3[%arg2] : memref<256xf32, #gpu.address_space<workgroup>>
        %34 = memref.load %alloc_3[%32] : memref<256xf32, #gpu.address_space<workgroup>>
        %35 = arith.addf %33, %34 : f32
        memref.store %35, %alloc_3[%arg2] : memref<256xf32, #gpu.address_space<workgroup>>
      }
      gpu.barrier
      %18 = arith.cmpi ult, %3, %c8 : index
      %19 = arith.addi %8, %c8 : index
      %20 = arith.cmpi ult, %19, %c8192 : index
      %21 = arith.andi %18, %20 : i1
      scf.if %21 {
        %32 = arith.addi %arg2, %c64 : index
        %33 = memref.load %alloc_3[%arg2] : memref<256xf32, #gpu.address_space<workgroup>>
        %34 = memref.load %alloc_3[%32] : memref<256xf32, #gpu.address_space<workgroup>>
        %35 = arith.addf %33, %34 : f32
        memref.store %35, %alloc_3[%arg2] : memref<256xf32, #gpu.address_space<workgroup>>
      }
      gpu.barrier
      %22 = arith.cmpi ult, %3, %c4 : index
      %23 = arith.addi %8, %c4 : index
      %24 = arith.cmpi ult, %23, %c8192 : index
      %25 = arith.andi %22, %24 : i1
      scf.if %25 {
        %32 = arith.addi %arg2, %c32 : index
        %33 = memref.load %alloc_3[%arg2] : memref<256xf32, #gpu.address_space<workgroup>>
        %34 = memref.load %alloc_3[%32] : memref<256xf32, #gpu.address_space<workgroup>>
        %35 = arith.addf %33, %34 : f32
        memref.store %35, %alloc_3[%arg2] : memref<256xf32, #gpu.address_space<workgroup>>
      }
      gpu.barrier
      %26 = arith.cmpi ult, %3, %c2 : index
      %27 = arith.addi %8, %c2 : index
      %28 = arith.cmpi ult, %27, %c8192 : index
      %29 = arith.andi %26, %28 : i1
      scf.if %29 {
        %32 = arith.addi %arg2, %c16 : index
        %33 = memref.load %alloc_3[%arg2] : memref<256xf32, #gpu.address_space<workgroup>>
        %34 = memref.load %alloc_3[%32] : memref<256xf32, #gpu.address_space<workgroup>>
        %35 = arith.addf %33, %34 : f32
        memref.store %35, %alloc_3[%arg2] : memref<256xf32, #gpu.address_space<workgroup>>
      }
      gpu.barrier
      %30 = arith.cmpi eq, %3, %c0 : index
      %31 = arith.andi %30, %13 : i1
      scf.if %31 {
        %32 = arith.addi %arg2, %c8 : index
        %33 = memref.load %alloc_3[%arg2] : memref<256xf32, #gpu.address_space<workgroup>>
        %34 = memref.load %alloc_3[%32] : memref<256xf32, #gpu.address_space<workgroup>>
        %35 = arith.addf %33, %34 : f32
        %36 = memref.atomic_rmw addf %35, %alloc_2[%10] : (f32, memref<2560xf32, "gpu">) -> f32
      }
      scf.yield
    }
    "lmhlo.terminator"() : () -> ()
  }) {disc.device = "gpu", disc.fusion.name = "main_kColReduction_reduce__4_1_0", disc.fusion.tag = "8w32h", disc.fusion_type = "kColReduction", disc_col_reduction_schedule_hint = 1 : i32, disc_thread_per_block_hint = 256 : i32} : () -> ()
  memref.dealloc %alloc_1 : memref<8192x2560xf32, "gpu">
  memref.dealloc %alloc_0 : memref<8192x2560xf32, "gpu">
  memref.dealloc %alloc : memref<f32, "gpu">
  "disc_ral.dispatch"(%arg0, %c0, %alloc_2) {backend_config = "", call_target_name = "ral_send_output", device = "cpu", has_side_effect = false} : (!disc_ral.context, index, memref<2560xf32, "gpu">) -> ()
  return
}

// -----// IR Dump After InputInlineFusionPass (disc-input-inline-fusion) //----- //
func.func @main(%arg0: !disc_ral.context) attributes {tf.entry_function = {input_placements = "gpu,gpu", inputs = "arg0_1.1_,arg1_1.1_", output_placements = "gpu", outputs = "sum_1.1"}} {
  %cst = arith.constant 0.000000e+00 : f32
  %c81920 = arith.constant 81920 : index
  %c8192 = arith.constant 8192 : index
  %c320 = arith.constant 320 : index
  %c128 = arith.constant 128 : index
  %c64 = arith.constant 64 : index
  %c2 = arith.constant 2 : index
  %c4 = arith.constant 4 : index
  %c16 = arith.constant 16 : index
  %c32 = arith.constant 32 : index
  %c8 = arith.constant 8 : index
  %c256 = arith.constant 256 : index
  %c2560 = arith.constant 2560 : index
  %c1 = arith.constant 1 : index
  %c0 = arith.constant 0 : index
  %0 = "disc_ral.dispatch"(%arg0, %c0) {backend_config = "", call_target_name = "ral_recv_input", device = "cpu", has_side_effect = false} : (!disc_ral.context, index) -> memref<8192x2560xf32, "gpu">
  %1 = "disc_ral.dispatch"(%arg0, %c1) {backend_config = "", call_target_name = "ral_recv_input", device = "cpu", has_side_effect = false} : (!disc_ral.context, index) -> memref<8192x2560xf32, "gpu">
  %alloc = memref.alloc() : memref<f32, "gpu">
  %alloc_0 = memref.alloc() : memref<8192x2560xf32, "gpu">
  %alloc_1 = memref.alloc() : memref<8192x2560xf32, "gpu">
  %alloc_2 = memref.alloc() : memref<2560xf32, "gpu">
  "lmhlo.fusion"() ({
    scf.parallel (%arg1) = (%c0) to (%c2560) step (%c1) {
      %2 = "disc_shape.delinearize"(%arg1, %c2560) : (index, index) -> index
      memref.store %cst, %alloc_2[%2] : memref<2560xf32, "gpu">
      scf.yield
    }
    scf.parallel (%arg1, %arg2) = (%c0, %c0) to (%c81920, %c256) step (%c1, %c1) {
      %2 = arith.divui %arg2, %c8 : index
      %3 = arith.remui %arg2, %c8 : index
      %4 = arith.divui %arg1, %c320 : index
      %5 = arith.remui %arg1, %c320 : index
      %6 = arith.muli %4, %c32 : index
      %7 = arith.addi %6, %2 : index
      %8 = arith.muli %5, %c8 : index
      %9 = arith.addi %8, %3 : index
      %alloc_3 = memref.alloc() : memref<256xf32, #gpu.address_space<workgroup>>
      %10 = arith.cmpi ult, %7, %c8192 : index
      %11 = arith.cmpi ult, %9, %c2560 : index
      %12 = arith.andi %10, %11 : i1
      scf.if %12 {
        %31 = memref.load %0[%7, %9] : memref<8192x2560xf32, "gpu">
        %32 = memref.load %1[%7, %9] : memref<8192x2560xf32, "gpu">
        %33 = arith.subf %31, %32 : f32
        %34 = memref.load %0[%7, %9] : memref<8192x2560xf32, "gpu">
        %35 = arith.mulf %33, %34 : f32
        %36 = arith.addf %35, %cst : f32
        memref.store %36, %alloc_3[%arg2] : memref<256xf32, #gpu.address_space<workgroup>>
      } else {
        memref.store %cst, %alloc_3[%arg2] : memref<256xf32, #gpu.address_space<workgroup>>
      }
      gpu.barrier
      %13 = arith.cmpi ult, %2, %c16 : index
      %14 = arith.addi %7, %c16 : index
      %15 = arith.cmpi ult, %14, %c8192 : index
      %16 = arith.andi %13, %15 : i1
      scf.if %16 {
        %31 = arith.addi %arg2, %c128 : index
        %32 = memref.load %alloc_3[%arg2] : memref<256xf32, #gpu.address_space<workgroup>>
        %33 = memref.load %alloc_3[%31] : memref<256xf32, #gpu.address_space<workgroup>>
        %34 = arith.addf %32, %33 : f32
        memref.store %34, %alloc_3[%arg2] : memref<256xf32, #gpu.address_space<workgroup>>
      }
      gpu.barrier
      %17 = arith.cmpi ult, %2, %c8 : index
      %18 = arith.addi %7, %c8 : index
      %19 = arith.cmpi ult, %18, %c8192 : index
      %20 = arith.andi %17, %19 : i1
      scf.if %20 {
        %31 = arith.addi %arg2, %c64 : index
        %32 = memref.load %alloc_3[%arg2] : memref<256xf32, #gpu.address_space<workgroup>>
        %33 = memref.load %alloc_3[%31] : memref<256xf32, #gpu.address_space<workgroup>>
        %34 = arith.addf %32, %33 : f32
        memref.store %34, %alloc_3[%arg2] : memref<256xf32, #gpu.address_space<workgroup>>
      }
      gpu.barrier
      %21 = arith.cmpi ult, %2, %c4 : index
      %22 = arith.addi %7, %c4 : index
      %23 = arith.cmpi ult, %22, %c8192 : index
      %24 = arith.andi %21, %23 : i1
      scf.if %24 {
        %31 = arith.addi %arg2, %c32 : index
        %32 = memref.load %alloc_3[%arg2] : memref<256xf32, #gpu.address_space<workgroup>>
        %33 = memref.load %alloc_3[%31] : memref<256xf32, #gpu.address_space<workgroup>>
        %34 = arith.addf %32, %33 : f32
        memref.store %34, %alloc_3[%arg2] : memref<256xf32, #gpu.address_space<workgroup>>
      }
      gpu.barrier
      %25 = arith.cmpi ult, %2, %c2 : index
      %26 = arith.addi %7, %c2 : index
      %27 = arith.cmpi ult, %26, %c8192 : index
      %28 = arith.andi %25, %27 : i1
      scf.if %28 {
        %31 = arith.addi %arg2, %c16 : index
        %32 = memref.load %alloc_3[%arg2] : memref<256xf32, #gpu.address_space<workgroup>>
        %33 = memref.load %alloc_3[%31] : memref<256xf32, #gpu.address_space<workgroup>>
        %34 = arith.addf %32, %33 : f32
        memref.store %34, %alloc_3[%arg2] : memref<256xf32, #gpu.address_space<workgroup>>
      }
      gpu.barrier
      %29 = arith.cmpi eq, %2, %c0 : index
      %30 = arith.andi %29, %12 : i1
      scf.if %30 {
        %31 = arith.addi %arg2, %c8 : index
        %32 = memref.load %alloc_3[%arg2] : memref<256xf32, #gpu.address_space<workgroup>>
        %33 = memref.load %alloc_3[%31] : memref<256xf32, #gpu.address_space<workgroup>>
        %34 = arith.addf %32, %33 : f32
        %35 = memref.atomic_rmw addf %34, %alloc_2[%9] : (f32, memref<2560xf32, "gpu">) -> f32
      }
      scf.yield
    }
    "lmhlo.terminator"() : () -> ()
  }) {disc.device = "gpu", disc.fusion.name = "main_kColReduction_reduce__4_1_0", disc.fusion.tag = "8w32h", disc.fusion_type = "kColReduction", disc_col_reduction_schedule_hint = 1 : i32, disc_thread_per_block_hint = 256 : i32} : () -> ()
  memref.dealloc %alloc_1 : memref<8192x2560xf32, "gpu">
  memref.dealloc %alloc_0 : memref<8192x2560xf32, "gpu">
  memref.dealloc %alloc : memref<f32, "gpu">
  "disc_ral.dispatch"(%arg0, %c0, %alloc_2) {backend_config = "", call_target_name = "ral_send_output", device = "cpu", has_side_effect = false} : (!disc_ral.context, index, memref<2560xf32, "gpu">) -> ()
  return
}

// -----// IR Dump After DiscFlattenMemrefAccessPass (disc-flatten-memref-access) //----- //
func.func @main(%arg0: !disc_ral.context) attributes {tf.entry_function = {input_placements = "gpu,gpu", inputs = "arg0_1.1_,arg1_1.1_", output_placements = "gpu", outputs = "sum_1.1"}} {
  %cst = arith.constant 0.000000e+00 : f32
  %c81920 = arith.constant 81920 : index
  %c8192 = arith.constant 8192 : index
  %c320 = arith.constant 320 : index
  %c128 = arith.constant 128 : index
  %c64 = arith.constant 64 : index
  %c2 = arith.constant 2 : index
  %c4 = arith.constant 4 : index
  %c16 = arith.constant 16 : index
  %c32 = arith.constant 32 : index
  %c8 = arith.constant 8 : index
  %c256 = arith.constant 256 : index
  %c2560 = arith.constant 2560 : index
  %c1 = arith.constant 1 : index
  %c0 = arith.constant 0 : index
  %0 = "disc_ral.dispatch"(%arg0, %c0) {backend_config = "", call_target_name = "ral_recv_input", device = "cpu", has_side_effect = false} : (!disc_ral.context, index) -> memref<8192x2560xf32, "gpu">
  %1 = "disc_ral.dispatch"(%arg0, %c1) {backend_config = "", call_target_name = "ral_recv_input", device = "cpu", has_side_effect = false} : (!disc_ral.context, index) -> memref<8192x2560xf32, "gpu">
  %alloc = memref.alloc() : memref<f32, "gpu">
  %alloc_0 = memref.alloc() : memref<8192x2560xf32, "gpu">
  %alloc_1 = memref.alloc() : memref<8192x2560xf32, "gpu">
  %alloc_2 = memref.alloc() : memref<2560xf32, "gpu">
  "lmhlo.fusion"() ({
    scf.parallel (%arg1) = (%c0) to (%c2560) step (%c1) {
      %2 = "disc_shape.delinearize"(%arg1, %c2560) : (index, index) -> index
      %c2560_3 = arith.constant 2560 : index
      %3 = "disc_shape.linearize"(%2, %c2560_3) {operand_segment_sizes = array<i32: 1, 1>} : (index, index) -> index
      %reinterpret_cast = memref.reinterpret_cast %alloc_2 to offset: [0], sizes: [2560], strides: [1] : memref<2560xf32, "gpu"> to memref<2560xf32, "gpu">
      memref.store %cst, %reinterpret_cast[%3] : memref<2560xf32, "gpu">
      scf.yield
    }
    scf.parallel (%arg1, %arg2) = (%c0, %c0) to (%c81920, %c256) step (%c1, %c1) {
      %2 = arith.divui %arg2, %c8 : index
      %3 = arith.remui %arg2, %c8 : index
      %4 = arith.divui %arg1, %c320 : index
      %5 = arith.remui %arg1, %c320 : index
      %6 = arith.muli %4, %c32 : index
      %7 = arith.addi %6, %2 : index
      %8 = arith.muli %5, %c8 : index
      %9 = arith.addi %8, %3 : index
      %alloc_3 = memref.alloc() : memref<256xf32, #gpu.address_space<workgroup>>
      %10 = arith.cmpi ult, %7, %c8192 : index
      %11 = arith.cmpi ult, %9, %c2560 : index
      %12 = arith.andi %10, %11 : i1
      scf.if %12 {
        %c8192_4 = arith.constant 8192 : index
        %c2560_5 = arith.constant 2560 : index
        %31 = "disc_shape.linearize"(%7, %9, %c8192_4, %c2560_5) {operand_segment_sizes = array<i32: 2, 2>} : (index, index, index, index) -> index
        %reinterpret_cast = memref.reinterpret_cast %0 to offset: [0], sizes: [20971520], strides: [1] : memref<8192x2560xf32, "gpu"> to memref<20971520xf32, "gpu">
        %32 = memref.load %reinterpret_cast[%31] : memref<20971520xf32, "gpu">
        %c8192_6 = arith.constant 8192 : index
        %c2560_7 = arith.constant 2560 : index
        %33 = "disc_shape.linearize"(%7, %9, %c8192_6, %c2560_7) {operand_segment_sizes = array<i32: 2, 2>} : (index, index, index, index) -> index
        %reinterpret_cast_8 = memref.reinterpret_cast %1 to offset: [0], sizes: [20971520], strides: [1] : memref<8192x2560xf32, "gpu"> to memref<20971520xf32, "gpu">
        %34 = memref.load %reinterpret_cast_8[%33] : memref<20971520xf32, "gpu">
        %35 = arith.subf %32, %34 : f32
        %c8192_9 = arith.constant 8192 : index
        %c2560_10 = arith.constant 2560 : index
        %36 = "disc_shape.linearize"(%7, %9, %c8192_9, %c2560_10) {operand_segment_sizes = array<i32: 2, 2>} : (index, index, index, index) -> index
        %reinterpret_cast_11 = memref.reinterpret_cast %0 to offset: [0], sizes: [20971520], strides: [1] : memref<8192x2560xf32, "gpu"> to memref<20971520xf32, "gpu">
        %37 = memref.load %reinterpret_cast_11[%36] : memref<20971520xf32, "gpu">
        %38 = arith.mulf %35, %37 : f32
        %39 = arith.addf %38, %cst : f32
        %c256_12 = arith.constant 256 : index
        %40 = "disc_shape.linearize"(%arg2, %c256_12) {operand_segment_sizes = array<i32: 1, 1>} : (index, index) -> index
        %reinterpret_cast_13 = memref.reinterpret_cast %alloc_3 to offset: [0], sizes: [256], strides: [1] : memref<256xf32, #gpu.address_space<workgroup>> to memref<256xf32, #gpu.address_space<workgroup>>
        memref.store %39, %reinterpret_cast_13[%40] : memref<256xf32, #gpu.address_space<workgroup>>
      } else {
        %c256_4 = arith.constant 256 : index
        %31 = "disc_shape.linearize"(%arg2, %c256_4) {operand_segment_sizes = array<i32: 1, 1>} : (index, index) -> index
        %reinterpret_cast = memref.reinterpret_cast %alloc_3 to offset: [0], sizes: [256], strides: [1] : memref<256xf32, #gpu.address_space<workgroup>> to memref<256xf32, #gpu.address_space<workgroup>>
        memref.store %cst, %reinterpret_cast[%31] : memref<256xf32, #gpu.address_space<workgroup>>
      }
      gpu.barrier
      %13 = arith.cmpi ult, %2, %c16 : index
      %14 = arith.addi %7, %c16 : index
      %15 = arith.cmpi ult, %14, %c8192 : index
      %16 = arith.andi %13, %15 : i1
      scf.if %16 {
        %31 = arith.addi %arg2, %c128 : index
        %c256_4 = arith.constant 256 : index
        %32 = "disc_shape.linearize"(%arg2, %c256_4) {operand_segment_sizes = array<i32: 1, 1>} : (index, index) -> index
        %reinterpret_cast = memref.reinterpret_cast %alloc_3 to offset: [0], sizes: [256], strides: [1] : memref<256xf32, #gpu.address_space<workgroup>> to memref<256xf32, #gpu.address_space<workgroup>>
        %33 = memref.load %reinterpret_cast[%32] : memref<256xf32, #gpu.address_space<workgroup>>
        %c256_5 = arith.constant 256 : index
        %34 = "disc_shape.linearize"(%31, %c256_5) {operand_segment_sizes = array<i32: 1, 1>} : (index, index) -> index
        %reinterpret_cast_6 = memref.reinterpret_cast %alloc_3 to offset: [0], sizes: [256], strides: [1] : memref<256xf32, #gpu.address_space<workgroup>> to memref<256xf32, #gpu.address_space<workgroup>>
        %35 = memref.load %reinterpret_cast_6[%34] : memref<256xf32, #gpu.address_space<workgroup>>
        %36 = arith.addf %33, %35 : f32
        %c256_7 = arith.constant 256 : index
        %37 = "disc_shape.linearize"(%arg2, %c256_7) {operand_segment_sizes = array<i32: 1, 1>} : (index, index) -> index
        %reinterpret_cast_8 = memref.reinterpret_cast %alloc_3 to offset: [0], sizes: [256], strides: [1] : memref<256xf32, #gpu.address_space<workgroup>> to memref<256xf32, #gpu.address_space<workgroup>>
        memref.store %36, %reinterpret_cast_8[%37] : memref<256xf32, #gpu.address_space<workgroup>>
      }
      gpu.barrier
      %17 = arith.cmpi ult, %2, %c8 : index
      %18 = arith.addi %7, %c8 : index
      %19 = arith.cmpi ult, %18, %c8192 : index
      %20 = arith.andi %17, %19 : i1
      scf.if %20 {
        %31 = arith.addi %arg2, %c64 : index
        %c256_4 = arith.constant 256 : index
        %32 = "disc_shape.linearize"(%arg2, %c256_4) {operand_segment_sizes = array<i32: 1, 1>} : (index, index) -> index
        %reinterpret_cast = memref.reinterpret_cast %alloc_3 to offset: [0], sizes: [256], strides: [1] : memref<256xf32, #gpu.address_space<workgroup>> to memref<256xf32, #gpu.address_space<workgroup>>
        %33 = memref.load %reinterpret_cast[%32] : memref<256xf32, #gpu.address_space<workgroup>>
        %c256_5 = arith.constant 256 : index
        %34 = "disc_shape.linearize"(%31, %c256_5) {operand_segment_sizes = array<i32: 1, 1>} : (index, index) -> index
        %reinterpret_cast_6 = memref.reinterpret_cast %alloc_3 to offset: [0], sizes: [256], strides: [1] : memref<256xf32, #gpu.address_space<workgroup>> to memref<256xf32, #gpu.address_space<workgroup>>
        %35 = memref.load %reinterpret_cast_6[%34] : memref<256xf32, #gpu.address_space<workgroup>>
        %36 = arith.addf %33, %35 : f32
        %c256_7 = arith.constant 256 : index
        %37 = "disc_shape.linearize"(%arg2, %c256_7) {operand_segment_sizes = array<i32: 1, 1>} : (index, index) -> index
        %reinterpret_cast_8 = memref.reinterpret_cast %alloc_3 to offset: [0], sizes: [256], strides: [1] : memref<256xf32, #gpu.address_space<workgroup>> to memref<256xf32, #gpu.address_space<workgroup>>
        memref.store %36, %reinterpret_cast_8[%37] : memref<256xf32, #gpu.address_space<workgroup>>
      }
      gpu.barrier
      %21 = arith.cmpi ult, %2, %c4 : index
      %22 = arith.addi %7, %c4 : index
      %23 = arith.cmpi ult, %22, %c8192 : index
      %24 = arith.andi %21, %23 : i1
      scf.if %24 {
        %31 = arith.addi %arg2, %c32 : index
        %c256_4 = arith.constant 256 : index
        %32 = "disc_shape.linearize"(%arg2, %c256_4) {operand_segment_sizes = array<i32: 1, 1>} : (index, index) -> index
        %reinterpret_cast = memref.reinterpret_cast %alloc_3 to offset: [0], sizes: [256], strides: [1] : memref<256xf32, #gpu.address_space<workgroup>> to memref<256xf32, #gpu.address_space<workgroup>>
        %33 = memref.load %reinterpret_cast[%32] : memref<256xf32, #gpu.address_space<workgroup>>
        %c256_5 = arith.constant 256 : index
        %34 = "disc_shape.linearize"(%31, %c256_5) {operand_segment_sizes = array<i32: 1, 1>} : (index, index) -> index
        %reinterpret_cast_6 = memref.reinterpret_cast %alloc_3 to offset: [0], sizes: [256], strides: [1] : memref<256xf32, #gpu.address_space<workgroup>> to memref<256xf32, #gpu.address_space<workgroup>>
        %35 = memref.load %reinterpret_cast_6[%34] : memref<256xf32, #gpu.address_space<workgroup>>
        %36 = arith.addf %33, %35 : f32
        %c256_7 = arith.constant 256 : index
        %37 = "disc_shape.linearize"(%arg2, %c256_7) {operand_segment_sizes = array<i32: 1, 1>} : (index, index) -> index
        %reinterpret_cast_8 = memref.reinterpret_cast %alloc_3 to offset: [0], sizes: [256], strides: [1] : memref<256xf32, #gpu.address_space<workgroup>> to memref<256xf32, #gpu.address_space<workgroup>>
        memref.store %36, %reinterpret_cast_8[%37] : memref<256xf32, #gpu.address_space<workgroup>>
      }
      gpu.barrier
      %25 = arith.cmpi ult, %2, %c2 : index
      %26 = arith.addi %7, %c2 : index
      %27 = arith.cmpi ult, %26, %c8192 : index
      %28 = arith.andi %25, %27 : i1
      scf.if %28 {
        %31 = arith.addi %arg2, %c16 : index
        %c256_4 = arith.constant 256 : index
        %32 = "disc_shape.linearize"(%arg2, %c256_4) {operand_segment_sizes = array<i32: 1, 1>} : (index, index) -> index
        %reinterpret_cast = memref.reinterpret_cast %alloc_3 to offset: [0], sizes: [256], strides: [1] : memref<256xf32, #gpu.address_space<workgroup>> to memref<256xf32, #gpu.address_space<workgroup>>
        %33 = memref.load %reinterpret_cast[%32] : memref<256xf32, #gpu.address_space<workgroup>>
        %c256_5 = arith.constant 256 : index
        %34 = "disc_shape.linearize"(%31, %c256_5) {operand_segment_sizes = array<i32: 1, 1>} : (index, index) -> index
        %reinterpret_cast_6 = memref.reinterpret_cast %alloc_3 to offset: [0], sizes: [256], strides: [1] : memref<256xf32, #gpu.address_space<workgroup>> to memref<256xf32, #gpu.address_space<workgroup>>
        %35 = memref.load %reinterpret_cast_6[%34] : memref<256xf32, #gpu.address_space<workgroup>>
        %36 = arith.addf %33, %35 : f32
        %c256_7 = arith.constant 256 : index
        %37 = "disc_shape.linearize"(%arg2, %c256_7) {operand_segment_sizes = array<i32: 1, 1>} : (index, index) -> index
        %reinterpret_cast_8 = memref.reinterpret_cast %alloc_3 to offset: [0], sizes: [256], strides: [1] : memref<256xf32, #gpu.address_space<workgroup>> to memref<256xf32, #gpu.address_space<workgroup>>
        memref.store %36, %reinterpret_cast_8[%37] : memref<256xf32, #gpu.address_space<workgroup>>
      }
      gpu.barrier
      %29 = arith.cmpi eq, %2, %c0 : index
      %30 = arith.andi %29, %12 : i1
      scf.if %30 {
        %31 = arith.addi %arg2, %c8 : index
        %c256_4 = arith.constant 256 : index
        %32 = "disc_shape.linearize"(%arg2, %c256_4) {operand_segment_sizes = array<i32: 1, 1>} : (index, index) -> index
        %reinterpret_cast = memref.reinterpret_cast %alloc_3 to offset: [0], sizes: [256], strides: [1] : memref<256xf32, #gpu.address_space<workgroup>> to memref<256xf32, #gpu.address_space<workgroup>>
        %33 = memref.load %reinterpret_cast[%32] : memref<256xf32, #gpu.address_space<workgroup>>
        %c256_5 = arith.constant 256 : index
        %34 = "disc_shape.linearize"(%31, %c256_5) {operand_segment_sizes = array<i32: 1, 1>} : (index, index) -> index
        %reinterpret_cast_6 = memref.reinterpret_cast %alloc_3 to offset: [0], sizes: [256], strides: [1] : memref<256xf32, #gpu.address_space<workgroup>> to memref<256xf32, #gpu.address_space<workgroup>>
        %35 = memref.load %reinterpret_cast_6[%34] : memref<256xf32, #gpu.address_space<workgroup>>
        %36 = arith.addf %33, %35 : f32
        %37 = memref.atomic_rmw addf %36, %alloc_2[%9] : (f32, memref<2560xf32, "gpu">) -> f32
      }
      scf.yield
    }
    "lmhlo.terminator"() : () -> ()
  }) {disc.device = "gpu", disc.fusion.name = "main_kColReduction_reduce__4_1_0", disc.fusion.tag = "8w32h", disc.fusion_type = "kColReduction", disc_col_reduction_schedule_hint = 1 : i32, disc_thread_per_block_hint = 256 : i32} : () -> ()
  memref.dealloc %alloc_1 : memref<8192x2560xf32, "gpu">
  memref.dealloc %alloc_0 : memref<8192x2560xf32, "gpu">
  memref.dealloc %alloc : memref<f32, "gpu">
  "disc_ral.dispatch"(%arg0, %c0, %alloc_2) {backend_config = "", call_target_name = "ral_send_output", device = "cpu", has_side_effect = false} : (!disc_ral.context, index, memref<2560xf32, "gpu">) -> ()
  return
}

// -----// IR Dump After Canonicalizer (disc-canonicalize) //----- //
func.func @main(%arg0: !disc_ral.context) attributes {tf.entry_function = {input_placements = "gpu,gpu", inputs = "arg0_1.1_,arg1_1.1_", output_placements = "gpu", outputs = "sum_1.1"}} {
  %cst = arith.constant 0.000000e+00 : f32
  %c81920 = arith.constant 81920 : index
  %c8192 = arith.constant 8192 : index
  %c320 = arith.constant 320 : index
  %c128 = arith.constant 128 : index
  %c64 = arith.constant 64 : index
  %c2 = arith.constant 2 : index
  %c4 = arith.constant 4 : index
  %c16 = arith.constant 16 : index
  %c32 = arith.constant 32 : index
  %c8 = arith.constant 8 : index
  %c256 = arith.constant 256 : index
  %c2560 = arith.constant 2560 : index
  %c1 = arith.constant 1 : index
  %c0 = arith.constant 0 : index
  %0 = "disc_ral.dispatch"(%arg0, %c0) {backend_config = "", call_target_name = "ral_recv_input", device = "cpu", has_side_effect = false} : (!disc_ral.context, index) -> memref<8192x2560xf32, "gpu">
  %1 = "disc_ral.dispatch"(%arg0, %c1) {backend_config = "", call_target_name = "ral_recv_input", device = "cpu", has_side_effect = false} : (!disc_ral.context, index) -> memref<8192x2560xf32, "gpu">
  %alloc = memref.alloc() : memref<2560xf32, "gpu">
  "lmhlo.fusion"() ({
    scf.parallel (%arg1) = (%c0) to (%c2560) step (%c1) {
      %reinterpret_cast = memref.reinterpret_cast %alloc to offset: [0], sizes: [2560], strides: [1] : memref<2560xf32, "gpu"> to memref<2560xf32, "gpu">
      memref.store %cst, %reinterpret_cast[%arg1] : memref<2560xf32, "gpu">
      scf.yield
    }
    scf.parallel (%arg1, %arg2) = (%c0, %c0) to (%c81920, %c256) step (%c1, %c1) {
      %2 = arith.divui %arg2, %c8 : index
      %3 = arith.remui %arg2, %c8 : index
      %4 = arith.divui %arg1, %c320 : index
      %5 = arith.remui %arg1, %c320 : index
      %6 = arith.muli %4, %c32 : index
      %7 = arith.addi %6, %2 : index
      %8 = arith.muli %5, %c8 : index
      %9 = arith.addi %8, %3 : index
      %alloc_0 = memref.alloc() : memref<256xf32, #gpu.address_space<workgroup>>
      %10 = arith.cmpi ult, %7, %c8192 : index
      %11 = arith.cmpi ult, %9, %c2560 : index
      %12 = arith.andi %10, %11 : i1
      scf.if %12 {
        %31 = "disc_shape.linearize"(%7, %9, %c8192, %c2560) {operand_segment_sizes = array<i32: 2, 2>} : (index, index, index, index) -> index
        %reinterpret_cast = memref.reinterpret_cast %0 to offset: [0], sizes: [20971520], strides: [1] : memref<8192x2560xf32, "gpu"> to memref<20971520xf32, "gpu">
        %32 = memref.load %reinterpret_cast[%31] : memref<20971520xf32, "gpu">
        %33 = "disc_shape.linearize"(%7, %9, %c8192, %c2560) {operand_segment_sizes = array<i32: 2, 2>} : (index, index, index, index) -> index
        %reinterpret_cast_1 = memref.reinterpret_cast %1 to offset: [0], sizes: [20971520], strides: [1] : memref<8192x2560xf32, "gpu"> to memref<20971520xf32, "gpu">
        %34 = memref.load %reinterpret_cast_1[%33] : memref<20971520xf32, "gpu">
        %35 = arith.subf %32, %34 : f32
        %36 = "disc_shape.linearize"(%7, %9, %c8192, %c2560) {operand_segment_sizes = array<i32: 2, 2>} : (index, index, index, index) -> index
        %reinterpret_cast_2 = memref.reinterpret_cast %0 to offset: [0], sizes: [20971520], strides: [1] : memref<8192x2560xf32, "gpu"> to memref<20971520xf32, "gpu">
        %37 = memref.load %reinterpret_cast_2[%36] : memref<20971520xf32, "gpu">
        %38 = arith.mulf %35, %37 : f32
        %39 = arith.addf %38, %cst : f32
        %40 = "disc_shape.linearize"(%arg2, %c256) {operand_segment_sizes = array<i32: 1, 1>} : (index, index) -> index
        %reinterpret_cast_3 = memref.reinterpret_cast %alloc_0 to offset: [0], sizes: [256], strides: [1] : memref<256xf32, #gpu.address_space<workgroup>> to memref<256xf32, #gpu.address_space<workgroup>>
        memref.store %39, %reinterpret_cast_3[%40] : memref<256xf32, #gpu.address_space<workgroup>>
      } else {
        %31 = "disc_shape.linearize"(%arg2, %c256) {operand_segment_sizes = array<i32: 1, 1>} : (index, index) -> index
        %reinterpret_cast = memref.reinterpret_cast %alloc_0 to offset: [0], sizes: [256], strides: [1] : memref<256xf32, #gpu.address_space<workgroup>> to memref<256xf32, #gpu.address_space<workgroup>>
        memref.store %cst, %reinterpret_cast[%31] : memref<256xf32, #gpu.address_space<workgroup>>
      }
      gpu.barrier
      %13 = arith.cmpi ult, %2, %c16 : index
      %14 = arith.addi %7, %c16 : index
      %15 = arith.cmpi ult, %14, %c8192 : index
      %16 = arith.andi %13, %15 : i1
      scf.if %16 {
        %31 = arith.addi %arg2, %c128 : index
        %32 = "disc_shape.linearize"(%arg2, %c256) {operand_segment_sizes = array<i32: 1, 1>} : (index, index) -> index
        %reinterpret_cast = memref.reinterpret_cast %alloc_0 to offset: [0], sizes: [256], strides: [1] : memref<256xf32, #gpu.address_space<workgroup>> to memref<256xf32, #gpu.address_space<workgroup>>
        %33 = memref.load %reinterpret_cast[%32] : memref<256xf32, #gpu.address_space<workgroup>>
        %34 = "disc_shape.linearize"(%31, %c256) {operand_segment_sizes = array<i32: 1, 1>} : (index, index) -> index
        %reinterpret_cast_1 = memref.reinterpret_cast %alloc_0 to offset: [0], sizes: [256], strides: [1] : memref<256xf32, #gpu.address_space<workgroup>> to memref<256xf32, #gpu.address_space<workgroup>>
        %35 = memref.load %reinterpret_cast_1[%34] : memref<256xf32, #gpu.address_space<workgroup>>
        %36 = arith.addf %33, %35 : f32
        %37 = "disc_shape.linearize"(%arg2, %c256) {operand_segment_sizes = array<i32: 1, 1>} : (index, index) -> index
        %reinterpret_cast_2 = memref.reinterpret_cast %alloc_0 to offset: [0], sizes: [256], strides: [1] : memref<256xf32, #gpu.address_space<workgroup>> to memref<256xf32, #gpu.address_space<workgroup>>
        memref.store %36, %reinterpret_cast_2[%37] : memref<256xf32, #gpu.address_space<workgroup>>
      }
      gpu.barrier
      %17 = arith.cmpi ult, %2, %c8 : index
      %18 = arith.addi %7, %c8 : index
      %19 = arith.cmpi ult, %18, %c8192 : index
      %20 = arith.andi %17, %19 : i1
      scf.if %20 {
        %31 = arith.addi %arg2, %c64 : index
        %32 = "disc_shape.linearize"(%arg2, %c256) {operand_segment_sizes = array<i32: 1, 1>} : (index, index) -> index
        %reinterpret_cast = memref.reinterpret_cast %alloc_0 to offset: [0], sizes: [256], strides: [1] : memref<256xf32, #gpu.address_space<workgroup>> to memref<256xf32, #gpu.address_space<workgroup>>
        %33 = memref.load %reinterpret_cast[%32] : memref<256xf32, #gpu.address_space<workgroup>>
        %34 = "disc_shape.linearize"(%31, %c256) {operand_segment_sizes = array<i32: 1, 1>} : (index, index) -> index
        %reinterpret_cast_1 = memref.reinterpret_cast %alloc_0 to offset: [0], sizes: [256], strides: [1] : memref<256xf32, #gpu.address_space<workgroup>> to memref<256xf32, #gpu.address_space<workgroup>>
        %35 = memref.load %reinterpret_cast_1[%34] : memref<256xf32, #gpu.address_space<workgroup>>
        %36 = arith.addf %33, %35 : f32
        %37 = "disc_shape.linearize"(%arg2, %c256) {operand_segment_sizes = array<i32: 1, 1>} : (index, index) -> index
        %reinterpret_cast_2 = memref.reinterpret_cast %alloc_0 to offset: [0], sizes: [256], strides: [1] : memref<256xf32, #gpu.address_space<workgroup>> to memref<256xf32, #gpu.address_space<workgroup>>
        memref.store %36, %reinterpret_cast_2[%37] : memref<256xf32, #gpu.address_space<workgroup>>
      }
      gpu.barrier
      %21 = arith.cmpi ult, %2, %c4 : index
      %22 = arith.addi %7, %c4 : index
      %23 = arith.cmpi ult, %22, %c8192 : index
      %24 = arith.andi %21, %23 : i1
      scf.if %24 {
        %31 = arith.addi %arg2, %c32 : index
        %32 = "disc_shape.linearize"(%arg2, %c256) {operand_segment_sizes = array<i32: 1, 1>} : (index, index) -> index
        %reinterpret_cast = memref.reinterpret_cast %alloc_0 to offset: [0], sizes: [256], strides: [1] : memref<256xf32, #gpu.address_space<workgroup>> to memref<256xf32, #gpu.address_space<workgroup>>
        %33 = memref.load %reinterpret_cast[%32] : memref<256xf32, #gpu.address_space<workgroup>>
        %34 = "disc_shape.linearize"(%31, %c256) {operand_segment_sizes = array<i32: 1, 1>} : (index, index) -> index
        %reinterpret_cast_1 = memref.reinterpret_cast %alloc_0 to offset: [0], sizes: [256], strides: [1] : memref<256xf32, #gpu.address_space<workgroup>> to memref<256xf32, #gpu.address_space<workgroup>>
        %35 = memref.load %reinterpret_cast_1[%34] : memref<256xf32, #gpu.address_space<workgroup>>
        %36 = arith.addf %33, %35 : f32
        %37 = "disc_shape.linearize"(%arg2, %c256) {operand_segment_sizes = array<i32: 1, 1>} : (index, index) -> index
        %reinterpret_cast_2 = memref.reinterpret_cast %alloc_0 to offset: [0], sizes: [256], strides: [1] : memref<256xf32, #gpu.address_space<workgroup>> to memref<256xf32, #gpu.address_space<workgroup>>
        memref.store %36, %reinterpret_cast_2[%37] : memref<256xf32, #gpu.address_space<workgroup>>
      }
      gpu.barrier
      %25 = arith.cmpi ult, %2, %c2 : index
      %26 = arith.addi %7, %c2 : index
      %27 = arith.cmpi ult, %26, %c8192 : index
      %28 = arith.andi %25, %27 : i1
      scf.if %28 {
        %31 = arith.addi %arg2, %c16 : index
        %32 = "disc_shape.linearize"(%arg2, %c256) {operand_segment_sizes = array<i32: 1, 1>} : (index, index) -> index
        %reinterpret_cast = memref.reinterpret_cast %alloc_0 to offset: [0], sizes: [256], strides: [1] : memref<256xf32, #gpu.address_space<workgroup>> to memref<256xf32, #gpu.address_space<workgroup>>
        %33 = memref.load %reinterpret_cast[%32] : memref<256xf32, #gpu.address_space<workgroup>>
        %34 = "disc_shape.linearize"(%31, %c256) {operand_segment_sizes = array<i32: 1, 1>} : (index, index) -> index
        %reinterpret_cast_1 = memref.reinterpret_cast %alloc_0 to offset: [0], sizes: [256], strides: [1] : memref<256xf32, #gpu.address_space<workgroup>> to memref<256xf32, #gpu.address_space<workgroup>>
        %35 = memref.load %reinterpret_cast_1[%34] : memref<256xf32, #gpu.address_space<workgroup>>
        %36 = arith.addf %33, %35 : f32
        %37 = "disc_shape.linearize"(%arg2, %c256) {operand_segment_sizes = array<i32: 1, 1>} : (index, index) -> index
        %reinterpret_cast_2 = memref.reinterpret_cast %alloc_0 to offset: [0], sizes: [256], strides: [1] : memref<256xf32, #gpu.address_space<workgroup>> to memref<256xf32, #gpu.address_space<workgroup>>
        memref.store %36, %reinterpret_cast_2[%37] : memref<256xf32, #gpu.address_space<workgroup>>
      }
      gpu.barrier
      %29 = arith.cmpi eq, %2, %c0 : index
      %30 = arith.andi %29, %12 : i1
      scf.if %30 {
        %31 = arith.addi %arg2, %c8 : index
        %32 = "disc_shape.linearize"(%arg2, %c256) {operand_segment_sizes = array<i32: 1, 1>} : (index, index) -> index
        %reinterpret_cast = memref.reinterpret_cast %alloc_0 to offset: [0], sizes: [256], strides: [1] : memref<256xf32, #gpu.address_space<workgroup>> to memref<256xf32, #gpu.address_space<workgroup>>
        %33 = memref.load %reinterpret_cast[%32] : memref<256xf32, #gpu.address_space<workgroup>>
        %34 = "disc_shape.linearize"(%31, %c256) {operand_segment_sizes = array<i32: 1, 1>} : (index, index) -> index
        %reinterpret_cast_1 = memref.reinterpret_cast %alloc_0 to offset: [0], sizes: [256], strides: [1] : memref<256xf32, #gpu.address_space<workgroup>> to memref<256xf32, #gpu.address_space<workgroup>>
        %35 = memref.load %reinterpret_cast_1[%34] : memref<256xf32, #gpu.address_space<workgroup>>
        %36 = arith.addf %33, %35 : f32
        %37 = memref.atomic_rmw addf %36, %alloc[%9] : (f32, memref<2560xf32, "gpu">) -> f32
      }
      scf.yield
    }
    "lmhlo.terminator"() : () -> ()
  }) {disc.device = "gpu", disc.fusion.name = "main_kColReduction_reduce__4_1_0", disc.fusion.tag = "8w32h", disc.fusion_type = "kColReduction", disc_col_reduction_schedule_hint = 1 : i32, disc_thread_per_block_hint = 256 : i32} : () -> ()
  "disc_ral.dispatch"(%arg0, %c0, %alloc) {backend_config = "", call_target_name = "ral_send_output", device = "cpu", has_side_effect = false} : (!disc_ral.context, index, memref<2560xf32, "gpu">) -> ()
  return
}

// -----// IR Dump After CSE (cse) //----- //
func.func @main(%arg0: !disc_ral.context) attributes {tf.entry_function = {input_placements = "gpu,gpu", inputs = "arg0_1.1_,arg1_1.1_", output_placements = "gpu", outputs = "sum_1.1"}} {
  %cst = arith.constant 0.000000e+00 : f32
  %c81920 = arith.constant 81920 : index
  %c8192 = arith.constant 8192 : index
  %c320 = arith.constant 320 : index
  %c128 = arith.constant 128 : index
  %c64 = arith.constant 64 : index
  %c2 = arith.constant 2 : index
  %c4 = arith.constant 4 : index
  %c16 = arith.constant 16 : index
  %c32 = arith.constant 32 : index
  %c8 = arith.constant 8 : index
  %c256 = arith.constant 256 : index
  %c2560 = arith.constant 2560 : index
  %c1 = arith.constant 1 : index
  %c0 = arith.constant 0 : index
  %0 = "disc_ral.dispatch"(%arg0, %c0) {backend_config = "", call_target_name = "ral_recv_input", device = "cpu", has_side_effect = false} : (!disc_ral.context, index) -> memref<8192x2560xf32, "gpu">
  %1 = "disc_ral.dispatch"(%arg0, %c1) {backend_config = "", call_target_name = "ral_recv_input", device = "cpu", has_side_effect = false} : (!disc_ral.context, index) -> memref<8192x2560xf32, "gpu">
  %alloc = memref.alloc() : memref<2560xf32, "gpu">
  "lmhlo.fusion"() ({
    scf.parallel (%arg1) = (%c0) to (%c2560) step (%c1) {
      %reinterpret_cast = memref.reinterpret_cast %alloc to offset: [0], sizes: [2560], strides: [1] : memref<2560xf32, "gpu"> to memref<2560xf32, "gpu">
      memref.store %cst, %reinterpret_cast[%arg1] : memref<2560xf32, "gpu">
      scf.yield
    }
    scf.parallel (%arg1, %arg2) = (%c0, %c0) to (%c81920, %c256) step (%c1, %c1) {
      %2 = arith.divui %arg2, %c8 : index
      %3 = arith.remui %arg2, %c8 : index
      %4 = arith.divui %arg1, %c320 : index
      %5 = arith.remui %arg1, %c320 : index
      %6 = arith.muli %4, %c32 : index
      %7 = arith.addi %6, %2 : index
      %8 = arith.muli %5, %c8 : index
      %9 = arith.addi %8, %3 : index
      %alloc_0 = memref.alloc() : memref<256xf32, #gpu.address_space<workgroup>>
      %10 = arith.cmpi ult, %7, %c8192 : index
      %11 = arith.cmpi ult, %9, %c2560 : index
      %12 = arith.andi %10, %11 : i1
      scf.if %12 {
        %31 = "disc_shape.linearize"(%7, %9, %c8192, %c2560) {operand_segment_sizes = array<i32: 2, 2>} : (index, index, index, index) -> index
        %reinterpret_cast = memref.reinterpret_cast %0 to offset: [0], sizes: [20971520], strides: [1] : memref<8192x2560xf32, "gpu"> to memref<20971520xf32, "gpu">
        %32 = memref.load %reinterpret_cast[%31] : memref<20971520xf32, "gpu">
        %reinterpret_cast_1 = memref.reinterpret_cast %1 to offset: [0], sizes: [20971520], strides: [1] : memref<8192x2560xf32, "gpu"> to memref<20971520xf32, "gpu">
        %33 = memref.load %reinterpret_cast_1[%31] : memref<20971520xf32, "gpu">
        %34 = arith.subf %32, %33 : f32
        %35 = arith.mulf %34, %32 : f32
        %36 = arith.addf %35, %cst : f32
        %37 = "disc_shape.linearize"(%arg2, %c256) {operand_segment_sizes = array<i32: 1, 1>} : (index, index) -> index
        %reinterpret_cast_2 = memref.reinterpret_cast %alloc_0 to offset: [0], sizes: [256], strides: [1] : memref<256xf32, #gpu.address_space<workgroup>> to memref<256xf32, #gpu.address_space<workgroup>>
        memref.store %36, %reinterpret_cast_2[%37] : memref<256xf32, #gpu.address_space<workgroup>>
      } else {
        %31 = "disc_shape.linearize"(%arg2, %c256) {operand_segment_sizes = array<i32: 1, 1>} : (index, index) -> index
        %reinterpret_cast = memref.reinterpret_cast %alloc_0 to offset: [0], sizes: [256], strides: [1] : memref<256xf32, #gpu.address_space<workgroup>> to memref<256xf32, #gpu.address_space<workgroup>>
        memref.store %cst, %reinterpret_cast[%31] : memref<256xf32, #gpu.address_space<workgroup>>
      }
      gpu.barrier
      %13 = arith.cmpi ult, %2, %c16 : index
      %14 = arith.addi %7, %c16 : index
      %15 = arith.cmpi ult, %14, %c8192 : index
      %16 = arith.andi %13, %15 : i1
      scf.if %16 {
        %31 = arith.addi %arg2, %c128 : index
        %32 = "disc_shape.linearize"(%arg2, %c256) {operand_segment_sizes = array<i32: 1, 1>} : (index, index) -> index
        %reinterpret_cast = memref.reinterpret_cast %alloc_0 to offset: [0], sizes: [256], strides: [1] : memref<256xf32, #gpu.address_space<workgroup>> to memref<256xf32, #gpu.address_space<workgroup>>
        %33 = memref.load %reinterpret_cast[%32] : memref<256xf32, #gpu.address_space<workgroup>>
        %34 = "disc_shape.linearize"(%31, %c256) {operand_segment_sizes = array<i32: 1, 1>} : (index, index) -> index
        %35 = memref.load %reinterpret_cast[%34] : memref<256xf32, #gpu.address_space<workgroup>>
        %36 = arith.addf %33, %35 : f32
        memref.store %36, %reinterpret_cast[%32] : memref<256xf32, #gpu.address_space<workgroup>>
      }
      gpu.barrier
      %17 = arith.cmpi ult, %2, %c8 : index
      %18 = arith.addi %7, %c8 : index
      %19 = arith.cmpi ult, %18, %c8192 : index
      %20 = arith.andi %17, %19 : i1
      scf.if %20 {
        %31 = arith.addi %arg2, %c64 : index
        %32 = "disc_shape.linearize"(%arg2, %c256) {operand_segment_sizes = array<i32: 1, 1>} : (index, index) -> index
        %reinterpret_cast = memref.reinterpret_cast %alloc_0 to offset: [0], sizes: [256], strides: [1] : memref<256xf32, #gpu.address_space<workgroup>> to memref<256xf32, #gpu.address_space<workgroup>>
        %33 = memref.load %reinterpret_cast[%32] : memref<256xf32, #gpu.address_space<workgroup>>
        %34 = "disc_shape.linearize"(%31, %c256) {operand_segment_sizes = array<i32: 1, 1>} : (index, index) -> index
        %35 = memref.load %reinterpret_cast[%34] : memref<256xf32, #gpu.address_space<workgroup>>
        %36 = arith.addf %33, %35 : f32
        memref.store %36, %reinterpret_cast[%32] : memref<256xf32, #gpu.address_space<workgroup>>
      }
      gpu.barrier
      %21 = arith.cmpi ult, %2, %c4 : index
      %22 = arith.addi %7, %c4 : index
      %23 = arith.cmpi ult, %22, %c8192 : index
      %24 = arith.andi %21, %23 : i1
      scf.if %24 {
        %31 = arith.addi %arg2, %c32 : index
        %32 = "disc_shape.linearize"(%arg2, %c256) {operand_segment_sizes = array<i32: 1, 1>} : (index, index) -> index
        %reinterpret_cast = memref.reinterpret_cast %alloc_0 to offset: [0], sizes: [256], strides: [1] : memref<256xf32, #gpu.address_space<workgroup>> to memref<256xf32, #gpu.address_space<workgroup>>
        %33 = memref.load %reinterpret_cast[%32] : memref<256xf32, #gpu.address_space<workgroup>>
        %34 = "disc_shape.linearize"(%31, %c256) {operand_segment_sizes = array<i32: 1, 1>} : (index, index) -> index
        %35 = memref.load %reinterpret_cast[%34] : memref<256xf32, #gpu.address_space<workgroup>>
        %36 = arith.addf %33, %35 : f32
        memref.store %36, %reinterpret_cast[%32] : memref<256xf32, #gpu.address_space<workgroup>>
      }
      gpu.barrier
      %25 = arith.cmpi ult, %2, %c2 : index
      %26 = arith.addi %7, %c2 : index
      %27 = arith.cmpi ult, %26, %c8192 : index
      %28 = arith.andi %25, %27 : i1
      scf.if %28 {
        %31 = arith.addi %arg2, %c16 : index
        %32 = "disc_shape.linearize"(%arg2, %c256) {operand_segment_sizes = array<i32: 1, 1>} : (index, index) -> index
        %reinterpret_cast = memref.reinterpret_cast %alloc_0 to offset: [0], sizes: [256], strides: [1] : memref<256xf32, #gpu.address_space<workgroup>> to memref<256xf32, #gpu.address_space<workgroup>>
        %33 = memref.load %reinterpret_cast[%32] : memref<256xf32, #gpu.address_space<workgroup>>
        %34 = "disc_shape.linearize"(%31, %c256) {operand_segment_sizes = array<i32: 1, 1>} : (index, index) -> index
        %35 = memref.load %reinterpret_cast[%34] : memref<256xf32, #gpu.address_space<workgroup>>
        %36 = arith.addf %33, %35 : f32
        memref.store %36, %reinterpret_cast[%32] : memref<256xf32, #gpu.address_space<workgroup>>
      }
      gpu.barrier
      %29 = arith.cmpi eq, %2, %c0 : index
      %30 = arith.andi %29, %12 : i1
      scf.if %30 {
        %31 = arith.addi %arg2, %c8 : index
        %32 = "disc_shape.linearize"(%arg2, %c256) {operand_segment_sizes = array<i32: 1, 1>} : (index, index) -> index
        %reinterpret_cast = memref.reinterpret_cast %alloc_0 to offset: [0], sizes: [256], strides: [1] : memref<256xf32, #gpu.address_space<workgroup>> to memref<256xf32, #gpu.address_space<workgroup>>
        %33 = memref.load %reinterpret_cast[%32] : memref<256xf32, #gpu.address_space<workgroup>>
        %34 = "disc_shape.linearize"(%31, %c256) {operand_segment_sizes = array<i32: 1, 1>} : (index, index) -> index
        %35 = memref.load %reinterpret_cast[%34] : memref<256xf32, #gpu.address_space<workgroup>>
        %36 = arith.addf %33, %35 : f32
        %37 = memref.atomic_rmw addf %36, %alloc[%9] : (f32, memref<2560xf32, "gpu">) -> f32
      }
      scf.yield
    }
    "lmhlo.terminator"() : () -> ()
  }) {disc.device = "gpu", disc.fusion.name = "main_kColReduction_reduce__4_1_0", disc.fusion.tag = "8w32h", disc.fusion_type = "kColReduction", disc_col_reduction_schedule_hint = 1 : i32, disc_thread_per_block_hint = 256 : i32} : () -> ()
  "disc_ral.dispatch"(%arg0, %c0, %alloc) {backend_config = "", call_target_name = "ral_send_output", device = "cpu", has_side_effect = false} : (!disc_ral.context, index, memref<2560xf32, "gpu">) -> ()
  return
}

// -----// IR Dump After ConvertShapeToStandardPass (disc-convert-shape-to-std) //----- //
func.func @main(%arg0: !disc_ral.context) attributes {tf.entry_function = {input_placements = "gpu,gpu", inputs = "arg0_1.1_,arg1_1.1_", output_placements = "gpu", outputs = "sum_1.1"}} {
  %cst = arith.constant 0.000000e+00 : f32
  %c81920 = arith.constant 81920 : index
  %c8192 = arith.constant 8192 : index
  %c320 = arith.constant 320 : index
  %c128 = arith.constant 128 : index
  %c64 = arith.constant 64 : index
  %c2 = arith.constant 2 : index
  %c4 = arith.constant 4 : index
  %c16 = arith.constant 16 : index
  %c32 = arith.constant 32 : index
  %c8 = arith.constant 8 : index
  %c256 = arith.constant 256 : index
  %c2560 = arith.constant 2560 : index
  %c1 = arith.constant 1 : index
  %c0 = arith.constant 0 : index
  %0 = "disc_ral.dispatch"(%arg0, %c0) {backend_config = "", call_target_name = "ral_recv_input", device = "cpu", has_side_effect = false} : (!disc_ral.context, index) -> memref<8192x2560xf32, "gpu">
  %1 = "disc_ral.dispatch"(%arg0, %c1) {backend_config = "", call_target_name = "ral_recv_input", device = "cpu", has_side_effect = false} : (!disc_ral.context, index) -> memref<8192x2560xf32, "gpu">
  %alloc = memref.alloc() : memref<2560xf32, "gpu">
  "lmhlo.fusion"() ({
    scf.parallel (%arg1) = (%c0) to (%c2560) step (%c1) {
      %reinterpret_cast = memref.reinterpret_cast %alloc to offset: [0], sizes: [2560], strides: [1] : memref<2560xf32, "gpu"> to memref<2560xf32, "gpu">
      memref.store %cst, %reinterpret_cast[%arg1] : memref<2560xf32, "gpu">
      scf.yield
    }
    scf.parallel (%arg1, %arg2) = (%c0, %c0) to (%c81920, %c256) step (%c1, %c1) {
      %2 = arith.divui %arg2, %c8 : index
      %3 = arith.remui %arg2, %c8 : index
      %4 = arith.divui %arg1, %c320 : index
      %5 = arith.remui %arg1, %c320 : index
      %6 = arith.muli %4, %c32 : index
      %7 = arith.addi %6, %2 : index
      %8 = arith.muli %5, %c8 : index
      %9 = arith.addi %8, %3 : index
      %alloc_0 = memref.alloc() : memref<256xf32, #gpu.address_space<workgroup>>
      %10 = arith.cmpi ult, %7, %c8192 : index
      %11 = arith.cmpi ult, %9, %c2560 : index
      %12 = arith.andi %10, %11 : i1
      scf.if %12 {
        %c0_1 = arith.constant 0 : index
        %31 = arith.muli %7, %c2560 : index
        %32 = arith.addi %31, %9 : index
        %reinterpret_cast = memref.reinterpret_cast %0 to offset: [0], sizes: [20971520], strides: [1] : memref<8192x2560xf32, "gpu"> to memref<20971520xf32, "gpu">
        %33 = memref.load %reinterpret_cast[%32] : memref<20971520xf32, "gpu">
        %reinterpret_cast_2 = memref.reinterpret_cast %1 to offset: [0], sizes: [20971520], strides: [1] : memref<8192x2560xf32, "gpu"> to memref<20971520xf32, "gpu">
        %34 = memref.load %reinterpret_cast_2[%32] : memref<20971520xf32, "gpu">
        %35 = arith.subf %33, %34 : f32
        %36 = arith.mulf %35, %33 : f32
        %37 = arith.addf %36, %cst : f32
        %c0_3 = arith.constant 0 : index
        %reinterpret_cast_4 = memref.reinterpret_cast %alloc_0 to offset: [0], sizes: [256], strides: [1] : memref<256xf32, #gpu.address_space<workgroup>> to memref<256xf32, #gpu.address_space<workgroup>>
        memref.store %37, %reinterpret_cast_4[%arg2] : memref<256xf32, #gpu.address_space<workgroup>>
      } else {
        %c0_1 = arith.constant 0 : index
        %reinterpret_cast = memref.reinterpret_cast %alloc_0 to offset: [0], sizes: [256], strides: [1] : memref<256xf32, #gpu.address_space<workgroup>> to memref<256xf32, #gpu.address_space<workgroup>>
        memref.store %cst, %reinterpret_cast[%arg2] : memref<256xf32, #gpu.address_space<workgroup>>
      }
      gpu.barrier
      %13 = arith.cmpi ult, %2, %c16 : index
      %14 = arith.addi %7, %c16 : index
      %15 = arith.cmpi ult, %14, %c8192 : index
      %16 = arith.andi %13, %15 : i1
      scf.if %16 {
        %31 = arith.addi %arg2, %c128 : index
        %c0_1 = arith.constant 0 : index
        %reinterpret_cast = memref.reinterpret_cast %alloc_0 to offset: [0], sizes: [256], strides: [1] : memref<256xf32, #gpu.address_space<workgroup>> to memref<256xf32, #gpu.address_space<workgroup>>
        %32 = memref.load %reinterpret_cast[%arg2] : memref<256xf32, #gpu.address_space<workgroup>>
        %c0_2 = arith.constant 0 : index
        %33 = memref.load %reinterpret_cast[%31] : memref<256xf32, #gpu.address_space<workgroup>>
        %34 = arith.addf %32, %33 : f32
        memref.store %34, %reinterpret_cast[%arg2] : memref<256xf32, #gpu.address_space<workgroup>>
      }
      gpu.barrier
      %17 = arith.cmpi ult, %2, %c8 : index
      %18 = arith.addi %7, %c8 : index
      %19 = arith.cmpi ult, %18, %c8192 : index
      %20 = arith.andi %17, %19 : i1
      scf.if %20 {
        %31 = arith.addi %arg2, %c64 : index
        %c0_1 = arith.constant 0 : index
        %reinterpret_cast = memref.reinterpret_cast %alloc_0 to offset: [0], sizes: [256], strides: [1] : memref<256xf32, #gpu.address_space<workgroup>> to memref<256xf32, #gpu.address_space<workgroup>>
        %32 = memref.load %reinterpret_cast[%arg2] : memref<256xf32, #gpu.address_space<workgroup>>
        %c0_2 = arith.constant 0 : index
        %33 = memref.load %reinterpret_cast[%31] : memref<256xf32, #gpu.address_space<workgroup>>
        %34 = arith.addf %32, %33 : f32
        memref.store %34, %reinterpret_cast[%arg2] : memref<256xf32, #gpu.address_space<workgroup>>
      }
      gpu.barrier
      %21 = arith.cmpi ult, %2, %c4 : index
      %22 = arith.addi %7, %c4 : index
      %23 = arith.cmpi ult, %22, %c8192 : index
      %24 = arith.andi %21, %23 : i1
      scf.if %24 {
        %31 = arith.addi %arg2, %c32 : index
        %c0_1 = arith.constant 0 : index
        %reinterpret_cast = memref.reinterpret_cast %alloc_0 to offset: [0], sizes: [256], strides: [1] : memref<256xf32, #gpu.address_space<workgroup>> to memref<256xf32, #gpu.address_space<workgroup>>
        %32 = memref.load %reinterpret_cast[%arg2] : memref<256xf32, #gpu.address_space<workgroup>>
        %c0_2 = arith.constant 0 : index
        %33 = memref.load %reinterpret_cast[%31] : memref<256xf32, #gpu.address_space<workgroup>>
        %34 = arith.addf %32, %33 : f32
        memref.store %34, %reinterpret_cast[%arg2] : memref<256xf32, #gpu.address_space<workgroup>>
      }
      gpu.barrier
      %25 = arith.cmpi ult, %2, %c2 : index
      %26 = arith.addi %7, %c2 : index
      %27 = arith.cmpi ult, %26, %c8192 : index
      %28 = arith.andi %25, %27 : i1
      scf.if %28 {
        %31 = arith.addi %arg2, %c16 : index
        %c0_1 = arith.constant 0 : index
        %reinterpret_cast = memref.reinterpret_cast %alloc_0 to offset: [0], sizes: [256], strides: [1] : memref<256xf32, #gpu.address_space<workgroup>> to memref<256xf32, #gpu.address_space<workgroup>>
        %32 = memref.load %reinterpret_cast[%arg2] : memref<256xf32, #gpu.address_space<workgroup>>
        %c0_2 = arith.constant 0 : index
        %33 = memref.load %reinterpret_cast[%31] : memref<256xf32, #gpu.address_space<workgroup>>
        %34 = arith.addf %32, %33 : f32
        memref.store %34, %reinterpret_cast[%arg2] : memref<256xf32, #gpu.address_space<workgroup>>
      }
      gpu.barrier
      %29 = arith.cmpi eq, %2, %c0 : index
      %30 = arith.andi %29, %12 : i1
      scf.if %30 {
        %31 = arith.addi %arg2, %c8 : index
        %c0_1 = arith.constant 0 : index
        %reinterpret_cast = memref.reinterpret_cast %alloc_0 to offset: [0], sizes: [256], strides: [1] : memref<256xf32, #gpu.address_space<workgroup>> to memref<256xf32, #gpu.address_space<workgroup>>
        %32 = memref.load %reinterpret_cast[%arg2] : memref<256xf32, #gpu.address_space<workgroup>>
        %c0_2 = arith.constant 0 : index
        %33 = memref.load %reinterpret_cast[%31] : memref<256xf32, #gpu.address_space<workgroup>>
        %34 = arith.addf %32, %33 : f32
        %35 = memref.atomic_rmw addf %34, %alloc[%9] : (f32, memref<2560xf32, "gpu">) -> f32
      }
      scf.yield
    }
    "lmhlo.terminator"() : () -> ()
  }) {disc.device = "gpu", disc.fusion.name = "main_kColReduction_reduce__4_1_0", disc.fusion.tag = "8w32h", disc.fusion_type = "kColReduction", disc_col_reduction_schedule_hint = 1 : i32, disc_thread_per_block_hint = 256 : i32} : () -> ()
  "disc_ral.dispatch"(%arg0, %c0, %alloc) {backend_config = "", call_target_name = "ral_send_output", device = "cpu", has_side_effect = false} : (!disc_ral.context, index, memref<2560xf32, "gpu">) -> ()
  return
}

// -----// IR Dump After Canonicalizer (disc-canonicalize) //----- //
func.func @main(%arg0: !disc_ral.context) attributes {tf.entry_function = {input_placements = "gpu,gpu", inputs = "arg0_1.1_,arg1_1.1_", output_placements = "gpu", outputs = "sum_1.1"}} {
  %cst = arith.constant 0.000000e+00 : f32
  %c81920 = arith.constant 81920 : index
  %c8192 = arith.constant 8192 : index
  %c320 = arith.constant 320 : index
  %c128 = arith.constant 128 : index
  %c64 = arith.constant 64 : index
  %c2 = arith.constant 2 : index
  %c4 = arith.constant 4 : index
  %c16 = arith.constant 16 : index
  %c32 = arith.constant 32 : index
  %c8 = arith.constant 8 : index
  %c256 = arith.constant 256 : index
  %c2560 = arith.constant 2560 : index
  %c1 = arith.constant 1 : index
  %c0 = arith.constant 0 : index
  %0 = "disc_ral.dispatch"(%arg0, %c0) {backend_config = "", call_target_name = "ral_recv_input", device = "cpu", has_side_effect = false} : (!disc_ral.context, index) -> memref<8192x2560xf32, "gpu">
  %1 = "disc_ral.dispatch"(%arg0, %c1) {backend_config = "", call_target_name = "ral_recv_input", device = "cpu", has_side_effect = false} : (!disc_ral.context, index) -> memref<8192x2560xf32, "gpu">
  %alloc = memref.alloc() : memref<2560xf32, "gpu">
  "lmhlo.fusion"() ({
    scf.parallel (%arg1) = (%c0) to (%c2560) step (%c1) {
      %reinterpret_cast = memref.reinterpret_cast %alloc to offset: [0], sizes: [2560], strides: [1] : memref<2560xf32, "gpu"> to memref<2560xf32, "gpu">
      memref.store %cst, %reinterpret_cast[%arg1] : memref<2560xf32, "gpu">
      scf.yield
    }
    scf.parallel (%arg1, %arg2) = (%c0, %c0) to (%c81920, %c256) step (%c1, %c1) {
      %2 = arith.divui %arg2, %c8 : index
      %3 = arith.remui %arg2, %c8 : index
      %4 = arith.divui %arg1, %c320 : index
      %5 = arith.remui %arg1, %c320 : index
      %6 = arith.muli %4, %c32 : index
      %7 = arith.addi %6, %2 : index
      %8 = arith.muli %5, %c8 : index
      %9 = arith.addi %8, %3 : index
      %alloc_0 = memref.alloc() : memref<256xf32, #gpu.address_space<workgroup>>
      %10 = arith.cmpi ult, %7, %c8192 : index
      %11 = arith.cmpi ult, %9, %c2560 : index
      %12 = arith.andi %10, %11 : i1
      scf.if %12 {
        %31 = arith.muli %7, %c2560 : index
        %32 = arith.addi %31, %9 : index
        %reinterpret_cast = memref.reinterpret_cast %0 to offset: [0], sizes: [20971520], strides: [1] : memref<8192x2560xf32, "gpu"> to memref<20971520xf32, "gpu">
        %33 = memref.load %reinterpret_cast[%32] : memref<20971520xf32, "gpu">
        %reinterpret_cast_1 = memref.reinterpret_cast %1 to offset: [0], sizes: [20971520], strides: [1] : memref<8192x2560xf32, "gpu"> to memref<20971520xf32, "gpu">
        %34 = memref.load %reinterpret_cast_1[%32] : memref<20971520xf32, "gpu">
        %35 = arith.subf %33, %34 : f32
        %36 = arith.mulf %35, %33 : f32
        %37 = arith.addf %36, %cst : f32
        %reinterpret_cast_2 = memref.reinterpret_cast %alloc_0 to offset: [0], sizes: [256], strides: [1] : memref<256xf32, #gpu.address_space<workgroup>> to memref<256xf32, #gpu.address_space<workgroup>>
        memref.store %37, %reinterpret_cast_2[%arg2] : memref<256xf32, #gpu.address_space<workgroup>>
      } else {
        %reinterpret_cast = memref.reinterpret_cast %alloc_0 to offset: [0], sizes: [256], strides: [1] : memref<256xf32, #gpu.address_space<workgroup>> to memref<256xf32, #gpu.address_space<workgroup>>
        memref.store %cst, %reinterpret_cast[%arg2] : memref<256xf32, #gpu.address_space<workgroup>>
      }
      gpu.barrier
      %13 = arith.cmpi ult, %2, %c16 : index
      %14 = arith.addi %7, %c16 : index
      %15 = arith.cmpi ult, %14, %c8192 : index
      %16 = arith.andi %13, %15 : i1
      scf.if %16 {
        %31 = arith.addi %arg2, %c128 : index
        %reinterpret_cast = memref.reinterpret_cast %alloc_0 to offset: [0], sizes: [256], strides: [1] : memref<256xf32, #gpu.address_space<workgroup>> to memref<256xf32, #gpu.address_space<workgroup>>
        %32 = memref.load %reinterpret_cast[%arg2] : memref<256xf32, #gpu.address_space<workgroup>>
        %33 = memref.load %reinterpret_cast[%31] : memref<256xf32, #gpu.address_space<workgroup>>
        %34 = arith.addf %32, %33 : f32
        memref.store %34, %reinterpret_cast[%arg2] : memref<256xf32, #gpu.address_space<workgroup>>
      }
      gpu.barrier
      %17 = arith.cmpi ult, %2, %c8 : index
      %18 = arith.addi %7, %c8 : index
      %19 = arith.cmpi ult, %18, %c8192 : index
      %20 = arith.andi %17, %19 : i1
      scf.if %20 {
        %31 = arith.addi %arg2, %c64 : index
        %reinterpret_cast = memref.reinterpret_cast %alloc_0 to offset: [0], sizes: [256], strides: [1] : memref<256xf32, #gpu.address_space<workgroup>> to memref<256xf32, #gpu.address_space<workgroup>>
        %32 = memref.load %reinterpret_cast[%arg2] : memref<256xf32, #gpu.address_space<workgroup>>
        %33 = memref.load %reinterpret_cast[%31] : memref<256xf32, #gpu.address_space<workgroup>>
        %34 = arith.addf %32, %33 : f32
        memref.store %34, %reinterpret_cast[%arg2] : memref<256xf32, #gpu.address_space<workgroup>>
      }
      gpu.barrier
      %21 = arith.cmpi ult, %2, %c4 : index
      %22 = arith.addi %7, %c4 : index
      %23 = arith.cmpi ult, %22, %c8192 : index
      %24 = arith.andi %21, %23 : i1
      scf.if %24 {
        %31 = arith.addi %arg2, %c32 : index
        %reinterpret_cast = memref.reinterpret_cast %alloc_0 to offset: [0], sizes: [256], strides: [1] : memref<256xf32, #gpu.address_space<workgroup>> to memref<256xf32, #gpu.address_space<workgroup>>
        %32 = memref.load %reinterpret_cast[%arg2] : memref<256xf32, #gpu.address_space<workgroup>>
        %33 = memref.load %reinterpret_cast[%31] : memref<256xf32, #gpu.address_space<workgroup>>
        %34 = arith.addf %32, %33 : f32
        memref.store %34, %reinterpret_cast[%arg2] : memref<256xf32, #gpu.address_space<workgroup>>
      }
      gpu.barrier
      %25 = arith.cmpi ult, %2, %c2 : index
      %26 = arith.addi %7, %c2 : index
      %27 = arith.cmpi ult, %26, %c8192 : index
      %28 = arith.andi %25, %27 : i1
      scf.if %28 {
        %31 = arith.addi %arg2, %c16 : index
        %reinterpret_cast = memref.reinterpret_cast %alloc_0 to offset: [0], sizes: [256], strides: [1] : memref<256xf32, #gpu.address_space<workgroup>> to memref<256xf32, #gpu.address_space<workgroup>>
        %32 = memref.load %reinterpret_cast[%arg2] : memref<256xf32, #gpu.address_space<workgroup>>
        %33 = memref.load %reinterpret_cast[%31] : memref<256xf32, #gpu.address_space<workgroup>>
        %34 = arith.addf %32, %33 : f32
        memref.store %34, %reinterpret_cast[%arg2] : memref<256xf32, #gpu.address_space<workgroup>>
      }
      gpu.barrier
      %29 = arith.cmpi eq, %2, %c0 : index
      %30 = arith.andi %29, %12 : i1
      scf.if %30 {
        %31 = arith.addi %arg2, %c8 : index
        %reinterpret_cast = memref.reinterpret_cast %alloc_0 to offset: [0], sizes: [256], strides: [1] : memref<256xf32, #gpu.address_space<workgroup>> to memref<256xf32, #gpu.address_space<workgroup>>
        %32 = memref.load %reinterpret_cast[%arg2] : memref<256xf32, #gpu.address_space<workgroup>>
        %33 = memref.load %reinterpret_cast[%31] : memref<256xf32, #gpu.address_space<workgroup>>
        %34 = arith.addf %32, %33 : f32
        %35 = memref.atomic_rmw addf %34, %alloc[%9] : (f32, memref<2560xf32, "gpu">) -> f32
      }
      scf.yield
    }
    "lmhlo.terminator"() : () -> ()
  }) {disc.device = "gpu", disc.fusion.name = "main_kColReduction_reduce__4_1_0", disc.fusion.tag = "8w32h", disc.fusion_type = "kColReduction", disc_col_reduction_schedule_hint = 1 : i32, disc_thread_per_block_hint = 256 : i32} : () -> ()
  "disc_ral.dispatch"(%arg0, %c0, %alloc) {backend_config = "", call_target_name = "ral_send_output", device = "cpu", has_side_effect = false} : (!disc_ral.context, index, memref<2560xf32, "gpu">) -> ()
  return
}

// -----// IR Dump After ParallelLoopCollapsing (disc-parallel-loop-collapsing) //----- //
func.func @main(%arg0: !disc_ral.context) attributes {tf.entry_function = {input_placements = "gpu,gpu", inputs = "arg0_1.1_,arg1_1.1_", output_placements = "gpu", outputs = "sum_1.1"}} {
  %cst = arith.constant 0.000000e+00 : f32
  %c81920 = arith.constant 81920 : index
  %c8192 = arith.constant 8192 : index
  %c320 = arith.constant 320 : index
  %c128 = arith.constant 128 : index
  %c64 = arith.constant 64 : index
  %c2 = arith.constant 2 : index
  %c4 = arith.constant 4 : index
  %c16 = arith.constant 16 : index
  %c32 = arith.constant 32 : index
  %c8 = arith.constant 8 : index
  %c256 = arith.constant 256 : index
  %c2560 = arith.constant 2560 : index
  %c1 = arith.constant 1 : index
  %c0 = arith.constant 0 : index
  %0 = "disc_ral.dispatch"(%arg0, %c0) {backend_config = "", call_target_name = "ral_recv_input", device = "cpu", has_side_effect = false} : (!disc_ral.context, index) -> memref<8192x2560xf32, "gpu">
  %1 = "disc_ral.dispatch"(%arg0, %c1) {backend_config = "", call_target_name = "ral_recv_input", device = "cpu", has_side_effect = false} : (!disc_ral.context, index) -> memref<8192x2560xf32, "gpu">
  %alloc = memref.alloc() : memref<2560xf32, "gpu">
  "lmhlo.fusion"() ({
    scf.parallel (%arg1) = (%c0) to (%c2560) step (%c1) {
      %reinterpret_cast = memref.reinterpret_cast %alloc to offset: [0], sizes: [2560], strides: [1] : memref<2560xf32, "gpu"> to memref<2560xf32, "gpu">
      memref.store %cst, %reinterpret_cast[%arg1] : memref<2560xf32, "gpu">
      scf.yield
    }
    %c0_0 = arith.constant 0 : index
    %c1_1 = arith.constant 1 : index
    %c1_2 = arith.constant 1 : index
    %2 = arith.muli %c1_2, %c81920 : index
    %3 = arith.muli %2, %c256 : index
    scf.parallel (%arg1) = (%c0_0) to (%3) step (%c1_1) {
      %4 = arith.remsi %arg1, %c256 : index
      %5 = arith.divsi %arg1, %c256 : index
      %6 = arith.divui %4, %c8 : index
      %7 = arith.remui %4, %c8 : index
      %8 = arith.divui %5, %c320 : index
      %9 = arith.remui %5, %c320 : index
      %10 = arith.muli %8, %c32 : index
      %11 = arith.addi %10, %6 : index
      %12 = arith.muli %9, %c8 : index
      %13 = arith.addi %12, %7 : index
      %alloc_3 = memref.alloc() : memref<256xf32, #gpu.address_space<workgroup>>
      %14 = arith.cmpi ult, %11, %c8192 : index
      %15 = arith.cmpi ult, %13, %c2560 : index
      %16 = arith.andi %14, %15 : i1
      scf.if %16 {
        %35 = arith.muli %11, %c2560 : index
        %36 = arith.addi %35, %13 : index
        %reinterpret_cast = memref.reinterpret_cast %0 to offset: [0], sizes: [20971520], strides: [1] : memref<8192x2560xf32, "gpu"> to memref<20971520xf32, "gpu">
        %37 = memref.load %reinterpret_cast[%36] : memref<20971520xf32, "gpu">
        %reinterpret_cast_4 = memref.reinterpret_cast %1 to offset: [0], sizes: [20971520], strides: [1] : memref<8192x2560xf32, "gpu"> to memref<20971520xf32, "gpu">
        %38 = memref.load %reinterpret_cast_4[%36] : memref<20971520xf32, "gpu">
        %39 = arith.subf %37, %38 : f32
        %40 = arith.mulf %39, %37 : f32
        %41 = arith.addf %40, %cst : f32
        %reinterpret_cast_5 = memref.reinterpret_cast %alloc_3 to offset: [0], sizes: [256], strides: [1] : memref<256xf32, #gpu.address_space<workgroup>> to memref<256xf32, #gpu.address_space<workgroup>>
        memref.store %41, %reinterpret_cast_5[%4] : memref<256xf32, #gpu.address_space<workgroup>>
      } else {
        %reinterpret_cast = memref.reinterpret_cast %alloc_3 to offset: [0], sizes: [256], strides: [1] : memref<256xf32, #gpu.address_space<workgroup>> to memref<256xf32, #gpu.address_space<workgroup>>
        memref.store %cst, %reinterpret_cast[%4] : memref<256xf32, #gpu.address_space<workgroup>>
      }
      gpu.barrier
      %17 = arith.cmpi ult, %6, %c16 : index
      %18 = arith.addi %11, %c16 : index
      %19 = arith.cmpi ult, %18, %c8192 : index
      %20 = arith.andi %17, %19 : i1
      scf.if %20 {
        %35 = arith.addi %4, %c128 : index
        %reinterpret_cast = memref.reinterpret_cast %alloc_3 to offset: [0], sizes: [256], strides: [1] : memref<256xf32, #gpu.address_space<workgroup>> to memref<256xf32, #gpu.address_space<workgroup>>
        %36 = memref.load %reinterpret_cast[%4] : memref<256xf32, #gpu.address_space<workgroup>>
        %37 = memref.load %reinterpret_cast[%35] : memref<256xf32, #gpu.address_space<workgroup>>
        %38 = arith.addf %36, %37 : f32
        memref.store %38, %reinterpret_cast[%4] : memref<256xf32, #gpu.address_space<workgroup>>
      }
      gpu.barrier
      %21 = arith.cmpi ult, %6, %c8 : index
      %22 = arith.addi %11, %c8 : index
      %23 = arith.cmpi ult, %22, %c8192 : index
      %24 = arith.andi %21, %23 : i1
      scf.if %24 {
        %35 = arith.addi %4, %c64 : index
        %reinterpret_cast = memref.reinterpret_cast %alloc_3 to offset: [0], sizes: [256], strides: [1] : memref<256xf32, #gpu.address_space<workgroup>> to memref<256xf32, #gpu.address_space<workgroup>>
        %36 = memref.load %reinterpret_cast[%4] : memref<256xf32, #gpu.address_space<workgroup>>
        %37 = memref.load %reinterpret_cast[%35] : memref<256xf32, #gpu.address_space<workgroup>>
        %38 = arith.addf %36, %37 : f32
        memref.store %38, %reinterpret_cast[%4] : memref<256xf32, #gpu.address_space<workgroup>>
      }
      gpu.barrier
      %25 = arith.cmpi ult, %6, %c4 : index
      %26 = arith.addi %11, %c4 : index
      %27 = arith.cmpi ult, %26, %c8192 : index
      %28 = arith.andi %25, %27 : i1
      scf.if %28 {
        %35 = arith.addi %4, %c32 : index
        %reinterpret_cast = memref.reinterpret_cast %alloc_3 to offset: [0], sizes: [256], strides: [1] : memref<256xf32, #gpu.address_space<workgroup>> to memref<256xf32, #gpu.address_space<workgroup>>
        %36 = memref.load %reinterpret_cast[%4] : memref<256xf32, #gpu.address_space<workgroup>>
        %37 = memref.load %reinterpret_cast[%35] : memref<256xf32, #gpu.address_space<workgroup>>
        %38 = arith.addf %36, %37 : f32
        memref.store %38, %reinterpret_cast[%4] : memref<256xf32, #gpu.address_space<workgroup>>
      }
      gpu.barrier
      %29 = arith.cmpi ult, %6, %c2 : index
      %30 = arith.addi %11, %c2 : index
      %31 = arith.cmpi ult, %30, %c8192 : index
      %32 = arith.andi %29, %31 : i1
      scf.if %32 {
        %35 = arith.addi %4, %c16 : index
        %reinterpret_cast = memref.reinterpret_cast %alloc_3 to offset: [0], sizes: [256], strides: [1] : memref<256xf32, #gpu.address_space<workgroup>> to memref<256xf32, #gpu.address_space<workgroup>>
        %36 = memref.load %reinterpret_cast[%4] : memref<256xf32, #gpu.address_space<workgroup>>
        %37 = memref.load %reinterpret_cast[%35] : memref<256xf32, #gpu.address_space<workgroup>>
        %38 = arith.addf %36, %37 : f32
        memref.store %38, %reinterpret_cast[%4] : memref<256xf32, #gpu.address_space<workgroup>>
      }
      gpu.barrier
      %33 = arith.cmpi eq, %6, %c0 : index
      %34 = arith.andi %33, %16 : i1
      scf.if %34 {
        %35 = arith.addi %4, %c8 : index
        %reinterpret_cast = memref.reinterpret_cast %alloc_3 to offset: [0], sizes: [256], strides: [1] : memref<256xf32, #gpu.address_space<workgroup>> to memref<256xf32, #gpu.address_space<workgroup>>
        %36 = memref.load %reinterpret_cast[%4] : memref<256xf32, #gpu.address_space<workgroup>>
        %37 = memref.load %reinterpret_cast[%35] : memref<256xf32, #gpu.address_space<workgroup>>
        %38 = arith.addf %36, %37 : f32
        %39 = memref.atomic_rmw addf %38, %alloc[%13] : (f32, memref<2560xf32, "gpu">) -> f32
      }
      scf.yield
    }
    "lmhlo.terminator"() : () -> ()
  }) {disc.device = "gpu", disc.fusion.name = "main_kColReduction_reduce__4_1_0", disc.fusion.tag = "8w32h", disc.fusion_type = "kColReduction", disc_col_reduction_schedule_hint = 1 : i32, disc_thread_per_block_hint = 256 : i32} : () -> ()
  "disc_ral.dispatch"(%arg0, %c0, %alloc) {backend_config = "", call_target_name = "ral_send_output", device = "cpu", has_side_effect = false} : (!disc_ral.context, index, memref<2560xf32, "gpu">) -> ()
  return
}

// -----// IR Dump After SCFParallelLoopTiling (disc-parallel-loop-tiling) //----- //
func.func @main(%arg0: !disc_ral.context) attributes {tf.entry_function = {input_placements = "gpu,gpu", inputs = "arg0_1.1_,arg1_1.1_", output_placements = "gpu", outputs = "sum_1.1"}} {
  %cst = arith.constant 0.000000e+00 : f32
  %c81920 = arith.constant 81920 : index
  %c8192 = arith.constant 8192 : index
  %c320 = arith.constant 320 : index
  %c128 = arith.constant 128 : index
  %c64 = arith.constant 64 : index
  %c2 = arith.constant 2 : index
  %c4 = arith.constant 4 : index
  %c16 = arith.constant 16 : index
  %c32 = arith.constant 32 : index
  %c8 = arith.constant 8 : index
  %c256 = arith.constant 256 : index
  %c2560 = arith.constant 2560 : index
  %c1 = arith.constant 1 : index
  %c0 = arith.constant 0 : index
  %0 = "disc_ral.dispatch"(%arg0, %c0) {backend_config = "", call_target_name = "ral_recv_input", device = "cpu", has_side_effect = false} : (!disc_ral.context, index) -> memref<8192x2560xf32, "gpu">
  %1 = "disc_ral.dispatch"(%arg0, %c1) {backend_config = "", call_target_name = "ral_recv_input", device = "cpu", has_side_effect = false} : (!disc_ral.context, index) -> memref<8192x2560xf32, "gpu">
  %alloc = memref.alloc() : memref<2560xf32, "gpu">
  "lmhlo.fusion"() ({
    %c0_0 = arith.constant 0 : index
    %c256_1 = arith.constant 256 : index
    %2 = arith.muli %c1, %c256_1 : index
    scf.parallel (%arg1) = (%c0) to (%c2560) step (%2) {
      scf.parallel (%arg2) = (%c0_0) to (%2) step (%c1) {
        %6 = arith.addi %arg2, %arg1 : index
        %reinterpret_cast = memref.reinterpret_cast %alloc to offset: [0], sizes: [2560], strides: [1] : memref<2560xf32, "gpu"> to memref<2560xf32, "gpu">
        memref.store %cst, %reinterpret_cast[%6] : memref<2560xf32, "gpu">
        scf.yield
      }
      scf.yield
    }
    %c0_2 = arith.constant 0 : index
    %c1_3 = arith.constant 1 : index
    %c1_4 = arith.constant 1 : index
    %3 = arith.muli %c1_4, %c81920 : index
    %4 = arith.muli %3, %c256 : index
    %c0_5 = arith.constant 0 : index
    %c256_6 = arith.constant 256 : index
    %5 = arith.muli %c1_3, %c256_6 : index
    scf.parallel (%arg1) = (%c0_2) to (%4) step (%5) {
      scf.parallel (%arg2) = (%c0_5) to (%5) step (%c1_3) {
        %6 = arith.addi %arg2, %arg1 : index
        %true = arith.constant true
        %7 = arith.muli %arg2, %c1_3 : index
        %8 = arith.addi %7, %arg1 : index
        %9 = arith.cmpi ult, %8, %4 : index
        %10 = arith.andi %true, %9 : i1
        scf.if %10 {
          %11 = arith.remsi %6, %c256 : index
          %12 = arith.divsi %6, %c256 : index
          %13 = arith.divui %11, %c8 : index
          %14 = arith.remui %11, %c8 : index
          %15 = arith.divui %12, %c320 : index
          %16 = arith.remui %12, %c320 : index
          %17 = arith.muli %15, %c32 : index
          %18 = arith.addi %17, %13 : index
          %19 = arith.muli %16, %c8 : index
          %20 = arith.addi %19, %14 : index
          %alloc_7 = memref.alloc() : memref<256xf32, #gpu.address_space<workgroup>>
          %21 = arith.cmpi ult, %18, %c8192 : index
          %22 = arith.cmpi ult, %20, %c2560 : index
          %23 = arith.andi %21, %22 : i1
          scf.if %23 {
            %42 = arith.muli %18, %c2560 : index
            %43 = arith.addi %42, %20 : index
            %reinterpret_cast = memref.reinterpret_cast %0 to offset: [0], sizes: [20971520], strides: [1] : memref<8192x2560xf32, "gpu"> to memref<20971520xf32, "gpu">
            %44 = memref.load %reinterpret_cast[%43] : memref<20971520xf32, "gpu">
            %reinterpret_cast_8 = memref.reinterpret_cast %1 to offset: [0], sizes: [20971520], strides: [1] : memref<8192x2560xf32, "gpu"> to memref<20971520xf32, "gpu">
            %45 = memref.load %reinterpret_cast_8[%43] : memref<20971520xf32, "gpu">
            %46 = arith.subf %44, %45 : f32
            %47 = arith.mulf %46, %44 : f32
            %48 = arith.addf %47, %cst : f32
            %reinterpret_cast_9 = memref.reinterpret_cast %alloc_7 to offset: [0], sizes: [256], strides: [1] : memref<256xf32, #gpu.address_space<workgroup>> to memref<256xf32, #gpu.address_space<workgroup>>
            memref.store %48, %reinterpret_cast_9[%11] : memref<256xf32, #gpu.address_space<workgroup>>
          } else {
            %reinterpret_cast = memref.reinterpret_cast %alloc_7 to offset: [0], sizes: [256], strides: [1] : memref<256xf32, #gpu.address_space<workgroup>> to memref<256xf32, #gpu.address_space<workgroup>>
            memref.store %cst, %reinterpret_cast[%11] : memref<256xf32, #gpu.address_space<workgroup>>
          }
          gpu.barrier
          %24 = arith.cmpi ult, %13, %c16 : index
          %25 = arith.addi %18, %c16 : index
          %26 = arith.cmpi ult, %25, %c8192 : index
          %27 = arith.andi %24, %26 : i1
          scf.if %27 {
            %42 = arith.addi %11, %c128 : index
            %reinterpret_cast = memref.reinterpret_cast %alloc_7 to offset: [0], sizes: [256], strides: [1] : memref<256xf32, #gpu.address_space<workgroup>> to memref<256xf32, #gpu.address_space<workgroup>>
            %43 = memref.load %reinterpret_cast[%11] : memref<256xf32, #gpu.address_space<workgroup>>
            %44 = memref.load %reinterpret_cast[%42] : memref<256xf32, #gpu.address_space<workgroup>>
            %45 = arith.addf %43, %44 : f32
            memref.store %45, %reinterpret_cast[%11] : memref<256xf32, #gpu.address_space<workgroup>>
          }
          gpu.barrier
          %28 = arith.cmpi ult, %13, %c8 : index
          %29 = arith.addi %18, %c8 : index
          %30 = arith.cmpi ult, %29, %c8192 : index
          %31 = arith.andi %28, %30 : i1
          scf.if %31 {
            %42 = arith.addi %11, %c64 : index
            %reinterpret_cast = memref.reinterpret_cast %alloc_7 to offset: [0], sizes: [256], strides: [1] : memref<256xf32, #gpu.address_space<workgroup>> to memref<256xf32, #gpu.address_space<workgroup>>
            %43 = memref.load %reinterpret_cast[%11] : memref<256xf32, #gpu.address_space<workgroup>>
            %44 = memref.load %reinterpret_cast[%42] : memref<256xf32, #gpu.address_space<workgroup>>
            %45 = arith.addf %43, %44 : f32
            memref.store %45, %reinterpret_cast[%11] : memref<256xf32, #gpu.address_space<workgroup>>
          }
          gpu.barrier
          %32 = arith.cmpi ult, %13, %c4 : index
          %33 = arith.addi %18, %c4 : index
          %34 = arith.cmpi ult, %33, %c8192 : index
          %35 = arith.andi %32, %34 : i1
          scf.if %35 {
            %42 = arith.addi %11, %c32 : index
            %reinterpret_cast = memref.reinterpret_cast %alloc_7 to offset: [0], sizes: [256], strides: [1] : memref<256xf32, #gpu.address_space<workgroup>> to memref<256xf32, #gpu.address_space<workgroup>>
            %43 = memref.load %reinterpret_cast[%11] : memref<256xf32, #gpu.address_space<workgroup>>
            %44 = memref.load %reinterpret_cast[%42] : memref<256xf32, #gpu.address_space<workgroup>>
            %45 = arith.addf %43, %44 : f32
            memref.store %45, %reinterpret_cast[%11] : memref<256xf32, #gpu.address_space<workgroup>>
          }
          gpu.barrier
          %36 = arith.cmpi ult, %13, %c2 : index
          %37 = arith.addi %18, %c2 : index
          %38 = arith.cmpi ult, %37, %c8192 : index
          %39 = arith.andi %36, %38 : i1
          scf.if %39 {
            %42 = arith.addi %11, %c16 : index
            %reinterpret_cast = memref.reinterpret_cast %alloc_7 to offset: [0], sizes: [256], strides: [1] : memref<256xf32, #gpu.address_space<workgroup>> to memref<256xf32, #gpu.address_space<workgroup>>
            %43 = memref.load %reinterpret_cast[%11] : memref<256xf32, #gpu.address_space<workgroup>>
            %44 = memref.load %reinterpret_cast[%42] : memref<256xf32, #gpu.address_space<workgroup>>
            %45 = arith.addf %43, %44 : f32
            memref.store %45, %reinterpret_cast[%11] : memref<256xf32, #gpu.address_space<workgroup>>
          }
          gpu.barrier
          %40 = arith.cmpi eq, %13, %c0 : index
          %41 = arith.andi %40, %23 : i1
          scf.if %41 {
            %42 = arith.addi %11, %c8 : index
            %reinterpret_cast = memref.reinterpret_cast %alloc_7 to offset: [0], sizes: [256], strides: [1] : memref<256xf32, #gpu.address_space<workgroup>> to memref<256xf32, #gpu.address_space<workgroup>>
            %43 = memref.load %reinterpret_cast[%11] : memref<256xf32, #gpu.address_space<workgroup>>
            %44 = memref.load %reinterpret_cast[%42] : memref<256xf32, #gpu.address_space<workgroup>>
            %45 = arith.addf %43, %44 : f32
            %46 = memref.atomic_rmw addf %45, %alloc[%20] : (f32, memref<2560xf32, "gpu">) -> f32
          }
        }
        scf.yield
      }
      scf.yield
    }
    "lmhlo.terminator"() : () -> ()
  }) {disc.device = "gpu", disc.fusion.name = "main_kColReduction_reduce__4_1_0", disc.fusion.tag = "8w32h", disc.fusion_type = "kColReduction", disc_col_reduction_schedule_hint = 1 : i32, disc_thread_per_block_hint = 256 : i32} : () -> ()
  "disc_ral.dispatch"(%arg0, %c0, %alloc) {backend_config = "", call_target_name = "ral_send_output", device = "cpu", has_side_effect = false} : (!disc_ral.context, index, memref<2560xf32, "gpu">) -> ()
  return
}

// -----// IR Dump After GpuMapParallelLoopsPass (gpu-map-parallel-loops) //----- //
func.func @main(%arg0: !disc_ral.context) attributes {tf.entry_function = {input_placements = "gpu,gpu", inputs = "arg0_1.1_,arg1_1.1_", output_placements = "gpu", outputs = "sum_1.1"}} {
  %cst = arith.constant 0.000000e+00 : f32
  %c81920 = arith.constant 81920 : index
  %c8192 = arith.constant 8192 : index
  %c320 = arith.constant 320 : index
  %c128 = arith.constant 128 : index
  %c64 = arith.constant 64 : index
  %c2 = arith.constant 2 : index
  %c4 = arith.constant 4 : index
  %c16 = arith.constant 16 : index
  %c32 = arith.constant 32 : index
  %c8 = arith.constant 8 : index
  %c256 = arith.constant 256 : index
  %c2560 = arith.constant 2560 : index
  %c1 = arith.constant 1 : index
  %c0 = arith.constant 0 : index
  %0 = "disc_ral.dispatch"(%arg0, %c0) {backend_config = "", call_target_name = "ral_recv_input", device = "cpu", has_side_effect = false} : (!disc_ral.context, index) -> memref<8192x2560xf32, "gpu">
  %1 = "disc_ral.dispatch"(%arg0, %c1) {backend_config = "", call_target_name = "ral_recv_input", device = "cpu", has_side_effect = false} : (!disc_ral.context, index) -> memref<8192x2560xf32, "gpu">
  %alloc = memref.alloc() : memref<2560xf32, "gpu">
  "lmhlo.fusion"() ({
    %c0_0 = arith.constant 0 : index
    %c256_1 = arith.constant 256 : index
    %2 = arith.muli %c1, %c256_1 : index
    scf.parallel (%arg1) = (%c0) to (%c2560) step (%2) {
      scf.parallel (%arg2) = (%c0_0) to (%2) step (%c1) {
        %6 = arith.addi %arg2, %arg1 : index
        %reinterpret_cast = memref.reinterpret_cast %alloc to offset: [0], sizes: [2560], strides: [1] : memref<2560xf32, "gpu"> to memref<2560xf32, "gpu">
        memref.store %cst, %reinterpret_cast[%6] : memref<2560xf32, "gpu">
        scf.yield
      } {mapping = [#gpu.loop_dim_map<processor = thread_x, map = (d0) -> (d0), bound = (d0) -> (d0)>]}
      scf.yield
    } {mapping = [#gpu.loop_dim_map<processor = block_x, map = (d0) -> (d0), bound = (d0) -> (d0)>]}
    %c0_2 = arith.constant 0 : index
    %c1_3 = arith.constant 1 : index
    %c1_4 = arith.constant 1 : index
    %3 = arith.muli %c1_4, %c81920 : index
    %4 = arith.muli %3, %c256 : index
    %c0_5 = arith.constant 0 : index
    %c256_6 = arith.constant 256 : index
    %5 = arith.muli %c1_3, %c256_6 : index
    scf.parallel (%arg1) = (%c0_2) to (%4) step (%5) {
      scf.parallel (%arg2) = (%c0_5) to (%5) step (%c1_3) {
        %6 = arith.addi %arg2, %arg1 : index
        %true = arith.constant true
        %7 = arith.muli %arg2, %c1_3 : index
        %8 = arith.addi %7, %arg1 : index
        %9 = arith.cmpi ult, %8, %4 : index
        %10 = arith.andi %true, %9 : i1
        scf.if %10 {
          %11 = arith.remsi %6, %c256 : index
          %12 = arith.divsi %6, %c256 : index
          %13 = arith.divui %11, %c8 : index
          %14 = arith.remui %11, %c8 : index
          %15 = arith.divui %12, %c320 : index
          %16 = arith.remui %12, %c320 : index
          %17 = arith.muli %15, %c32 : index
          %18 = arith.addi %17, %13 : index
          %19 = arith.muli %16, %c8 : index
          %20 = arith.addi %19, %14 : index
          %alloc_7 = memref.alloc() : memref<256xf32, #gpu.address_space<workgroup>>
          %21 = arith.cmpi ult, %18, %c8192 : index
          %22 = arith.cmpi ult, %20, %c2560 : index
          %23 = arith.andi %21, %22 : i1
          scf.if %23 {
            %42 = arith.muli %18, %c2560 : index
            %43 = arith.addi %42, %20 : index
            %reinterpret_cast = memref.reinterpret_cast %0 to offset: [0], sizes: [20971520], strides: [1] : memref<8192x2560xf32, "gpu"> to memref<20971520xf32, "gpu">
            %44 = memref.load %reinterpret_cast[%43] : memref<20971520xf32, "gpu">
            %reinterpret_cast_8 = memref.reinterpret_cast %1 to offset: [0], sizes: [20971520], strides: [1] : memref<8192x2560xf32, "gpu"> to memref<20971520xf32, "gpu">
            %45 = memref.load %reinterpret_cast_8[%43] : memref<20971520xf32, "gpu">
            %46 = arith.subf %44, %45 : f32
            %47 = arith.mulf %46, %44 : f32
            %48 = arith.addf %47, %cst : f32
            %reinterpret_cast_9 = memref.reinterpret_cast %alloc_7 to offset: [0], sizes: [256], strides: [1] : memref<256xf32, #gpu.address_space<workgroup>> to memref<256xf32, #gpu.address_space<workgroup>>
            memref.store %48, %reinterpret_cast_9[%11] : memref<256xf32, #gpu.address_space<workgroup>>
          } else {
            %reinterpret_cast = memref.reinterpret_cast %alloc_7 to offset: [0], sizes: [256], strides: [1] : memref<256xf32, #gpu.address_space<workgroup>> to memref<256xf32, #gpu.address_space<workgroup>>
            memref.store %cst, %reinterpret_cast[%11] : memref<256xf32, #gpu.address_space<workgroup>>
          }
          gpu.barrier
          %24 = arith.cmpi ult, %13, %c16 : index
          %25 = arith.addi %18, %c16 : index
          %26 = arith.cmpi ult, %25, %c8192 : index
          %27 = arith.andi %24, %26 : i1
          scf.if %27 {
            %42 = arith.addi %11, %c128 : index
            %reinterpret_cast = memref.reinterpret_cast %alloc_7 to offset: [0], sizes: [256], strides: [1] : memref<256xf32, #gpu.address_space<workgroup>> to memref<256xf32, #gpu.address_space<workgroup>>
            %43 = memref.load %reinterpret_cast[%11] : memref<256xf32, #gpu.address_space<workgroup>>
            %44 = memref.load %reinterpret_cast[%42] : memref<256xf32, #gpu.address_space<workgroup>>
            %45 = arith.addf %43, %44 : f32
            memref.store %45, %reinterpret_cast[%11] : memref<256xf32, #gpu.address_space<workgroup>>
          }
          gpu.barrier
          %28 = arith.cmpi ult, %13, %c8 : index
          %29 = arith.addi %18, %c8 : index
          %30 = arith.cmpi ult, %29, %c8192 : index
          %31 = arith.andi %28, %30 : i1
          scf.if %31 {
            %42 = arith.addi %11, %c64 : index
            %reinterpret_cast = memref.reinterpret_cast %alloc_7 to offset: [0], sizes: [256], strides: [1] : memref<256xf32, #gpu.address_space<workgroup>> to memref<256xf32, #gpu.address_space<workgroup>>
            %43 = memref.load %reinterpret_cast[%11] : memref<256xf32, #gpu.address_space<workgroup>>
            %44 = memref.load %reinterpret_cast[%42] : memref<256xf32, #gpu.address_space<workgroup>>
            %45 = arith.addf %43, %44 : f32
            memref.store %45, %reinterpret_cast[%11] : memref<256xf32, #gpu.address_space<workgroup>>
          }
          gpu.barrier
          %32 = arith.cmpi ult, %13, %c4 : index
          %33 = arith.addi %18, %c4 : index
          %34 = arith.cmpi ult, %33, %c8192 : index
          %35 = arith.andi %32, %34 : i1
          scf.if %35 {
            %42 = arith.addi %11, %c32 : index
            %reinterpret_cast = memref.reinterpret_cast %alloc_7 to offset: [0], sizes: [256], strides: [1] : memref<256xf32, #gpu.address_space<workgroup>> to memref<256xf32, #gpu.address_space<workgroup>>
            %43 = memref.load %reinterpret_cast[%11] : memref<256xf32, #gpu.address_space<workgroup>>
            %44 = memref.load %reinterpret_cast[%42] : memref<256xf32, #gpu.address_space<workgroup>>
            %45 = arith.addf %43, %44 : f32
            memref.store %45, %reinterpret_cast[%11] : memref<256xf32, #gpu.address_space<workgroup>>
          }
          gpu.barrier
          %36 = arith.cmpi ult, %13, %c2 : index
          %37 = arith.addi %18, %c2 : index
          %38 = arith.cmpi ult, %37, %c8192 : index
          %39 = arith.andi %36, %38 : i1
          scf.if %39 {
            %42 = arith.addi %11, %c16 : index
            %reinterpret_cast = memref.reinterpret_cast %alloc_7 to offset: [0], sizes: [256], strides: [1] : memref<256xf32, #gpu.address_space<workgroup>> to memref<256xf32, #gpu.address_space<workgroup>>
            %43 = memref.load %reinterpret_cast[%11] : memref<256xf32, #gpu.address_space<workgroup>>
            %44 = memref.load %reinterpret_cast[%42] : memref<256xf32, #gpu.address_space<workgroup>>
            %45 = arith.addf %43, %44 : f32
            memref.store %45, %reinterpret_cast[%11] : memref<256xf32, #gpu.address_space<workgroup>>
          }
          gpu.barrier
          %40 = arith.cmpi eq, %13, %c0 : index
          %41 = arith.andi %40, %23 : i1
          scf.if %41 {
            %42 = arith.addi %11, %c8 : index
            %reinterpret_cast = memref.reinterpret_cast %alloc_7 to offset: [0], sizes: [256], strides: [1] : memref<256xf32, #gpu.address_space<workgroup>> to memref<256xf32, #gpu.address_space<workgroup>>
            %43 = memref.load %reinterpret_cast[%11] : memref<256xf32, #gpu.address_space<workgroup>>
            %44 = memref.load %reinterpret_cast[%42] : memref<256xf32, #gpu.address_space<workgroup>>
            %45 = arith.addf %43, %44 : f32
            %46 = memref.atomic_rmw addf %45, %alloc[%20] : (f32, memref<2560xf32, "gpu">) -> f32
          }
        }
        scf.yield
      } {mapping = [#gpu.loop_dim_map<processor = thread_x, map = (d0) -> (d0), bound = (d0) -> (d0)>]}
      scf.yield
    } {mapping = [#gpu.loop_dim_map<processor = block_x, map = (d0) -> (d0), bound = (d0) -> (d0)>]}
    "lmhlo.terminator"() : () -> ()
…
  store ptr %47, ptr %48, align 8
  %49 = getelementptr %.3, ptr %43, i32 0, i32 2
  store ptr %39, ptr %49, align 8
  %50 = getelementptr ptr, ptr %44, i32 2
  store ptr %49, ptr %50, align 8
  %51 = getelementptr %.3, ptr %43, i32 0, i32 3
  store i64 %40, ptr %51, align 4
  %52 = getelementptr ptr, ptr %44, i32 3
  store ptr %51, ptr %52, align 8
  %53 = getelementptr %.3, ptr %43, i32 0, i32 4
  store i64 %41, ptr %53, align 4
  %54 = getelementptr ptr, ptr %44, i32 4
  store ptr %53, ptr %54, align 8
  %55 = getelementptr %.3, ptr %43, i32 0, i32 5
  store i64 %42, ptr %55, align 4
  %56 = getelementptr ptr, ptr %44, i32 5
  store ptr %55, ptr %56, align 8
  %57 = alloca %.4, align 8
  %58 = alloca ptr, i32 14, align 8
  %59 = getelementptr %.4, ptr %57, i32 0, i32 0
  store ptr %0, ptr %59, align 8
  %60 = getelementptr ptr, ptr %58, i32 0
  store ptr %59, ptr %60, align 8
  %61 = getelementptr %.4, ptr %57, i32 0, i32 1
  store ptr %34, ptr %61, align 8
  %62 = getelementptr ptr, ptr %58, i32 1
  store ptr %61, ptr %62, align 8
  %63 = getelementptr %.4, ptr %57, i32 0, i32 2
  store i64 3, ptr %63, align 4
  %64 = getelementptr ptr, ptr %58, i32 2
  store ptr %63, ptr %64, align 8
  %65 = getelementptr %.4, ptr %57, i32 0, i32 3
  store ptr @main_kernel_main_kColReduction_reduce__4_1_0___8w32h_kernel_name, ptr %65, align 8
  %66 = getelementptr ptr, ptr %58, i32 3
  store ptr %65, ptr %66, align 8
  %67 = getelementptr %.4, ptr %57, i32 0, i32 4
  store i64 10, ptr %67, align 4
  %68 = getelementptr ptr, ptr %58, i32 4
  store ptr %67, ptr %68, align 8
  %69 = getelementptr %.4, ptr %57, i32 0, i32 5
  store i64 1, ptr %69, align 4
  %70 = getelementptr ptr, ptr %58, i32 5
  store ptr %69, ptr %70, align 8
  %71 = getelementptr %.4, ptr %57, i32 0, i32 6
  store i64 1, ptr %71, align 4
  %72 = getelementptr ptr, ptr %58, i32 6
  store ptr %71, ptr %72, align 8
  %73 = getelementptr %.4, ptr %57, i32 0, i32 7
  store i64 256, ptr %73, align 4
  %74 = getelementptr ptr, ptr %58, i32 7
  store ptr %73, ptr %74, align 8
  %75 = getelementptr %.4, ptr %57, i32 0, i32 8
  store i64 1, ptr %75, align 4
  %76 = getelementptr ptr, ptr %58, i32 8
  store ptr %75, ptr %76, align 8
  %77 = getelementptr %.4, ptr %57, i32 0, i32 9
  store i64 1, ptr %77, align 4
  %78 = getelementptr ptr, ptr %58, i32 9
  store ptr %77, ptr %78, align 8
  %79 = getelementptr %.4, ptr %57, i32 0, i32 10
  store i32 0, ptr %79, align 4
  %80 = getelementptr ptr, ptr %58, i32 10
  store ptr %79, ptr %80, align 8
  %81 = getelementptr %.4, ptr %57, i32 0, i32 11
  store ptr null, ptr %81, align 8
  %82 = getelementptr ptr, ptr %58, i32 11
  store ptr %81, ptr %82, align 8
  %83 = getelementptr %.4, ptr %57, i32 0, i32 12
  store i32 6, ptr %83, align 4
  %84 = getelementptr ptr, ptr %58, i32 12
  store ptr %83, ptr %84, align 8
  %85 = getelementptr %.4, ptr %57, i32 0, i32 13
  store ptr %44, ptr %85, align 8
  %86 = getelementptr ptr, ptr %58, i32 13
  store ptr %85, ptr %86, align 8
  call void @disc_ral_call(ptr %0, ptr @ral_kernel_launch___gpu___pvoid_ppvoid_i64_pvoid_i64_i64_i64_i64_i64_i64_i32_pvoid_i32_ppvoid___void, ptr %58)
  %87 = alloca ptr, i32 3, align 8
  %88 = getelementptr ptr, ptr %87, i32 0
  store ptr @main_kernel_0_blob_gpu.binary_compute_60, ptr %88, align 8
  %89 = getelementptr ptr, ptr %87, i32 1
  store ptr @main_kernel_0_blob_gpu.binary_sm_70, ptr %89, align 8
  %90 = getelementptr ptr, ptr %87, i32 2
  store ptr @main_kernel_0_blob_gpu.binary_sm_75, ptr %90, align 8
  %91 = extractvalue { ptr, ptr, i64, [2 x i64], [2 x i64] } %10, 0
  %92 = extractvalue { ptr, ptr, i64, [2 x i64], [2 x i64] } %10, 1
  %93 = extractvalue { ptr, ptr, i64, [2 x i64], [2 x i64] } %10, 2
  %94 = extractvalue { ptr, ptr, i64, [2 x i64], [2 x i64] } %10, 3, 0
  %95 = extractvalue { ptr, ptr, i64, [2 x i64], [2 x i64] } %10, 3, 1
  %96 = extractvalue { ptr, ptr, i64, [2 x i64], [2 x i64] } %10, 4, 0
  %97 = extractvalue { ptr, ptr, i64, [2 x i64], [2 x i64] } %10, 4, 1
  %98 = extractvalue { ptr, ptr, i64, [2 x i64], [2 x i64] } %19, 0
  %99 = extractvalue { ptr, ptr, i64, [2 x i64], [2 x i64] } %19, 1
  %100 = extractvalue { ptr, ptr, i64, [2 x i64], [2 x i64] } %19, 2
  %101 = extractvalue { ptr, ptr, i64, [2 x i64], [2 x i64] } %19, 3, 0
  %102 = extractvalue { ptr, ptr, i64, [2 x i64], [2 x i64] } %19, 3, 1
  %103 = extractvalue { ptr, ptr, i64, [2 x i64], [2 x i64] } %19, 4, 0
  %104 = extractvalue { ptr, ptr, i64, [2 x i64], [2 x i64] } %19, 4, 1
  %105 = extractvalue { ptr, ptr, i64, [1 x i64], [1 x i64] } %33, 0
  %106 = extractvalue { ptr, ptr, i64, [1 x i64], [1 x i64] } %33, 1
  %107 = extractvalue { ptr, ptr, i64, [1 x i64], [1 x i64] } %33, 2
  %108 = extractvalue { ptr, ptr, i64, [1 x i64], [1 x i64] } %33, 3, 0
  %109 = extractvalue { ptr, ptr, i64, [1 x i64], [1 x i64] } %33, 4, 0
  %110 = alloca %.5, align 8
  %111 = alloca ptr, i32 21, align 8
  %112 = getelementptr %.5, ptr %110, i32 0, i32 0
  store i64 256, ptr %112, align 4
  %113 = getelementptr ptr, ptr %111, i32 0
  store ptr %112, ptr %113, align 8
  %114 = getelementptr %.5, ptr %110, i32 0, i32 1
  store i64 20971520, ptr %114, align 4
  %115 = getelementptr ptr, ptr %111, i32 1
  store ptr %114, ptr %115, align 8
  %116 = getelementptr %.5, ptr %110, i32 0, i32 2
  store ptr %91, ptr %116, align 8
  %117 = getelementptr ptr, ptr %111, i32 2
  store ptr %116, ptr %117, align 8
  %118 = getelementptr %.5, ptr %110, i32 0, i32 3
  store ptr %92, ptr %118, align 8
  %119 = getelementptr ptr, ptr %111, i32 3
  store ptr %118, ptr %119, align 8
  %120 = getelementptr %.5, ptr %110, i32 0, i32 4
  store i64 %93, ptr %120, align 4
  %121 = getelementptr ptr, ptr %111, i32 4
  store ptr %120, ptr %121, align 8
  %122 = getelementptr %.5, ptr %110, i32 0, i32 5
  store i64 %94, ptr %122, align 4
  %123 = getelementptr ptr, ptr %111, i32 5
  store ptr %122, ptr %123, align 8
  %124 = getelementptr %.5, ptr %110, i32 0, i32 6
  store i64 %95, ptr %124, align 4
  %125 = getelementptr ptr, ptr %111, i32 6
  store ptr %124, ptr %125, align 8
  %126 = getelementptr %.5, ptr %110, i32 0, i32 7
  store i64 %96, ptr %126, align 4
  %127 = getelementptr ptr, ptr %111, i32 7
  store ptr %126, ptr %127, align 8
  %128 = getelementptr %.5, ptr %110, i32 0, i32 8
  store i64 %97, ptr %128, align 4
  %129 = getelementptr ptr, ptr %111, i32 8
  store ptr %128, ptr %129, align 8
  %130 = getelementptr %.5, ptr %110, i32 0, i32 9
  store ptr %98, ptr %130, align 8
  %131 = getelementptr ptr, ptr %111, i32 9
  store ptr %130, ptr %131, align 8
  %132 = getelementptr %.5, ptr %110, i32 0, i32 10
  store ptr %99, ptr %132, align 8
  %133 = getelementptr ptr, ptr %111, i32 10
  store ptr %132, ptr %133, align 8
  %134 = getelementptr %.5, ptr %110, i32 0, i32 11
  store i64 %100, ptr %134, align 4
  %135 = getelementptr ptr, ptr %111, i32 11
  store ptr %134, ptr %135, align 8
  %136 = getelementptr %.5, ptr %110, i32 0, i32 12
  store i64 %101, ptr %136, align 4
  %137 = getelementptr ptr, ptr %111, i32 12
  store ptr %136, ptr %137, align 8
  %138 = getelementptr %.5, ptr %110, i32 0, i32 13
  store i64 %102, ptr %138, align 4
  %139 = getelementptr ptr, ptr %111, i32 13
  store ptr %138, ptr %139, align 8
  %140 = getelementptr %.5, ptr %110, i32 0, i32 14
  store i64 %103, ptr %140, align 4
  %141 = getelementptr ptr, ptr %111, i32 14
  store ptr %140, ptr %141, align 8
  %142 = getelementptr %.5, ptr %110, i32 0, i32 15
  store i64 %104, ptr %142, align 4
  %143 = getelementptr ptr, ptr %111, i32 15
  store ptr %142, ptr %143, align 8
  %144 = getelementptr %.5, ptr %110, i32 0, i32 16
  store ptr %105, ptr %144, align 8
  %145 = getelementptr ptr, ptr %111, i32 16
  store ptr %144, ptr %145, align 8
  %146 = getelementptr %.5, ptr %110, i32 0, i32 17
  store ptr %106, ptr %146, align 8
  %147 = getelementptr ptr, ptr %111, i32 17
  store ptr %146, ptr %147, align 8
  %148 = getelementptr %.5, ptr %110, i32 0, i32 18
  store i64 %107, ptr %148, align 4
  %149 = getelementptr ptr, ptr %111, i32 18
  store ptr %148, ptr %149, align 8
  %150 = getelementptr %.5, ptr %110, i32 0, i32 19
  store i64 %108, ptr %150, align 4
  %151 = getelementptr ptr, ptr %111, i32 19
  store ptr %150, ptr %151, align 8
  %152 = getelementptr %.5, ptr %110, i32 0, i32 20
  store i64 %109, ptr %152, align 4
  %153 = getelementptr ptr, ptr %111, i32 20
  store ptr %152, ptr %153, align 8
  %154 = alloca %.6, align 8
  %155 = alloca ptr, i32 14, align 8
  %156 = getelementptr %.6, ptr %154, i32 0, i32 0
  store ptr %0, ptr %156, align 8
  %157 = getelementptr ptr, ptr %155, i32 0
  store ptr %156, ptr %157, align 8
  %158 = getelementptr %.6, ptr %154, i32 0, i32 1
  store ptr %87, ptr %158, align 8
  %159 = getelementptr ptr, ptr %155, i32 1
  store ptr %158, ptr %159, align 8
  %160 = getelementptr %.6, ptr %154, i32 0, i32 2
  store i64 3, ptr %160, align 4
  %161 = getelementptr ptr, ptr %155, i32 2
  store ptr %160, ptr %161, align 8
  %162 = getelementptr %.6, ptr %154, i32 0, i32 3
  store ptr @main_kernel_0_main_kColReduction_reduce__4_1_0___8w32h_1_kernel_name, ptr %162, align 8
  %163 = getelementptr ptr, ptr %155, i32 3
  store ptr %162, ptr %163, align 8
  %164 = getelementptr %.6, ptr %154, i32 0, i32 4
  store i64 81920, ptr %164, align 4
  %165 = getelementptr ptr, ptr %155, i32 4
  store ptr %164, ptr %165, align 8
  %166 = getelementptr %.6, ptr %154, i32 0, i32 5
  store i64 1, ptr %166, align 4
  %167 = getelementptr ptr, ptr %155, i32 5
  store ptr %166, ptr %167, align 8
  %168 = getelementptr %.6, ptr %154, i32 0, i32 6
  store i64 1, ptr %168, align 4
  %169 = getelementptr ptr, ptr %155, i32 6
  store ptr %168, ptr %169, align 8
  %170 = getelementptr %.6, ptr %154, i32 0, i32 7
  store i64 256, ptr %170, align 4
  %171 = getelementptr ptr, ptr %155, i32 7
  store ptr %170, ptr %171, align 8
  %172 = getelementptr %.6, ptr %154, i32 0, i32 8
  store i64 1, ptr %172, align 4
  %173 = getelementptr ptr, ptr %155, i32 8
  store ptr %172, ptr %173, align 8
  %174 = getelementptr %.6, ptr %154, i32 0, i32 9
  store i64 1, ptr %174, align 4
  %175 = getelementptr ptr, ptr %155, i32 9
  store ptr %174, ptr %175, align 8
  %176 = getelementptr %.6, ptr %154, i32 0, i32 10
  store i32 0, ptr %176, align 4
  %177 = getelementptr ptr, ptr %155, i32 10
  store ptr %176, ptr %177, align 8
  %178 = getelementptr %.6, ptr %154, i32 0, i32 11
  store ptr null, ptr %178, align 8
  %179 = getelementptr ptr, ptr %155, i32 11
  store ptr %178, ptr %179, align 8
  %180 = getelementptr %.6, ptr %154, i32 0, i32 12
  store i32 21, ptr %180, align 4
  %181 = getelementptr ptr, ptr %155, i32 12
  store ptr %180, ptr %181, align 8
  %182 = getelementptr %.6, ptr %154, i32 0, i32 13
  store ptr %111, ptr %182, align 8
  %183 = getelementptr ptr, ptr %155, i32 13
  store ptr %182, ptr %183, align 8
  call void @disc_ral_call(ptr %0, ptr @ral_kernel_launch___gpu___pvoid_ppvoid_i64_pvoid_i64_i64_i64_i64_i64_i64_i32_pvoid_i32_ppvoid___void, ptr %155)
  %184 = extractvalue { ptr, ptr, i64, [1 x i64], [1 x i64] } %33, 0
  %185 = extractvalue { ptr, ptr, i64, [1 x i64], [1 x i64] } %33, 1
  %186 = extractvalue { ptr, ptr, i64, [1 x i64], [1 x i64] } %33, 2
  %187 = extractvalue { ptr, ptr, i64, [1 x i64], [1 x i64] } %33, 3, 0
  %188 = extractvalue { ptr, ptr, i64, [1 x i64], [1 x i64] } %33, 4, 0
  %189 = alloca %.7, align 8
  %190 = alloca ptr, i32 7, align 8
  %191 = getelementptr %.7, ptr %189, i32 0, i32 0
  store ptr %0, ptr %191, align 8
  %192 = getelementptr ptr, ptr %190, i32 0
  store ptr %191, ptr %192, align 8
  %193 = getelementptr %.7, ptr %189, i32 0, i32 1
  store i64 0, ptr %193, align 4
  %194 = getelementptr ptr, ptr %190, i32 1
  store ptr %193, ptr %194, align 8
  %195 = getelementptr %.7, ptr %189, i32 0, i32 2
  store ptr %184, ptr %195, align 8
  %196 = getelementptr ptr, ptr %190, i32 2
  store ptr %195, ptr %196, align 8
  %197 = getelementptr %.7, ptr %189, i32 0, i32 3
  store ptr %185, ptr %197, align 8
  %198 = getelementptr ptr, ptr %190, i32 3
  store ptr %197, ptr %198, align 8
  %199 = getelementptr %.7, ptr %189, i32 0, i32 4
  store i64 %186, ptr %199, align 4
  %200 = getelementptr ptr, ptr %190, i32 4
  store ptr %199, ptr %200, align 8
  %201 = getelementptr %.7, ptr %189, i32 0, i32 5
  store i64 %187, ptr %201, align 4
  %202 = getelementptr ptr, ptr %190, i32 5
  store ptr %201, ptr %202, align 8
  %203 = getelementptr %.7, ptr %189, i32 0, i32 6
  store i64 %188, ptr %203, align 4
  %204 = getelementptr ptr, ptr %190, i32 6
  store ptr %203, ptr %204, align 8
  call void @disc_ral_call(ptr %0, ptr @ral_send_output___cpu___pvoid_i64_m1df32___void, ptr %190)
  ret void
}

host default target triple: x86_64-unknown-linux-gnu
host cpu name: icelake-server
host cpu features: -avx512pf,-tsxldtrk,+cx16,+sahf,-tbm,+avx512ifma,+sha,+crc32,-fma4,+vpclmulqdq,+prfchw,+bmi2,-cldemote,+fsgsbase,-avx512bf16,-amx-tile,-raoint,-uintr,+gfni,+popcnt,-ptwrite,+aes,+avx512bitalg,-movdiri,-widekl,+xsaves,-avx512er,-avxvnni,-avx512fp16,+avx512vnni,-amx-bf16,-avxvnniint8,+avx512vpopcntdq,-pconfig,+clwb,-cmpccxadd,+avx512f,+xsavec,-clzero,-pku,-amx-fp16,+mmx,-lwp,+rdpid,-xop,+rdseed,-waitpkg,-prefetchi,-kl,-movdir64b,-sse4a,+avx512bw,-avxneconvert,+clflushopt,+xsave,+avx512vbmi2,+64bit,+avx512vl,-serialize,-hreset,+invpcid,+avx512cd,+avx,+vaes,-amx-int8,+cx8,+fma,-rtm,+bmi,-enqcmd,+rdrnd,-mwaitx,+sse4.1,+sse4.2,+avx2,+fxsr,+wbnoinvd,+sse,+lzcnt,+pclmul,-rdpru,-avxifma,+f16c,+ssse3,-sgx,-prefetchwt1,+cmov,+avx512vbmi,-shstk,+movbe,-avx512vp2intersect,+xsaveopt,+avx512dq,+sse2,+adx,+sse3
after optimize llvm module:
; ModuleID = 'LLVMDialectModule'
source_filename = "LLVMDialectModule"
target datalayout = "e-m:e-p270:32:32-p271:32:32-p272:64:64-i64:64-f80:128-n8:16:32:64-S128"
target triple = "x86_64-unknown-linux-gnu"

%0 = type { ptr, i64, { ptr, ptr, i64, [2 x i64], [2 x i64] } }
%.1 = type { ptr, i64, { ptr, ptr, i64, [2 x i64], [2 x i64] } }
%.2 = type { ptr, i64, ptr }
%.3 = type { i64, ptr, ptr, i64, i64, i64 }
%.4 = type { ptr, ptr, i64, ptr, i64, i64, i64, i64, i64, i64, i32, ptr, i32, ptr }
%.5 = type { i64, i64, ptr, ptr, i64, i64, i64, i64, i64, ptr, ptr, i64, i64, i64, i64, i64, ptr, ptr, i64, i64, i64 }
%.6 = type { ptr, ptr, i64, ptr, i64, i64, i64, i64, i64, i64, i32, ptr, i32, ptr }
%.7 = type { ptr, i64, ptr, ptr, i64, i64, i64 }

@ral_send_output___cpu___pvoid_i64_m1df32___void = internal constant [48 x i8] c"ral_send_output___cpu___pvoid_i64_m1df32___void\00"
@main_kernel_0_main_kColReduction_reduce__4_1_0___8w32h_1_kernel_name = internal constant [43 x i8] c"main_kColReduction_reduce__4_1_0___8w32h_1\00"
@main_kernel_0_blob_gpu.binary_sm_75 = internal constant [1736 x i8] c"P\EDU\BA\01\00\10\00\B8\06\00\00\00\00\00\00\02\00\01\01@\00\00\00x\06\00\00\00\00\00\00s\06\00\00\00\00\00\00\07\00\01\00K\00\00\00\00\00\00\00\00\00\00\00\11 \00\00\00\00\00\00\00\00\00\00\00\00\00\00\80\10\00\00\00\00\00\00\A2\7FELF\02\01\013\07\00\01\00n\02\00\BE\00u\00\01\00!\80\0D\07\00a\00K\05K\00@\0A\00\F5\03@\00\0C\00\01\00\00.shstrtab\00.\08\00'ym\08\00\F0\1B_shndx\00.nv.info\00.text.main_kColReduction_r\0A\00\F5\03e__4_1_0___8w32h_1:\00\0F4\00\1Doshared6\00\1D\9Fconstant09\00\1A\FD\01debug_frame\00.rel\11\00\1Aa\12\00!nv&\00\11aW\00\0FE\01 \0F\9C\00\17\0Fp\01\89\8F$____wg_3\00\17\00\0C\00\1F4\A9\01(o_param\B0\01.\0F\01\00\07\8C]\00\00\00\03\00\0A\00\01\00\11\C2\18\00,\0B\00\01\00 1\01\18\00,\09\00\01\00\11q\18\00,\04\00\01\00\11\A1\18\00,\07\00\01\00f2\00\00\00\12\10x\00\13\80;\00f\FF\FF\FF\FF(\00\0C\00\00\01\00@\03\00\04|\08\00\D1\0F\0C\81\80\80(\00\08\FF\81\80(\08\0B\00\06(\00/0\00\01\00\03\13pX\00\10\04\08\00R\04\14\00\00\00E\00#\04\F8\18\00\80/\08\00\06\00\00\00\0E\0C\00\12#\0C\00\00\01\00'\04\12\0C\00\17\11\0C\00 6\04F\04A\00\047\04x\04\F1\04\04\0A\08\00\03\00\00\00`\01t\00\03\19t\00\04\17\0C(\00u\14\00p\00\00\F0\11\10\009\13\00l\10\009\12\00h\10\00u\11\00`\00\00\F0!\10\009\10\00X\10\009\0F\00P0\009\0E\00L\10\009\0D\00H\10\009\0C\00D\10\009\0B\00@\10\009\0A\008`\009\09\000\10\009\08\00(0\009\07\00$\10\009\06\00 \10\009\05\00\1C\10\009\04\00\18\10\009\03\00\10`\009\02\00\08\10\009\01\00\040\00\01\01\00\A0\F0\11\00\03\1B\FF\00\04\1C\0C\FE\00c\00\D0\03\00\00@\D0\01#K\00\01\00q\02\02\08\10\0A/\22\B3\00\01\01\00\13\08\08\00\13\10\08\00\13\18\08\00\13 \08\00\13(\08\00\130\08\00\228\08\80\00\13\00\08\00\13\08\08\00\13\10\08\00\13\18\08\00\13 \08\00\13(\08\00\130\08\00\02@\00\13\02@\00\13\02@\00\13\02@\00\13\02@\00\13\02@\00\13\02@\00\13\02@\00\13\02@\00\003\02\11,\88\01\11\00\01\01\22H\00\01\00\11\02l\01\0F\01\00\FF\F8@$v\01\FF\AF\05\B2\FF\00\8E\07\00\C4\0F\00\19y\00\01\00\10%\DB\02a\0E\00\19y\03\00\01\00\10!-\00`\0E\00$z\00\00K\04\90\03\02\8E\07\00\CA\1F\00\0C\10\00\C5Y\00\00p`\F0\03\00\D8\0F\00M\CB\05\B0\80\03\00\EA\0F\00\19x\03\FF\1F\0F\00\A1\14\01\00\00\C8\0F\00\11r\03Q\00@\FF@\8F\07\10\00@\19x\02\FF\B1\02\10\03 \00q\E4\0F\00\12x\03\03\81\05\F1\00\C0\8E\07\00\C6\0F\00'x\04\02\CD\CC\CC\CC\A0\00a\C8\0F\00$x\000\05`\03\0A\8E\07\00\E2@\00\11\04@\00\22\04\16`\00\00p\00\01a\00\14\16p\00 \06\04\10\00!\FF(0\00\B2\04$x\03\04\C0\FE\FF\FF\02\02@\001\12x\02N\06\01p\00p\E4\0F\00\0Cx\00\06\B1\00@p@\F0\03\80\00Q$x\07\03\08\17\04\92\8E\07\00\D2\0F\00\02\88\05\96\060\0F\00\00@\00@$\88\04\06@\01\22\07\02\A0\00`%\86\02\04\00\\\C0\04\04\10\00F\04\04\00f\10\000\81\83\02\83\03\D5\00\00\E9\1E\00\00\A8\0E\00\81\83\05\04\10\00!\A2\0E\80\00\11\EF\80\00!\F4\03`\00Sr\08\FF\FF\00\A0\01\01\F0\00\11\0B\C4\03\10\FF\C5\03\80\E4\0F\04\0Cx\00\00\7F\98\064Dt\01\C0\00\11\F7@\00A\F2\03\00\C8\10\00!\00? \00\11\F2\B0\00\81!\82\09\02\05\00\00\80t\00\81\C8O\00#\82\08\02\09`\00\02\D0\00\000\00\11\070\00\22p\000\014\09\00\04\80\00\93\CC\0F\00\88s\00\0B\08\00\1E\05f\E8\0F\00\1D{\00\01\00Q\EA\0F\00\84\A9O\002\00\00\18 \00A\84\A9\03\09v\04\12\18@\02c!\A2\02\02\03\00\01\00\8F\D0\1F\00\88\A3\00\09\02P\00\095\99\03\09P\00\02\A0\00$\06\FB \01\10\C6 \00!\04\09\12\02\00 \00\11\22@\01$\00\1F\10\01\00\F0\00W\92\04\03\04\00p\00O\93\00\09\04\C0\00\0A\0Ep\00\14\FDP\01\00p\001\A9\08\09>\01\07p\00\18\0F`\01!\A2\080\02\08\E0\00\1F\08\E0\00\0A\0B0\01\00\F0\00&@\000\01\1B\920\01\1F\930\01\0B\0C\80\039\84y\00\D0\006\02x\02\C0\02\00\D0\00Wy\03\09\00 p\00!r\05\80\08\01\01\00p\E4\1F\00%v\02\07{\08\10\02\00\02`\D0\0F\00\8Ey\00@\02A\00\00G\11P\00*Myp\00PGy\00\00\F0\C0\03\A6\FF\83\03\00\C0\0F\00\18y\00\01\00\0F\10\00\00\0F\01\00-\01\0C\04\1E\00\01\00\02\A4\0D]\00\00E\01\000\00\08\01\00\1F\0B@\00\04\13\85)\00\1F\B0@\00\0C\13\13T\07\0C\01\00\138U\00\11\A8\06\00\06x\07\00\B7\01\04\8F\01\00\01\00.\06\01T\00\00\01\00\13\E0@\00/p\00\80\00\0B\1F)'\00\03!\00P\E5\01\10\00\86\09'\00\00\E4\00*\04\00\01\00\1Fc@\00\04\04@\0B&\84\01@\00\1F\0A@\00\00!6\01D\01\0D@\001\08\06\00\01\00*\E0\00\01\00\1B\08\08\00!\13\01\A4\08\0D\01\00\13\E8@\00&\10\00\80\00\17\048\00\04\18\00\13\CD\14\01\0C\84\01\13\F8@\00\13\D4\C0\00\1F\00\C0\00\04\132@\00\15\06R\00\03\01\00\1A\09\08\01\12\03\C0\01:\0E\80\00\01\00\13\97\94\00/\03\000\10\03/\00\04\80\00\06P\00\00\00\00\00\00\00\00\00\00"
@main_kernel_0_blob_gpu.binary_sm_70 = internal constant [1752 x i8] c"P\EDU\BA\01\00\10\00\C8\06\00\00\00\00\00\00\02\00\01\01@\00\00\00\88\06\00\00\00\00\00\00\83\06\00\00\00\00\00\00\07\00\01\00F\00\00\00\00\00\00\00\00\00\00\00\11 \00\00\00\00\00\00\00\00\00\00\00\00\00\00\00\11\00\00\00\00\00\00\A2\7FELF\02\01\013\07\00\01\00o\02\00\BE\00u\00\01\00\00\11\0E\06\00a\00F\05F\00@\0A\00\F5\03@\00\0C\00\01\00\00.shstrtab\00.\08\00'ym\08\00\F0\1B_shndx\00.nv.info\00.text.main_kColReduction_r\0A\00\F5\03e__4_1_0___8w32h_1:\00\0F4\00\1Doshared6\00\1D\9Fconstant09\00\1A\FD\01debug_frame\00.rel\11\00\1Aa\12\00!nv&\00\11aW\00\0FE\01 \0F\9C\00\17\0Fp\01\89\8F$____wg_3\00\17\00\0C\00\1F4\A9\01(o_param\B0\01.\0F\01\00\07\8C]\00\00\00\03\00\0A\00\01\00\11\C2\18\00,\0B\00\01\00 1\01\18\00,\09\00\01\00\11q\18\00,\04\00\01\00\11\A1\18\00,\07\00\01\00g2\00\00\00\12\10x\00\11\05\06\00v\00\FF\FF\FF\FF(\00\0C\00\00\01\00@\03\00\04|\08\00\D1\0F\0C\81\80\80(\00\08\FF\81\80(\08\0B\00\06(\00/0\00\01\00\03\13\F0\93\00\10\04\08\00R\04\18\00\00\00E\002\04\0C\01\18\00C/\08\00\06/\04\22\04#\0C\00\00\01\00'\04\12\0C\00\17\11\0C\00 6\04F\04A\00\047\04x\04\F1\04\04\0A\08\00\03\00\00\00`\01t\00\03\19t\00\04\17\0C(\00u\14\00p\00\00\F0\11\10\009\13\00l\10\009\12\00h\10\00u\11\00`\00\00\F0!\10\009\10\00X\10\009\0F\00P0\009\0E\00L\10\009\0D\00H\10\009\0C\00D\10\009\0B\00@\10\009\0A\008`\009\09\000\10\009\08\00(0\009\07\00$\10\009\06\00 \10\009\05\00\1C\10\009\04\00\18\10\009\03\00\10`\009\02\00\08\10\009\01\00\040\00\01\01\00\A0\F0\11\00\03\1B\FF\00\041\04>\00@\00\04\1C\0C&\01c\000\04\00\00\A0\D8\01#K\00\01\00q\02\02\08\10\0A/\22\BB\00\01\01\00\13\08\08\00\13\10\08\00\13\18\08\00\13 \08\00\13(\08\00\130\08\00\228\08\88\00\13\00\08\00\13\08\08\00\13\10\08\00\13\18\08\00\13 \08\00\13(\08\00\130\08\00\02@\00\13\02@\00\13\02@\00\13\02@\00\13\02@\00\13\02@\00\13\02@\00\13\02@\00\13\02@\00\00;\02\11,\90\01\11\00\09\01\22H\00\01\00\11\02t\01\0F\01\00\FF\F0@$v\01\FF\AF\05\D0\FF\00\8E\07\00\C4\0F\00\89\F3\FF\FF\FF\04\05\00\C2\04b\E2\0F\00\19y\00\01\00\10%\E3\02a\0E\00\19y\03\00\01\00\10!=\00`\0E\00$z\00\00[\04\90\03\02\8E\07\00\CA\1F\00\0C\10\00\C5Y\00\00p`\F0\03\00\D8\0F\00M\DB\05\B0\80\03\00\EA\0F\00\19x\03\FF\1F\0F\00\A1\14\01\00\00\C8\0F\00\11r\03Q\00@\FF@\8F\07\10\00@\19x\04\FF\B9\02\10\03 \00q\E4\0F\00\12x\05\03\91\05\F1\00\C0\8E\07\00\C6\0F\00%x\02\04\CD\CC\CC\CC\B0\00a\C8\0F\00$x\00@\05b\05\0A\8E\07\00\E2`\00\01@\00\12\16`\00A\19x\02\FFa\00\14\16p\00 \09\03\FC\02!\FF(0\00\B2\04$x\03\03\C0\FE\FF\FF\04\02@\001\12x\02^\06\01p\00p\E4\0F\00\0Cx\00\09\B1\00@p@\F0\03\80\00Q$x\02\03\08\1F\04\92\8E\07\00\D2\0F\00\02\88\07\A6\06!\0F\000\01c$\88\06\09\00\0A \00\90\C8\0F\00%\86\04\06\00\\\F0\04\04\10\00F\06\06\00f\10\00!\81\83J\06\D5\00\00\E9\1E\00\00\A8\0E\00\81\83\07\06\10\00!\A2\0E\80\00\11\EF\80\00!\F4\03\B0\00#r\03\A0\01\04\F0\00\11\08\CC\03\10\FF6\00\01\D0\006\0A\00\04 \00\D4\04\0Cx\00\00\7F\00\00\00pDt\01\D0\00\11\F7P\00A\F2\03\00\C8\10\00!\00? \00\11\F2\C0\00\81!\82\0B\04\07\00\00\80\84\00\81\C8O\00#\82\03\04\0BP\00\02\E0\00\000\00\11\070\00\A1p\00\00\CE\0F\00\88s\00\08`\01\00\A6\04f\E8\0F\00\18y\00\01\00f\E2\0F\00\1D{\00\01\00b\EA\0F\00\84\A9\04\A5\07\12\180\000\84\A9\05.\01\02\10\00s$\0E\00!\A2\05\04\BB\07\AF\00\00\D0\1F\00\88\A3\00\0A\05`\00\19\17\99`\00\02\B0\00$\09\FB@\01\10\C6 \00!\07\0A2\02\00 \00\11\22`\01$\00\1F \01\00\00\01 \92\07\00\01\06\80\00O\93\00\0A\07\E0\00\1A\1D\03\80\00\14\FDp\01\13\C6\00\01)\80\00\80\00\18\0F\80\01Z\A2\03\03\04\00\00\01\1F\03\00\01%\00`\011\99\05\0A\B1\0C\04`\01\1B\92`\01\1F\93`\01\1B\0C\D0\03E\84y\00\0Ap\00W\E2\0F\00\02x\10\03\00\F0\00Wy\03\0A\00 \80\00!r\05\E0\08\01\01\00\93\E4\1F\00%v\02\02\00p\10\03q\D0\0F\00\8Ey\00\02\90\00!G\11P\00*Myp\00PGy\00\00\F0\10\04[\FF\83\03\00\C0\B0\00\0F\10\00 \0F\01\00-\00|\04.\03\00\01\00\02$\0E]\00\00E\01\000\00\08\01\00\1F\0B@\00\04\13\85)\00\1F\B0@\00\0C\13\13\CC\07\0C\01\00\138U\00\11\A8\06\00\06\F0\07\00\E7\01\04\AF\01\00\01\00.\06\01T\00\00\01\00\13\E0@\00/p\00\80\00\0B\1F)'\00\03#\00P\C5\02\04H\0B\04\E4\00*\04\00\01\00\1Fc@\00\04\13\80)\00&\8C\01@\00\1F\0A@\00\00!6\01D\01\0D@\001\10\06\00\01\00*\E0\00\01\00\1B\08\08\00!\13\01\1C\09\0D\01\00\13\F0@\00&\10\00\80\00\17\048\00\04\18\00\13\CD\14\01\0D\84\01\03E\04\13\D4\C0\00\1F\00\C0\00\04\132@\00\15\06R\00\03\01\00\1A\09\C8\0C\12\03\C0\01:\0E\80\00\01\00\13\97\94\00+\03\00\01\00\03\B0\10/\00\04\80\00\06P\00\00\00\00\00\00\00\00\00\00"
@main_kernel_0_blob_gpu.binary_compute_60 = internal constant [1488 x i8] c"P\EDU\BA\01\00\10\00\C0\05\00\00\00\00\00\00\01\00\01\01H\00\00\00x\05\00\00\00\00\00\00t\05\00\00@\00\00\00\00\00\06\00<\00\00\00\00\00\00\00\00\00\00\00\11 \00\00\00\00\00\00\00\00\00\00\00\00\00\00\03\11\00\00\00\00\00\00\00\00\00\00\00\00\00\00\F2!\0A\0A\0A\0A.version 6.0\0A.target sm_60\0A.address_size 64\0A0\00\F0\13isible .entry main_kColReduction_r\0A\00\FF\10e__4_1_0___8w32h_1(\0A.param .u328\00\18\11_6\00?_0,@\00+\171@\00/64@\00\1F\1F2@\00,\1F3\C0\00,\1F4@\00,\1F5@\00,\1F6@\00,\1F7@\00,\1F8\80\01,\1F9@\00,\1F1\81\02.\1F1A\00-\1F2A\00-\0F\84\02-\1F1\85\02-/15\86\01-\1F6A\00-\0F\88\02-/18A\00-\1F9A\00,\F3\0A20\0A)\0A{\0A.reg .pred %p<18>;\13\00\95b32 %r<24\12\00\10f\12\00\18f\12\00\F0\04b64 %rd<17>;\0A\0A\09.shaI\00\FF\03.align 4 .b8 __wg_\9E\00\18\B20[1024];\0Ald\E0\00\01\DF\00o%r5, [\E5\00\1E\1E0H\00\1F6H\00!s1];\0AmovC\00\B87, %ctaid.x\17\00S8, %t\15\00qad.lo.s\18\00#1,4\00\00\C4\00\C2%r8;\0Asetp.ge8\004p1,%\00\F4\0C6;\0A@%p1 bra $L__BB0_13;\0AshrL\00\130-\00\2231\17\00\02{\00311,\1D\00t24;\0Aadd/\00\132/\00\00#\00\09H\00#3,\1F\00c8;\0Aand\EF\01$14\17\00\93-256;\0Asub1\00\07I\00\194z\00\225,\1E\00\193H\00\136\16\00\947;\0Amul.hi/\00#7,~\00\A9-858993459O\00#8,&\00\128:\00\06F\01#9, \009320\9A\00&0,\D1\00\01M\00\13l\86\00$213\00\185\15\01&3,\1C\00\1950\00#2,P\00S3;\0Aor\16\00%4,\1B\00$16\BC\01\12t\B0\002p2,Q\00B8191\0C\02\02&\03s23, 0f0\01\00\01\D7\01\192\D7\01\183\99\02\02G\03\1F7\9A\02\22\00\E3\02\E4cvta.to.globalP\00\01\9C\00.d7i\00\1F8i\00!\1F3h\00\06\01P\01+d8\F6\02#23\1B\011256\A2\01\124\D1\013wid\F9\02Crd9,)\00\04\B5\02\02Q\00\02\E5\02\03X\00\119\C0\00\03r\00\02]\01A4, ['\00\1A]7\00&1,\F7\00\0F7\00\00\1357\00\221]?\02\02\16\00\226,R\00\B7%f5;\0Afma.rn\C4\01\03\1B\00\1A6\CE\01\05\C5\01\16:\D3\00\02\F6\003d12\FA\02\134\1B\04\02$\01\00\9F\02\0F\0A\05\1E\0A\DE\00$4,I\00\00\07\00S2;\0Astq\05\01\B0\00\01\DB\0014],\B9\00\CC;\0Abar.sync 0\B3\02\133\A1\00<127\1B\00\154\CE\02.75\AE\01\05\EB\03\0A\AE\01\0A\98\00\115:\03\03P\06#5,p\00!p4\03\03\195\03\03\115\A3\01\07\C3\002%f7\A3\01.4]\1B\00\138\1B\00C+512\F8\01\02\19\00\229,9\00?%f8\14\01\01\02\13\01\169\B5\01/5:\1D\01\08\04\B8\04,63\1A\00\157\1C\01(83\E4\00#8,7\00!p7\E4\00\198\E4\00\1E7\C9\00/10\E5\00\07$11\E6\009256\E6\00\01X\02\01<\00\00&\00\0F\E9\00\07&12\EA\00\1F7\EA\00\09\139\EA\00,31\1A\00&10\EB\00\187\EB\00\01a\03\019\00\22p1\D4\04\1A1\AC\06\1F9\D2\00\00\1F3\EE\00\08\144\EE\00:128\EE\00\00:\02\01<\00\00&\00\0F\EE\00\08\165\EE\00\1F9\EE\00\09\05\97\03-15\1B\00\163\EF\00\199\EF\00\00\DA\02\02:\002p13\F0\00\194\F0\00/11\D5\00\00/6,\F1\00\07\04\E0\02:+64\F0\00\00F\02\01;\00\00%\00\0F\F0\00\08\168\F0\00/11\F1\00\0A\166\82\07\07\C2\01$7,\1C\00\22p2\D2\00\1D7n\08\0C/\06\0F2\09#\1F70\06\06\02\A7\05\1F6a\04\00\01\B4\00\1C4a\04&5,6\00/16V\01\00\1F9r\01\07$20r\01\1A36\04\01\00\08\01;\00\00%\00d;\0Aatom\A8\00\07&\00\122?\00\115~\01'21~\01\C03:\0Aret;\0A\0A}\0A\00\00\00\00\00"
@ral_kernel_launch___gpu___pvoid_ppvoid_i64_pvoid_i64_i64_i64_i64_i64_i64_i32_pvoid_i32_ppvoid___void = internal constant [101 x i8] c"ral_kernel_launch___gpu___pvoid_ppvoid_i64_pvoid_i64_i64_i64_i64_i64_i64_i32_pvoid_i32_ppvoid___void\00"
@main_kernel_main_kColReduction_reduce__4_1_0___8w32h_kernel_name = internal constant [41 x i8] c"main_kColReduction_reduce__4_1_0___8w32h\00"
@main_kernel_blob_gpu.binary_sm_75 = internal constant [1032 x i8] c"P\EDU\BA\01\00\10\00\F8\03\00\00\00\00\00\00\02\00\01\01@\00\00\00\B8\03\00\00\00\00\00\00\B4\03\00\00\00\00\00\00\07\00\01\00K\00\00\00\00\00\00\00\00\00\00\00\11 \00\00\00\00\00\00\00\00\00\00\00\00\00\00@\0B\00\00\00\00\00\00\A2\7FELF\02\01\013\07\00\01\00n\02\00\BE\00u\00\01\00!\80\08\07\00a\00K\05K\00@\0A\00\F5\03@\00\0B\00\01\00\00.shstrtab\00.\08\00'ym\08\00\F0\1B_shndx\00.nv.info\00.text.main_kColReduction_r\0A\00\F5\01e__4_1_0___8w32h8\00\0F2\00\1Boshared4\00\1B\9Fconstant07\00\18\FD\01debug_frame\00.rel\11\00\1Aa\12\00!nv&\00\11aU\00\0F=\01 \0F\9A\00\15\0Ff\01\BAo_paramm\01.\0F\01\00\0A\8C[\00\00\00\03\00\0A\00\01\00\11\F0\18\00,\09\00\01\00 .\01\18\00,\04\00\01\00\11^\18\00,\07\00\01\00g2\00\00\00\12\10`\00\11\01\06\00v\00\FF\FF\FF\FF(\00\0C\00\00\01\00@\03\00\04|\08\00\D1\0F\0C\81\80\80(\00\08\FF\81\80(\08\0B\00\06(\00/0\00\01\00\03\22\F0\00\01\00\10\04\9B\00R\04\1C\00\00\00E\00P\04\FC\FF\FF?\13\00p/\08\00\05\00\00\00\CF\03\22\04#\0C\00\00\01\00'\04\12\0C\00\17\11\0C\00!6\04\AB\001\047\04\18\04\F1\04\04\0A\08\00\02\00\00\00`\01$\00\03\19$\00\04\17\0C(\00u\05\00 \00\00\F0\11\10\009\04\00\1C\10\009\03\00\18\10\00u\02\00\10\00\00\F0!\10\009\01\00\08\10\00\01\01\00\D2\F0\11\00\03\1B\FF\00\04\1C\04\00p\00\01\00#K\00\01\00s\02\02\08\10\0A/\22\CB\00\00\07\00\03\08\00\13\10\08\00\13\18\08\00\13 \08\00\13(\08\00\130\08\00#8\08\87\01\03\08\00\13\08\08\00\13\10\08\00\13\18\08\00\13 \08\00\13(\08\00\130\08\00\02@\00\13\02@\00\13\02@\00\13\02@\00\13\02@\00\13\02@\00\13\02@\00\13\02@\00\13\02@\00p\00\00\00\14,\00\00b\02\01\F9\00\22H\00\01\00\00d\01/\05\00\01\00\FF\D0A\02z\01\00w\04\B1\0F\00\00\00\C4\0F\00\19y\02\00\01\00\A2%\00\00\00\22\0E\00\02x\05f\04\00 \00\10\C6 \00!\03\00\01\00\F0\11!\00\00\00$\0E\00$z\02\02\00X\00\00\03\02\8E\07\00\C8\1F\00%v\02\02\00\\\00\00\05\10\00\80\D0\0F\00\86s\00\02\FF0\00\A3\E9\10\00\00\E2\0F\00My\00\01\00\B0\80\03\00\EA\0F\00Gy\00\00\F0Q\04\A6\FF\83\03\00\C0\0F\00\18y\00\01\00\0F\10\00P\0F\01\00-\00\9C\04.\03\00\01\00\02\A4\08]\00\00=\01\000\00\08\01\00\1F\0B@\00\04\13})\00\1Fm@\00\0C\13\13\AC\03\0D\88\05\03\15\00*\90\00\D0\03\04\F5\03\22\18\00\01\00\1F\FET\00\00\03\9E\01\01\01\00/p\00\80\00\0B\1F)'\00\03#\00\F0@\00\04(\06\04\E4\00*\04\00\01\00\1Fa@\00\04\13 )\00&\8C\00@\00\1F\0A@\00\00\00\08\07\1F\0B@\00\00\13\B0)\00*\E0\00\01\00\1B\08\08\00!\0B\01\FC\04\0D\01\00\13\90\FD\04&\10\00\80\00\17\048\00\04\18\00\13\C7\14\01\0C\84\01\13\A0@\00\17\841\01\0F\C0\00\01\132@\00*\06\00\01\00\14\80\C3\07\16\01\80\00Q\05\00\00\08\80\0E\00\A0\00\00\00\00\00\00\00\00\00\00\00\00\00\00"
@main_kernel_blob_gpu.binary_sm_70 = internal constant [1048 x i8] c"P\EDU\BA\01\00\10\00\08\04\00\00\00\00\00\00\02\00\01\01@\00\00\00\C8\03\00\00\00\00\00\00\C5\03\00\00\00\00\00\00\07\00\01\00F\00\00\00\00\00\00\00\00\00\00\00\11 \00\00\00\00\00\00\00\00\00\00\00\00\00\00@\0B\00\00\00\00\00\00\A2\7FELF\02\01\013\07\00\01\00n\02\00\BE\00u\00\01\00!\80\08\07\00a\00F\05F\00@\0A\00\F5\03@\00\0B\00\01\00\00.shstrtab\00.\08\00'ym\08\00\F0\1B_shndx\00.nv.info\00.text.main_kColReduction_r\0A\00\F5\01e__4_1_0___8w32h8\00\0F2\00\1Boshared4\00\1B\9Fconstant07\00\18\FD\01debug_frame\00.rel\11\00\1Aa\12\00!nv&\00\11aU\00\0F=\01 \0F\9A\00\15\0Ff\01\BAo_paramm\01.\0F\01\00\0A\8C[\00\00\00\03\00\0A\00\01\00\11\F0\18\00,\09\00\01\00 .\01\18\00,\04\00\01\00\11^\18\00,\07\00\01\00g2\00\00\00\12\10`\00\11\01\06\00v\00\FF\FF\FF\FF(\00\0C\00\00\01\00@\03\00\04|\08\00\D1\0F\0C\81\80\80(\00\08\FF\81\80(\08\0B\00\06(\00/0\00\01\00\03\22\F0\00\01\00\10\04\9B\00R\04 \00\00\00E\00P\04\FC\FF\FF?\13\00p/\08\00\05\00\00\00\CF\03\22\04#\0C\00\00\01\00'\04\12\0C\00\17\11\0C\00!6\04\AB\001\047\04\18\04\F1\04\04\0A\08\00\02\00\00\00`\01$\00\03\19$\00\04\17\0C(\00u\05\00 \00\00\F0\11\10\009\04\00\1C\10\009\03\00\18\10\00u\02\00\10\00\00\F0!\10\009\01\00\08\10\00\01\01\00\A0\F0\11\00\03\1B\FF\00\041\04.\00r\00\04\1C\04\00\80\00\01\00#K\00\01\00s\02\02\08\10\0A/\22\D3\00\00\07\00\03\08\00\13\10\08\00\13\18\08\00\13 \08\00\13(\08\00\130\08\00#8\08\8F\01\03\08\00\13\08\08\00\13\10\08\00\13\18\08\00\13 \08\00\13(\08\00\130\08\00\02@\00\13\02@\00\13\02@\00\13\02@\00\13\02@\00\13\02@\00\13\02@\00\13\02@\00\13\02@\00p\00\00\00\14,\00\00j\02\01\01\01\22H\00\01\00\00l\01/\05\00\01\00\FF\C8A\02z\01\00w\04\C0\0F\00\00\00\C4\0F\00\89\F3\FF\FF\FF\E4\03\B1\00\0E\00\00\E2\0F\00\19y\02\00\01\00\A2%\00\00\00\22\0E\00\02x\05v\04\000\00\10\C6 \00!\03\00\01\00\F0\11!\00\00\00$\0E\00$z\02\02\00X\00\00\03\02\8E\07\00\C8\1F\00%v\02\02\00\\\00\00\05\10\00p\D0\0F\00\86s\00\02`\001\00\E9\10`\003My\00\01\00\B0\80\03\00\EA\0F\00Gy\00\00\F0a\04\A6\FF\83\03\00\C0\0F\00\18y\00\01\00\0F\10\00@\0F\01\00-\00\9C\04.\03\00\01\00\02\A4\08]\00\00=\01\000\00\08\01\00\1F\0B@\00\04\13})\00\1Fm@\00\0C\13\13\A4\03\0D\88\05\03\15\00*\90\00\C8\03\04\ED\03\22\18\00\01\00\1F\FET\00\00\03\8E\01\01\01\00/p\00\80\00\0B\1F)'\00\03#\00\F0@\00\04(\06\04\E4\00*\04\00\01\00\1Fa@\00\04\13 )\00&\94\00@\00\1F\0A@\00\00\00\08\07\1F\0B@\00\00\13\B8)\00*\E0\00\01\00\1B\08\08\00!\0B\01\F4\04\0D\01\00\13\98\F5\04&\10\00\80\00\17\048\00\04\18\00\13\C7\14\01\0C\84\01\13\A8@\00\17\841\01\0F\C0\00\01\132@\00*\06\00\01\00\14\80\C3\07\16\01\80\00D\05\00\00\08\80\06\80\00\00\00\00\00\00\00\00\00\00\00"
@main_kernel_blob_gpu.binary_compute_60 = internal constant [472 x i8] c"P\EDU\BA\01\00\10\00\C8\01\00\00\00\00\00\00\01\00\01\01H\00\00\00\80\01\00\00\00\00\00\00|\01\00\00@\00\00\00\00\00\06\00<\00\00\00\00\00\00\00\00\00\00\00\11 \00\00\00\00\00\00\00\00\00\00\00\00\00\00h\03\00\00\00\00\00\00\00\00\00\00\00\00\00\00\F2 \0A\0A\0A\0A.version 6.0\0A.target sm_60\0A.address_size 64/\00\F0\13isible .entry main_kColReduction_r\0A\00\FF\0Ee__4_1_0___8w32h(\0A.param .u326\00\16\11_4\006_0,>\00/64>\00\1D\1F1>\00*/2,\BA\00)\1F3>\00*\1F4>\00*\F4\075\0A)\0A{\0A.reg .b32 %r<6>;\11\00\E264 %rd<5>;\0A\0Aldg\00\01f\00o%r1, [l\00\1C70];F\00\02\\\00\0FG\00 \F4\032];\0Acvta.to.globalM\00!2,S\00S;\0Amov\A7\00\00\13\00xctaid.x\17\00S3, %t\15\00qad.lo.s\18\00#4,4\00\00\E0\00\D3%r3;\0Amul.wide!\002d3,'\00\824;\0Aadd.sz\00&4,\80\00\183i\00\855, 0;\0Ast\AA\00@32 [1\00\10],\00\C05;\0Aret;\0A\0A}\0A\00\00\00\00\00"
@alloc___gpu___pvoid_i64___pvoid = internal constant [32 x i8] c"alloc___gpu___pvoid_i64___pvoid\00"
@ral_recv_input___cpu___pvoid_i64___m2df32 = internal constant [42 x i8] c"ral_recv_input___cpu___pvoid_i64___m2df32\00"

define void @disc_ral_call(ptr nocapture readonly %0, ptr %1, ptr %2) local_unnamed_addr {
entry:
  %3 = load ptr, ptr %0, align 8
  %4 = getelementptr ptr, ptr %0, i64 1
  %5 = load ptr, ptr %4, align 8
  %6 = load ptr, ptr %2, align 8
  store ptr %3, ptr %6, align 8
  tail call void %5(ptr %3, ptr %1, ptr nonnull %2)
  ret void
}

define void @main(ptr %0) local_unnamed_addr {
  %2 = alloca %0, align 8
  %3 = alloca [3 x ptr], align 8
  store ptr %2, ptr %3, align 8
  %4 = getelementptr inbounds %0, ptr %2, i64 0, i32 1
  store i64 0, ptr %4, align 8
  %5 = getelementptr inbounds ptr, ptr %3, i64 1
  store ptr %4, ptr %5, align 8
  %6 = getelementptr inbounds %0, ptr %2, i64 0, i32 2
  %7 = getelementptr inbounds ptr, ptr %3, i64 2
  store ptr %6, ptr %7, align 8
  %8 = load ptr, ptr %0, align 8
  %9 = getelementptr ptr, ptr %0, i64 1
  %10 = load ptr, ptr %9, align 8
  store ptr %8, ptr %2, align 8
  call void %10(ptr %8, ptr nonnull @ral_recv_input___cpu___pvoid_i64___m2df32, ptr nonnull %3)
  %.fca.0.load2 = load ptr, ptr %6, align 8
  %.fca.1.gep4 = getelementptr inbounds %0, ptr %2, i64 0, i32 2, i32 1
  %.fca.1.load5 = load ptr, ptr %.fca.1.gep4, align 8
  %.fca.2.gep7 = getelementptr inbounds %0, ptr %2, i64 0, i32 2, i32 2
  %.fca.2.load8 = load i64, ptr %.fca.2.gep7, align 8
  %.fca.3.0.gep10 = getelementptr inbounds %0, ptr %2, i64 0, i32 2, i32 3
  %.fca.3.0.load11 = load i64, ptr %.fca.3.0.gep10, align 8
  %.fca.3.1.gep13 = getelementptr inbounds %0, ptr %2, i64 0, i32 2, i32 3, i64 1
  %.fca.3.1.load14 = load i64, ptr %.fca.3.1.gep13, align 8
  %.fca.4.0.gep16 = getelementptr inbounds %0, ptr %2, i64 0, i32 2, i32 4
  %.fca.4.0.load17 = load i64, ptr %.fca.4.0.gep16, align 8
  %.fca.4.1.gep19 = getelementptr inbounds %0, ptr %2, i64 0, i32 2, i32 4, i64 1
  %.fca.4.1.load20 = load i64, ptr %.fca.4.1.gep19, align 8
  %11 = alloca %.1, align 8
  %12 = alloca [3 x ptr], align 8
  store ptr %11, ptr %12, align 8
  %13 = getelementptr inbounds %.1, ptr %11, i64 0, i32 1
  store i64 1, ptr %13, align 8
  %14 = getelementptr inbounds ptr, ptr %12, i64 1
  store ptr %13, ptr %14, align 8
  %15 = getelementptr inbounds %.1, ptr %11, i64 0, i32 2
  %16 = getelementptr inbounds ptr, ptr %12, i64 2
  store ptr %15, ptr %16, align 8
  %17 = load ptr, ptr %0, align 8
  %18 = load ptr, ptr %9, align 8
  store ptr %17, ptr %11, align 8
  call void %18(ptr %17, ptr nonnull @ral_recv_input___cpu___pvoid_i64___m2df32, ptr nonnull %12)
  %.fca.0.load = load ptr, ptr %15, align 8
  %.fca.1.gep = getelementptr inbounds %.1, ptr %11, i64 0, i32 2, i32 1
  %.fca.1.load = load ptr, ptr %.fca.1.gep, align 8
  %.fca.2.gep = getelementptr inbounds %.1, ptr %11, i64 0, i32 2, i32 2
  %.fca.2.load = load i64, ptr %.fca.2.gep, align 8
  %.fca.3.0.gep = getelementptr inbounds %.1, ptr %11, i64 0, i32 2, i32 3
  %.fca.3.0.load = load i64, ptr %.fca.3.0.gep, align 8
  %.fca.3.1.gep = getelementptr inbounds %.1, ptr %11, i64 0, i32 2, i32 3, i64 1
  %.fca.3.1.load = load i64, ptr %.fca.3.1.gep, align 8
  %.fca.4.0.gep = getelementptr inbounds %.1, ptr %11, i64 0, i32 2, i32 4
  %.fca.4.0.load = load i64, ptr %.fca.4.0.gep, align 8
  %.fca.4.1.gep = getelementptr inbounds %.1, ptr %11, i64 0, i32 2, i32 4, i64 1
  %.fca.4.1.load = load i64, ptr %.fca.4.1.gep, align 8
  %19 = alloca %.2, align 8
  %20 = alloca [3 x ptr], align 8
  store ptr %19, ptr %20, align 8
  %21 = getelementptr inbounds %.2, ptr %19, i64 0, i32 1
  store i64 10240, ptr %21, align 8
  %22 = getelementptr inbounds ptr, ptr %20, i64 1
  store ptr %21, ptr %22, align 8
  %23 = getelementptr inbounds %.2, ptr %19, i64 0, i32 2
  %24 = getelementptr inbounds ptr, ptr %20, i64 2
  store ptr %23, ptr %24, align 8
  %25 = load ptr, ptr %0, align 8
  %26 = load ptr, ptr %9, align 8
  store ptr %25, ptr %19, align 8
  call void %26(ptr %25, ptr nonnull @alloc___gpu___pvoid_i64___pvoid, ptr nonnull %20)
  %27 = load ptr, ptr %23, align 8
  %28 = alloca [3 x ptr], align 8
  store ptr @main_kernel_blob_gpu.binary_compute_60, ptr %28, align 8
  %29 = getelementptr inbounds ptr, ptr %28, i64 1
  store ptr @main_kernel_blob_gpu.binary_sm_70, ptr %29, align 8
  %30 = getelementptr inbounds ptr, ptr %28, i64 2
  store ptr @main_kernel_blob_gpu.binary_sm_75, ptr %30, align 8
  %31 = alloca %.3, align 8
  %32 = alloca [6 x ptr], align 8
  store i64 256, ptr %31, align 8
  store ptr %31, ptr %32, align 8
  %33 = getelementptr inbounds %.3, ptr %31, i64 0, i32 1
  store ptr %27, ptr %33, align 8
  %34 = getelementptr inbounds ptr, ptr %32, i64 1
  store ptr %33, ptr %34, align 8
  %35 = getelementptr inbounds %.3, ptr %31, i64 0, i32 2
  store ptr %27, ptr %35, align 8
  %36 = getelementptr inbounds ptr, ptr %32, i64 2
  store ptr %35, ptr %36, align 8
  %37 = getelementptr inbounds %.3, ptr %31, i64 0, i32 3
  store i64 0, ptr %37, align 8
  %38 = getelementptr inbounds ptr, ptr %32, i64 3
  store ptr %37, ptr %38, align 8
  %39 = getelementptr inbounds %.3, ptr %31, i64 0, i32 4
  store i64 2560, ptr %39, align 8
  %40 = getelementptr inbounds ptr, ptr %32, i64 4
  store ptr %39, ptr %40, align 8
  %41 = getelementptr inbounds %.3, ptr %31, i64 0, i32 5
  store i64 1, ptr %41, align 8
  %42 = getelementptr inbounds ptr, ptr %32, i64 5
  store ptr %41, ptr %42, align 8
  %43 = alloca %.4, align 8
  %44 = alloca [14 x ptr], align 8
  store ptr %43, ptr %44, align 8
  %45 = getelementptr inbounds %.4, ptr %43, i64 0, i32 1
  store ptr %28, ptr %45, align 8
  %46 = getelementptr inbounds ptr, ptr %44, i64 1
  store ptr %45, ptr %46, align 8
  %47 = getelementptr inbounds %.4, ptr %43, i64 0, i32 2
  store i64 3, ptr %47, align 8
  %48 = getelementptr inbounds ptr, ptr %44, i64 2
  store ptr %47, ptr %48, align 8
  %49 = getelementptr inbounds %.4, ptr %43, i64 0, i32 3
  store ptr @main_kernel_main_kColReduction_reduce__4_1_0___8w32h_kernel_name, ptr %49, align 8
  %50 = getelementptr inbounds ptr, ptr %44, i64 3
  store ptr %49, ptr %50, align 8
  %51 = getelementptr inbounds %.4, ptr %43, i64 0, i32 4
  store i64 10, ptr %51, align 8
  %52 = getelementptr inbounds ptr, ptr %44, i64 4
  store ptr %51, ptr %52, align 8
  %53 = getelementptr inbounds %.4, ptr %43, i64 0, i32 5
  store i64 1, ptr %53, align 8
  %54 = getelementptr inbounds ptr, ptr %44, i64 5
  store ptr %53, ptr %54, align 8
  %55 = getelementptr inbounds %.4, ptr %43, i64 0, i32 6
  store i64 1, ptr %55, align 8
  %56 = getelementptr inbounds ptr, ptr %44, i64 6
  store ptr %55, ptr %56, align 8
  %57 = getelementptr inbounds %.4, ptr %43, i64 0, i32 7
  store i64 256, ptr %57, align 8
  %58 = getelementptr inbounds ptr, ptr %44, i64 7
  store ptr %57, ptr %58, align 8
  %59 = getelementptr inbounds %.4, ptr %43, i64 0, i32 8
  store i64 1, ptr %59, align 8
  %60 = getelementptr inbounds ptr, ptr %44, i64 8
  store ptr %59, ptr %60, align 8
  %61 = getelementptr inbounds %.4, ptr %43, i64 0, i32 9
  store i64 1, ptr %61, align 8
  %62 = getelementptr inbounds ptr, ptr %44, i64 9
  store ptr %61, ptr %62, align 8
  %63 = getelementptr inbounds %.4, ptr %43, i64 0, i32 10
  store i32 0, ptr %63, align 8
  %64 = getelementptr inbounds ptr, ptr %44, i64 10
  store ptr %63, ptr %64, align 8
  %65 = getelementptr inbounds %.4, ptr %43, i64 0, i32 11
  store ptr null, ptr %65, align 8
  %66 = getelementptr inbounds ptr, ptr %44, i64 11
  store ptr %65, ptr %66, align 8
  %67 = getelementptr inbounds %.4, ptr %43, i64 0, i32 12
  store i32 6, ptr %67, align 8
  %68 = getelementptr inbounds ptr, ptr %44, i64 12
  store ptr %67, ptr %68, align 8
  %69 = getelementptr inbounds %.4, ptr %43, i64 0, i32 13
  store ptr %32, ptr %69, align 8
  %70 = getelementptr inbounds ptr, ptr %44, i64 13
  store ptr %69, ptr %70, align 8
  %71 = load ptr, ptr %0, align 8
  %72 = load ptr, ptr %9, align 8
  store ptr %71, ptr %43, align 8
  call void %72(ptr %71, ptr nonnull @ral_kernel_launch___gpu___pvoid_ppvoid_i64_pvoid_i64_i64_i64_i64_i64_i64_i32_pvoid_i32_ppvoid___void, ptr nonnull %44)
  %73 = alloca [3 x ptr], align 8
  store ptr @main_kernel_0_blob_gpu.binary_compute_60, ptr %73, align 8
  %74 = getelementptr inbounds ptr, ptr %73, i64 1
  store ptr @main_kernel_0_blob_gpu.binary_sm_70, ptr %74, align 8
  %75 = getelementptr inbounds ptr, ptr %73, i64 2
  store ptr @main_kernel_0_blob_gpu.binary_sm_75, ptr %75, align 8
  %76 = alloca %.5, align 8
  %77 = alloca [21 x ptr], align 8
  store i64 256, ptr %76, align 8
  store ptr %76, ptr %77, align 8
  %78 = getelementptr inbounds %.5, ptr %76, i64 0, i32 1
  store i64 20971520, ptr %78, align 8
  %79 = getelementptr inbounds ptr, ptr %77, i64 1
  store ptr %78, ptr %79, align 8
  %80 = getelementptr inbounds %.5, ptr %76, i64 0, i32 2
  store ptr %.fca.0.load2, ptr %80, align 8
  %81 = getelementptr inbounds ptr, ptr %77, i64 2
  store ptr %80, ptr %81, align 8
  %82 = getelementptr inbounds %.5, ptr %76, i64 0, i32 3
  store ptr %.fca.1.load5, ptr %82, align 8
  %83 = getelementptr inbounds ptr, ptr %77, i64 3
  store ptr %82, ptr %83, align 8
  %84 = getelementptr inbounds %.5, ptr %76, i64 0, i32 4
  store i64 %.fca.2.load8, ptr %84, align 8
  %85 = getelementptr inbounds ptr, ptr %77, i64 4
  store ptr %84, ptr %85, align 8
  %86 = getelementptr inbounds %.5, ptr %76, i64 0, i32 5
  store i64 %.fca.3.0.load11, ptr %86, align 8
  %87 = getelementptr inbounds ptr, ptr %77, i64 5
  store ptr %86, ptr %87, align 8
  %88 = getelementptr inbounds %.5, ptr %76, i64 0, i32 6
  store i64 %.fca.3.1.load14, ptr %88, align 8
  %89 = getelementptr inbounds ptr, ptr %77, i64 6
  store ptr %88, ptr %89, align 8
  %90 = getelementptr inbounds %.5, ptr %76, i64 0, i32 7
  store i64 %.fca.4.0.load17, ptr %90, align 8
  %91 = getelementptr inbounds ptr, ptr %77, i64 7
  store ptr %90, ptr %91, align 8
  %92 = getelementptr inbounds %.5, ptr %76, i64 0, i32 8
  store i64 %.fca.4.1.load20, ptr %92, align 8
  %93 = getelementptr inbounds ptr, ptr %77, i64 8
  store ptr %92, ptr %93, align 8
  %94 = getelementptr inbounds %.5, ptr %76, i64 0, i32 9
  store ptr %.fca.0.load, ptr %94, align 8
  %95 = getelementptr inbounds ptr, ptr %77, i64 9
  store ptr %94, ptr %95, align 8
  %96 = getelementptr inbounds %.5, ptr %76, i64 0, i32 10
  store ptr %.fca.1.load, ptr %96, align 8
  %97 = getelementptr inbounds ptr, ptr %77, i64 10
  store ptr %96, ptr %97, align 8
  %98 = getelementptr inbounds %.5, ptr %76, i64 0, i32 11
  store i64 %.fca.2.load, ptr %98, align 8
  %99 = getelementptr inbounds ptr, ptr %77, i64 11
  store ptr %98, ptr %99, align 8
  %100 = getelementptr inbounds %.5, ptr %76, i64 0, i32 12
  store i64 %.fca.3.0.load, ptr %100, align 8
  %101 = getelementptr inbounds ptr, ptr %77, i64 12
  store ptr %100, ptr %101, align 8
  %102 = getelementptr inbounds %.5, ptr %76, i64 0, i32 13
  store i64 %.fca.3.1.load, ptr %102, align 8
  %103 = getelementptr inbounds ptr, ptr %77, i64 13
  store ptr %102, ptr %103, align 8
  %104 = getelementptr inbounds %.5, ptr %76, i64 0, i32 14
  store i64 %.fca.4.0.load, ptr %104, align 8
  %105 = getelementptr inbounds ptr, ptr %77, i64 14
  store ptr %104, ptr %105, align 8
  %106 = getelementptr inbounds %.5, ptr %76, i64 0, i32 15
  store i64 %.fca.4.1.load, ptr %106, align 8
  %107 = getelementptr inbounds ptr, ptr %77, i64 15
  store ptr %106, ptr %107, align 8
  %108 = getelementptr inbounds %.5, ptr %76, i64 0, i32 16
  store ptr %27, ptr %108, align 8
  %109 = getelementptr inbounds ptr, ptr %77, i64 16
  store ptr %108, ptr %109, align 8
  %110 = getelementptr inbounds %.5, ptr %76, i64 0, i32 17
  store ptr %27, ptr %110, align 8
  %111 = getelementptr inbounds ptr, ptr %77, i64 17
  store ptr %110, ptr %111, align 8
  %112 = getelementptr inbounds %.5, ptr %76, i64 0, i32 18
  store i64 0, ptr %112, align 8
  %113 = getelementptr inbounds ptr, ptr %77, i64 18
  store ptr %112, ptr %113, align 8
  %114 = getelementptr inbounds %.5, ptr %76, i64 0, i32 19
  store i64 2560, ptr %114, align 8
  %115 = getelementptr inbounds ptr, ptr %77, i64 19
  store ptr %114, ptr %115, align 8
  %116 = getelementptr inbounds %.5, ptr %76, i64 0, i32 20
  store i64 1, ptr %116, align 8
  %117 = getelementptr inbounds ptr, ptr %77, i64 20
  store ptr %116, ptr %117, align 8
  %118 = alloca %.6, align 8
  %119 = alloca [14 x ptr], align 8
  store ptr %118, ptr %119, align 8
  %120 = getelementptr inbounds %.6, ptr %118, i64 0, i32 1
  store ptr %73, ptr %120, align 8
  %121 = getelementptr inbounds ptr, ptr %119, i64 1
  store ptr %120, ptr %121, align 8
  %122 = getelementptr inbounds %.6, ptr %118, i64 0, i32 2
  store i64 3, ptr %122, align 8
  %123 = getelementptr inbounds ptr, ptr %119, i64 2
  store ptr %122, ptr %123, align 8
  %124 = getelementptr inbounds %.6, ptr %118, i64 0, i32 3
  store ptr @main_kernel_0_main_kColReduction_reduce__4_1_0___8w32h_1_kernel_name, ptr %124, align 8
  %125 = getelementptr inbounds ptr, ptr %119, i64 3
  store ptr %124, ptr %125, align 8
  %126 = getelementptr inbounds %.6, ptr %118, i64 0, i32 4
  store i64 81920, ptr %126, align 8
  %127 = getelementptr inbounds ptr, ptr %119, i64 4
  store ptr %126, ptr %127, align 8
  %128 = getelementptr inbounds %.6, ptr %118, i64 0, i32 5
  store i64 1, ptr %128, align 8
  %129 = getelementptr inbounds ptr, ptr %119, i64 5
  store ptr %128, ptr %129, align 8
  %130 = getelementptr inbounds %.6, ptr %118, i64 0, i32 6
  store i64 1, ptr %130, align 8
  %131 = getelementptr inbounds ptr, ptr %119, i64 6
  store ptr %130, ptr %131, align 8
  %132 = getelementptr inbounds %.6, ptr %118, i64 0, i32 7
  store i64 256, ptr %132, align 8
  %133 = getelementptr inbounds ptr, ptr %119, i64 7
  store ptr %132, ptr %133, align 8
  %134 = getelementptr inbounds %.6, ptr %118, i64 0, i32 8
  store i64 1, ptr %134, align 8
  %135 = getelementptr inbounds ptr, ptr %119, i64 8
  store ptr %134, ptr %135, align 8
  %136 = getelementptr inbounds %.6, ptr %118, i64 0, i32 9
  store i64 1, ptr %136, align 8
  %137 = getelementptr inbounds ptr, ptr %119, i64 9
  store ptr %136, ptr %137, align 8
  %138 = getelementptr inbounds %.6, ptr %118, i64 0, i32 10
  store i32 0, ptr %138, align 8
  %139 = getelementptr inbounds ptr, ptr %119, i64 10
  store ptr %138, ptr %139, align 8
  %140 = getelementptr inbounds %.6, ptr %118, i64 0, i32 11
  store ptr null, ptr %140, align 8
  %141 = getelementptr inbounds ptr, ptr %119, i64 11
  store ptr %140, ptr %141, align 8
  %142 = getelementptr inbounds %.6, ptr %118, i64 0, i32 12
  store i32 21, ptr %142, align 8
  %143 = getelementptr inbounds ptr, ptr %119, i64 12
  store ptr %142, ptr %143, align 8
  %144 = getelementptr inbounds %.6, ptr %118, i64 0, i32 13
  store ptr %77, ptr %144, align 8
  %145 = getelementptr inbounds ptr, ptr %119, i64 13
  store ptr %144, ptr %145, align 8
  %146 = load ptr, ptr %0, align 8
  %147 = load ptr, ptr %9, align 8
  store ptr %146, ptr %118, align 8
  call void %147(ptr %146, ptr nonnull @ral_kernel_launch___gpu___pvoid_ppvoid_i64_pvoid_i64_i64_i64_i64_i64_i64_i32_pvoid_i32_ppvoid___void, ptr nonnull %119)
  %148 = alloca %.7, align 8
  %149 = alloca [7 x ptr], align 8
  store ptr %148, ptr %149, align 8
  %150 = getelementptr inbounds %.7, ptr %148, i64 0, i32 1
  store i64 0, ptr %150, align 8
  %151 = getelementptr inbounds ptr, ptr %149, i64 1
  store ptr %150, ptr %151, align 8
  %152 = getelementptr inbounds %.7, ptr %148, i64 0, i32 2
  store ptr %27, ptr %152, align 8
  %153 = getelementptr inbounds ptr, ptr %149, i64 2
  store ptr %152, ptr %153, align 8
  %154 = getelementptr inbounds %.7, ptr %148, i64 0, i32 3
  store ptr %27, ptr %154, align 8
  %155 = getelementptr inbounds ptr, ptr %149, i64 3
  store ptr %154, ptr %155, align 8
  %156 = getelementptr inbounds %.7, ptr %148, i64 0, i32 4
  store i64 0, ptr %156, align 8
  %157 = getelementptr inbounds ptr, ptr %149, i64 4
  store ptr %156, ptr %157, align 8
  %158 = getelementptr inbounds %.7, ptr %148, i64 0, i32 5
  store i64 2560, ptr %158, align 8
  %159 = getelementptr inbounds ptr, ptr %149, i64 5
  store ptr %158, ptr %159, align 8
  %160 = getelementptr inbounds %.7, ptr %148, i64 0, i32 6
  store i64 1, ptr %160, align 8
  %161 = getelementptr inbounds ptr, ptr %149, i64 6
  store ptr %160, ptr %161, align 8
  %162 = load ptr, ptr %0, align 8
  %163 = load ptr, ptr %9, align 8
  store ptr %162, ptr %148, align 8
  call void %163(ptr %162, ptr nonnull @ral_send_output___cpu___pvoid_i64_m1df32___void, ptr nonnull %149)
  ret void
}

[DISC] LowerLLVMToBinary takes: 1.712700e-02 s.
object file to shared library command: gcc --shared -o /tmp/tmph4zfk7pw/tmpw2h27_5r.so /tmp/tmph4zfk7pw/tmpw2h27_5r.so.o
save shared lib file to : /tmp/tmph4zfk7pw/tmpw2h27_5r.so
[DISC] BinaryStrToSharedLibrary takes: 3.794400e-02 s.
[DISC] LowerHLOToSharedLibrary takes: 9.725590e-01 s.
